code/models/best_model_016.pth (torch, 488949 bytes, 8 tensors)

conv1.weight f4 [1, 1, 5, 3]
0	0xbe498df1	-0.19683053
1	0xbcc5e834	-0.024158575
2	0xbd96c535	-0.07361833
3	0x3e74028b	0.23829095
4	0x3e7dfd8d	0.24803753
5	0x3e2a9381	0.16657831
6	0x3edc311a	0.43006212
7	0x3ec596fc	0.38591754
8	0x3d902017	0.07037371
9	0x3ec884d7	0.3916385
10	0x3dadcb10	0.08485997
11	0x3e2fb23e	0.17157838
12	0xbeae2405	-0.34011856
13	0xbe1edde6	-0.15514335
14	0xbe5f0c95	-0.21782143

conv2.weight f4 [1, 1, 3, 3]
0	0xbe54704a	-0.2074596
1	0xbe916778	-0.28399253
2	0x3ec50cab	0.38486227
3	0x3e05ad98	0.13054502
4	0xbe511616	-0.20418581
5	0xbcfe3828	-0.031032637
6	0x3dfe096a	0.12404139
7	0xbe87b8c7	-0.2650816
8	0xbd990c06	-0.074729964

linear1.weight f4 [128, 900]
0	0xbeae1e57	-0.34007522
1	0xbdd32da5	-0.103114404
2	0x3d4776cf	0.04869729
3	0x3e150dd5	0.14556058
4	0x3da2d707	0.079511695
5	0xbd6aecc1	-0.057354692
6	0x3e3000cc	0.17187804
7	0x3cc48b96	0.023992341
8	0xbe1461a9	-0.1449038
9	0xbe103a9a	-0.14084855
10	0x3e1ef0a9	0.15521492
11	0xbd9d632d	-0.07684932
12	0x3d483e14	0.048887327
13	0x3e972b52	0.29525238
14	0x3d95e77b	0.07319542
15	0x3cd2fd82	0.025755648
16	0xbc84f356	-0.016229313
17	0x3dd21b91	0.10259164
18	0xbcf27e7c	-0.029601328
19	0x3dc453cf	0.09586298
20	0x3e4a4966	0.19754562
21	0xbdffdc91	-0.124932416
22	0x3e8e89cb	0.27839503
23	0xbd4980e1	-0.049195174
24	0xbdb25eef	-0.087095134
25	0xbdaea428	-0.08527404
26	0x3d54e5fc	0.051977143
27	0xbe811d7e	-0.25217813
28	0x3eb7a1b0	0.35865545
29	0x3d381ef5	0.044951398
30	0x3dc0be68	0.09411317
31	0xbe19e88f	-0.1503012
32	0xbcf14955	-0.029453913
33	0x3e5b9845	0.21444805
34	0xbdd49c99	-0.10381431
35	0x3e6f94cb	0.23396604
36	0xbd8ba4dc	-0.06818554
37	0xbea9f6ec	-0.331962
38	0xbcf2dde3	-0.02964682
39	0xbed910d5	-0.42395654
40	0xbdeb7282	-0.1149645
41	0xbd8c0022	-0.06835963
42	0xbd990e9c	-0.0747349
43	0x3e14b4c0	0.14522076
44	0x3ea638ce	0.32465214
45	0xbcd04323	-0.025422638
46	0x3dc94919	0.098283954
47	0x3e2bdda3	0.16783766
48	0xbce9fa64	-0.028561778
49	0x3e27bef3	0.16381435
50	0xbe28761b	-0.16451304
51	0x3d668a9b	0.05628453
52	0x3d7f9e6c	0.062406942
53	0xbdd797ec	-0.10527024
54	0xbdd34d6f	-0.10317504
55	0xbe7bfc23	-0.24607901
56	0x3d9c7d19	0.07641048
57	0xbedf4baf	-0.4361243
58	0xbd55010a	-0.052002944
59	0xbdc8f70d	-0.09812746
60	0xbdad2acc	-0.084554285
61	0xbe06eaaf	-0.13175462
62	0xbe76a160	-0.24084997
63	0xbd7c2a36	-0.061563693
64	0xbe8c3653	-0.27385196
65	0xbe18b755	-0.14913686
66	0x3d8dcf06	0.06924252
67	0x3d921c4a	0.07134302
68	0x3e75a4a2	0.23988584
69	0x3d03df0f	0.032195147
70	0xbecf176c	-0.40447557
71	0x3ead3a86	0.33833712
72	0xbc935c5a	-0.017988373
73	0xbd1d5c80	-0.038418293
74	0xbe71283a	-0.23550501
75	0x3db141e9	0.086551495
76	0x3d86593d	0.065599896
77	0x3ec8c1b6	0.3921029
78	0xbe5abb9a	-0.21360627
79	0x3d95a250	0.07306349
80	0xbe828a23	-0.25496015
81	0xbc5ca69c	-0.013467457
82	0xbccf1d14	-0.02528242
83	0x3dbfec5d	0.093712546
84	0xbdb84780	-0.089980125
85	0xbe288415	-0.16456635
86	0xbe50b1d1	-0.20380332
87	0x3e750212	0.23926571
88	0xbd928799	-0.071547695
89	0x3c8095a1	0.015696349
90	0xbe9889cd	-0.29792634
91	0x3ea92d4c	0.3304237
92	0xbdc215e9	-0.09476835
93	0xbeb8f34b	-0.36123118
94	0xbda8eafe	-0.08247946
95	0xbe96d38d	-0.29458275
96	0xbda7deb7	-0.08196776
97	0xbe872e77	-0.26402637
98	0xbd986357	-0.074408226
99	0x3e3adb0c	0.18247622
100	0x3da64bce	0.08119927
101	0xbd8a88e3	-0.0676439
102	0x3bec00c0	0.007202238
103	0xbe25f89b	-0.16208117
104	0x3cc649d2	0.024205122
105	0x3e562750	0.20913434
106	0x3d647036	0.055771075
107	0x3e6618d5	0.2247041
108	0xbda65dd4	-0.08123365
109	0xbda78ba7	-0.081809334
110	0x3d564b91	0.05231816
111	0x3e768e2d	0.24077673
112	0x3db83086	0.0899363
113	0x3dd4772e	0.10374294
114	0x3e72c034	0.23706132
115	0x3e038a92	0.12845829
116	0x3e8b425d	0.2719907
117	0x3eb7ef52	0.35924774
118	0xbc11642f	-0.008873983
119	0xbe118375	-0.14210303
120	0x3e876ff0	0.2645259
121	0x3b911e7e	0.004428684
122	0x3edc29cb	0.43000636
123	0x3d0a52c6	0.033770345
124	0x3e96e41a	0.29470903
125	0x3ec2f9ea	0.38081294
126	0x3e8e318e	0.27772182
127	0x3e3228e3	0.1739841
128	0xbd9a0eeb	-0.075223766
129	0xbcb73b51	-0.022367151
130	0x3e02f857	0.12790047
131	0xbd535fc6	-0.05160501
132	0xbe80dbf3	-0.25167808
133	0x3dbcf719	0.09226818
134	0x3e260a4b	0.16214864
135	0x39e807f7	0.00044256423
136	0xbd57fb12	-0.052729674
137	0x3ee5d74b	0.44890818
138	0xbd9ec439	-0.0775227
139	0x3dd9a7cc	0.10627708
140	0x3e9b8d7c	0.30381382
141	0xbea2ab64	-0.31771386
142	0x3ec2a71d	0.38018122
143	0x3e953561	0.29142287
144	0xbe170269	-0.14747013
145	0xbdb9061d	-0.09034369
146	0x3e4d4f0e	0.20049688
147	0x3e1601cd	0.14649124
148	0xbe156531	-0.14589383
149	0xbd560ed9	-0.052260254
150	0x3e1ed379	0.15510358
151	0xbe8bb2d3	-0.2728487
152	0x3d8b4813	0.068008564
153	0xbdd6c62a	-0.104870155
154	0x3e5d72b0	0.21625781
155	0xbd50ebe0	-0.051006198
156	0xbd925305	-0.07144741
157	0xbc9b2c76	-0.018942099
158	0xbe1d5898	-0.15365827
159	0x3e2368e2	0.15957978
160	0xbc93122e	-0.017953005
161	0x3e04bd7e	0.1296291
162	0x3eb94f27	0.361932
163	0xbd223c54	-0.039608315
164	0x3cec2a58	0.028828785
165	0xbd9e32f7	-0.077245645
166	0xbc288d62	-0.010287615
167	0xbe0f8946	-0.1401721
168	0xbe0a77ef	-0.13522314
169	0x3d052659	0.032507274
170	0xbe5ec2fc	-0.21754068
171	0x3e86445c	0.2622403
172	0xbe5aebcf	-0.21379016
173	0xbe31238b	-0.17298715
174	0x3e02638c	0.12733287
175	0x3e2e5125	0.17023142
176	0x3d4d1b15	0.050074656
177	0x3c35c68b	0.0110947
178	0x3e14c6f3	0.14529018
179	0x3df4624c	0.11932811
180	0x3dcaf3bb	0.09909769
181	0x3ce6a327	0.028153969
182	0xbd0d6916	-0.034524046
183	0xbdd8761e	-0.10569404
184	0xbd5beb0c	-0.053690955
185	0xbd908b48	-0.07057816
186	0x3bda6f27	0.0066660824
187	0x3d53ab6f	0.051677164
188	0xbd91a229	-0.07111008
189	0xbeacaede	-0.33727163
190	0x3de9373d	0.11387489
191	0x3c6e04d7	0.014527521
192	0xbd83263c	-0.06403777
193	0xbdc13ecf	-0.09435808
194	0xbe262c96	-0.16227946
195	0x3e2625ce	0.16225359
196	0xbd94359d	-0.072367884
197	0x3cc03b45	0.023465762
198	0x3d5dfd01	0.05419636
199	0xbda1a8f0	-0.078935504
200	0xbd416af5	-0.047221143
201	0x3eb56ec6	0.35436076
202	0xbe686d81	-0.22698022
203	0xbe7d9472	-0.24763659
204	0xb9902e3a	-0.00027500262
205	0xbe397389	-0.1811048
206	0xbbdd3449	-0.0067506176
207	0x3e766d1d	0.24065061
208	0xbe950041	-0.29101756
209	0xbc9c0a46	-0.019047868
210	0x3ddaa42d	0.10675845
211	0x3d530ee3	0.05152787
212	0x3e107964	0.14108807
213	0x3daeabad	0.08528838
214	0x3e8516be	0.25993913
215	0x3dbefbb2	0.09325351
216	0xbed259d5	-0.4108416
217	0x3d695d7e	0.056973927
218	0xbe34a06f	-0.17639326
219	0xbcfa9366	-0.030587863
220	0x3e5dfe7c	0.2167911
221	0xbe549115	-0.2075847
222	0xbe2e09bb	-0.169959
223	0x3e2d3965	0.16916426
224	0xbd31a130	-0.04336661
225	0x3eceff2a	0.4042905
226	0xbd8006fe	-0.06251334
227	0x3c3cebf0	0.011530861
228	0xbd8fe327	-0.07025748
229	0x3ea10e97	0.31456444
230	0x3d98339b	0.07431718
231	0x3cf21eee	0.029555764
232	0xbbc1e342	-0.005916984
233	0xbd369655	-0.04457696
234	0x3d16aebd	0.036787737
235	0x3e944a86	0.28963107
236	0xbcd39120	-0.025826037
237	0x3ccc8f5f	0.024970708
238	0x3cc9a60b	0.024615308
239	0x3e6c9d3e	0.23106858
240	0x3d9a0f61	0.075224645
241	0xbe880888	-0.2656901
242	0x3e9b06ee	0.30278724
243	0x3c300996	0.010744473
244	0xbb03eb75	-0.0020129357
245	0x3ec157fa	0.37762433
246	0xbe2a5cc3	-0.16636948
247	0xbe1a35cb	-0.15059583
248	0xbe2c5b37	-0.1683167
249	0xbdbb2c80	-0.09139347
250	0xbdbb05d6	-0.091319725
251	0xbe13e53a	-0.14442912
252	0xbcc5c9c0	-0.024144053
253	0xbe83c290	-0.25734377
254	0x3d940c48	0.07228905
255	0x3da5ef4b	0.08102282

linear1.bias f4 [128]
0	0x3dc63951	0.09678901
1	0xbbbcd857	-0.0057630944
2	0x3e8ac048	0.27099824
3	0x3dc6e25b	0.09711143
4	0xbe855836	-0.26043862
5	0x3ddb1f97	0.10699385
6	0xbe9d16a3	-0.30681333
7	0x3c5686a6	0.013093626
8	0xbda7643e	-0.081734166
9	0xbd12a6cf	-0.035803612
10	0xbd5a8d3a	-0.05335734
11	0xbe5eb7fc	-0.21749872
12	0x3db38423	0.087654375
13	0xbe740511	-0.23830058
14	0xbdd06f87	-0.10177522
15	0xbef6a4fc	-0.48172748
16	0x3e8c1857	0.2736232
17	0xbdad71de	-0.08468984
18	0x3d29896e	0.04139083
19	0xbd10ea3b	-0.03537963
20	0xbd2ef854	-0.042717293
21	0xbe3e8114	-0.18603927
22	0xbe68e73f	-0.22744463
23	0xbd1acfa4	-0.037795678
24	0x3eb884ba	0.36038762
25	0x3e38c178	0.18042552
26	0x3e1141dd	0.14185281
27	0x3e599408	0.21247876
28	0xbdb63a03	-0.088977836
29	0xba40745c	-0.00073415576
30	0x3eea4b4b	0.4576057
31	0xbe22f087	-0.15912066
32	0x3d01d2e8	0.031695276
33	0xbe10ea59	-0.14151897
34	0x3e0a7b86	0.13523683
35	0xbc2a144b	-0.010380815
36	0xbe6b9f63	-0.2301002
37	0xbe87cddc	-0.26524246
38	0xbe72a151	-0.2369435
39	0x3deae5ab	0.11469587
40	0x3e9816ac	0.29704797
41	0xbe33bb1e	-0.17551848
42	0x3e468d91	0.19389941
43	0x3d9f2e53	0.077725075
44	0xbc31b810	-0.010847107
45	0xbed44eea	-0.41466457
46	0x3e4323b5	0.1905659
47	0x3e01c2f9	0.12672032
48	0xbec246ff	-0.3794479
49	0xbdb2f40c	-0.087379545
50	0xbe0a0743	-0.13479333
51	0x3e3ca258	0.18421304
52	0xbebe0da0	-0.3711977
53	0xbe4510f0	-0.19244742
54	0xbeb6fa47	-0.3573782
55	0x3e0cb7a0	0.13741922
56	0xbe2572fb	-0.16157143
57	0xbe1ecdf7	-0.15508257
58	0xbe17bc98	-0.14818037
59	0x3e4633e1	0.19355728
60	0x3bfadefb	0.007655976
61	0x3d16b397	0.036792364
62	0xbde231c0	-0.11044645
63	0x3d93c888	0.07215983
64	0x3ea51b3e	0.32247347
65	0x3eade6ad	0.33965054
66	0x3d4d1231	0.050066177
67	0xbca2ad75	-0.019858101
68	0xbd1c3c40	-0.038143396
69	0xbba215a7	-0.004946429
70	0x3e894f9d	0.26818553
71	0x3e645b6d	0.22300501
72	0xbdc836e4	-0.097760946
73	0x3cfd5620	0.030924857
74	0x3e061e9c	0.13097614
75	0xbe5f97f6	-0.21835312
76	0xbd83c66c	-0.0643433
77	0x3e9bcef4	0.3043133
78	0xbeaeec8e	-0.34164852
79	0xbdcc736b	-0.09982952
80	0x3e2b87a8	0.16750968
81	0xbe1cb138	-0.15301979
82	0xbe9ca317	-0.30593178
83	0xbee33caa	-0.4438222
84	0x3de7b2a4	0.1131337
85	0x3e9fc5eb	0.31205687
86	0xbe69ff9e	-0.22851416
87	0x3e55b345	0.20869167
88	0x3e460a4b	0.19339864
89	0xbd8b2ccc	-0.06795654
90	0xbe1e2d8a	-0.1544706
91	0xbcdaff07	-0.026732935
92	0x3e5aa8d6	0.21353468
93	0x3db1d6eb	0.086835705
94	0x3e111bf0	0.14170814
95	0x3d80d3dc	0.06290409
96	0x3d290f61	0.041274432
97	0x3e02fb27	0.1279112
98	0x3dbd4218	0.09241122
99	0xbdaaae5b	-0.08334037
100	0xbd7d23ca	-0.06180171
101	0x3c442f0a	0.011974106
102	0x3dc1ac2f	0.094566695
103	0xbd3e6cec	-0.046490595
104	0x3da3c2b3	0.0799612
105	0xbd9e6d5e	-0.07735704
106	0x3d81b864	0.06333998
107	0xbe778ff4	-0.24176008
108	0xbe83ad49	-0.25718144
109	0x3d1ee0db	0.038788658
110	0x3cb1250f	0.021624116
111	0x3e4f1172	0.20221499
112	0x3c4f6702	0.012658836
113	0xbdfde89c	-0.12397882
114	0x3e772751	0.24136092
115	0x3d6fc48b	0.058537047
116	0x3e5290af	0.20563005
117	0x3ea67a9e	0.32515424
118	0x3e6da6c7	0.23208152
119	0xbdb853c1	-0.0900035
120	0xbd0a9cea	-0.03384105
121	0x3c66f7d5	0.014097174
122	0xbe483f06	-0.19555292
123	0xbdc4ded2	-0.09612812
124	0xbd6189cb	-0.05506305
125	0x3e4548eb	0.19266097
126	0xbe981c44	-0.29709065
127	0x3cb93c10	0.022611648

linear2.weight f4 [32, 128]
0	0x3bb7033a	0.0055851014
1	0x3e595964	0.21225506
2	0x3e5e07ff	0.21682738
3	0xbe867670	-0.26262236
4	0xbdf9c2ce	-0.12195359
5	0xbcc17989	-0.023617523
6	0x3e90c8cc	0.28278196
7	0xbe70111f	-0.23444031
8	0xbb836c2d	-0.0040106983
9	0x3e08f150	0.13373303
10	0x3d0cbadb	0.034357887
11	0xbdbcfac3	-0.092275165
12	0x3c11f112	0.008907573
13	0x3e33cf36	0.17559513
14	0xbe42c4bb	-0.19020359
15	0x3d16e98b	0.036843818
16	0xbdb70ee3	-0.08938386
17	0x3d7445d4	0.059636906
18	0xbe4af2d3	-0.19819193
19	0x3d600bc8	0.054698735
20	0x3e75db29	0.24009384
21	0x3e65d277	0.22443567
22	0xbe11ca8d	-0.14237423
23	0xbd4207df	-0.047370788
24	0xbe6369d4	-0.22208339
25	0x3e1aaba2	0.15104535
26	0x3e07a759	0.13247432
27	0x3da13e03	0.07873156
28	0x3ce9bf37	0.028533561
29	0xbe5ed2e7	-0.2176014
30	0x3df3f861	0.11912609
31	0xbdfe7bd4	-0.12425962
32	0x3d32ccbb	0.043652277
33	0x3e3b1f13	0.18273573
34	0xbe845fcd	-0.2585434
35	0x3e207911	0.15671183
36	0x3ca8cfc5	0.020606885
37	0xbe609bdf	-0.2193446
38	0x3e0d6c7b	0.13810913
39	0x3d9770dd	0.07394574
40	0x3e0ce517	0.13759266
41	0xbdd92340	-0.106024265
42	0x3de8fc14	0.11376205
43	0xbe958697	-0.29204246
44	0x3ce12e0b	0.027487775
45	0xbecd86a2	-0.4014178
46	0x3d868c8a	0.065697744
47	0x3d50acc9	0.05094603
48	0xbe8bb882	-0.27289206
49	0x3e3381dc	0.17530006
50	0xbe3dacdf	-0.18522976
51	0xbdf55d71	-0.11980713
52	0xbe2d78df	-0.1694064
53	0x3ce5ec47	0.028066767
54	0x3dce6044	0.10076955
55	0x3d6580a4	0.056030884
56	0x3dcfb51d	0.101419665
57	0x3c769283	0.01504958
58	0xbe2516d8	-0.16121995
59	0xbd27f03b	-0.041000586
60	0x3d52d16b	0.051469248
61	0x3b21149c	0.0024578935
62	0xbe6bbf7b	-0.23022263
63	0x3ddb202c	0.10699496
64	0x3e85e1ef	0.26148936
65	0xbc83f6a8	-0.016108826
66	0xbe0be5e4	-0.13661915
67	0x3e568a4f	0.20951198
68	0xbdfac0b5	-0.12243787
69	0x3de22a52	0.11043228
70	0xbe1bce33	-0.15215378
71	0xbad398c7	-0.0016143554
72	0x3dd2bcc1	0.10289908
73	0x3d458b6f	0.048228677
74	0x3d480425	0.048832078
75	0xbe411bb1	-0.1885822
76	0x3daa75c4	0.08323243
77	0x3d3f66e1	0.046728972
78	0x3d20c588	0.03925088
79	0xbdfdadad	-0.12386642
80	0xbe90dd6f	-0.2829394
81	0xbe138bf8	-0.14408863
82	0xbdc9252e	-0.098215446
83	0xbc01c9f5	-0.007921685
84	0xbe3d05d8	-0.1845926
85	0xbc4a8ad6	-0.012362203
86	0xbdc141f6	-0.09436409
87	0x3cb5bbbd	0.022184247
88	0x3e65751a	0.22407952
89	0x3d959360	0.073035
90	0x3dc63a07	0.096790366
91	0x3d9679df	0.07347464
92	0x3df6fa6f	0.12059485
93	0xbeaa460b	-0.33256564
94	0xbe9cdf67	-0.30639192
95	0xbe9fd024	-0.31213486
96	0xbddefe04	-0.108882934
97	0xbb05f47c	-0.0020439913
98	0x3d95c498	0.07312888
99	0x3e5839a5	0.2111574
100	0x3dff26c3	0.12458565
101	0x3d56d092	0.052445002
102	0x3da69352	0.08133568
103	0xbd98c1b4	-0.07458821
104	0x3ca6a2f3	0.020341372
105	0xbe18ed02	-0.14934161
106	0xbb733b47	-0.003711419
107	0x3d2864bc	0.041111693
108	0xbe8918ec	-0.26776826
109	0xbe597980	-0.21237755
110	0xbcf95ce4	-0.030439802
111	0xbdbf4991	-0.093402036
112	0xbe3f9ba7	-0.1871172
113	0x3cd7fcdf	0.026365696
114	0xbe99a922	-0.3001185
115	0x3ea4e44c	0.32205427
116	0x3e9545f4	0.29154932
117	0xbcf58ae7	-0.02997346
118	0xbd636510	-0.055516303
119	0x3cbbdee1	0.022933425
120	0x3e8e3ee9	0.27782372
121	0x3e2d4e20	0.16924334
122	0x3e8ecc21	0.27890113
123	0xbd9461a9	-0.0724519
124	0x3e86685e	0.262515
125	0x3e48f5d3	0.19625024
126	0xbde53b5b	-0.11192962
127	0xbd9691a3	-0.07351997
128	0x3ea4c9d9	0.32185248
129	0x3dd1e3f8	0.1024856
130	0x3ed53e45	0.4164907
131	0xbd8a3ed3	-0.06750264
132	0xbea95ccb	-0.33078608
133	0xbd7966d5	-0.060889084
134	0x3e045ae5	0.12925299
135	0x3e3ec636	0.18630299
136	0xbbfb5044	-0.0076694805
137	0xbe20b121	-0.1569257
138	0x3d09c1b1	0.033631984
139	0x3ddc41c3	0.107547306
140	0x3e00e03a	0.12585536
141	0xbe0f8a6e	-0.1401765
142	0x3d45e8ce	0.048317723
143	0x3e479516	0.19490466
144	0x3e0c09f9	0.1367568
145	0xbc06efdd	-0.008235899
146	0x3e4763a1	0.19471599
147	0xbe575341	-0.21027853
148	0x3e3b2b88	0.18278325
149	0xbd7196e2	-0.058981784
150	0xbc656f7f	-0.0140036335
151	0x3e449c5e	0.19200274
152	0x3dc27368	0.09494668
153	0x3e11651b	0.14198725
154	0x3d03ba60	0.032160163
155	0x3d40f16d	0.04710524
156	0xbe295473	-0.16536121
157	0x3dea6610	0.11445248
158	0x3db83c4f	0.08995878
159	0x3be1ab74	0.006886894
160	0x3e4c1246	0.19928846
161	0xbe31fccc	-0.1738159
162	0x3e93640d	0.2878727
163	0xbe7f6f24	-0.2494474
164	0x3eb7a569	0.35868385
165	0xbde0b024	-0.10971096
166	0x3e4ae68c	0.19814509
167	0xbe0b9d3e	-0.13634202
168	0x3e1c986d	0.15292521
169	0xbc892ddc	-0.0167455
170	0xbe6e3052	-0.2326062
171	0xbebc7c17	-0.36813423
172	0x3e0ac9f6	0.13553604
173	0xbe85e902	-0.26154333
174	0xbe15b3a3	-0.14619307
175	0x3e58c6a6	0.21169528
176	0xbe45e58f	-0.19325851
177	0x3c97f657	0.018550081
178	0x3df73532	0.12070693
179	0x3d1399c7	0.036035325
180	0x3e829323	0.2550288
181	0x3ddff7bd	0.10935924
182	0x3e889b1b	0.26680836
183	0x3e9ae4b6	0.30252618
184	0xbe88356b	-0.26603255
185	0x3c8d5ecc	0.017257117
186	0x3d1ce005	0.03829958
187	0x3e0d6f9c	0.13812107
188	0xbe39bbb0	-0.18138003
189	0xbdf27dd2	-0.118404046
190	0xbe226623	-0.15859275
191	0x3de26ccf	0.1105591
192	0x3dc34072	0.09533776
193	0xbcd57a3e	-0.026059266
194	0x3e47d1e8	0.19513667
195	0xbe2977a2	-0.16549543
196	0xbdb7e524	-0.08979252
197	0x3e8a9f9e	0.27074903
198	0x3d926338	0.07147831
199	0xbd48c4cd	-0.04901581
200	0x3e0a3fbd	0.13500877
201	0x3db9b2bd	0.09067295
202	0x3b8a55dc	0.004221661
203	0xbe2cd8da	-0.16879597
204	0x3e3a50c2	0.18194869
205	0x3dd8df5f	0.1058948
206	0xbde68545	-0.11255888
207	0x3d2c71a9	0.042100582
208	0x3e063a2a	0.13108125
209	0xbe0d1de9	-0.13780941
210	0x3cd51326	0.026010107
211	0x3d29cde9	0.041456137
212	0xbd6a0d6f	-0.057141718
213	0x3e0733ec	0.132034
214	0x3c58cc0d	0.013232243
215	0xbe0986e9	-0.1343037
216	0xbe97d516	-0.2965476
217	0xbe85e7ba	-0.26153356
218	0x3e33fed4	0.17577678
219	0x3e0c278c	0.13686961
220	0x3e437379	0.19087018
221	0x3e7a601d	0.24450727
222	0xbdb00fc1	-0.08596755
223	0x3e081a0f	0.1329119
224	0x3db4ec6b	0.08834156
225	0x3cc8e1bc	0.024521701
226	0xbd71f828	-0.05907455
227	0x3d12be47	0.035825994
228	0x3e31f728	0.17379439
229	0xbe61cced	-0.22050829
230	0xbdb6b41e	-0.089210734
231	0x397bf41c	0.00024028163
232	0xbd1b7f7c	-0.037963375
233	0x3c52272f	0.012826725
234	0x3e0cd4ca	0.13753048
235	0xbe79080a	-0.24319473
236	0x3e0f6983	0.14005093
237	0x3b30109b	0.0026865366
238	0xbc84daa8	-0.016217545
239	0x3b6b3fcf	0.0035896187
240	0x3e94b428	0.29043698
241	0xbced8482	-0.028993849
242	0x3e305dc2	0.17223266
243	0xbe6af194	-0.22943717
244	0x3e41ace0	0.18913603
245	0xbdedc400	-0.1160965
246	0x3de990af	0.11404549
247	0xbda1e4bd	-0.079049565
248	0x3d768213	0.060182642
249	0x3dbe5f98	0.09295577
250	0x3e21991c	0.15781063
251	0xbd43007a	-0.047607876
252	0xbe0feb50	-0.14054608
253	0xbe2535b7	-0.16133772
254	0x3cb43670	0.021998614
255	0x3d5c1844	0.05373408

linear2.bias f4 [32]
0	0x3ddb5808	0.1071015
1	0xbc354a18	-0.011065029
2	0xbeba1851	-0.36346677
3	0x3df913c0	0.1216197
4	0x3e4f6023	0.20251517
5	0x3ed60d59	0.41807058
6	0x3e62c279	0.22144498
7	0x3e684359	0.22681941
8	0x3eada931	0.33918145
9	0xbbe06a7c	-0.0068486314
10	0x3e773355	0.24140675
11	0x3e7431d2	0.2384713
12	0x3e71cbd6	0.23612913
13	0x3d8e8c2f	0.06960332
14	0x3e014e06	0.1262742
15	0xbe516750	-0.20449567
16	0x3ecbd152	0.39808136
17	0x3e274d6d	0.1633813
18	0xbe204ff3	-0.15655498
19	0xbb0eaf39	-0.0021771921
20	0xbe129ef4	-0.14318448
21	0x3e54201e	0.20715377
22	0xbe194dd4	-0.14971095
23	0xbe2c64bd	-0.16835304
24	0x3e36d84b	0.17855947
25	0x3e5d239a	0.21595612
26	0xbdbdca7a	-0.09267135
27	0xbbce7d6f	-0.006301574
28	0xbe7c8909	-0.2466165
29	0x3dc6ceff	0.0970745
30	0xbd8ad97d	-0.06779764
31	0xbe0ac6e3	-0.13552432

output.weight f4 [50, 32]
0	0x3e0ad1c8	0.13556588
1	0x3e86e5f7	0.26347324
2	0xbe11af74	-0.14227086
3	0xbde4e20c	-0.111759275
4	0xbda6e7e8	-0.08149701
5	0x3e82af72	0.2552448
6	0xbe520f9b	-0.20513766
7	0x3d55a253	0.052156758
8	0xbe8a7606	-0.2704317
9	0xbc3b0b1f	-0.011416226
10	0xbdd25d51	-0.10271705
11	0xbd6eaa58	-0.05826792
12	0xbe8e771b	-0.27825245
13	0x3dc1678d	0.09443579
14	0x3d71d2c6	0.0590389
15	0xbdda8733	-0.106703185
16	0xbf07c8e2	-0.530409
17	0x3d124743	0.03571249
18	0xbe428d0c	-0.18999118
19	0xba97d035	-0.0011582436
20	0xbd268caf	-0.04066151
21	0xbd893bd5	-0.06700865
22	0xbe8c7713	-0.27434596
23	0x3e3f97ae	0.18710205
24	0x3ef82455	0.4846522
25	0xbecbfc10	-0.39840746
26	0x3e784e2a	0.24248567
27	0x3ddc1e93	0.10748019
28	0xbe178aa5	-0.14798982
29	0x3e16c08d	0.1472189
30	0x3d75a779	0.059974167
31	0xbd995c5d	-0.0748832
32	0xbcf3b724	-0.029750414
33	0xbe0be888	-0.13662922
34	0xbe2a22c3	-0.16614823
35	0xbe439302	-0.19099048
36	0x3e98b029	0.298219
37	0x3d88820d	0.0666543
38	0x3e2c789b	0.16842882
39	0xbde9f2cd	-0.11423264
40	0xbe10efc7	-0.14153968
41	0x3cd0e05f	0.025497613
42	0x3e0d4243	0.13794808
43	0x3ebb0799	0.36529234
44	0x3e4a480d	0.19754048
45	0x3c889155	0.016670862
46	0xbe97a815	-0.29620424
47	0xbe15b3f8	-0.14619434
48	0xbe2a8887	-0.16653644
49	0x3e5ea3e9	0.21742214
50	0x3e02c1c9	0.12769236
51	0xbe49ab5d	-0.19694276
52	0x3b74e47e	0.0037367637
53	0xbd9b01be	-0.07568692
54	0xbe89a014	-0.26879942
55	0x3e85be1d	0.26121607
56	0xbd7ea4f9	-0.06216905
57	0x3def9f7c	0.11700341
58	0xbe653b95	-0.2238601
59	0x3eb18542	0.3467198
60	0xbdda38fd	-0.10655401
61	0x3ea06a19	0.31330946
62	0xbde2e8c5	-0.110795535
63	0x3cce68a7	0.025196387
64	0x3e82263e	0.254198
65	0xbe0d2b6c	-0.13786095
66	0x3e7f0534	0.24904329
67	0xbd942b5c	-0.07234833
68	0x3bb5baa2	0.00554593
69	0xbd8788bc	-0.06617877
70	0x3c918a62	0.017766181
71	0xbd6a0d21	-0.057141427
72	0x3ded8388	0.11597353
73	0x3e955b04	0.29171002
74	0x3e06de1f	0.1317067
75	0xbe3ea568	-0.18617785
76	0x3dc525bc	0.09626338
77	0x3cca3467	0.02468319
78	0xbe6182d5	-0.22022565
79	0x3e38bd20	0.18040895
80	0xbe00858d	-0.12550946
81	0xbe53cd08	-0.20683682
82	0xbcf48cb0	-0.029852241
83	0xbe4f41cf	-0.20239948
84	0xbd8eefe1	-0.06979347
85	0x3ebce580	0.36893845
86	0x3dead4c7	0.11466365
87	0x3ccc7316	0.024957221
88	0x3ddfc1e9	0.10925657
89	0xbe1a0817	-0.15042149
90	0xbd9c4d05	-0.07631878
91	0x3e149ce8	0.1451298
92	0xbe29b43c	-0.1657266
93	0x3e1c73bf	0.15278529
94	0xbdab66ab	-0.08369192
95	0xbd3ef6d9	-0.04662213
96	0xbbe1b1d2	-0.006887653
97	0xbd529f46	-0.051421426
98	0x3ddf49a4	0.10902718
99	0xbe1425e7	-0.14467584
100	0xbeb6fe22	-0.35740763
101	0xbc2bf495	-0.010495325
102	0xbe287d6d	-0.16454096
103	0xbe0d45d9	-0.13796176
104	0xbe41fc28	-0.18943846
105	0x3d05d482	0.032673366
106	0xbd0407f7	-0.03223416
107	0x3d2f26e8	0.042761713
108	0x3dcc2225	0.0996745
109	0xbe2f648a	-0.17128196
110	0x3d5ed45e	0.054401748
111	0x3e43711a	0.19086114
112	0xbbecc374	-0.0072254483
113	0xbeae13ee	-0.3399958
114	0x3e32535c	0.17414612
115	0xbe67cdba	-0.22637072
116	0x3dd69121	0.104769
117	0xbe8f4852	-0.27984864
118	0x3dc2dd5d	0.09514878
119	0x3d8b6420	0.06806207
120	0xbcfd2833	-0.030902958
121	0x3c37a9fe	0.011209963
122	0xbe435ad4	-0.19077617
123	0x3de87551	0.11350501
124	0xbe0d1900	-0.13779068
125	0xbddc488f	-0.10756027
126	0x3d8ea2ea	0.06964667
127	0x3e7f8b7c	0.24955553
128	0x3defd2aa	0.11710103
129	0x3d56e4c0	0.052464247
130	0xbddc55a8	-0.10758525
131	0xbe57cc48	-0.21074021
132	0xbcafeecb	-0.02147617
133	0x3df3fd83	0.11913588
134	0x3e8a3c96	0.26999348
135	0x3d92817a	0.07153602
136	0xbc98238c	-0.018571638
137	0x3df1f21c	0.11813757
138	0x3d9e328d	0.077244855
139	0xbdaf5936	-0.085619375
140	0x3e1c9e8a	0.15294853
141	0xbd7de960	-0.061990142
142	0x3e9cc7b3	0.30621108
143	0xbd392ee0	-0.04521072
144	0xbde7724a	-0.11301096
145	0x3db8d732	0.0902542
146	0xbdc51219	-0.096225925
147	0x3db5ab69	0.088705845
148	0xbc5b62cf	-0.013390257
149	0xbeb173a2	-0.34658533
150	0xbdd47eb3	-0.103757285
151	0x3e7033d9	0.23457278
152	0xbd87b400	-0.06626129
153	0xbe183a60	-0.14866018
154	0xbe604a89	-0.21903433
155	0xbed57422	-0.41690165
156	0x3e1ebda1	0.15502025
157	0xbb361a07	-0.002778651
158	0xbe67a819	-0.22622718
159	0x3e5515b0	0.20809054
160	0x3e95484b	0.29156718
161	0x3ed94846	0.42437953
162	0xbd0f6b70	-0.03501457
163	0xbc74ec94	-0.014948983
164	0xbd8c4cbf	-0.06850576
165	0x3e49e5f0	0.1971662
166	0xbe864531	-0.26224664
167	0x3e4245f4	0.18971997
168	0x3cc9c64f	0.024630694
169	0x3e9fc3ca	0.31204063
170	0xbc581fda	-0.013191188
171	0x3eb911ea	0.3614648
172	0x3e7ea50c	0.24867648
173	0x3e07c1ca	0.13257518
174	0xbe2cd4a4	-0.16877991
175	0xbe9b3270	-0.30311918
176	0xbd80fed0	-0.062986016
177	0xbe03eaa9	-0.12882484
178	0x3d898bff	0.06716155
179	0xbcb44491	-0.022005351
180	0xbda7e77e	-0.081984505
181	0xbd33627d	-0.043795098
182	0xbc761d42	-0.015021624
183	0xbd43da81	-0.047815803
184	0xbe4e17f8	-0.20126331
185	0x3e271abd	0.16318794
186	0x3e1fda24	0.15610558
187	0x3db29134	0.087191015
188	0xbe015152	-0.12628677
189	0xbe5123fe	-0.20423886
190	0xbe925665	-0.2858154
191	0xbe25c94f	-0.16190074
192	0x3e83144b	0.2560142
193	0xbdfe4043	-0.12414601
194	0xbdf8e4a8	-0.12152988
195	0xbd3bc6c6	-0.045843862
196	0x3dda8331	0.10669554
197	0x3978bdfd	0.00023721899
198	0x3dcbf627	0.09959059
199	0xbeec2e78	-0.46129203
200	0xbd073ceb	-0.03301708
201	0xbcf5aacf	-0.029988674
202	0xbe890b4d	-0.26766434
203	0xbd6df446	-0.058094285
204	0x3d5b44b4	0.053532317
205	0xbec20147	-0.378916
206	0xbe236a8a	-0.1595861
207	0xbd76c7ba	-0.060249068
208	0x3dc715ff	0.09720992
209	0xbe4bb2d3	-0.19892435
210	0xbe6056c6	-0.21908101
211	0x3e30aee3	0.17254214
212	0xbda295d6	-0.07938735
213	0x3e374e42	0.17900947
214	0xbb7fb349	-0.0039016774
215	0x3e54ade7	0.20769463
216	0xbd303743	-0.04302145
217	0x3e8993fc	0.26870716
218	0x3e424d2a	0.18974748
219	0xbe2cd6ba	-0.16878787
220	0xbe4a33d2	-0.1974633
221	0xbd2cd524	-0.042195454
222	0x3e091a9d	0.13389058
223	0x3d581169	0.05275098
224	0x3e69a9f0	0.22818732
225	0xbd733012	-0.059372015
226	0x3e9fd7b2	0.3121925
227	0x3d554a78	0.052072972
228	0x3e6b79ce	0.22995684
229	0x3d8bc34e	0.06824361
230	0x3e14f3dd	0.14546151
231	0x3c7fc6c7	0.015611357
232	0xbe57cabe	-0.21073434
233	0xbccedd9c	-0.025252156
234	0xbde943dd	-0.11389897
235	0x3e2cbfab	0.1686999
236	0x3d1668b6	0.036720954
237	0x3e2fcc6e	0.17167827
238	0x3ea941f2	0.33058125
239	0xbe2075c1	-0.1566992
240	0xbcbc0a40	-0.022954106
241	0xbce94897	-0.028476996
242	0xbe417bf7	-0.18894945
243	0x3e275d76	0.16344246
244	0xbdb1b1d2	-0.08676495
245	0x3e3866c5	0.18007953
246	0x3e665a44	0.22495371
247	0xbdad97a2	-0.08476187
248	0xbdb93958	-0.090441406
249	0xbe35c5ef	-0.17751287
250	0x3e9b0cd0	0.30283213
251	0x3d186751	0.037207905
252	0xbe06b83a	-0.13156214
253	0x3dfff9b1	0.12498797
254	0xbe56ae04	-0.20964819
255	0xbc8aab41	-0.016927363

output.bias f4 [50]
0	0xbdbda563	-0.09260061
1	0x3ee72936	0.4514863
2	0x3d17a68e	0.037024073
3	0xbf57ff71	-0.8437415
4	0x3e91d2e3	0.28481206
5	0xbec88c94	-0.39169753
6	0x3e81e366	0.25368804
7	0x3e97fd02	0.29685217
8	0xbe8ff11b	-0.28113636
9	0x3db1d07b	0.086823426
10	0x3e16fd66	0.14745101
11	0xbdf87701	-0.12132073
12	0x3e04bfc9	0.12963785
13	0x3e0423ca	0.12904277
14	0x3dd4c2f1	0.103887446
15	0xbfce7e33	-1.6132263
16	0x3e4ff6a9	0.20308937
17	0x3ea5d039	0.32385424
18	0xbe975cb0	-0.29562902
19	0xbf0967c0	-0.53673935
20	0x3db0ac48	0.0862661
21	0x3d908944	0.07057431
22	0xbec5da2e	-0.3864302
23	0x3da6c099	0.08142204
24	0xbf089219	-0.5334793
25	0xbe6dbac3	-0.23215775
26	0xbd6e9e4a	-0.058256425
27	0x3da0aa50	0.078449845
28	0xbe825f11	-0.25463155
29	0xbe40ceab	-0.18828838
30	0x3e87abc7	0.26498243
31	0x3d851ca2	0.06499602
32	0xbed9140a	-0.423981
33	0xbee27836	-0.4423234
34	0xbe588616	-0.211449
35	0xbf073e83	-0.5282976
36	0xbd2b48f5	-0.041817624
37	0x3dcaa5e2	0.09894921
38	0x3dbe1554	0.09281412
39	0x3dadc23d	0.08484314
40	0x3e89f1a6	0.26942176
41	0x3f19c863	0.6007139
42	0x3e3e95c2	0.18611816
43	0x3f05ecf5	0.5231469
44	0xbdde6407	-0.108589225
45	0x3ac57328	0.0015064226
46	0x3dad90e6	0.08474903
47	0xbd43d0ae	-0.047806434
48	0x3b2e40db	0.002658895
49	0x3e5542a0	0.20826197
