code/models/best_model_035.pth (torch, 482997 bytes, 8 tensors)

conv1.weight f4 [1, 1, 5, 3]
00000000: 75c1 a93d 1aa8 963d 5471 563e b8c8 933e
00000010: 87ba 7b3e e04b e9bd da87 2b3e 44c8 64be
00000020: 13f8 243a fdf2 4b3e 52c5 ba3d a22f 58be
00000030: 0fa6 90bd 5ee1 76be a2a1 10be
0.08288852 0.073562816 0.20941669 0.28864074 0.24582873 -0.11391425 0.16751042 -0.2234202
0.00062930695 0.19916911 0.09119667 -0.2111192 -0.07062923 -0.24109408 -0.14124158

conv2.weight f4 [1, 1, 3, 3]
00000000: 9394 11be ee9d c93d 3508 283e c5d5 ab3d
00000010: d7f6 0cbe 0f22 8f3d f870 15be f714 c3bd
00000020: 983e 083d
-0.14216833 0.09844576 0.1640938 0.08390383 -0.13766037 0.06988918 -0.14593875 -0.09525483
0.03326282

linear1.weight f4 [128, 900]
00000000: 0aa8 7c3d be7a 5d3e aebf 50bd 21b1 27bd
00000010: 79d6 20bd 5277 02bd 9b7c bf3d 6e84 0a3c
00000020: c7f8 7a3e 7cc0 5c3d 3188 9ebd f6e6 fe3d
00000030: a384 f6bd bd7a 85bd bffe a2bd 7518 0c3e
00000040: aa24 49bd 56be b2bd e421 c7bd 7364 5d3d
00000050: ba97 37bd c2ed 2e3d 658d 813d 6acb cf3d
00000060: d752 9cbc cdc8 da3c f8ca 573d 5d46 9e3c
00000070: 0faa b4bc 4447 0dbe ad02 da3d 0907 12be
00000080: 2d85 ee3a d36d 8a3c d22b 0ebe a41d c9bd
00000090: 9f59 14bc 811c 58bb 6bb8 8ebd 63ef abbd
000000a0: 9825 b23d e385 2cbe ed2f 2dbb 28f4 3dbd
000000b0: 9ffc e83d 81e4 103e f3e0 dc3d 27f7 b43d
000000c0: 02f7 65bc e6b1 0dbe 03cc 1a3e 13f1 c8bc
000000d0: bc42 953d c98c dbbd a40e 353d 1ce0 613c
000000e0: d0b2 2cbd 9cfc 703d 1cc7 34bd 1f17 85bc
000000f0: 80b8 963d 8010 273c 2d99 7ebd 417a 3bbe
00000100: 97ea 5fbd 4903 d9b9 fabb 4cbc 5f90 a6bd
00000110: 180f cebd 8b12 ee3d c905 f9bd 3d39 5cbd
00000120: b400 86be faab 373e 8674 8a3d ed48 44bd
00000130: efe1 71bd b4fe aebd a57b a6bd 34a7 0dbd
00000140: 47e2 00bd 0d79 74bd 3373 5cbb 4079 06be
00000150: f05d 97bd 3691 1f3b 74e9 28be 4650 a03c
00000160: 645a d0bd 6b92 f7b9 b088 35bd ca74 973c
00000170: c0cd bcbd e43b bb3d 8093 d43d 7ad0 04be
00000180: aa92 c0bd b7c5 a33d 75b1 8a3d 4035 b3bc
00000190: 9c54 27be fda3 f63d 0bd0 a83d 289e 933c
000001a0: 7759 02be 39bc 1ebe 4d74 0c3e 4b59 f03d
000001b0: 08cd 003d e7ae a0ba a02d b83c 1e74 4b3d
000001c0: ae75 9f3d 1a42 35bd 0940 a63c 5c55 0cbe
000001d0: 677c c4bd 0524 78be 9b22 92bd 4443 00bd
000001e0: 2658 61be d84d 6f3e da30 163e ae9d aa3d
000001f0: cdf6 383d c51c edbc d334 013e 6fb5 80bd
00000200: 3520 d03d a63c ee3c a762 5cbd c876 03be
00000210: eed6 203d 2525 41be e38a 0bbe 79c6 a73d
00000220: 8583 86be fac3 95be 2bf4 92bd 6d1a 26be
00000230: d9ab bc3d 21dd 39be 384c 813d 7f9e 7c3d
00000240: 3d9e 863e 1893 bbbd 49b9 543d afeb 103e
00000250: 19a6 e53d 61b3 c43d e1f6 e8bd f900 36be
00000260: 1a73 69bd bd8f f3bc af36 a4bc 53a9 023e
00000270: 12cf 3bbe 5fd5 debd 3d09 943d 7746 9f3d
00000280: e13e e53c 09e0 63bd c815 873d e38c b0bd
00000290: e0da 18be a50f 8bbb 7ff9 003d f1a1 bcbd
000002a0: 67f5 0dbc c637 7d3b ce06 e5bb 5c00 0cbe
000002b0: b75a 3abe a88b a93c 623d 09be bee6 a6bb
000002c0: eea8 fbbd fb0e b83d 2296 063e 6673 44bd
000002d0: b1ea 2f3c 2722 fd3d ed30 babd 99a1 debd
000002e0: 34d3 74be c214 a6bd 50a9 533c d2fa 023d
000002f0: edb8 56be d8b5 ab3c 80b2 24be 1c93 963c
00000300: f8f8 1fbd e852 8a3d 32e1 d13d d546 c7bd
00000310: 5009 1a3d ac71 943d b789 f9bd fb49 4b3c
00000320: 0a0b aabe a81b 613d 58fc 3b3e a1b5 b9be
00000330: c82b 563d c01d 8dbe 7328 1b3e b87f 243e
00000340: 951e 8abe c81b 34bc 5e46 eabd dcdb 02be
00000350: b8f2 50bd 81a5 acbd c58f d53d cd18 3cbd
00000360: f26c 5bbd d09e ef3c 3291 873d 9f25 f63c
00000370: 8056 95bd 8be7 383d 4623 80be c6a2 a83d
00000380: 3067 d3ba 3a7e 14bd d194 cd3d 9bdc dcbd
00000390: 84c5 96bc daa5 0c3e 3fe8 d73d 4032 50be
000003a0: d770 1ebe ac5e e43c 8de6 bebd 4b98 ac3d
000003b0: 89c1 0bbe 45cd 883e 4094 02be 8654 eebd
000003c0: ff24 0c3d c7f4 82be aac2 093d 57d9 7c3a
000003d0: 90df 413c 43fa 72bd bff1 50bd a1bf d3bd
000003e0: a8ea 35be e8ef c8bd 3bb0 eabd 1176 6bbd
000003f0: fff9 3b3e f776 2bbe c998 0fbe d8c0 923d
0.061683692 0.21628854 -0.05096405 -0.040940408 -0.039267037 -0.031852074 0.093499385 0.008454425
0.24508964 0.053894505 -0.0774082 0.12446396 -0.12037017 -0.06517551 -0.07958745 0.13681205
-0.04910723 -0.0872771 -0.09723261 0.054050874 -0.044822432 0.042707212 0.06325797 0.1014622
-0.01908247 0.026707077 0.0526838 0.019320661 -0.022053747 -0.13796717 0.106450416 -0.14260496
0.0018197648 0.016898071 -0.13883904 -0.098201066 -0.00905457 -0.0032975974 -0.06968769 -0.08395269
0.08698577 -0.16847949 -0.002642627 -0.046375424 0.11376309 0.14149667 0.10785093 0.08836203
-0.014035942 -0.13837394 0.15116887 -0.024529016 0.07288119 -0.10720212 0.044203416 0.013786342
-0.042162716 0.058834657 -0.044135198 -0.016246377 0.07359409 0.010196805 -0.0621578 -0.18308355
-0.05466708 -0.00041391913 -0.012495989 -0.08133005 -0.10061473 0.116246305 -0.121593066 -0.053765524
-0.2617241 0.17936698 0.06760506 -0.04792111 -0.059053358 -0.085446745 -0.08129052 -0.034583285
-0.031465795 -0.059685756 -0.0033638 -0.1313219 -0.07390964 0.0024348027 -0.16495305 0.019569527
-0.10173491 -0.000472206 -0.04431981 0.018488307 -0.09218931 0.091422826 0.10379696 -0.12970152
-0.09402974 0.079966955 0.067721285 -0.021875978 -0.1634087 0.12042997 0.08242806 0.01801975
-0.1272944 -0.15501489 0.1371624 0.11735781 0.031445533 -0.0012259156 0.022482693 0.049671285
0.077861175 -0.044252492 0.020294206 -0.13704437 -0.0959404 -0.2423249 -0.07135507 -0.03131415
-0.22006282 0.23369539 0.14667073 0.08330856 0.045157243 -0.028944382 0.12617807 -0.06284606
0.10162393 0.029081654 -0.05380502 -0.1283828 0.039267473 -0.18861826 -0.136272 0.081921525
-0.26272216 -0.2925108 -0.071754776 -0.16221018 0.09212465 -0.1815076 0.06313366 0.06167459
0.262926 -0.09158915 0.051934514 0.14152406 0.11213321 0.09604526 -0.113752134 -0.17773809
-0.056994535 -0.029731626 -0.020045606 0.12759905 -0.1834071 -0.10880541 0.072283246 0.07777112
0.027984085 -0.05563358 0.06595951 -0.08620622 -0.14927244 -0.0042438083 0.031487938 -0.09210575
-0.0086644655 0.003863798 -0.0069893366 -0.13672012 -0.18198667 0.020696476 -0.13402322 -0.0050934246
-0.1228808 0.08987232 0.13143209 -0.047961615 0.010737107 0.1236003 -0.09091363 -0.10870666
-0.23908693 -0.08109428 0.012918785 0.031977482 -0.20968981 0.020960733 -0.16083717 0.018380694
-0.039055794 0.06754094 0.10248031 -0.09730307 0.037606537 0.07248244 -0.1218447 0.012407775
-0.33211547 0.054958016 0.1835798 -0.36271384 0.052287847 -0.2756176 0.15152149 0.16064346
-0.26976457 -0.010992952 -0.11439203 -0.12779182 -0.051012725 -0.08430005 0.104278125 -0.04592209
-0.053570695 0.029250532 0.06619491 0.030047236 -0.07291889 0.04514269 -0.25026911 0.082341716
-0.0016128775 -0.03625319 0.1003815 -0.10784265 -0.01840473 0.13735142 0.10542344 -0.20331669
-0.15472732 0.027877174 -0.09321318 0.08427485 -0.13648047 0.26719108 -0.12751865 -0.11637215
0.03421497 -0.25577375 0.03363291 0.0009645423 0.011833087 -0.0593207 -0.051011797 -0.10339285
-0.17765296 -0.098113835 -0.114593945 -0.057485644 0.18357085 -0.167446 -0.14023127 0.07165688

linear1.bias f4 [128]
00000000: 7cdd c4bd c2a4 a03d e3d5 94bd 522d 9fbd
00000010: 25b4 bf3d 00ce d33d df33 debd 40f1 b3bd
00000020: 2b7f c5bd 15a9 16bd 0317 3a3d 025f acbc
00000030: 020c 253c ac0a 00be 028d d1bd 68ee e3bb
00000040: 5077 07bc a4e5 a8bc f41f acbd b17b 66bd
00000050: 78db f83d 8037 b7bd 2fdd 1e3d 31ac 9dbb
00000060: f0aa edbc b388 87bd cf40 86bd f47a 823d
00000070: 367e fa3c 3b0f 6cbc f2ac d2bd b45b b6bd
00000080: dae1 8ebd 0259 213d 794d c8bd 108d b9bd
00000090: 605b 90bc 414c 2bbd b686 8a3d b2f8 a83d
000000a0: 88d6 41bd 5dbe 9e3d 4c9f acbd 0195 2bbe
000000b0: 2c6d cfbb 1cdf 80bd 9532 b63d 2de0 c23d
000000c0: eae4 9abc 9c70 823c 75d2 13bd 79e5 f33d
000000d0: de2e 8d3d d9b2 14be da4c 62bd 750e 9c3d
000000e0: 6e0f 92bd aca8 d53c 31de b23c db69 1abe
000000f0: 74e4 dd3c 80c3 85bc 3a89 b63d 2e1b ae3d
00000100: 7638 bb3c 66f3 1bbe 9fad 28bd 7cdc 30bd
00000110: 35e3 693c 7df9 1fbd d600 1d3e 9d25 e63c
00000120: e53b 9dbd 7c02 3ebd bd2d 1a3d 7bed a83b
00000130: c6cf 143d 54cd d03d 5e71 bf3b 1cc9 26be
00000140: bd78 e3bc f6bd 10bc 81a0 eeba 6c0f f73d
00000150: 1107 6b3d 888f 59bc a385 b33a 0bcd d93d
00000160: 1a06 b2bc 9d38 03be 5a58 cb3d 10f0 17bd
00000170: 2489 173d b354 b23b 974d 823d 1218 29bd
00000180: 2add 8cbd 1dc7 203e 7565 603d a6b8 da3d
00000190: fc17 16bc d547 29bc e618 8fbd 8c67 cfbd
000001a0: d5a7 94bc 7974 08bc 991e 193d 40a4 483d
000001b0: f058 db3d 6e6d b53d f3c0 803c 3ad8 d7bc
000001c0: b236 dbbd 3685 1ebd d653 7fbc 8535 2bbd
000001d0: 410d 143d 8999 ce3d 6033 493d d401 c1bd
000001e0: eb2f a9bc 8af1 f4bd a378 923d 5e3b 8a3d
000001f0: 7185 b639 6570 803d c680 ef3c d64c c73b
-0.09612557 0.07843925 -0.07267358 -0.07772316 0.09360532 0.10342026 -0.108497374 -0.08786249
-0.09643396 -0.036782343 0.045432102 -0.021041397 0.010073664 -0.12504071 -0.10231973 -0.0069559105
-0.008268192 -0.020617314 -0.08404532 -0.056270305 0.12151235 -0.08946133 0.038785156 -0.0048117866
-0.029012173 -0.0661787 -0.0655533 0.06371108 0.03057776 -0.014407928 -0.10286893 -0.0890421
-0.069766715 0.039391525 -0.09780402 -0.09060109 -0.017621696 -0.04182077 0.06763975 0.0825056
-0.047323734 0.07751153 -0.08428821 -0.16756059 -0.006330153 -0.06292555 0.088963665 0.095154144
-0.018907983 0.015922837 -0.03608938 0.11909003 0.06893705 -0.1452135 -0.055249073 0.07619945
-0.07131849 0.026081406 0.021834465 -0.15079443 0.027086474 -0.016328573 0.08912893 0.08501278
0.022854071 -0.15229568 -0.041181203 -0.04317902 0.014275362 -0.03905629 0.1533235 0.028094107
-0.076774396 -0.046389088 0.037641276 0.005155263 0.03633096 0.10195413 0.005842372 -0.16287655
-0.027767533 -0.008834353 -0.0018205793 0.12063488 0.057379786 -0.013278849 0.0013696443 0.10634812
-0.021731425 -0.12814565 0.09928961 -0.037094176 0.036996022 0.005442226 0.06362455 -0.04128272
-0.06878121 0.15700956 0.054784257 0.1067975 -0.009160992 -0.0103320675 -0.06987171 -0.10127172
-0.018146435 -0.0083285505 0.037382696 0.048984766 0.10710323 0.08858763 0.015717005 -0.026348222
-0.10703792 -0.03870126 -0.015583953 -0.041799087 0.036145452 0.10087878 0.04912126 -0.09424177
-0.020652732 -0.119601324 0.07151916 0.06749605 0.00034813167 0.062714376 0.029236209 0.0060821576

linear2.weight f4 [32, 128]
00000000: 2736 b8be 4135 c6bd a54d cdbd 3063 09be
00000010: 8c54 5cbd 0030 cdbd a0fb 573c 6a31 a6bd
00000020: 091b 82bd b810 f23d 4d48 c1bd ba9e 913d
00000030: 5f03 a3bd cccc e2bc af56 74bd 3a6c b33b
00000040: 0e04 80bd d339 58be 52f1 353d f371 ab3d
00000050: 28ab d13c 8d92 4c3e 78b5 2c3d 9b8f 09bc
00000060: e85d 5ebd d060 5a3e 8389 773e efb8 68bc
00000070: 3bd2 963d 84f3 413c 6d21 c8bd 40c8 a8be
00000080: f0f9 48bd 86de 6d3c a19b 02bb 2390 e5bd
00000090: f905 c9be f026 783e 3b13 b8bb b496 46bc
000000a0: 34e9 94bc a472 3ebc 7bf9 60bd 4ff8 ae3d
000000b0: cc10 ba3d 4cf8 c3be d8ba 26bd 83c7 b5bd
000000c0: 8a8f 48bd 03cc 2bbd d509 0bbd 95d6 e23c
000000d0: adb9 1b3e 0215 a73d 9747 8a3d 70a1 bdbc
000000e0: 0a0b cd3d 2a0a 223b 6c72 493d 1401 19be
000000f0: 20cf 61bc a4d6 45bd 1a33 923d 65b1 ba3c
00000100: 0ae7 573b 0b0e 06be 7b83 bdbc 8166 a13b
00000110: 08c7 103d 2702 59bd d2aa 523d 4c65 983b
00000120: 145d 063d bacf 51bd f073 873c 382a 54bd
00000130: e172 bfbc 93b6 893d ccec cf3b bd5b ebbe
00000140: b349 ef3c 66dd adbd 2451 553c b404 e2bd
00000150: 7db7 2c3d 258a 2ebe a16f 693d 1e8a cfbd
00000160: 67ab 58bd c22f 583d a694 a63c a579 83bd
00000170: 6913 7bbc b20f cf3a aed6 8fba c0db 6b3d
00000180: c93d 47bd 35f3 d43d 996a 8f3d d04f 2a3d
00000190: 3d1e e23d dfbc b53b 185c cdbd cdab 06be
000001a0: 3274 07bd 0fb3 823d e6b3 f63d f85a 44bd
000001b0: a706 e3bc 14e5 1ebd fcec 1d3e 9891 e0be
000001c0: 47ec 7cbe a382 fdbd ae03 1dbd 4bf4 7cbe
000001d0: 45cb 203d 506f 933d 9fc9 54bd 152a 853d
000001e0: 7a70 b4bc 9b6a 58bd 9c8a 663d 6ec9 af3d
000001f0: 0a54 b63d 8222 353e 29d9 8e3d 0d71 50bc
00000200: 0755 50be 81fa 45be 986f a3bd 475e 1fbd
00000210: a79d e8bd 0010 b3be ad65 a63d 967e 6539
00000220: e253 dfbc df81 173e 243c 16be 235b 16bd
00000230: 2274 083d 2a6d 303e 276d 083d 0f6c e7bc
00000240: af79 92bd 33f3 23be baf7 c13c d403 6a3e
00000250: 94bb 6cbb d104 003f a13d 763c 5d04 41bc
00000260: 53c6 053d 2295 a23e 8a90 bd3e 3e8b b53c
00000270: c4fb c3bb c1bc 7d3c 4b9a d63c 8e85 00be
00000280: e996 37bd 1de3 42bc 1b38 d53d 28a6 9dbd
00000290: 84c1 88be 8aaf 393e 247c 45bd d0f2 c6bc
000002a0: 4826 1b3d 2a1f 193d 9d24 963c dbcc 3d3f
000002b0: c4f8 733e 05b3 16be 0324 a7bd 9344 a1bd
000002c0: f25a 5dbb 4cf0 7e3d 63a1 2b3d c8b6 06bd
000002d0: 1d4f 9c3b edb0 d93e 6cab 183e 6837 8dbd
000002e0: f10e 103e de4a 1b3d 6776 4f3d e2d8 843d
000002f0: b7a5 aebd a4ac d8bb 28bb 06bd ea67 333d
00000300: 8feb e7bc 19fa d23d 94e7 fb3b 82a9 bebd
00000310: 9f5d 903d 4387 293c 4f86 16be ec1a 61bc
00000320: d822 5bbd 949e 6f3d 8d16 7fbb 386c e0bc
00000330: cb38 793d 9732 20be aafc 553b 6bc2 7abe
00000340: 7352 5bbd ddf6 da3c 8baf fe3c 33ee 69be
00000350: 04a4 07bd a35b 8bbd 0b83 543d afa6 cabe
00000360: 1d8f 77bd 1b05 7f3e 54ef 46bd 4de4 10bd
00000370: f619 8e3d 49bd 44bd 1251 f53b b4a4 0f3c
00000380: 26ac 563d ceab cebc 7cf4 1a3d 1e4e 9cbc
00000390: f128 d23d 33d9 d23d e905 19bd 83ea 673d
000003a0: 032c aa3c 2ae2 e6bc 72be 723d c8f3 483d
000003b0: ac58 07be f49c 20be 7916 883d 28ac 97be
000003c0: 8be7 58bd a777 b9bd de69 393c 127b 41be
000003d0: 048b 813d 9550 973c 8ac7 16be c8ba b73e
000003e0: 933a b33c 804b cb3d 84d3 f13c 6933 713d
000003f0: 2f5f 173c 0874 2d3d cb2e 2f3c 1925 35bc
-0.35978815 -0.09678126 -0.10024575 -0.13416743 -0.053791568 -0.10018921 0.013182551 -0.08114894
-0.06352813 0.11819595 -0.094376184 0.07110353 -0.07959627 -0.027685545 -0.05965298 0.005475548
-0.06250773 -0.21115808 0.044419594 0.083713435 0.025594309 0.1997778 0.04216525 -0.008396055
-0.054288775 0.21325994 0.2417355 -0.014204248 0.07364317 0.011837844 -0.097720005 -0.3296528
-0.049066484 0.014518386 -0.0019929188 -0.112091325 -0.3926237 0.24233603 -0.005617527 -0.012120891
-0.018177606 -0.011624012 -0.054925423 0.08543455 0.09085235 -0.38275373 -0.04070553 -0.088759445
-0.048965015 -0.041942608 -0.033944923 0.027690211 0.15207548 0.08158304 0.06751936 -0.023148268
0.10011871 0.0024725297 0.049181387 -0.14941818 -0.013782293 -0.0483004 0.07138653 0.022789666
0.0032944106 -0.13091294 -0.023133984 0.0049255495 0.03534606 -0.05298057 0.05143244 0.0046507474
0.03280361 -0.051223494 0.016534775 -0.051798075 -0.023370208 0.067242764 0.006345367 -0.45968428
0.029209947 -0.08489494 0.013019834 -0.11036053 0.042167176 -0.17044885 0.056991223 -0.10133766
-0.052897837 0.05277992 0.020334553 -0.06419686 -0.015324452 0.0015797524 -0.0010974014 0.057582617
-0.048642907 0.103979506 0.07002754 0.04158002 0.11040924 0.005546197 -0.10027331 -0.13151474
-0.033069797 0.06381809 0.12046032 -0.047938317 -0.027713133 -0.038792685 0.15422434 -0.4386108
-0.24699508 -0.123784326 -0.038333587 -0.24702565 0.039256353 0.071989655 -0.051950093 0.06502167
-0.02202629 -0.052836042 0.056284532 0.085833415 0.08902748 0.17688945 0.06975014 -0.012722266
-0.20344935 -0.19333841 -0.07980269 -0.03890827 -0.11358195 -0.34973145 0.08124862 0.00021886299
-0.027261678 0.14795636 -0.1467138 -0.03670801 0.033313878 0.17229143 0.03330722 -0.028249769
-0.071521156 -0.16010742 0.023677696 0.22853023 -0.0036122547 0.5000735 0.015029342 -0.011780825
0.03265984 0.31754404 0.37024337 0.022161122 -0.0059809405 0.015486897 0.02619662 -0.12550947
-0.044821654 -0.011894968 0.10411092 -0.076977074 -0.2671014 0.18133369 -0.048214093 -0.024285704
0.037878305 0.037383236 0.018328005 0.7414071 0.23825365 -0.14716728 -0.081611656 -0.078744076
-0.0033776131 0.062240884 0.041901957 -0.032889158 0.004770173 0.42517796 0.14909142 -0.068953335
0.140682 0.037913196 0.050650027 0.064866796 -0.08527701 -0.0066123772 -0.03289333 0.043800272
-0.028310565 0.103016086 0.0076875184 -0.09309675 0.07049107 0.01034719 -0.14699672 -0.013739329
-0.053500026 0.05850084 -0.0038923353 -0.027395353 0.060845178 -0.15644298 0.003265182 -0.24488227
-0.053545427 0.026729042 0.031089565 -0.22844772 -0.033115402 -0.06804588 0.051882785 -0.39580294
-0.060439218 0.24904291 -0.048568085 -0.035373975 0.069385454 -0.04803208 0.007486471 0.008767296
0.052410267 -0.025228407 0.037830815 -0.019080218 0.10261715 0.10295334 -0.037359152 0.056620132
0.02077294 -0.028184015 0.059263654 0.049060613 -0.1321742 -0.15684873 0.06644911 -0.29623532
-0.05295519 -0.09056025 0.011316745 -0.18894604 0.06325343 0.018471042 -0.14724556 0.3588469
0.021878516 0.0992651 0.029519804 0.05888692 0.009239002 0.042346984 0.010692309 -0.011056208

linear2.bias f4 [32]
00000000: 2587 713d 1b4b abbc b3fd 0f3e ba0c 533c
00000010: de8f 92be 1c1e 523d 0599 983c f5eb bebc
00000020: 0a33 b63b 5bb4 6dbc c46f d63d 763a 28bd
00000030: 643f 0cbe d3fd 493d ac38 1f3d 8c06 a13c
00000040: 1318 573d 6711 093e d60c 3cbd 4e55 713e
00000050: f7c4 593c d18f 48be e81a 12bd 7829 fc3c
00000060: 10b5 f13d 3bdd 133e 7dbc 3abe 7c27 5c3c
00000070: 5fee 32bd ac4c 1a3e 2c1e 3a3e 7705 49be
0.058966774 -0.020909837 0.14061622 0.012881452 -0.28625387 0.051298246 0.018627653 -0.023305872
0.0055602835 -0.014508332 0.10470536 -0.041071378 -0.13696057 0.04931433 0.038872406 0.019656442
0.052513193 0.13385545 -0.04591068 0.23567697 0.013291589 -0.19586112 -0.03567019 0.030781493
0.11802113 0.14439861 -0.18235965 0.013437148 -0.04368436 0.1506831 0.18175572 -0.19630991

output.weight f4 [5, 32]
00000000: 515c 29be 527a 623c e261 b0bd d766 12bd
00000010: 5d52 8f3e c5a2 c9bd 7d2e 95be d803 bf3d
00000020: b327 11bd fdcf 853e 4abf 3abd 2568 853e
00000030: 922d 8d3e f2b1 3a3e e162 933d 800d 89be
00000040: 0a47 923d 8243 153d 6b90 863d d7c0 9ebe
00000050: aa21 703c 0cd1 963e becc 4a3e 2765 ad3a
00000060: d28b 17bc aa26 84be 9f2d 083e 896a a1bd
00000070: d805 37bb 379d 2abe 0640 edbc 7ec7 263e
00000080: e1b4 2cbd 6932 f13d ba52 08be 7b70 fc3d
00000090: 0f17 133b 9d74 423c b93f 263e d027 403e
000000a0: 5120 efbc 3998 03be 6713 a7bd 7607 e13c
000000b0: ce8c 13be 5c8a 323e aeed 9b3d 0bd4 b53d
000000c0: d37c 1b3e 897c 80bd ea7a d5bd 4686 cf3d
000000d0: 1a36 283c 6108 1cbe 3285 0abe a6f5 bd39
000000e0: 1669 d83d a998 f0bd 6260 07bc e9dd 1c3e
000000f0: 28eb e9bd 5aa5 1f3e 4221 003e cdf4 d0bd
00000100: f665 0ebe 5dd6 b7be 6996 a03e bc73 f9bd
00000110: 14aa 7cbe a2c0 0c3e 3cd0 85be 131e 50be
00000120: 1f9a 0fbd b1e0 2c3e 8187 8abb 534e 42be
00000130: 64f8 e73d 7d13 be3d 7c5f 983d f153 fbbd
00000140: 76f4 883d 2a7e 6f3e 8d14 b0ba eb68 383e
00000150: 3be1 0a3c 250f 67be 147d 923e afa3 f63b
00000160: 55aa 4e3d 04f7 833e 0821 c7bd bb37 adbd
00000170: 8a02 393e d3e2 f53d f8e4 0d3e 7b78 14bd
00000180: 464d 773e 60ff 533e f621 123e 6bd1 033e
00000190: 3081 7bbe b6cd 69be 9b8c 4c3e 316b 1ebe
000001a0: 5080 ecbc 7d00 d5bd f90b 5b3e 4060 413c
000001b0: c025 1c3d 2e6d 50be 8abb 993d fe81 1abb
000001c0: 455a 043e 6079 b03d f4b6 2f3e 11ca b23d
000001d0: f569 fe3b d93e 213e 6ac7 1f3c 3765 4dba
000001e0: 502a 883d be6e a0bd 904d 33be f5b4 2ebe
000001f0: b723 263d 5b97 8dbd 9e1b 873d f3c4 2c3d
00000200: f705 c1bd 7fb8 063e 057f 54be 0c91 92bd
00000210: b12d e33d 7b54 763c 3108 293e 75b7 5c3d
00000220: 5c6f 3dbd 7cde b1bd 4f76 96bd 9ce2 54be
00000230: 42b3 83bd 6cf7 d9bd cfe4 8e3d 2ca1 0d3e
00000240: bd6a 15bd 40e3 40be 4eb4 97bd f3b4 843b
00000250: 4d40 c03a 7867 94bd f1c0 8abd b8db 393c
00000260: 266b 14be 751f 7e3c 2ed4 893d 1fed 333e
00000270: 79f2 423e 59d6 b9bd 312f 25be e953 8f3c
-0.16539122 0.013823109 -0.0861242 -0.035742607 0.27992526 -0.09845499 -0.2913703 0.09326905
-0.03543825 0.26135245 -0.045592584 0.26056018 0.2757383 0.18231943 0.07196594 -0.26768112
0.07142456 0.036441334 0.06570514 -0.310065 0.014656464 0.29456365 0.19804665 0.0013228998
-0.009249644 -0.25810748 0.13298653 -0.07881648 -0.0027927067 -0.16661535 -0.028961193 0.16287038
-0.042164687 0.11777193 -0.13312808 0.123261414 0.0022444164 0.011868623 0.16235246 0.18765187
-0.029190214 -0.12851037 -0.081579976 0.027469378 -0.14409181 0.17435592 0.07613693 0.088783346
0.15184335 -0.06273753 -0.104238346 0.101330325 0.010266805 -0.15237571 -0.13527372 0.00036231912
0.105669186 -0.117478676 -0.008262726 0.15319027 -0.114218056 0.1559042 0.12512687 -0.10202942
-0.13906083 -0.35905734 0.31364754 -0.12180278 -0.24674255 0.13745359 -0.26135433 -0.20323972
-0.03505909 0.16882588 -0.004227579 -0.18975191 0.113266736 0.09281061 0.07440087 -0.1227187
0.06687252 0.23387972 -0.0013433859 0.18008773 0.008476551 -0.22564371 0.28611052 0.007526837
0.05045541 0.25774395 -0.09723097 -0.08457895 0.18067375 0.12006154 0.13856876 -0.03624771
0.24150571 0.20702887 0.14270768 0.12872855 -0.24561 -0.22832379 0.19975512 -0.15470578
-0.028869778 -0.10400484 0.21391286 0.011802733 0.03812194 -0.20354149 0.07506473 -0.0023576017
0.1292506 0.086169004 0.17159635 0.08729947 0.007764096 0.1574663 0.009752134 -0.00078352116
0.066486955 -0.078336224 -0.17510056 -0.17061217 0.040561404 -0.069136344 0.065970644 0.042180013
-0.09424966 0.13156317 -0.20751579 -0.07156572 0.11092699 0.01503479 0.16507031 0.053885896
-0.04624878 -0.08685014 -0.07346784 -0.2078957 -0.06430675 -0.10642895 0.069772355 0.13831013
-0.036478747 -0.18836689 -0.07407437 0.004049891 0.0014667601 -0.072462976 -0.06775082 0.011343889
-0.14493999 0.01551043 0.06729923 0.17570923 0.19037808 -0.09074087 -0.16131283 0.017496066

output.bias f4 [5]
00000000: ccff cebe b4f6 0a3d dcaa 253e 6f2f 233e
00000010: ac93 97bd
-0.40429533 0.03392668 0.16178459 0.15936063 -0.07401213
