code/models/best_model_028.pth (torch, 482997 bytes, 8 tensors)

conv1.weight f4 [1, 1, 5, 3]
000000 7c 0b fd 3d ff 74 9c 3d 31 44 33 3e b8 b8 81 3e
       0.12355706 0.07639503 0.17506482 0.25336242
000010 dd f6 1c 3e da 5f cb bd d2 93 45 3e ca 9c 1f be
       0.15328546 -0.099303916 0.1929467 -0.15587154
000020 43 30 5a 3d 70 d7 1b 3e bd c5 10 bd e3 c0 66 be
       0.053268682 0.15218902 -0.035344828 -0.22534518
000030 be 86 a0 bc 84 e0 53 be 83 4c cb bd
       -0.0195955 -0.20691115 -0.09926703

conv2.weight f4 [1, 1, 3, 3]
000000 05 93 38 be ce b4 dc 3d 39 f8 36 3e f2 91 08 3e
       -0.18024834 0.10776673 0.17868127 0.13336924
000010 03 78 0e be de 79 91 3d 5b cc 1b be 4d 46 af bd
       -0.13912968 0.071033224 -0.15214674 -0.08558331
000020 4b 1e 32 3d
       0.04348592

linear1.weight f4 [128, 900]
000000 b4 7a 04 3b 1b b9 4a 3e ef 78 85 3c dd 55 56 3c
       0.0020214738 0.19797175 0.016293017 0.013081995
000010 8f 95 f8 3b a1 6e cb bd 05 8d 01 3d 3c 3f 49 3d
       0.007586188 -0.0993321 0.031628627 0.04913257
000020 c7 ce 12 3e 5f 25 dd bc e4 35 90 3d bb 24 be ba
       0.14336692 -0.026995359 0.07041529 -0.0014506796
000030 56 db 09 be 7f 20 9b bd 3d b3 76 bd 04 ef 67 3e
       -0.13462576 -0.075745575 -0.06022953 0.22649771
000040 fa 93 e8 bd 02 c4 78 bd a0 c2 1f be d7 cd 48 3a
       -0.11356349 -0.060733803 -0.15601587 0.0007660067
000050 1e 7d 3d 3a c8 c2 dc 3c da 1a 5d 3d 42 f7 8c 3d
       0.0007228422 0.026948348 0.053980686 0.06883098
000060 a5 40 ee 3c 0c bc 24 3d 7c 10 0d 3d 2a 3a ee bc
       0.02908356 0.040218398 0.03443955 -0.02908047
000070 14 2c da bc b1 dd e6 bd 46 69 ba 3d 66 16 ac bd
       -0.026632346 -0.11272753 0.091021106 -0.0840271
000080 3a 7c 2d bd d1 ec ad bd 78 44 bf bd 5d d0 d4 3b
       -0.0423548 -0.08492435 -0.09339231 0.0064945654
000090 1d 88 dd 3c 99 82 96 bd a4 39 e2 bd 3e 58 a2 bd
       0.027042443 -0.07349128 -0.1104615 -0.07926987
0000a0 9e 58 6d 3d b9 b3 a3 bd fa af 2b 3d 43 aa da 3c
       0.05794584 -0.07993264 0.04191587 0.026692515
0000b0 f0 e3 a6 3d 7d 09 8d 3d 7e f2 78 3d 6d 72 6e 3b
       0.081489444 0.06886575 0.060778134 0.003638412
0000c0 52 19 2f 3c 0b 11 ee bd f4 c6 74 3d da bf e1 3b
       0.010687189 -0.116243444 0.05976005 0.0068893256
0000d0 27 d8 22 3b 1c e8 7a bd 38 6d 09 3d 0e 1b c8 3c
       0.0024848075 -0.061256513 0.033551425 0.024426963
0000e0 72 8a 36 3d 7d 54 b2 3c 00 02 70 3d ce e7 51 bb
       0.044565625 0.021768803 0.058595657 -0.0032029036
0000f0 4e 38 c0 3d 0a d1 19 be 1d 05 f8 bd 67 06 a9 bd
       0.09385739 -0.15021148 -0.1211035 -0.08253174
000100 06 a9 97 bd 91 e4 2b 3d 8c 8c 25 3d 37 5d fe 3c
       -0.074052855 0.041966025 0.04041724 0.031050308
000110 17 45 33 bd c2 8f 9a 3d b4 63 2e be 9f e1 43 bd
       -0.04376706 0.07546951 -0.17030221 -0.04782259
000120 e5 cb 0b be b3 e5 c9 3d 19 25 bd 3d cb 9d 0f be
       -0.13651998 0.09858265 0.092355914 -0.14025037
000130 0d f5 94 bd 0f 73 3e 3c 23 1e 32 bd f9 18 db 3d
       -0.07273302 0.011624112 -0.043485772 0.106981225
000140 ae 1b ea bc d8 8b d6 bd d8 9f dc bc 69 03 d1 bd
       -0.028577652 -0.10475892 -0.026931688 -0.102057286
000150 56 a0 2d bd 71 09 5c bd 6f 85 25 be 01 6c 0b 3e
       -0.042389236 -0.05371994 -0.16164182 0.13615419
000160 89 8c 01 be b4 97 12 bc 4d 1b d9 3b 4d 45 ca bb
       -0.12651266 -0.008947302 0.006625569 -0.006172812
000170 3e fe cb bd c7 76 85 3c 5a 04 00 bd 15 38 13 be
       -0.09960602 0.016291989 -0.03125415 -0.14376862
000180 fd 06 8b bd f3 01 04 bc 71 2a 0e be 49 4f b9 3d
       -0.06788442 -0.008057105 -0.13883378 0.090483256
000190 fc a0 5b bc e5 0c e5 3d 9d de 4e 3d 2f 77 db 3c
       -0.013405081 0.111841 0.05050527 0.02679023
0001a0 08 9a 69 be b2 c6 56 bc 7e 19 df 3d 4b 97 cb 3d
       -0.22812665 -0.013108896 0.10893534 0.09940966
0001b0 7a a5 9e 3d 6a c1 e0 bc 2d 40 0e 3e 10 c8 c2 3c
       0.07746406 -0.027435977 0.13891669 0.023777038
0001c0 23 52 db 3b 5e 88 2c 3d 9c 08 c0 3c 31 1c 2d be
       0.006693141 0.042122237 0.023441605 -0.16905285
0001d0 bf 34 a3 bc 81 aa 67 be cc 1f d4 bd a6 a9 17 3d
       -0.019922612 -0.22623636 -0.10357627 0.037027024
0001e0 7b 18 2f be 6e 21 31 3e 50 12 21 3e 91 64 67 3d
       -0.17099182 0.17297909 0.15729642 0.056492392
0001f0 52 92 a7 bd 72 ad 58 bc 5f 2d 82 bd e1 3c 06 be
       -0.08182205 -0.013224946 -0.0635631 -0.13109161
000200 8e 17 c4 3d 2d f1 c4 3d 3b a7 a0 bd b7 16 7c bd
       0.09574805 0.09616313 -0.07844397 -0.0615451
000210 69 73 3f be 04 9f 34 be 97 8a f6 bd d7 7e 8a 3d
       -0.18696369 -0.17638785 -0.12038153 0.06762474
000220 b0 c8 11 be c9 8c 46 be cf 79 41 be bd c6 ed bc
       -0.14236712 -0.19389643 -0.18894123 -0.02902543
000230 a0 61 a5 3c f5 19 10 be 60 9d 0e 3d 11 c2 93 3d
       0.020188153 -0.14072402 0.034818053 0.072147496
000240 ee 2d b2 3d 7c 15 6a bc ae f2 65 3d 91 d6 2d 3e
       0.08700167 -0.014287349 0.05613964 0.16976382
000250 2f 4d c7 3d 2c d2 7a bd 8a 60 7c be f8 79 fb bd
       0.097315185 -0.06123559 -0.24646202 -0.12279123
000260 3b eb 22 3d 6c c2 8e be 11 be a6 3d 77 59 e8 3d
       0.039775115 -0.27882707 0.08141721 0.11345189
000270 67 46 1e be 56 bc 46 3d a9 b8 f3 3c 57 77 11 3d
       -0.15456544 0.048519455 0.029751139 0.035514202
000280 37 64 17 3e 60 3d 02 bc c1 1f 1e bd 8e db a9 3d
       0.14784323 -0.007949203 -0.0386045 0.0829383
000290 73 c8 02 bd 44 b3 5a bd 33 22 18 3e 25 af 63 bd
       -0.031929445 -0.053393617 0.14856796 -0.055586953
0002a0 c8 22 06 bd 00 68 06 be e8 04 2e 3e b2 9c 15 be
       -0.032748014 -0.1312561 0.16994059 -0.14610556
0002b0 44 15 46 bd bb 7e 03 3d ea bc f2 bd 2e 42 f7 bb
       -0.048360124 0.03210328 -0.11852439 -0.007545731
0002c0 f6 42 90 bd 08 8a 3d 3d 16 bb 27 3c 47 54 fe 3c
       -0.07044022 0.046274215 0.010237476 0.031046046
0002d0 67 fd 16 3d f9 ee 16 3e 1b e5 3d bb 78 e7 82 3d
       0.036862757 0.14739598 -0.0028975669 0.063918054
0002e0 81 c8 ca be 47 f0 3f be e5 75 44 39 eb 5e 25 3c
       -0.39606097 -0.18744002 0.00018735936 0.010093431
0002f0 bb 9a 54 be 6a 37 41 bd 4f 05 cd bd f2 69 ed bd
       -0.2076215 -0.047171988 -0.10010778 -0.11592473
000300 11 26 cb 3d 09 a6 ef 3d df 69 50 bd 0b 99 71 3a
       0.0991937 0.117015906 -0.050882217 0.00092162256
000310 f3 6a db bc 6a 70 ee 3d 04 0c 7c bd 1e 98 44 3c
       -0.026784396 0.11642535 -0.061534896 0.011999158
000320 5c 5b a3 be 86 cb 9f 3d 74 e7 86 3d 25 d2 83 be
       -0.3190564 0.07802491 0.06587115 -0.25746265
000330 82 04 43 3d 1a f4 3b be 78 3d 26 bd 0a 92 37 3d
       0.04761172 -0.18354836 -0.040585965 0.044817008
000340 6f cd 50 be 22 0c fa 3c 1b 53 c3 3c dd d7 40 3b
       -0.20390867 0.030523364 0.023843339 0.002942554
000350 85 1f 70 be dd 6d 79 bd 7c b1 3e 3e 1e 0e b4 bd
       -0.23449524 -0.06089579 0.18622392 -0.08791755
000360 8d 3c d5 3d 3e 0a 87 3d 86 23 1f bd 45 c6 da 3c
       0.1041194 0.065937504 -0.038852237 0.02670587
000370 c1 68 5e bd f8 f2 3a 3c b7 ee f7 bd 44 c0 8d 3c
       -0.05429912 0.011410467 -0.12106078 0.017303593
000380 87 93 64 3d 80 22 19 be 54 2d 92 3d 9c 8b aa 3d
       0.055804756 -0.14954567 0.07137552 0.083274096
000390 c0 c4 a8 bd a6 ab d4 3c c9 a6 39 3e a1 a0 e4 bd
       -0.08240652 0.025960755 0.1813003 -0.1116345
0003a0 c7 d4 a3 bd af b1 ce bc 5b d6 86 3c c2 d4 0d 3b
       -0.079995684 -0.02523121 0.016459635 0.0021641706
0003b0 67 de 16 be f0 d0 25 3e 9d 42 2a be e3 d5 5a bd
       -0.14733277 0.16192985 -0.16626973 -0.053426635
0003c0 26 b5 45 3b ad f7 e1 be c2 4c bc 3d de 41 c2 bc
       0.0030167787 -0.44134274 0.09194328 -0.023713049
0003d0 0d c3 bb bd 91 6c a0 3c 7f ad d0 3b af cb 8e be
       -0.09168062 0.019583018 0.0063683386 -0.27889773
0003e0 f4 fa f0 3b 13 f5 cc bd 8c 96 59 bd 84 37 97 bd
       0.0073541347 -0.10007682 -0.05312209 -0.07383636
0003f0 64 9f d6 3d cc c4 be bd dd 64 2d be 15 d8 04 3e
       0.1047962 -0.0931488 -0.16933008 0.12973054

linear1.bias f4 [128]
000000 d9 df ac bd fa f8 48 3d 66 d6 bb bd 67 07 b4 bd
       -0.08441133 0.049065568 -0.09171753 -0.087904744
000010 57 82 5c 3d 5f 61 a9 3d d9 8d be bd 35 0f 87 bd
       0.05383524 0.08270525 -0.09304399 -0.065946974
000020 3b 05 10 be e5 7a 4a bd c5 73 8e bb 96 ff 1d 3c
       -0.14064495 -0.049433608 -0.004347297 0.009643456
000030 5d f5 22 3c 2d 66 08 be 3b 28 77 bd bd ad 32 bd
       0.0099461945 -0.13320227 -0.0603411 -0.04362272
000040 78 20 1c bd c0 98 97 bc 0c 0f a7 bd bd 59 aa bd
       -0.038116902 -0.018505454 -0.08157167 -0.083178975
000050 1d fc 8c 3d 96 d2 c6 bd 7a a5 32 3d 16 8f 41 bc
       0.06884024 -0.09708135 0.043614842 -0.0118138995
000060 01 a8 f8 bb 4d a9 a2 bd 0f 01 a5 bd 01 9c 58 3d
       -0.007588387 -0.07942448 -0.080568425 0.052883152
000070 2b 7b 4f 3d f8 f0 24 3d a1 a4 db bd 07 5e af bd
       0.05065457 0.04026887 -0.1072476 -0.08562856
000080 99 a1 43 bb 3b fd 22 3c 0a 82 37 bd fe a7 94 bd
       -0.0029850958 0.00994807 -0.04480175 -0.072586045
000090 7a d8 00 bd e9 80 d4 bc ee f4 11 bd c6 b4 77 3d
       -0.03145645 -0.025940375 -0.035633974 0.060475133
0000a0 16 7f c6 bc 11 dc 95 3d 48 78 ed bd 69 53 20 be
       -0.024230521 0.07317365 -0.115952075 -0.15656818
0000b0 60 6e 2d bd c3 7d 7f bd 7e da bb 3d c4 ef ce bc
       -0.04234159 -0.062375795 0.091725335 -0.025260814
0000c0 1e 5b 7a bd e6 83 82 3c 22 ed 51 bd 7b 0b a9 3d
       -0.061122052 0.015932035 -0.051251538 0.08254143
0000d0 75 36 53 3d 74 3e 0a be 74 a4 89 bd 7b af 1c 3d
       0.051565606 -0.13500386 -0.0672082 0.03825329
0000e0 83 27 a7 bd 89 9f 66 bc 7d 78 9a 3c a7 57 0c be
       -0.08161833 -0.014076122 0.018856281 -0.13705312
0000f0 64 72 52 3d 5e 7a 96 bd 17 68 d6 3d e1 94 26 3d
       0.051378623 -0.073475584 0.10469072 0.040669326
000100 c0 62 40 3d 7f 9b 1f be ca 32 74 bd 67 2c 85 bc
       0.046969175 -0.15586661 -0.05961875 -0.016256524
000110 ad 19 ff bc 0f 81 d9 bc d2 c4 0c 3e cb 5a 8a 3d
       -0.031140173 -0.026550798 0.13746956 0.06755599
000120 f7 76 10 bd 7e 40 53 bc 72 bd a9 3c 90 7c 97 3b
       -0.035269704 -0.012893794 0.020720217 0.0046230033
000130 d9 95 39 3d 4a 46 14 3e 65 ff 1c 3c 60 62 0c be
       0.04530892 0.14479938 0.009582375 -0.13709402
000140 be ef 81 bd bf d5 f6 3c 1d 13 ad 3d e4 e5 11 3e
       -0.06344555 0.030131219 0.08450911 0.14247853
000150 d7 b4 91 3d 1c ff f8 bb c6 63 7b bb db df bf 3d
       0.071145706 -0.007598771 -0.003835903 0.09368869
000160 5d 9a 3c bc 0f 51 e4 bd c5 fe d3 3d 01 45 47 bd
       -0.011511412 -0.11148273 0.10351328 -0.04864979
000170 af 22 52 3d 56 e7 8b bc d2 69 97 3d cd b4 54 bc
       0.051302608 -0.017078083 0.073932305 -0.012982559
000180 4d cf c5 bc a3 6e 0b 3e 4c 5d c0 3d c4 8b 9c 3d
       -0.0241467 0.13616423 0.09392795 0.07643846
000190 0a 81 8e 3d 05 ef 22 bd 2d 32 8b bd 35 b4 61 bd
       0.06958206 -0.039778728 -0.0679668 -0.0551035
0001a0 52 3a 83 bd 69 33 c7 3d d2 8b 9d 3d 8c 9d 5b 3c
       -0.06407608 0.097266026 0.07692684 0.013404261
0001b0 d1 26 fb 3d 69 72 b7 3d 75 1d 37 3d fc 86 1a bc
       0.12263263 0.08957369 0.044705827 -0.009431597
0001c0 a8 10 07 be 59 e4 5d bc b1 99 88 bd e1 b6 72 bd
       -0.13189948 -0.013543212 -0.06669939 -0.05925644
0001d0 b5 a6 99 3d 12 76 9e 3d 40 a5 90 3d 79 4c d9 bd
       0.075025 0.07737364 0.07062769 -0.10610289
0001e0 05 31 07 bd 46 34 c1 bd 73 88 ab 3d 41 a9 55 3d
       -0.033005733 -0.094337985 0.08375635 0.052163366
0001f0 bd b5 2d bd a5 8a a4 3d 25 be 37 3d fc 0b 1c 3d
       -0.042409647 0.08034257 0.04485907 0.038097367

linear2.weight f4 [32, 128]
000000 3c 49 b7 be fc 82 86 bd 77 95 c2 bd fa b4 31 be
       -0.3579806 -0.06567952 -0.095011644 -0.17354193
000010 3b 27 8e bd 8c 27 c8 bd 3f 2c 1d 37 75 cb ed bd
       -0.06941076 -0.09773168 9.368231e-06 -0.11611072
000020 5f 8e 8f bd c7 ec cc 3d 20 be 2b be 59 c8 80 3d
       -0.07009577 0.10006099 -0.16771746 0.06288213
000030 1f f2 8e bd 7f 23 33 3d 06 72 5f bd 6c bf 27 3d
       -0.06979775 0.043735024 -0.0545521 0.04095404
000040 71 47 70 bd 24 da 5f be 42 05 2f 3d 70 a2 f2 3d
       -0.05866188 -0.21860558 0.042729624 0.11847389
000050 d7 26 8d 3d 0c 30 25 3e bc 72 a9 bc 2f 92 cf bc
       0.06892174 0.1613161 -0.020684592 -0.02533826
000060 da a3 0b bd 7d 01 35 3e b0 a2 19 3e 34 19 87 bc
       -0.034091808 0.17676349 0.15003467 -0.01649151
000070 54 74 02 3e a2 8a 92 3c 2c 7b 2f bc ee 72 1d be
       0.12739688 0.01788837 -0.010710519 -0.15375873
000080 c2 d3 21 bd 23 8f 7a 3c da 98 cf bc 94 d0 08 be
       -0.03950859 0.0152929155 -0.02534144 -0.13360816
000090 4d 3f b3 be e7 66 4a 3e 1f f5 6c bc bb 46 ef 3a
       -0.35009232 0.19765817 -0.014462738 0.0018255332
0000a0 b9 9d 3b 3c 32 cd 5b 3d 84 80 ba bc 15 4c 06 3e
       0.011451178 0.053662486 -0.02276636 0.1311496
0000b0 06 7f 09 3c 04 c6 78 be 0f 91 a5 bc 2a 70 4a bd
       0.008392101 -0.24294287 -0.02021077 -0.049423374
0000c0 fd 0f 4b bd fe 8d 61 bd e4 de 06 bd e1 53 b3 ba
       -0.049575794 -0.055067055 -0.03292741 -0.0013681614
0000d0 58 55 00 3e 63 47 7c 3d db fe ac 3d 67 7d 1c bd
       0.12532556 0.061591517 0.08447047 -0.03820553
0000e0 f4 48 bd 3d 80 88 8a 3c eb 9a 8c 3d 82 bc 9f bd
       0.0924243 0.016910791 0.06865486 -0.07799627
0000f0 ba 01 3f bd 7f b1 35 bd 3a da d4 3d 22 ad e7 3a
       -0.046632506 -0.044358727 0.10393186 0.0017675499
000100 c8 e8 83 bb d2 4c 4a bd a0 17 ec 3c d8 0d be 3c
       -0.0040255524 -0.049389668 0.028819859 0.02319996
000110 62 7c b4 3d c0 97 e7 bc cb ec 98 39 10 a9 7a bb
       0.08812787 -0.028270602 0.00029168124 -0.0038247742
000120 24 62 c6 bc 5c 24 f7 bc 7f ad 02 3d 42 38 6d bd
       -0.024216719 -0.030168705 0.03190374 -0.05791498
000130 14 61 d5 bc 8d 75 f0 bc 29 fd 3b 3c 9c ce 94 be
       -0.026047267 -0.029352928 0.011473932 -0.2906388
000140 23 d8 56 3d 6a e7 1a be 0f af 0d 3c a7 ec 10 be
       0.052452218 -0.1512734 0.008647694 -0.14152776
000150 6c d0 26 3d 39 29 dc bd fc 48 f9 3d 87 02 a4 bd
       0.04072611 -0.1075005 0.12172124 -0.080082946
000160 00 02 49 bd 67 76 7f 3d f1 0d c1 3c 26 e4 94 bd
       -0.049074173 0.062368777 0.023566218 -0.07270078
000170 32 3a c9 bc 8e 75 27 3c 3f ca 04 3b 43 6b 6a 3d
       -0.024563882 0.010220898 0.002026215 0.0572312
000180 e1 a4 9b bd d2 4f 70 3d 18 10 3b 3d d8 ba b3 3d
       -0.075998075 0.058669873 0.045669645 0.08775872
000190 93 27 b3 3c c2 97 9a bc db 85 00 3c c7 f8 ae bd
       0.021869456 -0.018871192 0.007844414 -0.08543544
0001a0 94 f1 5f bd 8f cb ec 3e 38 2c 0b 3e 39 d7 36 bd
       -0.054673746 0.46249053 0.13591087 -0.044638846
0001b0 c8 b4 a0 bd 4d ce 77 bd 99 25 4b 3e 86 4c fa be
       -0.07846981 -0.060499478 0.19838561 -0.48886508
0001c0 2f bd 4c be f9 1e ca bd cd 80 02 bd 4d 5e 41 be
       -0.19994043 -0.09869189 -0.031861115 -0.18883629
0001d0 76 da 70 3d 3a 90 a4 3d 0e 60 79 bd 73 20 98 3d
       0.05880209 0.080353215 -0.06088262 0.07428064
0001e0 a5 2b ad 3b bf 40 d8 bd 46 30 59 3d 9c 3b 38 3c
       0.005284744 -0.10559224 0.053024553 0.011244681
0001f0 a5 53 b2 3d c8 0c 04 3e af 4c e5 3c 94 ec bc 39
       0.0870736 0.128955 0.027990667 0.0003603442
000200 55 11 3c be c8 ae 03 be d6 b4 61 bd 96 64 1f bd
       -0.18365987 -0.12859643 -0.0551041 -0.038914286
000210 f2 58 b8 bd c8 1b 7d be 0e 7a c2 3d 00 32 05 bc
       -0.0900134 -0.24717629 0.09495936 -0.008129597
000220 54 c5 53 3c a7 5e 1c 3e bb ed 41 be 1d 1c 3d bd
       0.012925465 0.15270482 -0.18938343 -0.04616939
000230 f3 66 1b 3d 5e e3 7f 3e 2e e4 dd 3c ae cd 8a bb
       0.037939977 0.24989077 0.027086344 -0.0042359447
000240 f1 58 62 bd 29 a7 22 be 80 de 46 3c 97 96 84 3e
       -0.055260602 -0.15884079 0.012138009 0.2589614
000250 d0 e4 c7 3c e6 e3 a9 3e 9c fd 60 bd f0 e1 59 bc
       0.024401098 0.33181685 -0.05492936 -0.013298497
000260 1d be 2a 3d 1a 52 6c 3e ca c2 52 3e 11 fe c6 3b
       0.041685212 0.23078194 0.20582119 0.0060727675
000270 67 62 28 3c cb cc 21 3c 4f c4 1c 3d 2a a6 72 bd
       0.010277367 0.009875487 0.038273152 -0.059240498
000280 cd 46 6d bd 9d a3 3e bb 9f 95 94 3d 16 9d ab bd
       -0.05792885 -0.002908922 0.072551005 -0.08379571
000290 a6 c9 74 be a5 0f 13 3e 4d 72 2f bd 75 99 2b bc
       -0.23905048 0.14361437 -0.042833615 -0.010473599
0002a0 ef b1 80 3d a6 9b 60 3d f0 17 b9 3c de 39 1b 3f
       0.06283938 0.054835938 0.022594422 0.60635173
0002b0 2b 8a fd 3d 73 81 a1 bd 6b 37 89 bd 8a 0f 6f bc
       0.12379869 -0.078860186 -0.06700023 -0.014591107
0002c0 bb e9 53 3c e9 a0 35 3d 30 5c 27 3d 5e d6 7b bc
       0.012934144 0.04434291 0.0408594 -0.015370933
0002d0 1f 03 39 3b 76 c0 8e 3e 1f 10 50 3e 13 5e 41 bd
       0.002823062 0.2788121 0.2031865 -0.047208857
0002e0 8d 5d e7 3d 85 0f 85 3d b1 a8 3b 3d c4 13 f7 3d
       0.1129714 0.06497101 0.045815174 0.12064317
0002f0 1b 35 0b be c3 68 1e 3c ca 3a 6e bd 10 b8 4e 3d
       -0.13594477 0.009668532 -0.058161534 0.050468504
000300 e4 65 06 bd ef 29 15 3e 52 23 1a 3d 28 91 b3 bd
       -0.032812014 0.14566778 0.03763134 -0.08767921
000310 19 cf cd 3d ba d0 ab 3c 4c 94 b4 bd ff eb b6 bc
       0.10049266 0.020973552 -0.08817348 -0.022329329
000320 31 75 c3 bd 0b 58 9d 3d 8b 56 f4 ba b8 18 81 bc
       -0.09543837 0.076828085 -0.0018641514 -0.015758857
000330 5b ea 55 3d 54 4b 8e be e1 35 38 bb d5 94 2e be
       0.052225452 -0.27791846 -0.0028108286 -0.17048962
000340 2d 19 2d bd 55 05 d0 bc c9 09 c5 3b 9a 7c 9a be
       -0.042260338 -0.025393168 0.0060131294 -0.30173188
000350 12 8b d6 bc da 21 a3 bc 0d 4b de 3d fd ff 8d be
       -0.02618936 -0.019913603 0.108541586 -0.27734366
000360 20 f3 52 bd 95 e5 78 3e 8c 09 83 bd 4b 46 04 bd
       -0.051501393 0.24306329 -0.06398305 -0.0322936
000370 f6 1b 8c 3d c2 a0 1a bd c9 f7 84 bb 9c 69 1d 3c
       0.068412706 -0.037750967 -0.0040578586 0.009607699
000380 83 c2 16 3c 48 56 43 bd 8e 8e bc 3c a7 a2 89 3b
       0.009201649 -0.047689706 0.023017194 0.004200298
000390 9c d5 2d 3d d8 0a 96 3d 97 f7 de bc d3 c2 b7 3b
       0.042440042 0.07326287 -0.02721767 0.0056079417
0003a0 f9 9d d9 3c e1 47 19 3e 3d 86 42 3d 36 90 63 3d
       0.026564585 0.14968826 0.0474913 0.055557452
0003b0 5c 89 1f be 8e d7 3c be 5b c3 ac 3d 95 47 9a be
       -0.15579742 -0.18441603 0.084356986 -0.30132738
0003c0 d4 37 88 bc 16 e4 9c bd 68 b5 9e 3c 81 9b 0d be
       -0.016628183 -0.076606914 0.01937361 -0.13828851
0003d0 5a 33 6e 3d e5 a2 c4 3c 44 1a 2c be 13 9f 94 3e
       0.05815444 0.024003455 -0.16806895 0.29027614
0003e0 6b 12 a6 3d 1c 3c 94 3d 01 1c 08 3d 7a 4b 27 3d
       0.08108982 0.072380275 0.03322983 0.040843464
0003f0 39 c0 c0 3b dd 0b 06 b9 82 a9 0d bc ae 1b b7 bc
       0.0058822897 -0.00012783655 -0.008646371 -0.022352066

linear2.bias f4 [32]
000000 6a 6c 53 3d 5b 62 3f bc 59 a5 11 3e b5 32 3f bc
       0.051617064 -0.011681165 0.14223231 -0.011669804
000010 b9 e8 82 be d0 d6 43 3d 06 4c 59 3a 44 02 03 bd
       -0.25568178 0.047812283 0.00082892214 -0.031984583
000020 c1 3c 02 3d 3c ef 46 3c 8a 78 e8 3d 87 60 b5 bc
       0.03179622 0.012141999 0.11351116 -0.022140754
000030 fd 34 c9 bd 13 db d1 3c 04 86 9b 3c 81 cc 9f bc
       -0.0982456 0.025617158 0.018984802 -0.019506695
000040 90 aa 84 3b 83 74 0b 3e bd 4d 04 bd c7 bd 35 3e
       0.004048653 0.13618664 -0.0323007 0.17748176
000050 e3 9d 55 3c 46 0e 12 be aa f2 96 bc c3 91 21 3d
       0.013038131 -0.14263257 -0.018426258 0.03944565
000060 f8 82 77 3d 16 a9 09 3e 19 16 2f be 88 63 b7 ba
       0.060427636 0.13443407 -0.17098273 -0.0013991455
000070 da 98 9c bc 72 69 b1 3d 96 bd 01 3e 73 88 2a be
       -0.019115854 0.0866269 0.12669978 -0.16653614

output.weight f4 [5, 32]
000000 5e 87 28 be c1 e4 95 3c ed bb ad bd 56 a0 45 bd
       -0.16457888 0.018297555 -0.084831096 -0.04824861
000010 e4 56 92 3e cc e2 f5 bd 31 c9 9d be 61 dd ec 3d
       0.28581917 -0.12006149 -0.3081756 0.11565662
000020 f9 65 e5 bc cd c0 8f 3e 9d 72 42 bd 70 40 7e 3e
       -0.028002726 0.28076783 -0.047472585 0.24829268
000030 dc d3 7a 3e fe 5b 5a 3e 5c 6b b0 3d 8a 02 7b be
       0.2449488 0.21324155 0.08614227 -0.24512687
000040 b3 b4 b3 3d d2 12 02 3d c2 b8 71 3d a7 c9 9d be
       0.087747 0.03175623 0.05901409 -0.3081791
000050 95 13 da 3b d4 b1 8c 3e 43 7c 31 3e 86 50 96 3a
       0.0066551664 0.27479422 0.17332558 0.001146809
000060 8a cf 0b bc eb d3 8d be 83 a7 0c 3e 87 64 a3 bd
       -0.008533368 -0.27700743 0.13735776 -0.079781584
000070 fa 39 fb ba 81 68 18 be 6e 49 7f bc b6 3e 4a 3e
       -0.0019167059 -0.14883615 -0.015581472 0.19750485
000080 07 63 c5 bb c2 76 f1 3d 24 0b b7 bd 4d 02 04 3e
       -0.006023768 0.117902294 -0.08937672 0.12891503
000090 81 ad ff bc 41 66 a3 3c ab 6e 1c 3e c9 da 49 3e
       -0.031210663 0.01994622 0.15276591 0.19712366
0000a0 c6 d8 27 bd cc 80 0d be 26 2d 92 bd 0b 5c 0c 3d
       -0.040978216 -0.13818663 -0.07137518 0.034267467
0000b0 49 54 0c be 88 22 2a 3e a8 90 a0 3d 64 3c 91 3d
       -0.13704027 0.16614735 0.07840091 0.07091597
0000c0 57 c1 e6 3d 18 e9 10 bd f7 28 be bd 23 3e f7 3d
       0.112673454 -0.035378546 -0.09285157 0.120723985
0000d0 ce fb c7 3b 89 30 12 be 84 8c ed bd 81 08 91 3b
       0.0061030155 -0.14276327 -0.11599067 0.0044260626
0000e0 d6 da 87 3d f8 24 05 be 56 e9 0e bd 46 d4 12 3e
       0.066335365 -0.13002384 -0.034890495 0.14338788
0000f0 a4 a9 d4 bd f5 fa 1e 3e 93 c8 1c 3e 96 32 00 be
       -0.10383919 0.1552542 0.15310888 -0.12519297
000100 3b 0b 27 be 7d 43 8e be 46 49 72 3e 3e 60 f1 bd
       -0.16312878 -0.27785864 0.23660764 -0.11785935
000110 c7 bc 5c be e9 47 01 3e 6b 1c 5c be c3 01 33 be
       -0.21556388 0.12625088 -0.21495216 -0.17481141
000120 ff cb 2e bd 3e 1a 1d 3e 54 b8 c2 bc af 47 38 be
       -0.042675015 0.15342042 -0.023769535 -0.17996095
000130 3a d2 a3 3d a3 a8 a7 3d 51 f6 6e 3d 91 a1 aa bd
       0.07999082 0.08186462 0.058340374 -0.083315976
000140 af 32 5a 3d a0 b2 32 3e ee 43 6c bc 41 d7 1d 3e
       0.053270992 0.17450953 -0.014420493 0.15414144
000150 32 f4 82 3c fa 33 5c be 74 b4 61 3e 76 19 b8 bc
       0.015985582 -0.21504202 0.22041494 -0.022473078
000160 bc fe b2 3c 00 a2 63 3e ae aa 92 bd 90 1c 0e bd
       0.021849982 0.22229767 -0.07161461 -0.034695208
000170 f5 ae 3c 3e 5c bd ac 3d 50 71 cf 3d 2b 1b 08 bd
       0.18426116 0.08434555 0.101290345 -0.033229034
000180 b5 f5 6a 3e 0a 69 38 3e ef a8 fb 3d 79 97 bf 3d
       0.22945292 0.18008819 0.12288081 0.09355063
000190 d6 28 5a be 88 1b 6b be ec 53 42 3e 43 f2 38 be
       -0.2130464 -0.22959721 0.18977326 -0.18061166
0001a0 56 a8 d5 bc 4a ef a8 bd 7f b3 67 3e 1e 56 1b bc
       -0.026081245 -0.08248766 0.22627066 -0.009480981
0001b0 79 a5 51 3d 4e 6f 5d be d9 1c a4 3d 06 fd 88 bc
       0.051183198 -0.2162449 0.08013315 -0.016722213
0001c0 ad 68 d3 3d fa 3b b2 3d 0b 1e 38 3e 55 dd 94 3d
       0.103227 0.08702846 0.1798021 0.07268778
0001d0 5f 1b c0 3b b1 d4 2c 3e c8 44 ca 3c 7d 6f 56 3c
       0.005862638 0.1687801 0.024691 0.013088104
0001e0 87 e6 3e 3d e9 cf 59 bd 67 42 37 be 2d fb 24 be
       0.046606567 -0.053176794 -0.17896424 -0.16111441
0001f0 a3 39 7e 3d 98 aa a0 bd 67 39 7f 3d ce 21 81 3d
       0.062066685 -0.07845038 0.062310603 0.06305276
000200 6d 6d e9 bd 16 f3 00 3e ad d3 5c be 33 79 35 bd
       -0.113978244 0.1259273 -0.21565123 -0.044305038
000210 e4 9a ef 3d 9b 7c 18 3b be 44 29 3e a9 84 58 3d
       0.11699465 0.002326763 0.1653013 0.05286089
000220 0e 86 1f bd f5 b7 bd bd e7 96 b0 bd e0 03 3d be
       -0.038946204 -0.09263603 -0.08622532 -0.1845851
000230 44 33 72 bd 99 6d c0 bd 65 b2 a3 3d 91 32 07 3e
       -0.059130922 -0.09395904 0.079930104 0.13202883
000240 e1 16 aa 3c 64 d0 46 be b1 16 a7 bd b3 18 22 bc
       0.020762863 -0.19415432 -0.08158625 -0.009893584
000250 11 ed 39 3b f5 13 83 bd db ca 78 bd 8f 84 29 3c
       0.0028370062 -0.06400291 -0.060740333 0.010346546
000260 d3 e2 a3 bd b1 4a ea 3c 7d 25 b6 3d f2 a0 32 3e
       -0.08002248 0.028600069 0.08893869 0.17444208
000270 dc 7f 3a 3e 0b 76 cf bd bb 3f 34 be 59 b3 33 3c
       0.18212837 -0.10129937 -0.17602436 0.010968053

output.bias f4 [5]
000000 20 8b 9a be 0a 83 28 bd d9 66 19 3e ca d9 28 3e
       -0.3018427 -0.041140594 0.1498064 0.1648933
000010 47 f6 62 bd
       -0.05541065
