code/models/best_model_030.pth (torch, 482997 bytes, 8 tensors)

conv1.weight f4 [1, 1, 5, 3]
000000 6e f3 a3 3d 9c 9c a6 3d 70 3b 34 3e e9 b4 8f 3e
       0.08005415 0.081353396 0.17600799 0.2806771
000010 87 33 3a 3e b3 25 d2 bd c6 87 21 3e 02 28 4c be
       0.18183719 -0.10261097 0.1577445 -0.19937137
000020 e8 07 7d 3a 3d cb 2b 3e 92 09 21 3d 0e aa 16 be
       0.0009652362 0.16776748 0.039315768 -0.14713308
000030 7d 7d 59 bd 18 7b 4c be 44 91 07 be
       -0.05309819 -0.19968832 -0.13239008

conv2.weight f4 [1, 1, 3, 3]
000000 db 47 2f be 21 f9 cd 3d c3 e4 3d 3e 7d 3d 04 3e
       -0.17117254 0.10057283 0.18544297 0.12914081
000010 7a 89 25 be b9 90 ca 3d ec f9 20 be c8 88 ca bd
       -0.16165724 0.09890885 -0.15720338 -0.0988937
000020 3a 8a 03 3c
       0.008028561

linear1.weight f4 [128, 900]
000000 76 af 68 3d ea 37 65 3d 9a 24 08 bd 08 32 2a bd
       0.056807958 0.055961527 -0.03323803 -0.04155162
000010 eb f3 80 bd e5 f3 8d bd 38 52 34 3d 49 3e 5b 3d
       -0.06296524 -0.06931285 0.044023722 0.053526197
000020 77 5f 03 3e 7f c4 b8 3c e1 de fb bc b1 57 aa 3d
       0.12829386 0.022554634 -0.030745925 0.08317507
000030 03 5b 20 bd d6 ac ff bc 54 f6 11 bd 67 ab 97 3d
       -0.039149296 -0.031210344 -0.035635307 0.07405739
000040 ea 5c 33 bd 5f ee 9e bc e1 6f 50 bd 43 fe 05 3b
       -0.04378978 -0.019400774 -0.050887946 0.0020445741
000050 5c d9 34 3d 94 37 4f 3c a3 14 00 bd 1a 86 58 3d
       0.044152603 0.012647528 -0.03126968 0.052862264
000060 47 45 60 3d 8f aa 13 3d 5f 22 1a 3d 1c 6c fa bc
       0.054753568 0.03605133 0.037630435 -0.030569129
000070 c6 6b f5 3b 09 c1 0d bd 0a 16 1e 3d a8 5c 94 bd
       0.0074896542 -0.03460792 0.038595237 -0.07244235
000080 5b 6b 86 bc 42 79 8d bc 2b 3b a6 bd 40 ee 85 bb
       -0.016408613 -0.017269734 -0.08116754 -0.0040872395
000090 ae 3c bc 3c dc 80 83 bd fd 35 37 bd 92 d4 be bc
       0.022978153 -0.06421062 -0.04472922 -0.02329472
0000a0 f0 36 38 3d f4 d2 b3 bd 39 c7 0f bd 73 84 8d 3c
       0.044974267 -0.087804705 -0.035102103 0.01727507
0000b0 86 24 b8 3d f5 c5 01 3d 2b 29 31 3c 4f a4 82 3c
       0.08991341 0.031682927 0.010813038 0.015947489
0000c0 7b 93 66 3c 80 a6 02 bd cd 79 b0 bc 53 8e 13 3c
       0.014073248 -0.031897068 -0.021542454 0.009006101
0000d0 70 3f 89 3d 33 41 68 bd dc d2 95 3c 6c bc 0d bc
       0.06701553 -0.056702804 0.018289022 -0.00865088
0000e0 04 5e 54 bb 5c 0b db 3d 77 df b5 bd 52 37 01 3c
       -0.003240467 0.10695526 -0.08880513 0.007886725
0000f0 8f 80 44 3d 0a 08 90 bb a6 4e f3 bb 7e 23 50 bd
       0.047974166 -0.0043954896 -0.007425147 -0.050815098
000100 5d 2c 66 bd 5f 5a 7d bd 62 c8 06 3c 86 a6 27 3d
       -0.056194652 -0.061853763 0.008226486 0.040930294
000110 e9 09 7d bd b9 e4 af 3c 4a fc 1e bd 81 3a 70 bb
       -0.06177703 0.021471368 -0.03881482 -0.0036655965
000120 a0 6b 06 be b4 5c 6f 3d 99 f0 9a 3d c7 34 b4 bd
       -0.13126993 0.058438018 0.075654216 -0.08799129
000130 83 2e b7 3c e6 a3 ca bc cf 2a f7 bd 43 c2 61 bd
       0.022361046 -0.024736356 -0.12068712 -0.055116903
000140 28 9c 89 bc f8 b1 5f bd 77 5a 01 3c 53 11 26 be
       -0.016798094 -0.054613084 0.007895104 -0.16217546
000150 b1 ec 09 bb d5 40 e2 bc a0 e4 99 bd 34 14 e5 3c
       -0.002104562 -0.027618805 -0.0751431 0.027963735
000160 86 30 a8 bc 40 2e d6 bc ac c2 85 bc fb f6 6f 3b
       -0.02053095 -0.0261451 -0.016328178 0.0036615718
000170 c0 5a b0 bd fa 46 a8 3c ce a7 c3 3d 66 7d 08 bd
       -0.08611059 0.020541657 0.095534906 -0.033322714
000180 b4 3f a2 bd ef bc 46 bd 51 62 8e 3c cf f3 6c 3c
       -0.07922307 -0.048520025 0.017380865 0.014462425
000190 ce f7 8d 3c 09 d2 69 3d 24 51 a2 3d e0 c5 5c 3d
       0.017330077 0.05708507 0.079256326 0.053899646
0001a0 e5 c0 09 be 7b cc 62 bd c8 31 a1 3d b0 f2 22 3d
       -0.1345249 -0.05537079 0.07870823 0.039782226
0001b0 1b 94 91 3d bd 6d fd 3c 26 d5 91 3d 9b 9d c4 3c
       0.07108327 0.030936116 0.07120733 0.024000933
0001c0 b0 f6 18 bd 6e 26 01 3c a7 e8 22 3c df d2 60 bd
       -0.037344635 0.0078826975 0.009943164 -0.054888602
0001d0 09 99 a2 bd 09 38 14 be ff 60 a9 bd fa 74 7f 3c
       -0.079393454 -0.144745 -0.08270454 0.015591854
0001e0 2b 68 2a bd d5 50 18 3e bd 9b a4 3d ed e0 af 3d
       -0.04160325 0.14874585 0.08037517 0.08587823
0001f0 02 03 32 bc a2 40 9d bc a8 be 60 3c 74 09 4d bd
       -0.010864975 -0.019195858 0.013717331 -0.050057843
000200 c9 aa a4 3c f4 4b ea 3c e8 3c 3e bd 06 09 f2 bd
       0.020100968 0.02860067 -0.046444803 -0.11818127
000210 b3 30 91 bc f6 cc 5b bd 35 6e 57 3c 08 ab d2 3c
       -0.017723417 -0.053662263 0.013148834 0.02571632
000220 25 7b f3 bd 58 75 04 be ab 51 e4 bb 07 4c e0 bc
       -0.11888722 -0.12935388 -0.0069677434 -0.027380003
000230 dc 92 96 3d a2 c6 10 bd d3 65 ce 3c 1e a1 c2 3c
       0.0735223 -0.03534568 0.025195038 0.023758467
000240 58 91 d3 3d 3a fb 6f bd 51 b1 11 bd b2 82 ed 3d
       0.103304565 -0.058589198 -0.035569493 0.11597194
000250 20 2f 30 3d ff 7a a3 3d d3 4b 8b bd fa d3 50 be
       0.043013692 0.07982444 -0.06801572 -0.20393363
000260 5b 4b 9e 39 d4 27 aa bd 4b 19 94 bc c3 7f d8 3d
       0.00030192253 -0.08308378 -0.018078467 0.105712436
000270 f1 69 e6 bd ce 92 b7 bd 6b 55 bb 3d ed d1 21 bb
       -0.112506755 -0.08963548 0.091471516 -0.0024691776
000280 8a 75 95 3d b3 3c 06 bd 03 e9 12 3d a8 c1 ee 3c
       0.072978094 -0.03277273 0.03586675 0.029145077
000290 55 ee cf 3c bc b3 2d bd 12 f6 9d 3d 59 60 e6 bc
       0.0253822 -0.042407736 0.0771295 -0.028122114
0002a0 1b a2 86 bd e4 2d 31 3d b5 59 22 3c 8d 5d cd bd
       -0.06573888 0.043256655 0.009909083 -0.10027609
0002b0 2d e6 67 bd 69 2b a4 3b df 4e d0 bc 35 fa c2 bc
       -0.056615997 0.0050100577 -0.025428234 -0.023800949
0002c0 84 cb 48 bd cf d7 1a 3d 4c b9 aa 3d 3c db 55 bd
       -0.049022213 0.037803467 0.08336124 -0.05221103
0002d0 72 3b 94 bd fc 0b 72 3d a7 af f4 bc 18 e0 75 bd
       -0.07237901 0.05909346 -0.029868914 -0.060028166
0002e0 93 70 c4 bd c1 c0 81 bc 58 59 38 bc 24 76 a2 3c
       -0.09591784 -0.015838983 -0.01125177 0.019831724
0002f0 08 66 f8 bd 02 34 81 bd 36 76 d5 bc 58 81 21 3d
       -0.12128836 -0.06308748 -0.026057344 0.039429992
000300 2a 65 42 3d f7 6c dc 3d 97 53 8b 3d 82 91 b6 bd
       0.04745976 0.10762971 0.06803053 -0.08914472
000310 bb 2a 03 bd d5 e7 86 3d 26 91 80 bc fd 55 94 3d
       -0.032023173 0.06587187 -0.015694212 0.072429635
000320 3f e7 33 be fe ad 1a 3d f1 84 9b 3d 41 c9 3e be
       -0.17568682 0.037763588 0.07593716 -0.1863146
000330 88 82 88 bd d4 81 50 be 74 45 ab 3d 5e 8a 12 3d
       -0.06665522 -0.20362025 0.083628565 0.03577649
000340 74 4b 46 be d2 56 3c 3b af 9e ba bd 8c 31 b2 bd
       -0.1936472 0.0028738272 -0.09112298 -0.087008566
000350 d0 c5 c3 bd 36 e5 78 3c fe 3f 69 3d 1b f7 b7 bd
       -0.09559214 0.015191367 0.056945793 -0.089826785
000360 aa c1 9f 3b d8 8c 19 3d b7 3b 54 bc 36 79 05 3e
       0.0048753815 0.037487835 -0.01295369 0.1303452
000370 bf 7f d6 bd 01 c3 04 bc 9b 9d d8 bd 75 2e 21 bd
       -0.104735844 -0.008103133 -0.10576936 -0.039350946
000380 f1 a3 49 3d d5 16 f1 3d b1 69 eb 3d bc ed 1c bd
       0.049228612 0.11771933 0.114947684 -0.03831266
000390 72 ec d6 bc 04 28 83 3d 1a c9 0f 3e a3 93 4e bd
       -0.026235793 0.06404117 0.14041558 -0.050433766
0003a0 0a e7 33 bd c0 a9 b2 3c e1 13 3a ba 01 43 87 3d
       -0.043921508 0.021809459 -0.0007098299 0.06604577
0003b0 68 b8 be bd 95 2e db 3d 36 1e a0 bd 00 58 e8 bc
       -0.093125165 0.10702244 -0.07818262 -0.028362274
0003c0 64 9f ba 3c 07 e3 23 be d4 f2 96 3d 12 51 08 bd
       0.022781081 -0.16004573 0.073705345 -0.03328044
0003d0 35 1a a2 bd 29 2a a4 bc a8 ac a7 bc 30 9b d7 bd
       -0.07915155 -0.020039635 -0.020468071 -0.105276465
0003e0 e3 a7 29 bd 84 65 9a bd 61 b8 cc 3b ad ee 9d bd
       -0.041419875 -0.07538894 0.0062475656 -0.077115394
0003f0 94 46 1c 3e 99 1f 2b bd ad 68 74 bd 20 e4 22 bc
       0.15261298 -0.04177818 -0.05967014 -0.009942085

linear1.bias f4 [128]
000000 cf d7 a5 bd 31 6a 43 3d b6 19 e4 bd c0 8c d8 bd
       -0.08097803 0.047708694 -0.111377165 -0.10573721
000010 42 b2 c9 3c f7 43 99 3d be a8 02 be b0 10 33 bd
       0.024621133 0.074836664 -0.12759683 -0.043717086
000020 41 dd 10 be 99 18 a0 bd e3 28 aa 3c fc 08 06 3b
       -0.14146902 -0.07817192 0.02077145 0.0020452132
000030 bc 98 ec 3c 30 78 e9 bd 55 fd b4 bd e7 fe 96 bc
       0.028881423 -0.11399877 -0.08837382 -0.018432094
000040 2c 9c 26 bb 13 4e 0f bd 7d d9 bf bd 0d 88 4c bd
       -0.0025422676 -0.034986567 -0.093676545 -0.049934436
000050 ec 51 b0 3d d1 43 b3 bd 21 db 57 3c 84 2c 60 bd
       0.08609375 -0.08753169 0.013174803 -0.054729953
000060 85 f4 79 bb 27 db 12 bd a8 e6 a6 bd 3c 93 46 3d
       -0.003814013 -0.03585353 -0.08149463 0.048480257
000070 ae 41 82 3d 22 2a 12 3d b6 7c 8d bd 20 a1 a4 bd
       0.06360184 0.035684712 -0.06908552 -0.08038545
000080 a4 b3 90 3d 0c 40 89 bd 7f 99 8c bd e7 4d bc bd
       0.07065514 -0.06701669 -0.068652146 -0.09194546
000090 25 ac 46 bd 79 9b 22 bd dc 6f bb bd 9e 87 e1 3d
       -0.048504014 -0.03969905 -0.09152195 0.11012195
0000a0 47 45 8b bd 25 cf e5 3d b0 90 c5 bd 4b 3c 14 be
       -0.06800323 0.1122115 -0.096467376 -0.14476125
0000b0 d8 a8 91 b9 76 85 26 bd c6 b1 a1 3d eb 71 bf 3d
       -0.00027782354 -0.040654622 0.07895236 0.093479
0000c0 3e 46 78 bd 76 8e c7 3a 67 dc de bd 16 3f 6d 3d
       -0.060613863 0.0015224952 -0.10881882 0.05792149
0000d0 a2 00 d4 3d 39 12 ff bd 14 37 13 bd 56 74 9d 3d
       0.10351683 -0.124546476 -0.0359412 0.07688205
0000e0 10 14 4c bd af 70 37 3d 98 ee da 3d 5c 70 14 be
       -0.04982382 0.044785198 0.106900394 -0.14495987
0000f0 eb 2c 03 bc ce fd b3 bd ac 27 cc 3d eb a3 c4 3d
       -0.008006315 -0.08788644 0.09968504 0.09601577
000100 04 30 6d 3d 35 3a 2b be 6f a0 8d bd 95 8d aa bd
       0.05790712 -0.16721423 -0.06915366 -0.08327786
000110 c9 5c 05 bc 1b 68 af bd da a4 08 3e 64 0f 1c 3d
       -0.0081397975 -0.085647784 0.13344136 0.038100615
000120 c8 47 68 bc 45 90 cf bd 35 f6 51 3d 68 c0 a8 bd
       -0.01417727 -0.10134939 0.051260192 -0.082398236
000130 27 3c 50 3d cc 6c fa 3d 0a 15 8f 3d f1 7e f7 bd
       0.050838616 0.122277826 0.06986435 -0.12084759
000140 11 cb a4 bd 4b 9f 2c 3d b3 8f 42 3d 94 c9 f2 3d
       -0.08046544 0.0421441 0.047500324 0.11854854
000150 7c ec 16 3d 8f b6 b3 3c d6 75 28 3d 1b fc aa 3d
       0.036846623 0.021937637 0.041128002 0.083488666
000160 ac f2 22 bd 17 01 d6 bd 96 f6 bf 3d d8 d6 88 bd
       -0.03978221 -0.104494266 0.093732044 -0.06681603
000170 22 1d d1 3d 5b 34 fc 3b 10 98 53 3d 0a 02 4b bd
       0.10210635 0.007696671 0.05165869 -0.04956249
000180 14 ba 89 bd 86 19 26 3e 2b 7f e3 3d 47 61 c3 3d
       -0.06724945 0.16220674 0.1110824 0.095400386
000190 ec 08 97 3c 23 3d 37 3c c9 6f 65 bd 71 fa d9 bd
       0.018436871 0.01118401 -0.05601481 -0.10643471
0001a0 fd bd 06 be 6c e4 89 3d 18 00 82 3d ff 12 0c 3d
       -0.13158412 0.06733021 0.06347674 0.034197804
0001b0 bc 9a ce 3d 09 24 c8 3d 41 a9 6f 3d 49 c3 eb bb
       0.10088107 0.09772498 0.058511022 -0.0071949107
0001c0 03 f7 e0 bd 02 d5 88 bd d0 61 d1 bd ee 92 98 bd
       -0.10984614 -0.06681253 -0.102237344 -0.074498996
0001d0 3d 73 65 3d 3d 10 e0 3d 54 76 9a 3c 4d be 9d bd
       0.056018103 0.10940597 0.018855251 -0.077023126
0001e0 c1 c2 bb 3c 92 a4 f0 bd 25 87 04 3e ea db c2 3d
       0.022920014 -0.11750139 0.12942179 0.095146015
0001f0 14 bf c5 3b a4 80 af 3d 11 17 47 3d 0b 83 a6 3d
       0.006034741 0.08569458 0.048605982 0.08130463

linear2.weight f4 [32, 128]
000000 21 b7 48 be 91 9b 9d bc 85 0d c5 bd a2 0a 0c be
       -0.19601108 -0.019239219 -0.09621719 -0.13675931
000010 e0 af 9e bd 4b ed b7 bd 28 cd 4c 3c 16 3c 9f bd
       -0.07748389 -0.08980807 0.012500085 -0.07775132
000020 9a 30 6d bd e2 2a 11 3e 19 ea 81 bd e7 cf 8d 3d
       -0.05790768 0.14176515 -0.06343479 0.0692442
000030 cf c7 ad bd cf 46 29 3d 34 f4 3d bd 43 e3 1c 3d
       -0.08485376 0.041327294 -0.04637547 0.03830267
000040 9e b3 a8 bd f9 43 35 be da 21 5c 3d f1 3a 9b 3d
       -0.08237384 -0.17701711 0.05374322 0.075796016
000050 74 63 de 3c 00 45 c0 3d fd f2 f7 bc 9e cb 2f bd
       0.027147032 0.09388161 -0.030267233 -0.042918794
000060 f3 99 61 bd 9c 6c 17 3e a9 ef 20 3e d7 5b 07 bd
       -0.055078458 0.14787525 0.15716423 -0.03304657
000070 55 a4 11 3e ec 68 66 3d c6 d5 91 bc e2 3c 2d be
       0.14222844 0.056252405 -0.01780213 -0.16917756
000080 54 6f ec ba 2e 4b 4d bd 54 86 f5 bb 16 9c 37 be
       -0.001803855 -0.050120525 -0.00749282 -0.17930636
000090 60 f9 86 be 1e d2 23 3e 71 71 81 bd 42 18 c4 bc
       -0.26362133 0.15998122 -0.06320465 -0.023937348
0000a0 27 11 6a bd 50 1d 23 bc 58 2e 3b bd 33 5d 6f 3d
       -0.057145264 -0.009955719 -0.045698494 0.05843849
0000b0 13 f4 2d bc f9 75 3d be e5 ee a9 bc 43 0e 8f bd
       -0.010617274 -0.18502034 -0.020743797 -0.06985142
0000c0 1a bc e8 bd 18 97 60 bd 7e 2b db bd a1 fb 7a 3b
       -0.113640025 -0.054831594 -0.10701655 0.0038296955
0000d0 6a 64 a4 3d 98 c9 66 3d 2e 93 07 3d 59 bc f3 bc
       0.08026965 0.0563446 0.033099346 -0.029752897
0000e0 04 97 a3 3d 61 c8 af 3b 8d 01 bf 3d ff b5 8a bd
       0.07987788 0.005364463 0.09326468 -0.06772994
0000f0 1d 22 61 bc 1b 48 57 bd 35 cf 77 3d 3f 99 d9 3c
       -0.013741043 -0.052559 0.060500342 0.026562331
000100 45 3a aa bc 43 35 6f bd e1 06 45 3a 41 41 31 3c
       -0.020779738 -0.058400404 0.00075159787 0.01081878
000110 74 48 1f 3d d8 cf d9 bd 20 75 37 3c 3f eb e9 3a
       0.038887456 -0.10635346 0.011197358 0.0017846598
000120 52 91 57 3d 76 a2 5f bd 9d 66 39 3d bb ae b6 bd
       0.052628823 -0.054598294 0.045263875 -0.08920046
000130 dc 45 f9 bb db a4 a9 bc a6 0d 9c 3d 46 1f 0f be
       -0.007607205 -0.020708492 0.07619791 -0.13976774
000140 af 5d 80 3d e5 64 15 be 2e 32 c7 3c 63 67 0a be
       0.06267869 -0.1458927 0.02431592 -0.13516001
000150 df 5e 6d 3d 68 cc 3c be 75 10 c3 3d cc ae ab bc
       0.057951804 -0.1843735 0.09524623 -0.020957373
000160 16 ed 3d bd 1b fa be 3c 79 88 19 3d 79 5b 9a bd
       -0.04636868 0.023312619 0.037483666 -0.07536978
000170 bb d5 09 bc 00 42 b5 bc d7 30 be 3c f7 69 8d 3d
       -0.008412774 -0.022126198 0.023216648 0.06904977
000180 c9 a5 95 bd 4d b8 c3 3d cb 52 76 3d 48 17 28 3d
       -0.07307012 0.09556637 0.06013755 0.041037828
000190 fb 87 1a 3d 7b 5c 42 bd 74 82 51 bc d1 e6 ae bd
       0.037727337 -0.047451477 -0.01278745 -0.085401185
0001a0 34 2b bd bd ce 6e 39 3e df 4b b1 3d 06 4d 18 bd
       -0.09236756 0.18108675 0.086570494 -0.03718283
0001b0 f3 5d a9 bd 2a 50 74 bd ad 22 2b 3e d3 24 94 be
       -0.082698725 -0.059646763 0.16712447 -0.28934345
0001c0 fc 95 12 be 29 b4 91 bd e1 1c 63 bd 56 24 5a be
       -0.14315027 -0.07114441 -0.055447463 -0.21302924
0001d0 46 d8 7b 3d ed 08 b1 3d 87 45 40 bd c0 cc 40 3d
       0.06148555 0.086442806 -0.046941306 0.047070265
0001e0 16 6d c8 bc f2 37 47 bd ae 2a bf 3d ab df 9d bc
       -0.024466079 -0.048637338 0.093343124 -0.019271692
0001f0 6b da b7 3d 5e c0 03 3e fc a2 a3 3d 61 3a 93 3c
       0.08977207 0.12866351 0.07990071 0.017972173
000200 3d a2 15 be c2 fd b2 bd e3 6f 63 bd f4 86 01 bd
       -0.1461267 -0.08739807 -0.055526625 -0.031622842
000210 39 88 9f bd ee 8a 4c be 5f 5b d1 3d 62 dc be bc
       -0.07789654 -0.19974872 0.10222506 -0.023298446
000220 16 dd 48 3c 28 e1 3b 3e 44 71 f2 bd 82 ca 85 bd
       0.012259742 0.18347609 -0.1183801 -0.06532766
000230 1d 1b 66 3d 60 18 3c 3e 96 27 ec 3c 73 b9 34 bc
       0.0561782 0.18368673 0.02882747 -0.011030543
000240 2f 9c 5e bd 1b 06 12 be 3c ed 2c 3d 8a 8e 1a 3e
       -0.054348167 -0.14260142 0.04221843 0.15093437
000250 a8 b6 21 3d 71 bf 88 3e 8e f2 b3 bd ad 01 0b bd
       0.039480835 0.26708558 -0.08786498 -0.033937145
000260 1d 3f 46 3d 0b c6 34 3e 14 c8 47 3e 69 b6 e5 3c
       0.048400033 0.17653672 0.19509917 0.028041082
000270 20 9a a9 3c 86 43 15 3d e4 b9 1a 3d 59 aa 6f bd
       0.020703375 0.03644135 0.037774935 -0.058512066
000280 d4 16 99 bc f3 ee 6b bd e5 0e a6 3d 4f d4 15 be
       -0.018687643 -0.057600927 0.0810831 -0.1463177
000290 98 a4 3d be 3e d6 df 3d 37 ad a5 bd 91 1e b2 bc
       -0.18519819 0.10929535 -0.08089679 -0.02174309
0002a0 80 e8 ae 3c 68 0a 39 3d fa ed 10 3d f2 58 da 3e
       0.021351099 0.04517594 0.035383202 0.42645985
0002b0 e3 5b 1b 3e c9 9b 46 bd 2b 93 7d bd 0f 6b 1d bd
       0.15171771 -0.048488412 -0.06190793 -0.038432177
0002c0 c0 c6 98 3c d1 86 90 3d 1a 45 3b 3d 04 01 a3 b9
       0.018649459 0.07056964 0.045720197 -0.0003109054
0002d0 b3 bd 83 bc 3a f3 6f 3e 4d 1c 09 3e 9f 9f a4 bd
       -0.016081667 0.23432627 0.13389702 -0.08038258
0002e0 0d ec e4 3d 43 f4 61 3d 25 11 8b 3d 11 58 dd 3d
       0.111778356 0.055164587 0.067903794 0.10807813
0002f0 0b f2 99 bd c7 51 41 3d 74 d7 4c bd 79 15 70 3d
       -0.07516869 0.04719713 -0.05001016 0.058614228
000300 58 67 38 bd 0c 6f 1e 3e 0f f8 93 bc e8 69 94 bd
       -0.04502043 0.15472049 -0.01806262 -0.072467625
000310 2c 5e c0 3d 1c 9c 37 3c c9 8b 74 bd e5 a1 17 bd
       0.09392962 0.011206653 -0.059703622 -0.03701963
000320 a2 a6 a3 bd 33 35 9f 3d aa b8 92 3c dd d9 fb bc
       -0.07990767 0.07773819 0.01791032 -0.030743534
000330 a5 a4 85 3d f1 bb 5d be c4 6c 3a 3d a1 ce 03 be
       0.06525544 -0.21653725 0.045513883 -0.12871791
000340 4d 8a 65 bc fa 61 31 bd 82 fb b5 3c cb 3e 51 be
       -0.014010024 -0.04330633 0.022214655 -0.2043411
000350 96 22 da bc a2 0c 8c bd 08 e1 c5 3d f0 7a 29 be
       -0.02662782 -0.06838347 0.09662062 -0.16550803
000360 bb 47 37 bd ee 91 13 3e 97 80 18 bd 54 9a 44 bd
       -0.044746142 0.14411137 -0.037232008 -0.04799874
000370 cf 6d 60 3d f8 34 52 bd 81 e2 01 3d 30 fe 2f 3b
       0.05479222 -0.051320046 0.03171015 0.0026854388
000380 4f 4d d5 3c 19 93 14 bd c0 4c c7 bb 7e 17 0a bc
       0.02603784 -0.036273096 -0.0060821474 -0.008428453
000390 a7 0f 66 3d 9e f6 bd 3d 9b 7e cf bc 07 c7 1a 3c
       0.05616727 0.09275554 -0.025328925 0.009446866
0003a0 bd 36 c3 3c 1b 82 51 3c 52 05 e3 3c 46 b1 85 3d
       0.023829812 0.012787367 0.027712498 0.06527953
0003b0 fa 55 2f be 58 8a 1c be a1 bc 7d 3d 58 10 49 be
       -0.17122641 -0.15287149 0.06194747 -0.19635141
0003c0 c5 10 8d bc d0 39 61 bd b7 63 56 3d 06 f3 26 be
       -0.01721991 -0.054986775 0.05234119 -0.16303644
0003d0 3d 02 aa 3d a1 ea 27 3d e2 20 db bd 4a 39 78 3e
       0.08301208 0.040995244 -0.10699631 0.24240604
0003e0 09 10 16 3d 89 81 91 3d b8 70 aa 3c e8 c3 52 3d
       0.036636386 0.07104785 0.020805702 0.051456362
0003f0 a4 77 28 3c 8f c8 8f bb 9f 68 86 bb 5f a5 59 bc
       0.010282431 -0.004387922 -0.0041018273 -0.013284056

linear2.bias f4 [32]
000000 05 23 b6 3c 45 be e7 bb b1 27 04 3e 5d b2 fb bc
       0.022233495 -0.0070722424 0.12905766 -0.030724699
000010 9b c6 6a be 80 bb 49 3d f4 08 27 bd e7 78 d3 bc
       -0.22927324 0.04925108 -0.040780023 -0.025814487
000020 46 b9 0d bd d8 45 53 3d 62 b0 f4 3d fb 05 90 bc
       -0.03460052 0.05158028 0.11947705 -0.017580977
000030 e5 20 a3 bd d2 68 28 3d ca d3 53 bd 99 2f e9 bc
       -0.079652585 0.04111559 -0.05171565 -0.02846508
000040 6f e1 9b bc 39 e2 fc 3d ac 70 37 bd c8 3f 0f 3e
       -0.019028394 0.12347836 -0.044785187 0.13989174
000050 b0 00 a7 3d 1a 8e 06 be bf 9b af bb d2 68 28 bd
       0.08154428 -0.13140145 -0.0053591426 -0.04111559
000060 a5 26 05 3d d8 1b 10 3e b4 51 13 be 20 ad a6 3b
       0.032507557 0.14073122 -0.14386636 0.005086556
000070 d0 40 27 bc 75 c4 71 3d 40 8f d5 3d bf ea 25 be
       -0.010208324 0.059025247 0.104277134 -0.1620283

output.weight f4 [5, 32]
000000 a2 ed 12 be 76 97 85 3d 2c 09 bb bd b6 82 21 bd
       -0.14348462 0.065230295 -0.09132609 -0.039431296
000010 41 e1 8b 3e ec c3 17 be fb 59 66 be 69 56 e0 3d
       0.27320293 -0.14820832 -0.22495262 0.109539814
000020 b4 00 36 bd 74 06 4d 3e 38 4a 24 bd 89 3e 7c 3e
       -0.044434264 0.20021993 -0.040109843 0.2463323
000030 a1 17 49 3e 14 90 46 3e 5d 59 3c 3e f7 e6 60 be
       0.1963792 0.19390899 0.18393464 -0.21963106
000040 de 26 f6 3d 91 ac 2f 3d cc 60 a8 3d d0 d2 8a be
       0.12019132 0.04288918 0.082215875 -0.27113962
000050 12 62 63 3d 44 1a 8c 3e 99 b3 2a 3e f4 19 e3 3c
       0.05551345 0.2736379 0.16670074 0.027722336
000060 db d6 d0 3a 81 ce 8e be 87 a6 0a 3e ff 13 b0 bd
       0.0015933173 -0.27891925 0.13540088 -0.08597564
000070 0d 47 84 3b c6 fe 38 be 84 75 dc bc 54 18 59 3e
       0.00403679 -0.18065938 -0.026911505 0.21200687
000080 92 f2 e4 bc 49 9a f6 3d b9 b4 da bd 53 05 0b 3e
       -0.027947698 0.12041146 -0.10679001 0.1357625
000090 f9 ea 26 bc f2 02 4d 3c 14 aa 27 3e 8b d2 41 3e
       -0.010187858 0.012512909 0.16373473 0.18927972
0000a0 cd 10 33 bd 0a ae f6 bd e7 7f 9f bd 28 4d a5 3c
       -0.043717194 -0.12044914 -0.07788067 0.020178393
0000b0 90 b5 0c be a5 18 29 3e 6c 29 ab 3d 68 ab 94 3d
       -0.13741136 0.16513307 0.0835751 0.07259256
0000c0 47 6f 2e 3e c7 cd 5c bd 54 22 da bd cd fa c2 3d
       0.17034636 -0.053907182 -0.10651079 0.09520493
0000d0 00 75 49 bb 6b 9d 0e be 2c e3 00 be 8f d5 01 3d
       -0.0030739903 -0.13927238 -0.12586659 0.031697806
0000e0 18 a1 97 3d 9b 88 08 be c9 10 71 bc 6e 6e 16 3e
       0.07403773 -0.13333361 -0.014713475 0.14690563
0000f0 99 a4 c6 bd 8b 96 29 3e a2 84 04 3e 9e 02 1a be
       -0.09699363 0.16561334 0.1294122 -0.15040061
000100 61 cf 46 be d4 ed 8f be 71 e2 70 3e b1 6a 13 be
       -0.19415046 -0.28111136 0.2352388 -0.14396168
000110 fe a7 56 be 70 49 04 3e 25 70 78 be 29 2c 20 be
       -0.20962521 0.12918639 -0.2426153 -0.15641846
000120 42 9a 48 bd 4f 55 2b 3e 94 d8 06 bd 61 39 45 be
       -0.048975237 0.16731761 -0.03292139 -0.1926017
000130 07 c4 f2 3d e4 8f d4 3d fa 10 28 3d d0 a4 01 be
       0.118537955 0.103790075 0.041031815 -0.12660527
000140 31 42 81 3d cb 54 52 3e 17 59 17 bc 16 a8 1c 3e
       0.06311453 0.20540158 -0.009237549 0.15298495
000150 e7 72 3c bc d1 78 6a be 99 7d 84 3e 0d 26 e5 3d
       -0.011502004 -0.2289765 0.25877073 0.11188898
000160 af 7b 23 3d 98 e7 64 3e aa f9 6a bd e2 93 2a bd
       0.039912876 0.22353971 -0.057367004 -0.04164494
000170 52 7d 4e 3e 73 90 c3 3d d4 5c 07 3e 95 d3 87 bc
       0.20164993 0.09549036 0.13219005 -0.016580382
000180 62 e4 4d 3e 8a ae 37 3e ef d2 e8 3d 0b 25 e0 3d
       0.20106652 0.17937675 0.113683574 0.109445654
000190 e5 1f 5f be 74 9e 50 be 84 98 49 3e 13 a4 31 be
       -0.2178951 -0.20372945 0.19687086 -0.17347746
0001a0 01 17 45 bd 5a 77 c8 bd 98 85 49 3e 8e 7c 6e bc
       -0.04811764 -0.097883895 0.19679868 -0.014556063
0001b0 89 dd 4f 3d fa 8b 4b be 27 5c 35 bc 3f 8f 07 bb
       0.05074838 -0.19877616 -0.011069334 -0.0020684747
0001c0 e7 d7 21 3e 55 81 a4 3d 2b fa 26 3e 30 99 b8 3d
       0.15805016 0.080324806 0.16306369 0.09013593
0001d0 8f 71 75 3d 36 ff 15 3e 53 ad cf 3c f8 78 cf bd
       0.05992275 0.14648136 0.025351202 -0.10130495
0001e0 44 b4 9e 3d 4e 63 68 bd c8 7b 3a be 2f 89 f5 bd
       0.07749227 -0.05673533 -0.18211281 -0.11989056
0001f0 cd 19 98 3d 68 32 8a bd fe 51 a4 3d c3 da 65 3d
       0.07426796 -0.067478955 0.08023451 0.05611683
000200 b2 90 ba bd 2f d2 0b 3e f8 5d 4e be 6e e5 00 bd
       -0.0910963 0.13654397 -0.20153034 -0.0314688
000210 17 f2 ad 3d 44 09 05 bc 38 a0 34 3e f3 09 4a 3d
       0.084934406 -0.008119885 0.17639244 0.049325895
000220 30 cb 30 bd d2 a1 bd bd aa ba 8f bd ab 1b 47 be
       -0.043162525 -0.092593804 -0.07018025 -0.19444148
000230 19 b3 4f bd ce 1d eb bd 28 5e 13 3e 6b a1 09 3e
       -0.05070791 -0.11480294 0.14391387 0.13440482
000240 2a 79 63 bd dd a2 49 be a3 bc a0 bd 23 42 80 3c
       -0.055535473 -0.19691034 -0.078484796 0.015656536
000250 65 2e 5c bd f3 5a 67 bd 71 de 85 bd e0 a8 8c bc
       -0.053755183 -0.05648322 -0.06536568 -0.01717037
000260 87 c1 0a be 87 66 7a 3c 4c 3c 60 3d ac 3b 30 3e
       -0.13550387 0.0152832335 0.054745004 0.17210263
000270 14 09 4c 3e 57 1b b6 bd 12 a0 24 be e4 8a 85 3c
       0.19925338 -0.088919334 -0.16076687 0.01630158

output.bias f4 [5]
000000 47 49 65 be 59 71 f9 bd 7c ea 22 3e 4b 36 24 3e
       -0.22391234 -0.121798225 0.15909761 0.16036336
000010 ed 66 8d bc
       -0.017260993
