code/models/best_model_032.pth (torch, 482997 bytes, 8 tensors)

conv1.weight f4 [1, 1, 5, 3]
0	0x3daee170	0.085390925
1	0x3da1956d	0.07889829
2	0x3e50d578	0.20393932
3	0x3e96e488	0.2947123
4	0x3e76d5da	0.24105015
5	0xbdf8f72b	-0.121565185
6	0x3e1934ee	0.14961597
7	0xbe621d0a	-0.2208139
8	0x3b88324e	0.0041563874
9	0x3e502aa2	0.20328763
10	0x3dc0664a	0.0939451
11	0xbe566369	-0.2093636
12	0xbd97fe61	-0.07421566
13	0xbe75ae0b	-0.23992173
14	0xbe107909	-0.14108671

conv2.weight f4 [1, 1, 3, 3]
0	0xbe1384d3	-0.14406137
1	0x3dd160fe	0.10223578
2	0x3e2dfe71	0.16991593
3	0x3daa3240	0.08310366
4	0xbe0eb4cb	-0.13936155
5	0x3d8f4cae	0.06997047
6	0xbe12ac90	-0.1432364
7	0xbdc93843	-0.09825184
8	0x3d01273b	0.031531554

linear1.weight f4 [128, 900]
0	0x3d608b17	0.054820146
1	0x3e87fbaa	0.26559192
2	0xbd5251e3	-0.051347625
3	0xbd40b7d5	-0.047050316
4	0xbd126d29	-0.035748634
5	0xbd61344f	-0.054981526
6	0x3de6726e	0.112522945
7	0xbb9e78f5	-0.0048361965
8	0x3e84e1ce	0.25953525
9	0x3d973083	0.073823
10	0xbdc7e838	-0.09761089
11	0x3de6f8a0	0.1127789
12	0xbe0c80a1	-0.13720943
13	0xbd8d236b	-0.06891521
14	0xbd5ceeba	-0.053938605
15	0x3e115e90	0.14196229
16	0xbd648870	-0.05579418
17	0xbdadee8b	-0.08492764
18	0xbde18005	-0.11010746
19	0x3d8555ca	0.065105036
20	0xbd516055	-0.05111726
21	0x3d886bcd	0.06661186
22	0x3dadfb97	0.084952526
23	0x3dfbe335	0.12299196
24	0xbd19d90f	-0.03756052
25	0x3caa4bf5	0.020788172
26	0x3d88d639	0.06681485
27	0x3cc45c9e	0.023969945
28	0xbcb097cd	-0.02155676
29	0xbe2612a2	-0.16218045
30	0x3e03b620	0.12862444
31	0xbe36c09c	-0.17846912
32	0xbc587dc8	-0.013213582
33	0x3c3c0f73	0.011478293
34	0xbe315b84	-0.17320067
35	0xbdb9155b	-0.09037276
36	0xbcf71952	-0.03016344
37	0xbc4f4471	-0.012650595
38	0xbdbfada2	-0.0935929
39	0xbdec02e3	-0.11523988
40	0x3db059c0	0.086108685
41	0xbe3aa3cb	-0.18226545
42	0x3c53d5ff	0.012929439
43	0xbd38e98b	-0.0451446
44	0x3dc3b366	0.09555702
45	0x3e18437c	0.14869493
46	0x3df6de62	0.12054135
47	0x3dc8e6df	0.0980966
48	0xbcbca2ba	-0.023026813
49	0xbe260bd0	-0.16215444
50	0x3e2e606e	0.17028973
51	0xbcdf6ac3	-0.027272588
52	0x3d9898c5	0.074510135
53	0xbdf8f185	-0.12155441
54	0x3d788a14	0.060678557
55	0x3d18b66b	0.037283342
56	0xbd761f6c	-0.06008856
57	0x3d802029	0.06256134
58	0xbd0b2f16	-0.03398045
59	0xbc52ab56	-0.0128582325
60	0x3daab5f7	0.08335488
61	0xbb936af0	-0.004498832
62	0xbd78b16f	-0.06071609
63	0xbe32a7c3	-0.17446809
64	0xbd8c8669	-0.06861574
65	0x3cba7840	0.022762418
66	0xb978eeff	-0.00023740156
67	0xbe0808be	-0.13284585
68	0xbdf0e0f2	-0.11761655
69	0x3d84c930	0.06483686
70	0xbe0d8990	-0.13822007
71	0xbda80cb9	-0.08205552
72	0xbe873eaf	-0.2641501
73	0x3e3f0934	0.18655854
74	0x3da64dea	0.0812033
75	0xbdab54c2	-0.08365776
76	0xbd718459	-0.058964107
77	0xbd81e81e	-0.06343101
78	0xbda52426	-0.080635354
79	0xbd55461d	-0.05206882
80	0xbcab32e1	-0.020898284
81	0xbd84f1d3	-0.06491437
82	0xbcb52211	-0.02211097
83	0xbde5b19b	-0.11215516
84	0xbdbcf62e	-0.092266425
85	0x3c32ef37	0.010921291
86	0xbe52c29d	-0.20582052
87	0x3d59b20c	0.053148314
88	0xbdfd65f8	-0.123729646
89	0xbcafe6d1	-0.021472367
90	0xbd98ea27	-0.07466536
91	0x3b5027fd	0.0031762116
92	0xbd99e336	-0.0751404
93	0x3d95ff67	0.07324105
94	0x3e0484fb	0.12941353
95	0xbe20684b	-0.15664785
96	0xbe0ab0d3	-0.13544016
97	0x3deee8bb	0.116654836
98	0x3d449ea2	0.048002847
99	0xbd012624	-0.031530514
100	0xbe11b1b4	-0.14227945
101	0x3e692a8f	0.22770141
102	0x3dac9906	0.084276244
103	0x3cf7d1b4	0.030251361
104	0xbe235cff	-0.15953444
105	0xbe0ed929	-0.13950028
106	0x3e0c328c	0.13691157
107	0x3e084a6f	0.13309644
108	0xbc75cc26	-0.015002286
109	0x3d25750a	0.04039482
110	0x3d49c287	0.04925778
111	0x3d95cf6b	0.073149525
112	0x3ddab8ef	0.106798045
113	0xbdb5b59a	-0.088725284
114	0x3d27d310	0.04097277
115	0xbe126ef6	-0.1430014
116	0xbd8b201e	-0.06793235
117	0xbe85832d	-0.26076642
118	0xbd4fe96f	-0.05075973
119	0xbd55063b	-0.052007895
120	0xbe86568d	-0.26237908
121	0x3e87aaf8	0.26497626
122	0x3e26ca30	0.16288066
123	0x3e107e87	0.14110766
124	0x3d642a83	0.055704605
125	0xbd6d77d8	-0.05797562
126	0x3e1e6e77	0.15471826
127	0xbd88fef1	-0.06689251
128	0x3e2e9d8c	0.17052287
129	0x3b020c12	0.001984362
130	0xbd974ced	-0.07387719
131	0xbe14708d	-0.1449606
132	0x3d7f5961	0.062341098
133	0xbe800c9d	-0.25009623
134	0xbdf09f7d	-0.1174917
135	0x3da165d3	0.078807496
136	0xbe98da3b	-0.29853997
137	0xbe96fc18	-0.29489207
138	0xbd977daf	-0.07397019
139	0xbe5d2573	-0.21596317
140	0x3ddbb983	0.10728743
141	0xbe7c3ba6	-0.24632129
142	0x3d81fe93	0.06347384
143	0x3dbb6c84	0.09151557
144	0x3e88b531	0.26700738
145	0xbd57ddb9	-0.052701686
146	0x3d479cdd	0.04873358
147	0x3e1afdb5	0.15135844
148	0x3e072d97	0.13200985
149	0x3df6cc4b	0.120506845
150	0xbdf073ce	-0.11740838
151	0xbe519eb0	-0.2047069
152	0xbd9b5097	-0.07583731
153	0xbc1312ea	-0.008976677
154	0xbd3f57df	-0.04671466
155	0x3e15a9d4	0.14615566
156	0xbe5f62fa	-0.218151
157	0xbdee0594	-0.11622158
158	0x3dd70e2e	0.105007514
159	0x3d936f06	0.071989104
160	0x3db9f6a3	0.09080245
161	0xbd99d1dd	-0.07510731
162	0x3d991f25	0.074766435
163	0xbdb04096	-0.08606069
164	0xbe38cd8c	-0.1804716
165	0xbc0ab98d	-0.00846709
166	0x3d9cbe18	0.07653445
167	0xbe01623d	-0.12635131
168	0xbd0ee671	-0.034887735
169	0x3ccc0b19	0.024907636
170	0xbc14972e	-0.009069247
171	0xbe25c2f8	-0.16187656
172	0xbe7eedd1	-0.24895407
173	0x3d2f2f1e	0.042769544
174	0xbe466d95	-0.1937774
175	0x3cd6fe7b	0.026244393
176	0xbdcc76c7	-0.099835925
177	0x3da3145c	0.079628676
178	0x3e13455e	0.1438193
179	0xbd584b0d	-0.05280595
180	0xbc14c9ba	-0.0090812985
181	0x3dc5cd95	0.09658352
182	0xbde16b1b	-0.11006757
183	0xbe0b711c	-0.13617367
184	0xbe9da2a4	-0.30788147
185	0xbda7c9dc	-0.081927985
186	0xbc562530	-0.01307039
187	0x3cd82a70	0.026387423
188	0xbe7f1267	-0.24909364
189	0x3cd359e4	0.0257997
190	0xbe2ddda3	-0.16979079
191	0x3d3da943	0.046304
192	0xbd7d7f87	-0.061889198
193	0x3d73553e	0.059407465
194	0x3e02f101	0.12787248
195	0xbdfe608e	-0.1242076
196	0x3d95f82f	0.07322728
197	0x3ddc175e	0.107466444
198	0xbdff5251	-0.124668725
199	0x3c9b5a1a	0.018963862
200	0xbeacaacf	-0.33724067
201	0x3d57b56d	0.052663255
202	0x3e4edf6e	0.20202419
203	0xbee79cad	-0.45236722
204	0x3d8f36af	0.06992852
205	0xbe933beb	-0.2875665
206	0x3e4b6a59	0.19864787
207	0x3e1e20b7	0.15442167
208	0xbe9a2bcf	-0.30111548
209	0xbd170473	-0.036869477
210	0xbdc56154	-0.096377045
211	0xbe2b3662	-0.16719964
212	0xbd8f4e3f	-0.06997346
213	0xbdf0794f	-0.11741888
214	0x3ddb3a5e	0.10704492
215	0xbd31bcf6	-0.043393098
216	0xbcebb2de	-0.028771814
217	0x3db0d22b	0.08633836
218	0x3dbf24f7	0.09333222
219	0x3cc599e3	0.02412123
220	0xbdd97997	-0.106188945
221	0x3d948e79	0.07253737
222	0xbe9dbe8b	-0.30809435
223	0x3df3c7af	0.11903321
224	0x39afc4bb	0.00033525177
225	0xbd4c8ec0	-0.049940825
226	0x3db9c6b0	0.090711
227	0xbe033bc5	-0.12815769
228	0xbc0ed73d	-0.008718309
229	0x3e098d2f	0.13432764
230	0x3db52b66	0.08846168
231	0xbe88089e	-0.26569074
232	0xbe3184e7	-0.17335854
233	0x3d1967d9	0.037452552
234	0xbd89bf9a	-0.06725998
235	0x3cd798ce	0.02631798
236	0xbe3b9b99	-0.18321075
237	0x3e85a440	0.26101875
238	0xbe0f9f53	-0.14025621
239	0xbe13b8f9	-0.1442603
240	0x3b34b7c6	0.0027575358
241	0xbe7b6f35	-0.24554141
242	0x3d4901dd	0.049074043
243	0x3b822b73	0.0039724647
244	0xbcae78fc	-0.021297924
245	0xbda6e664	-0.08149412
246	0xbd160980	-0.036630154
247	0xbdf038c6	-0.11729579
248	0xbe333242	-0.1749964
249	0xbdfea8ae	-0.12434517
250	0xbdd26cc4	-0.10274652
251	0xbda09414	-0.07840744
252	0x3e510d1c	0.20415157
253	0xbe3449cf	-0.1760628
254	0xbe114db9	-0.14189805
255	0x3db7bfdf	0.089721434

linear1.bias f4 [128]
0	0xbdc67efb	-0.09692188
1	0x3dac9eb0	0.08428705
2	0xbd3542ee	-0.044253282
3	0xbd13d867	-0.03609505
4	0x3dced3e1	0.100990064
5	0x3dc3bcfa	0.09557529
6	0xbdb06f34	-0.0861496
7	0xbdbf739d	-0.09348223
8	0xbd67f3f6	-0.056629144
9	0xbc58ae1b	-0.013225104
10	0x3d479882	0.048729427
11	0xbd1064fd	-0.03525256
12	0xbb6ca7c2	-0.0036110734
13	0xbddbd4f1	-0.10733975
14	0xbdc0fc14	-0.0942308
15	0xbbdd998c	-0.006762689
16	0x3cfcd4f5	0.030863265
17	0xbb626542	-0.0034545218
18	0xbd5fdb29	-0.054652367
19	0xbd6eb4a3	-0.058277737
20	0x3dfce6e0	0.123487234
21	0xbdb2ba2e	-0.08726917
22	0xbbc2e5c8	-0.005947802
23	0x3d15960e	0.036520056
24	0x3da80e4e	0.082058534
25	0xbda85acf	-0.08220445
26	0xbd694961	-0.056954745
27	0x3d2015ed	0.03908341
28	0xbc7d1adf	-0.015448301
29	0x3b0547c2	0.002033696
30	0xbdcd6cfa	-0.10030551
31	0xbda633d2	-0.08115353
32	0xbcab9eb2	-0.020949695
33	0x3ce22181	0.027603867
34	0xbdce4e56	-0.10073535
35	0xbda18a27	-0.078876786
36	0xbc784a1b	-0.015154387
37	0xbd2f82a2	-0.04284919
38	0x3d16e5e8	0.03684035
39	0x3d6ecf56	0.0583032
40	0xbcaf4751	-0.021396311
41	0x3d39515f	0.045243617
42	0xbd9427e7	-0.07234173
43	0xbe26fe30	-0.16307902
44	0xbc899bf2	-0.016797993
45	0xbd8d01f2	-0.06885137
46	0x3dcc83e5	0.099860944
47	0x3da6a060	0.08136058
48	0x3d0a5d51	0.0337804
49	0x3c7c5ba3	0.015402707
50	0x3c943eca	0.018096346
51	0x3df6eee3	0.12057283
52	0x3d20ae19	0.039228532
53	0xbe140bc0	-0.14457607
54	0xbd7b6424	-0.0613748
55	0x3d54b7cb	0.05193309
56	0xbda75dc4	-0.08172181
57	0x3c1da292	0.009621279
58	0xbd820ff7	-0.06350701
59	0xbe0441a0	-0.12915659
60	0x3d1eac7d	0.038738716
61	0xbd06fc1d	-0.032955278
62	0x3d446610	0.047948897
63	0x3d2839d2	0.041070767
64	0x3b2046b8	0.0024456214
65	0xbe023bee	-0.12718174
66	0xbc637178	-0.0138820335
67	0x3c954f79	0.018226372
68	0x3c9a0933	0.018803215
69	0x3c74043f	0.0148935905
70	0x3e182bff	0.14860533
71	0xbc317c7d	-0.010832903
72	0xbdb1c8c9	-0.08680875
73	0xbc79e346	-0.01525194
74	0x3d61ef0c	0.055159613
75	0x3d8d7aee	0.069082126
76	0xb991ff52	-0.00027846784
77	0x3da48643	0.08033421
78	0xbc076d42	-0.008265795
79	0xbe1e5a83	-0.15464215
80	0xbc22370c	-0.0099008195
81	0xbc96b98a	-0.018399019
82	0x3cc935a9	0.02456172
83	0x3df4cc24	0.11952999
84	0x3d81af61	0.06332279
85	0xbc9f501d	-0.01944738
86	0xbc92f8c4	-0.017940886
87	0x3dcc0a35	0.09962884
88	0x3a7854c4	0.000947308
89	0xbe00574e	-0.12533304
90	0x3db91033	0.09036293
91	0xbc48e9df	-0.01226279
92	0xbb2ce370	-0.002638068
93	0x3b95a0cf	0.004566289
94	0x3d8d6aa2	0.06905104
95	0xbcbabc35	-0.022794822
96	0xbd362bed	-0.044475485
97	0x3e02773e	0.127408
98	0x3cf72fd9	0.030174183
99	0x3dcca4f4	0.099924
100	0xbcee62bd	-0.029099816
101	0xbcceb2d7	-0.025231762
102	0xbd697222	-0.05699361
103	0xbd92207b	-0.071351014
104	0x3d20a906	0.039223693
105	0xbd5a29e3	-0.053262603
106	0x3ca0fb97	0.019651217
107	0x3cc2c2e8	0.02377458
108	0x3db0630d	0.086126424
109	0x3d83adac	0.0642961
110	0xbc134777	-0.0089892065
111	0xbcf0de6c	-0.029402934
112	0xbdca5a81	-0.098805435
113	0xbc5eb2c8	-0.013592429
114	0x3caf7d39	0.021422016
115	0xbccb6e95	-0.024833003
116	0xbc25d316	-0.010121128
117	0x3da71d14	0.08159843
118	0x3d74d20a	0.05977062
119	0xbdc711b6	-0.09720175
120	0xbcab8c3d	-0.020940894
121	0xbdc6c37d	-0.09705255
122	0x3b3d25ea	0.002886171
123	0x3d1385cf	0.03601628
124	0xbcaa0ff8	-0.020759568
125	0x3d1f0e85	0.038832206
126	0x3c17c80a	0.009264002
127	0xbd756d5d	-0.05991875

linear2.weight f4 [32, 128]
0	0xbecc493a	-0.39899617
1	0xbdd085d6	-0.10181777
2	0xbdcb66f6	-0.099317476
3	0xbdd0703f	-0.10177659
4	0xbd450068	-0.04809609
5	0xbddd8651	-0.108166344
6	0x3b699972	0.003564444
7	0xbdab0fed	-0.08352647
8	0xbd116cf0	-0.03550428
9	0x3debbd2b	0.1151069
10	0xbdb8fa2b	-0.09032091
11	0x3d536710	0.05161196
12	0xbd85c869	-0.06532366
13	0xbd09d2f3	-0.033648442
14	0xbd78e42e	-0.060764484
15	0x3c06ab1c	0.008219507
16	0xbd600645	-0.05469348
17	0xbe591870	-0.21200728
18	0x3d03f59c	0.032216653
19	0x3da0ae6a	0.07845767
20	0x3d0ca889	0.034340415
21	0x3e6a9754	0.2290929
22	0x3d0e5687	0.034750488
23	0xbc349452	-0.01102169
24	0xbd1f6d1f	-0.038922425
25	0x3e5f738c	0.21821421
26	0x3e7c8deb	0.24663512
27	0xbb4644a9	-0.0030253327
28	0x3d189eaf	0.037260707
29	0x3c941ebd	0.018081063
30	0xbdcff6cd	-0.101544954
31	0xbec03b6c	-0.37545335
32	0xbd235dbe	-0.03988432
33	0x3c8a1a30	0.01685819
34	0xbb17156b	-0.0023053538
35	0xbdd21251	-0.102574
36	0xbee4ffe2	-0.44726473
37	0x3e848e0c	0.25889623
38	0x3a8b93cd	0.0010648906
39	0xbc635087	-0.01387418
40	0xbc68a56c	-0.014199596
41	0xbc2dd39e	-0.0106095355
42	0xbd30dc09	-0.043178592
43	0x3dce3bf6	0.100700304
44	0x3dd07801	0.10179139
45	0xbed6581c	-0.41864097
46	0xbd0b2bd0	-0.03397733
47	0xbd8cc2b0	-0.06873071
48	0xbd3a27eb	-0.045448225
49	0xbcc70427	-0.024293972
50	0xbd249057	-0.040176716
51	0x3cfefc3c	0.031126134
52	0x3e21cc51	0.15800597
53	0x3dbafd46	0.09130339
54	0x3d5a1b59	0.053248737
55	0xbca0d1b4	-0.019631244
56	0x3db3f6f7	0.08787339
57	0x3ace9ac0	0.0015762672
58	0x3d43e6b4	0.047827438
59	0xbe251684	-0.1612187
60	0xbc40b909	-0.011762866
61	0xbd2253b0	-0.039630592
62	0x3d4a9ce4	0.04946603
63	0x3c49789d	0.012296823
64	0xb9ddfbc2	-0.0004233998
65	0xbe159195	-0.14606316
66	0xbca9e19d	-0.020737464
67	0x3c9ff007	0.019523634
68	0x3d288931	0.04114646
69	0xbd037789	-0.03209642
70	0x3d6c6604	0.057714477
71	0xb94f6186	-0.00019777389
72	0x3cc6099e	0.024174508
73	0xbd0edf26	-0.03488078
74	0x3c869b49	0.016431468
75	0xbd40e649	-0.047094617
76	0xbce01b8c	-0.027356885
77	0x3d86f2f6	0.0658931
78	0x3c5f3f54	0.013625938
79	0xbf0c4f8c	-0.5480888
80	0x3cfcd540	0.030863404
81	0xbda46fba	-0.08029123
82	0x3c9b0d05	0.018927107
83	0xbdd74907	-0.10511976
84	0x3d2bf7ef	0.041984495
85	0xbe23aa20	-0.15982866
86	0x3d5230cf	0.05131608
87	0xbdf50b57	-0.119650535
88	0xbd273a52	-0.040827103
89	0x3d597f81	0.053100113
90	0x3cb090a5	0.021553347
91	0xbd844bc7	-0.06459766
92	0xbc291d71	-0.010321961
93	0x3baf0dc6	0.005342218
94	0x3bfdbda7	0.0077435556
95	0x3d3b4fa4	0.045730248
96	0xbd304e13	-0.043043207
97	0x3dce35b2	0.10068835
98	0x3d5d3fb5	0.054015834
99	0x3d2910bb	0.04127572
100	0x3dc81426	0.09769468
101	0x3be05f6a	0.0068473117
102	0xbdbfa3d4	-0.093574196
103	0xbe086a3c	-0.13321775
104	0xbd2db395	-0.04240759
105	0x3d5367a5	0.051612515
106	0x3dee20a9	0.11627323
107	0xbd1b864c	-0.037969872
108	0xbccbec18	-0.024892852
109	0xbd39a788	-0.045325786
110	0x3e166b60	0.14689398
111	0xbeeb12b4	-0.45912707
112	0xbe8824ff	-0.26590726
113	0xbe06d42b	-0.13166873
114	0xbce712c4	-0.02820719
115	0xbe8fc795	-0.28081957
116	0x3cfd254f	0.03090158
117	0x3d92a59c	0.07160494
118	0xbd311914	-0.043236807
119	0x3d8ef94f	0.069811456
120	0xbcbe8d26	-0.023260664
121	0xbd47a431	-0.04874057
122	0x3d3ce241	0.04611421
123	0x3dd181ee	0.1022986
124	0x3d910626	0.07081251
125	0x3e2fb272	0.17157915
126	0x3d327a14	0.043573454
127	0xbc31a2c9	-0.010842034
128	0xbe5f33ea	-0.21797147
129	0xbe536b81	-0.20646478
130	0xbd971598	-0.073771656
131	0xbcee984e	-0.029125359
132	0xbdf01c77	-0.11724179
133	0xbed07781	-0.40716174
134	0x3d87338e	0.0660163
135	0x3a86b7b8	0.0010278141
136	0xbccbec75	-0.024893025
137	0x3e12233f	0.14271258
138	0xbe10986d	-0.14120646
139	0xbd2c1ae9	-0.04201785
140	0x3d014f9e	0.03157007
141	0x3e39e323	0.18153052
142	0x3d01f5a3	0.031728398
143	0xbc901b29	-0.017591076
144	0xbd5c15f6	-0.05373188
145	0xbe300a5c	-0.17191452
146	0x3c19baba	0.009382898
147	0x3e8dcde3	0.27696142
148	0xbc08a3e1	-0.008339853
149	0x3f1bb7d3	0.6082737
150	0x3c0bd570	0.008534774
151	0xbc6f7ba3	-0.01461688
152	0x3d1ab367	0.037768748
153	0x3eb5babf	0.35494038
154	0x3ed01c6a	0.40646678
155	0x3ce9c306	0.028535377
156	0xbc6a6bbe	-0.014307914
157	0x3cc0482a	0.02347191
158	0x3d05e300	0.032687187
159	0xbe07d9ff	-0.13266753
160	0xbd0b9778	-0.03408
161	0xbc2f5752	-0.010701971
162	0x3dd49d0e	0.10381518
163	0xbd88dc50	-0.06682646
164	0xbe981bb9	-0.2970865
165	0x3e50ff99	0.20410003
166	0xbcf4ce63	-0.02988357
167	0xbcc875a6	-0.024470162
168	0x3d03fb00	0.032221794
169	0x3d03e2b5	0.032198627
170	0x3cba06d2	0.02270833
171	0x3f62a456	0.88532007
172	0x3e843e22	0.25828654
173	0xbe2b1c07	-0.1670991
174	0xbdabd74f	-0.08390676
175	0xbd861029	-0.06546051
176	0x3bf3193d	0.00741878
177	0x3d75583c	0.0598986
178	0x3ceca04a	0.028885026
179	0xbd2cafc8	-0.042159826
180	0x3c01e0e6	0.007927155
181	0x3f05477c	0.520622
182	0x3e0ac88b	0.13553064
183	0xbd7e6b44	-0.062114015
184	0x3e0d9bb3	0.13828926
185	0x3d1bdf65	0.038054843
186	0x3d09cc69	0.033642206
187	0x3d8e167a	0.06937881
188	0xbdae8f09	-0.085233755
189	0x39d4f6c1	0.00040619637
190	0xbd02f263	-0.03196944
191	0x3d1a0c10	0.03760916
192	0xbcd91bd5	-0.02650253
193	0x3dccc646	0.09998755
194	0x3cb0a050	0.021560818
195	0xbd8930e2	-0.06698777
196	0x3db01b7b	0.085989915
197	0x3c458674	0.012055982
198	0xbe2afbbf	-0.16697596
199	0xbc9751e3	-0.018471664
200	0xbd30a679	-0.04312751
201	0x3d5a2854	0.053261116
202	0x39cede67	0.00039457084
203	0xbc960e14	-0.01831726
204	0x3d3d07b6	0.04614993
205	0xbe1f8c03	-0.15580754
206	0x3c0b60cc	0.008506965
207	0xbe8d4957	-0.27595016
208	0xbd1fd0ba	-0.039017417
209	0x3c8a87ae	0.0169104
210	0x3cb8bd91	0.02255133
211	0xbe87999f	-0.2648439
212	0xbce5f970	-0.028073043
213	0xbd7df4f4	-0.062001184
214	0x3d448f9a	0.04798851
215	0xbeef0838	-0.46685958
216	0xbd5a66b8	-0.053320616
217	0x3e890ce8	0.2676766
218	0xbd115e5d	-0.035490382
219	0xbd061f21	-0.03274453
220	0x3d7270da	0.059189655
221	0xbd1a6a86	-0.037699245
222	0x3c20cc4d	0.009814334
223	0x3afe4ab0	0.0019400921
224	0x3d430741	0.04761434
225	0xbcc9fa28	-0.024655417
226	0x3cf53844	0.029934056
227	0xbcb3d155	-0.021950403
228	0x3dbefc14	0.09325424
229	0x3dd437a9	0.10362179
230	0xbcfb6ea0	-0.030692399
231	0x3d8b4a61	0.06801296
232	0x3c89506a	0.016761977
233	0xbcbfb0ad	-0.023399675
234	0x3d69cb78	0.05707881
235	0x3d53359f	0.05156481
236	0xbdf9ed26	-0.122034356
237	0xbe2638d5	-0.16232617
238	0x3d91abaa	0.071128204
239	0xbea8514a	-0.3287452
240	0xbd5c3a8f	-0.053766783
241	0xbdcbc69b	-0.0994999
242	0x3cb38d7c	0.021918051
243	0xbe5b9d48	-0.21446717
244	0x3d5f4493	0.054508757
245	0x3c8790de	0.01654857
246	0xbe20f3fd	-0.15718074
247	0x3ed86517	0.42264625
248	0x3c7a28cf	0.015268519
249	0x3ddcf8f6	0.10789673
250	0x3cd7a41e	0.026323374
251	0x3d663ad9	0.056208465
252	0x3bd565e1	0.006512389
253	0x3d2796f1	0.040915433
254	0x3bb36f3f	0.005475908
255	0xbc9dceee	-0.01926371

linear2.bias f4 [32]
0	0x3d82d9f2	0.06389226
1	0xbccd766b	-0.02508088
2	0x3e0e29ed	0.13883181
3	0x3caa75b4	0.020808078
4	0xbe8f7dbc	-0.28025615
5	0x3d314688	0.043280154
6	0x3cccc63d	0.024996871
7	0xbcbd4a62	-0.023106758
8	0x3b667faf	0.003517132
9	0xbc94d95c	-0.018170051
10	0x3dd081b4	0.10180989
11	0xbcdbbcf7	-0.026823504
12	0xbe01c17b	-0.12671463
13	0x3d5fe8e0	0.054665446
14	0x3c8e2997	0.017353816
15	0x3c2f66e6	0.010705685
16	0x3d8e757c	0.06956002
17	0x3e0da214	0.13831359
18	0xbcf5c24c	-0.029999875
19	0x3e6a0e33	0.22856979
20	0x3c43d852	0.01195343
21	0xbe3eea15	-0.18643983
22	0xbcf56204	-0.029953964
23	0x3d62bd15	0.055356104
24	0x3e106d69	0.14104237
25	0x3e0423d4	0.12904292
26	0xbe30b823	-0.17257743
27	0xba98e72c	-0.0011665574
28	0xbd68129d	-0.056658376
29	0x3e22df18	0.15905416
30	0x3e4cffa8	0.200194
31	0xbe231413	-0.15925626

output.weight f4 [5, 32]
0	0xbe1dca37	-0.1540917
1	0x3c3a77ed	0.011381132
2	0xbdaa1e05	-0.08306507
3	0xbcf99ccc	-0.030470274
4	0x3e8ead12	0.27866417
5	0xbdca3654	-0.098736435
6	0xbe9f48e4	-0.311103
7	0x3da41ece	0.08013688
8	0xbcfe6eca	-0.031058688
9	0x3e8d1b20	0.27559757
10	0xbd0f0c20	-0.034923673
11	0x3e837bd3	0.25680408
12	0x3e90f55e	0.283122
13	0x3e27e72b	0.16396777
14	0x3d9741c1	0.073855884
15	0xbe8bc38f	-0.27297637
16	0x3d620902	0.05518437
17	0x3d073a5d	0.033014644
18	0x3d8a0809	0.06739814
19	0xbea4f5d1	-0.32218793
20	0x3bee6644	0.0072753746
21	0x3e9a7666	0.30168456
22	0x3e4928b6	0.19644436
23	0xbaa173af	-0.0012317802
24	0xbc7b57fd	-0.015340802
25	0xbe7d1b51	-0.24717452
26	0x3df2fd7d	0.11864755
27	0xbda6721b	-0.08127233
28	0xbb3cd33d	-0.0028812431
29	0xbe2f6ac9	-0.17130579
30	0xbd192348	-0.037387162
31	0x3e03ab60	0.12858343
32	0xbd481fba	-0.04885838
33	0x3de69d1f	0.11260437
34	0xbe073790	-0.13204789
35	0x3df0c486	0.11756234
36	0x3bab07c6	0.0052194325
37	0x3cc4ea8f	0.024037628
38	0x3e2100a1	0.15722896
39	0x3e42e99e	0.1903443
40	0xbd07edcf	-0.033185776
41	0xbe0378ec	-0.12839097
42	0xbdb4015c	-0.08789322
43	0x3d234944	0.039864793
44	0xbe1480ab	-0.14502208
45	0x3e4210bb	0.18951695
46	0x3d8649d5	0.06557051
47	0x3db44651	0.08802474
48	0x3e0db67d	0.13839145
49	0xbd6e352d	-0.05815618
50	0xbdd3093a	-0.10304494
51	0x3dd2a2bf	0.102849476
52	0x3c431dd7	0.01190897
53	0xbe23899f	-0.15970467
54	0xbe0c1784	-0.13680845
55	0x3b831561	0.0040003513
56	0x3df0f206	0.11764912
57	0xbded809f	-0.11596798
58	0xbb2951fc	-0.002583622
59	0x3e197c5b	0.14988844
60	0xbe118f1c	-0.14214748
61	0x3e29b210	0.16571832
62	0x3e0ec57b	0.1394252
63	0xbda8c2e0	-0.082402945
64	0xbe0dc9fe	-0.13846585
65	0xbed94639	-0.42436388
66	0x3eae26d3	0.34013996
67	0xbdf8d6c4	-0.12150338
68	0xbe825bc1	-0.25460628
69	0x3e1f68cc	0.1556732
70	0xbe8dcc3c	-0.2769488
71	0xbe55d968	-0.20883715
72	0xbd125cb5	-0.035732944
73	0x3e336f70	0.17522979
74	0xbbe4cee0	-0.0069826692
75	0xbe4624fa	-0.19350043
76	0x3ddbb1a2	0.1072724
77	0x3db75a84	0.08952811
78	0x3d777a3c	0.060419306
79	0xbdebfb25	-0.115225114
80	0x3d70cc15	0.058788378
81	0x3e741ea6	0.23839816
82	0xbc21e9cc	-0.009882402
83	0x3e4046b1	0.18776967
84	0x3c1f9a3f	0.009741365
85	0xbe6fc2b1	-0.23414113
86	0x3e97db12	0.29659325
87	0x3bd1445a	0.006386322
88	0x3d410df4	0.047132447
89	0x3e8bef15	0.27330843
90	0xbdc93ba4	-0.09825829
91	0xbdaaf432	-0.08347358
92	0x3e32908a	0.1743795
93	0x3e031e9c	0.12804645
94	0x3e0a3942	0.13498405
95	0xbd19f50b	-0.037587207
96	0x3e86ae26	0.2630474
97	0x3e597b0e	0.21238348
98	0x3e25f9f4	0.16208631
99	0x3e03d6df	0.12874936
100	0xbe858f80	-0.26086044
101	0xbe76fcc9	-0.24119867
102	0x3e485879	0.19565
103	0xbe262996	-0.16226801
104	0xbd0803fd	-0.03320693
105	0xbdcf760c	-0.101299375
106	0x3e69d819	0.22836341
107	0x3cd49a21	0.0259524
108	0x3d2da9f6	0.042398416
109	0xbe52d25e	-0.20588061
110	0x3d81275a	0.06306334
111	0xbbebca51	-0.007195749
112	0x3dea4aa7	0.1144002
113	0x3dc23c3a	0.094841436
114	0x3e355e22	0.1771169
115	0x3daeb285	0.08530144
116	0x3c5a57d0	0.0133266
117	0x3e2f5384	0.17121702
118	0x3c44b8c6	0.012006944
119	0x3bfdf371	0.0077499677
120	0x3d8d0f9f	0.06887745
121	0xbdaca55a	-0.08429976
122	0xbe2df01b	-0.16986124
123	0xbe467893	-0.19381933
124	0x3cda6cec	0.026663266
125	0xbd8dbe6f	-0.06921088
126	0x3d949f8b	0.07256993
127	0x3d1e7d4e	0.03869372
128	0xbdcf00b4	-0.10107556
129	0x3e02f358	0.12788141
130	0xbe595638	-0.21224296
131	0xbda468f2	-0.08027829
132	0x3dfc1da9	0.12310345
133	0x3cdd4681	0.027011158
134	0x3e253991	0.16135241
135	0x3d6d69b0	0.05796212
136	0xbd1457b1	-0.03621644
137	0xbdac3c6c	-0.08409962
138	0xbda4d1b2	-0.08047809
139	0xbe626420	-0.22108507
140	0xbd89234a	-0.06696184
141	0xbdd7f6b4	-0.10545102
142	0x3d8a5ff9	0.067565866
143	0x3e0f5c24	0.13999993
144	0xbcd1b268	-0.025597766
145	0xbe3fbd0f	-0.18724464
146	0xbd92ed93	-0.0717422
147	0x378bee4e	1.668106e-05
148	0x3c004b4f	0.007830455
149	0xbda5aff9	-0.08090205
150	0xbd8cf0bd	-0.06881855
151	0x3b920cd3	0.004457095
152	0xbe1d2138	-0.15344703
153	0x3cc68b9c	0.024236493
154	0x3d9854e8	0.074380696
155	0x3e3677f6	0.17819199
156	0x3e5349aa	0.2063357
157	0xbdc3f337	-0.09567874
158	0xbe33528c	-0.17511958
159	0x3c9bacf6	0.019003373

output.bias f4 [5]
0	0xbed29e9f	-0.41136643
1	0x3d953b93	0.072867535
2	0x3e1b01a0	0.15137339
3	0x3e25a503	0.16176228
4	0xbdcb1ead	-0.0991796
