code/models/best_model_012.pth (torch, 485621 bytes, 8 tensors)

conv1.weight f4 [1, 1, 5, 3]
00000000: b76f 5ebd b076 afbd 386c 2dbe e0e0 20be
00000010: a0ca ed3d 5fb3 08be 56c6 4c3c ac39 573d
00000020: defd cbbd 4379 eebb 5d11 6b3d 49bb ecbc
00000030: 1808 ba3e 8610 2f3e 7b77 09be
-0.05430576 -0.0856756 -0.16935813 -0.15710783 0.11610913 -0.13349675 0.012498459 0.052545235
-0.09960531 -0.007277639 0.057389606 -0.028897898 0.363343 0.17096147 -0.13424484

conv2.weight f4 [1, 1, 3, 3]
00000000: 8a9f c03c bfae 71bd 1e54 d73b 264b f33c
00000010: 5d75 a9bd 6b9b fb3d 21a8 393d 4e05 a6bd
00000020: eb76 56bd
0.023513574 -0.05900454 0.006571307 0.02969892 -0.082743384 0.12285503 0.045326356 -0.081064805
-0.052359503

linear1.weight f4 [128, 900]
00000000: 260c ce3d 4c2f d43d b0ad b93e 8f1d bd3d
00000010: c905 8bbd 3d49 493c f4ef 8f3c babb c0bd
00000020: 329d 09be 90ac d1bd d7a4 513d a525 87bd
00000030: 4de1 2d3d 2fd9 223e 0cf0 72bd ebe8 633e
00000040: 8ea9 36bd ba1e 083e f9d7 c83d 5ebc 793d
00000050: 1ca7 9ebd a4eb 1a3e d519 c93d 734a a13d
00000060: c6d1 a8bd f544 c03d c337 a13c fa28 033e
00000070: ddd0 a53d b89a 7abe 9ced 133e 89d1 733d
00000080: 978d c53d 057f eb3c 4458 16ba 189d 9bbc
00000090: ca22 063e 0ccc 38bd a6c9 a83d 1a8b 933d
000000a0: 2c86 a5be ff83 b63b 28c2 573e 9796 353e
000000b0: a867 5c3e 9dde 513d b06e b13c 3011 fb3d
000000c0: b243 1e3e a428 7abd 09ca 1d3e 90c5 e6ba
000000d0: b0d1 053e 7559 16bd 6c30 2e3e 7a66 1e3e
000000e0: bf89 febd 5e8d 533e 8c59 90bc c938 383e
000000f0: ebc6 2fbe ec3b 6d3e 1b92 73be 4628 3b3e
00000100: 62b7 bd3c 4777 aa3d b733 9ebe 8a4b 8c3e
00000110: b6f3 333e 3a0a e6bd 731f a63d d481 b8bd
00000120: 0402 db3d 14c7 85bd cd56 783e f897 57bd
00000130: 9566 08be 4141 91be 8571 35bd df6d 8e3e
00000140: 8626 27be eb86 1e3e c2dc 3b3d 739d 95bd
00000150: 2ba1 d03d a6a0 403d ade8 1c3c 44f4 a7be
00000160: 1b54 133e c674 49bd 606c 68bd 1ff4 42be
00000170: 5d8a 0e3e 43a6 cb3c 06e2 db3c c97d b33d
00000180: be44 213c 8d49 26be e2b3 b5be 8356 1e3e
00000190: 7559 e5bd 1778 04be 99d9 1d3e b2d2 a3bd
000001a0: 4663 fdbd ae82 17be 693d 8ebd 8107 323e
000001b0: 421a 973c bfb4 ec3b 1704 8f3e f7d8 a1be
000001c0: d11f 8c3e 6409 c7be 585d b13e 1f50 113e
000001d0: 2b61 74bd f261 ba3e c4db 9dbd f675 3abd
000001e0: 1dd6 a5be 4592 c9bb d9e3 0bbe b6b2 3c3d
000001f0: ecd7 acbd e91c c13d ad65 a03d 4f26 b13d
00000200: 1096 82be 8dfd a3bc f664 bbbd 902f 043e
00000210: 5e36 2abe 4f67 00be 3de7 dd3d 0a29 05bd
00000220: ac13 7ebd 4182 c23c 4ec3 bfbe 3330 22be
00000230: 9dce ae3d 348e 683e 60dd d03d f163 233e
00000240: 781a 00be e36b a8bd 684a 78bd 836f d0bd
00000250: 3c52 173e fc3a f9bd 4db7 bb3d be81 053d
00000260: 0f98 fe3c b17a b2bd 732c 19be 2dc1 86bc
00000270: e4aa b5bd 94b4 ff3d 16c5 9bbd 3ebd 44be
00000280: 947d 9abd 1b08 ffbc 990e e13d 2cc4 383e
00000290: 1555 733d c4cd fe3d 1695 c1bd 3803 683d
000002a0: 97a3 903d d81d 5ebe f8f0 51be 49ec 363c
000002b0: eac1 d53d c0d7 83be 4335 453e eab5 3cbe
000002c0: 70bf 23be 97e4 b03d 54bd ce3c e634 b13e
000002d0: 805d 83bd fcea 8dbd 21ee 623e 6417 443e
000002e0: b3aa 87bc cbb7 1dbd a962 433e 507c 123e
000002f0: 51ed febc af18 e3bd ec45 65be bbc0 d8bb
00000300: aa96 133e 3a6c df3d 2141 fbbd 45f0 c83e
00000310: f7ec 6d3e f0f2 313e add2 5d3d 0e55 d3bd
00000320: 38bd 1fbe e457 a7bc d49a 823d 6811 a8be
00000330: b2ef 8fbc 8465 54bd f208 c2bd a211 bd3d
00000340: 7c44 9cbd 44cd e3bd 40b5 9e3e 7f53 a43e
00000350: 34ad bcbe b667 923e 612d 86bd 11e8 f6bd
00000360: a0e2 34be cd5b 943c 1cae 4b3e d1db ad3d
00000370: 49ae e73c 151d a8bc bd2b 8b3e f07f 1e3d
00000380: 567a 713d 9b8a 43be edfc 6dbe a907 2a3e
00000390: 35b1 a63e 2be1 a3be 9011 08bd f938 a03d
000003a0: bb45 29bd 70a6 233e a50a 2abe ea98 913e
000003b0: bf36 873c b705 fb3c 933a 31be b039 8bbd
000003c0: 04d7 2abe ed73 e6bd ddc0 aabc 8904 3e3e
000003d0: f856 87bd 6028 6e3e ab18 84bd 7497 82bd
000003e0: 034f c7bd 4a74 e5bd b809 143e ac71 44be
000003f0: e035 133d 636a e9bd cdf1 e4bd e87e f03d
0.10060911 0.10360584 0.36265326 0.092341535 -0.06788213 0.012285528 0.017570473 -0.09410806
-0.13438872 -0.10237992 0.051182594 -0.06598977 0.04245119 0.15903161 -0.059310958 0.2225682
-0.044595294 0.13292971 0.098068185 0.060970657 -0.07746717 0.15128952 0.0981938 0.07875528
-0.08243136 0.093881525 0.01967991 0.128086 0.08096478 -0.24473083 0.1444611 0.059526
0.09646147 0.028747091 -0.00057351985 -0.018995807 0.13099208 -0.04511647 0.082415864 0.07204266
-0.32328928 0.0055699344 0.21070158 0.17733227 0.21523917 0.05123769 0.021659225 0.12259138
0.15455511 -0.061073914 0.15409102 -0.0017606486 0.1306827 -0.036706407 0.17010659 0.15468779
-0.12428617 0.20659396 -0.017620824 0.17990412 -0.17165725 0.2316739 -0.23786204 0.18277082
0.023158733 0.083235316 -0.3089883 0.27401382 0.17573437 -0.11232419 0.08111467 -0.09009138
0.10693744 -0.06532112 0.24251862 -0.052635163 -0.13320382 -0.28370097 -0.044297714 0.278182
-0.1632329 0.15481155 0.045864828 -0.07305422 0.1018699 0.047028206 0.009576959 -0.32803547
0.14387552 -0.04918363 -0.05674398 -0.19038437 0.13919969 0.024859553 0.026841175 0.08764226
0.00984305 -0.16238995 -0.35488802 0.15462689 -0.11198703 -0.12936436 0.15415038 -0.07999171
-0.123724505 -0.14795944 -0.06945307 0.17385675 0.018445138 0.007223695 0.27932808 -0.31610844
0.27368024 -0.38874352 0.34641528 0.1419072 -0.05966298 0.3640285 -0.077079326 -0.045522653
-0.32389918 -0.00615147 -0.13661136 0.04606887 -0.08439621 0.09429342 0.07831893 0.08649885
-0.25505114 -0.020018363 -0.09150116 0.12908769 -0.16622302 -0.12539409 0.10835121 -0.03250984
-0.06203048 0.02374375 -0.37453693 -0.15838699 0.08535502 0.22710496 0.10198474 0.15956093
-0.12510097 -0.08223703 -0.060617834 -0.10177519 0.14777464 -0.121694535 0.09165821 0.032594435
0.031078367 -0.08714808 -0.14958362 -0.016449535 -0.088704854 0.124856144 -0.076059505 -0.19212815
-0.075434834 -0.031131795 0.109891124 0.18043584 0.059407312 0.124415904 -0.09452264 0.056643695
0.07062452 -0.21691072 -0.20502079 0.011164733 0.10437377 -0.25750542 0.19258599 -0.1842877
-0.15990996 0.0863735 0.025236763 0.3461067 -0.06414318 -0.06929585 0.22161151 0.19149548
-0.016560888 -0.038505357 0.19080605 0.14305234 -0.03111902 -0.110886924 -0.22389954 -0.006614772
0.14412943 0.109093145 -0.12268282 0.3924581 0.23234926 0.1737783 0.054155994 -0.10318957
-0.15599525 -0.020427652 0.06377187 -0.3282578 -0.01757035 -0.051854625 -0.094743624 0.09231879
-0.0763025 -0.11123136 0.30997658 0.32094952 -0.36850893 0.2859475 -0.06551624 -0.12055982
-0.17664576 0.01811018 0.19890636 0.08489192 0.028281348 -0.02052168 0.27181807 0.03869623
0.05895456 -0.19095843 -0.23241015 0.16604485 0.32557073 -0.32007727 -0.033219874 0.07823367
-0.041326266 0.1598146 -0.16605623 0.28436977 0.016505597 0.030642373 -0.173075 -0.067981124
-0.16683584 -0.1125258 -0.020843918 0.18556418 -0.06608385 0.2325759 -0.064500175 -0.06376544
-0.09731867 -0.11203821 0.14456832 -0.19183987 0.03594005 -0.11397245 -0.11178932 0.117429554

linear1.bias f4 [128]
00000000: f2c9 57be 96b9 6dbe efb2 68bd 9333 ef3d
00000010: 3878 1b3d 5a51 cebb 7627 49be f9df 8c3d
00000020: 1321 c5bd 991a f8bd ff8d 9abe 4da1 cc3e
00000030: 9daf a63d 07a3 90bd f8fc b3bd 716f 1ebe
00000040: 2abb 61bd 832d ce3d 9fbf 29bd 0884 e43c
00000050: 4a0b 0abe 905a 09be a615 78bd c9ec 193d
00000060: a1c4 403a 946c 8b3d cc11 483f 86b4 76be
00000070: 6316 1e3d 1071 843e 78e4 d73d 0aa7 bdbe
00000080: edbe edbd fbfc da3c 13da 4a3e c869 2a3d
00000090: 602c f4be eb01 1ebf c19f a9be 0505 92bd
000000a0: 12d9 e6be feb5 143e c66a 3fbe 2304 7dbd
000000b0: 43fc 7ebe c88e 9dbd efda 85bc 631e 5bbc
000000c0: 9005 edbd e4d3 d6bd ce2a 873e f661 a2bd
000000d0: e2fc 033c cce6 97bd 5527 b5bc 1dee 843e
000000e0: 209f d9bd 8c9e f53d db6a 983e d729 5ebd
000000f0: 7236 a0be a50b bdbd 98bc 873e 7512 a43e
00000100: dbc3 b1be 3d41 28be 9599 003f eaca 6a3e
00000110: 91d1 e43c fa80 37bd 8cdc e63c 308a 6e3d
00000120: 43b6 8bbe 823c a83d c568 e8bc b3e5 85bd
00000130: 43a4 32be d4e3 44bd 897f 1fbb 89fa 1cbe
00000140: 0e91 923d 02bf 7ebc 2e96 613e df2f b03e
00000150: c4e8 0d3e 5396 8c3d af29 73bd 97ce c6bc
00000160: f994 5a3d 7204 52bd 76ed 4d3e bb2c 34bd
00000170: 245a ff3e 0ecd 90bd 1c63 8cbd 30d9 fcbc
00000180: 9f3b c9bc a4b5 ff3b 14d2 1b3d ea32 fe3d
00000190: dd55 b8be b620 853c 7bb5 f4bc 4669 6cbe
000001a0: 9bda 27ba a86c 7b3e 0905 c9bd 85cd 52bc
000001b0: 15ae f6bd 671a 803d ba4d bdbe ac68 4b3e
000001c0: 5609 4c3e 377a 80be 3a04 95bc ce4f 07be
000001d0: 59a6 283f c3b2 75bc 3432 44bd 195f 09be
000001e0: 8da0 88be 38df 693e aaa5 a83d 50d8 a8be
000001f0: c223 e53c 4327 ce3b 36e9 1dbe 0032 3bbe
-0.2107313 -0.23215327 -0.05681127 0.11679759 0.037956446 -0.006296319 -0.1964396 0.06878657
-0.09625449 -0.12114448 -0.3018646 0.39966813 0.08138964 -0.07062345 -0.08788484 -0.15472199
-0.055110134 0.100672744 -0.04144251 0.027894989 -0.13480869 -0.13413453 -0.06056752 0.03757933
0.0007353519 0.06807819 0.78152156 -0.24092302 0.03859557 0.2586751 0.10541624 -0.37041503
-0.11608682 0.026731959 0.19809751 0.041604787 -0.47690105 -0.61721677 -0.33129695 -0.07129864
-0.45087487 0.1452255 -0.18693075 -0.061771523 -0.24900918 -0.07693249 -0.016339747 -0.013373944
-0.115733266 -0.10489634 0.26399845 -0.07928841 0.008055897 -0.07417068 -0.022113482 0.25962916
-0.10626054 0.11993131 0.29769024 -0.05423912 -0.31291538 -0.09230737 0.26511073 0.32045332
-0.34719738 -0.16431136 0.5023435 0.22928968 0.02793196 -0.044800736 0.028181337 0.058237255
-0.27287492 0.08214666 -0.02837027 -0.06537952 -0.17445473 -0.048068836 -0.0024337491 -0.15329947
0.07156573 -0.0155484695 0.22029945 0.34411523 0.13858324 0.068646096 -0.059365924 -0.024268432
0.053364728 -0.05127377 0.20110115 -0.04398797 0.4987346 -0.07070361 -0.06854841 -0.030865282
-0.024564562 0.0078036357 0.038042143 0.12412055 -0.36003008 0.01625095 -0.029871693 -0.23087034
-0.0006403119 0.24553168 -0.098154135 -0.0128663825 -0.12044922 0.06255036 -0.36973363 0.19864148
0.19925436 -0.25093243 -0.018190492 -0.13214037 0.65878826 -0.014996233 -0.04789944 -0.13415183
-0.2668499 0.22839057 0.08234723 -0.32977533 0.027971152 0.0062913015 -0.15420994 -0.18280792

linear2.weight f4 [32, 128]
00000000: eb2e c0bd 5cf5 c3bd 978d 3a3c a352 443d
00000010: cd40 ba3c ed26 6cbd 592a e43d 7b23 cbbc
00000020: b5df e53e cad6 123e d0e6 b73c b541 e03d
00000030: 6427 fdbd 41ee 493c a9f1 133c 1c48 d0be
00000040: 89e2 73bd a5df 04bd dc77 913d 772c 50be
00000050: d850 743d c8d8 2d3d 172a c9bc 7dce c6bd
00000060: f53f 603e e014 5ebe ceee a83e ff95 b13a
00000070: 44c1 b03d 6bfe 1d3f 05af 083f e564 35be
00000080: 9477 ddbd 7781 6dbd 1bad 643e f2e0 503c
00000090: 944b 80bd f30d 133e aee2 1e3e 1709 8dbe
000000a0: 640e f4bd fe40 04be 6c04 d23c 3ab3 9b3c
000000b0: f028 ac3d 72df 1f3d 60b9 a73c 4612 103d
000000c0: 7a52 26bc 1bfd 44bb 96be 23be 1686 763e
000000d0: 9663 6b3c 2591 4b3c d172 253e c558 5ebe
000000e0: 3abc b53c fe6d a33e 2b8f 013e 0f3e 30be
000000f0: 1ea1 c43a 4053 92bd 61f3 72bd 2b11 13be
00000100: 5393 92bc 68bf e5bd 2021 de3c 46a1 ae3d
00000110: 2f7b d73b e08b b5bd d8ad 793b 6ab7 4f3b
00000120: 3a1c 61bd b036 5e3c 67dc 2cbe 7bd3 053e
00000130: 1fdf a03e 916c 8fbc ec68 2f3d 61ac 86be
00000140: 8aa4 8b3c 9e92 573e 3bc6 813d c1ba 053e
00000150: f1ec 7d3c 9461 2bbd b837 9bbc 8b95 18bd
00000160: fed9 e0bd 0818 8d3b 656b 8f3d d1da c4bd
00000170: 51e4 debe ae37 27bc 01e9 5b3d 7e93 973d
00000180: 2e21 00bd 22b5 2ebb 413d 24bc 7fc4 a8bd
00000190: 100d 0cbc f464 c53b 62e5 993c df60 b9bd
000001a0: 6ba5 4f3d 5e02 0d3e ab70 46ba 5322 0c3d
000001b0: a98b ce3d 61d1 9bbc 756c edbd c51e 353d
000001c0: 61d0 dfbd 0085 8eba 1e86 53bd 27f5 303e
000001d0: 9394 5c3e be00 0dbc 2d3a 97be 82d0 983d
000001e0: 6512 b0bd 3969 d0bd ee73 bcbc e941 8bbe
000001f0: b116 61bd 60a2 853c 2d11 ac3e b913 8bbd
00000200: 60fd 333d 99d7 4bbd 228d c2bc b79b a3bc
00000210: 7455 d8bd b69e 38bc 7069 583e 2110 48bb
00000220: dde8 0cbe 33f2 373e 0e98 4abd a4e3 c8bd
00000230: de5b 15be bc23 f53c 6633 efbc bda0 cb3d
00000240: 4c79 3ebc c099 cc3d d643 e53c 461b 083d
00000250: 25d7 3f3e 31c2 47bd 5954 933c 9aa4 9bbc
00000260: 2a61 633d 51e8 013f 8ae8 d1bc f9f7 c6be
00000270: 667f 2dbd 914c cd3c ddff 95bd 951f 4f3d
00000280: 5463 2fbe 41e3 4bbd cc5f b9bd 7f91 bb3d
00000290: 3926 c8bd af00 a5be 8ef3 593e 7a43 63be
000002a0: 5d73 f5bd 3d41 afbe 7212 003e dc74 d03c
000002b0: 0ffc 44bd 5e8b cfbe a514 09be 6ae0 bebc
000002c0: c563 92bd a88a 1bbc 3d5e 80bd a784 263e
000002d0: 0c52 06ba a385 183d f4fc 0ebe fb31 993c
000002e0: 6f57 63bd 6ceb ffbd 9e2b a63d 6683 24bd
000002f0: c2cd 82be 2e7d d5bd 2698 98bd 2af2 9bbc
00000300: 5451 183e 67f7 b03d 8d8d 363e f75c b3bd
00000310: ec9f 65bd 1f99 51be ab4f 30bc 78d7 6d3d
00000320: 6971 c2bd b2c4 153e e713 13be b884 05be
00000330: 145a 8c3e 4ca0 a93c 1084 b03d 986c a63c
00000340: ed28 3a3d 86f0 dd3e d6a5 c23d ce31 edbd
00000350: 56af 3bbd f706 983b 8839 8a3d 1b4a 06ba
00000360: 475f 243c ba67 86bd a326 29be 8680 39bd
00000370: f575 643d 204b 21bb b158 5a3b b4ae 333d
00000380: 6c6a f3bc 0b58 96bd 11e0 6fbe 9511 8e3c
00000390: 8965 b93d dd76 853d 9acb 793d de2e c1bc
000003a0: fcc7 cbbd 54fa 58be 1425 94bc ca7a c5bc
000003b0: 60c1 b93d 07f7 89bc 6258 ad3e 0c6a bb3e
000003c0: aca7 dfbc f403 143e 294b 32bc 78ae ba3e
000003d0: 735b 943e 4c44 0f3e dcf1 003e e8e9 3a3e
000003e0: 64a8 573d c5e4 0f3e 6627 773d 92a9 9b3d
000003f0: 5298 853d 12e3 79bd 9a01 213d 022e 0dbd
-0.09383949 -0.09568283 0.011386297 0.04793037 0.022735978 -0.05765431 0.1114089 -0.024797192
0.44897237 0.14339748 0.022448927 0.109500326 -0.12361029 0.012324871 0.009029784 -0.40680015
-0.059542213 -0.032439847 0.071029395 -0.20329462 0.05964741 0.042443067 -0.024556203 -0.09707353
0.21899398 -0.2168765 0.32994694 0.0013548731 0.086306125 0.61716336 0.5339206 -0.1771427
-0.10813823 -0.057984795 0.2233166 0.012748944 -0.062644154 0.1436079 0.15516159 -0.27545998
-0.11916807 -0.12915418 0.025636874 0.01900636 0.08406246 0.039031453 0.020474136 0.035173677
-0.0101515 -0.003005809 -0.15990672 0.24074587 0.014367005 0.012424742 0.1615708 -0.2171355
0.02218448 0.31919855 0.1265227 -0.17211173 0.001500163 -0.07144785 -0.059314135 -0.14362018
-0.017892515 -0.112181485 0.027115405 0.08526854 0.006575964 -0.0886457 0.0038098004 0.0031695017
-0.05495856 0.013562843 -0.16880952 0.13068955 0.31420228 -0.017507823 0.04282467 -0.2630339
0.017046232 0.21052024 0.063366376 0.13059522 0.015498386 -0.041841105 -0.018947467 -0.03725199
-0.10979079 0.0043058433 0.07002906 -0.096120484 -0.43533567 -0.010206146 0.053689007 0.07401179
-0.031281643 -0.0026658257 -0.01002437 -0.08240604 -0.008548036 0.0060239974 0.018786136 -0.0905168
0.050694864 0.13770434 -0.00075698894 0.03421242 0.10085232 -0.019020738 -0.11592952 0.044218797
-0.10928417 -0.0010873377 -0.051641576 0.17281018 0.21541052 -0.008606134 -0.29536572 0.07461645
-0.085972585 -0.1017632 -0.023004498 -0.27198723 -0.05495328 0.016312778 0.33606854 -0.06790871
0.04394281 -0.049766157 -0.023748938 -0.019971712 -0.10563174 -0.011268308 0.21133971 -0.0030527192
-0.13760705 0.17963485 -0.049461417 -0.09809044 -0.14585826 0.029924266 -0.029199313 0.09942768
-0.011625599 0.09990263 0.027986448 0.033229135 0.18734415 -0.04876918 0.017984556 -0.018999387
0.055512585 0.5074511 -0.025623579 -0.38861063 -0.042357825 0.025060924 -0.07324193 0.05056723
-0.17127734 -0.049777273 -0.09051475 0.091586106 -0.097729154 -0.32227084 0.21284315 -0.22193709
-0.119848944 -0.3422946 0.12507036 0.025446348 -0.048091944 -0.40536016 -0.13386782 -0.023300368
-0.07147936 -0.009493507 -0.062679745 0.1626154 -0.000512392 0.03723682 -0.13963681 0.01870059
-0.055503305 -0.12496075 0.08113788 -0.040164374 -0.25547606 -0.10424267 -0.07450895 -0.019036371
0.14874774 0.08640938 0.17827435 -0.08757966 -0.056060717 -0.20468567 -0.010761182 0.058066815
-0.094942875 0.14625815 -0.14363061 -0.1303891 0.27412474 0.020706318 0.08618939 0.020315453
0.045449186 0.43347567 0.09504287 -0.11581765 -0.04582151 0.004639502 0.067492545 -0.0005122737
0.0100324815 -0.06562753 -0.16518645 -0.045288585 0.055776555 -0.0024611428 0.0033317024 0.04386778
-0.029713832 -0.073410116 -0.23425318 0.017342368 0.090525694 0.06516812 0.060985185 -0.023581918
-0.09950253 -0.21189243 -0.018084086 -0.024106402 0.090700865 -0.016841425 0.33856493 0.36604345
-0.027301632 0.14454633 -0.010882177 0.36461234 0.2897602 0.13990897 0.12592262 0.1825329
0.052650824 0.14052112 0.060340308 0.07600702 0.065231934 -0.061007567 0.039308168 -0.034467705

linear2.bias f4 [32]
00000000: f35a 40bd 2cd5 4f3d 1c2e acbd 0ecf 833c
00000010: 0394 28be 53f2 4fbd 140f 0d3e cc6e 6a3c
00000020: 1eef afbd 174c ba3d 4fbc dc3d ce96 c6bd
00000030: 4e48 323e 7528 8f3e 3844 0dbf 4e18 afbd
00000040: 8c74 853d 27f7 023e 9442 463d ae0e 61bc
00000050: 9cb6 3c3e 9f28 5d3d 4fac 853e a467 cebd
00000060: 3f77 983d 83b7 5ebd e54b b93e 9efd a73d
00000070: 1d91 0dbe 69d3 bbbd 34e1 2ebe bade 07be
-0.046961736 0.050740406 -0.08407232 0.016089942 -0.16462712 -0.050768208 0.13775283 0.014308643
-0.0859053 0.09096544 0.107781045 -0.096967325 0.17410395 0.27960554 -0.5518222 -0.085495576
0.0651637 0.12789594 0.048403338 -0.01373641 0.18429035 0.053993817 0.26108024 -0.10078362
0.074446194 -0.05437423 0.36190715 0.082026705 -0.13824888 -0.09171183 -0.17078096 -0.13268557

output.weight f4 [25, 32]
00000000: c433 d5bc a3f7 52bd 5269 b3bb 3d8a b33d
00000010: 7dfa 793e 75ff 0b3a fef3 043d 5e6d 233c
00000020: f2a8 d1bd 0e37 65be eee5 0dbd b4ff 75bd
00000030: a4bf c7bd 3d48 eabc d3c0 9d3e 1f65 d5bd
00000040: 3e31 f2bd 11ab 053e d6cd 263d ffdb fd3c
00000050: a309 89bd 5970 efbd c784 a2bb f0c5 69bd
00000060: 0637 e63d 0459 c0bc 8820 96bd af0d 85be
00000070: 2583 e5bd d88b 0fbe 1187 9a3d 519c d8bd
00000080: 7705 7c3e dc63 d4bd e5d3 4dbc bbec d1bb
00000090: 4cdf 19be ae79 a5be 1b35 33be 18c4 5f3c
000000a0: 3554 b63e 2de1 78be cb7a 5b3d 4f9a 79bd
000000b0: 7e72 0f3d 0943 c73b bff4 ef3c dd3c 35be
000000c0: ec98 07bd f236 20bd dce9 00be 9158 be3d
000000d0: ea38 203e 6aa1 7cbe 27d7 cb3d 7dcb a0bd
000000e0: ad13 6ebe e36d 923d 8a41 35be d744 0f3e
000000f0: 296d 06bd 965b 83bd 1efe 2dbd 347a c4be
00000100: f327 0bbe 0f7d 2c3e 907c 30be 1b2e 93bd
00000110: e284 54be c9b5 9b3d 3def a23d 6bd1 69bb
00000120: 1ef4 513e fb8b 8d3e bab3 a83c 17ca 513e
00000130: 3f06 483d d687 c5bd af3a c1be 96c3 cabe
00000140: aea2 343e 8296 f1bd feef 113e 014c c5bd
00000150: 107d 26be 8e46 a0be cb3c 11be 4770 7cbb
00000160: a904 f9bb 9c48 bd3d 48c1 9c3d 568f 92be
00000170: cf36 abbe be0b ee3b 557c fb3d e7be 03be
00000180: 9503 393e 4616 2a3e dc75 0b3e 8061 adbc
00000190: f8ab 6ebd 5bc6 a53d 4878 18be 937d 25bd
000001a0: d59e bebe b42d 0d3d 1a64 12be 5dd1 5d3c
000001b0: d644 ba3c 889e a3be a35a 13bd c1cd 80be
000001c0: 71d8 a93b 658f 18bf 2689 f4bd e135 6ebe
000001d0: 8a09 823e 120c 143e d66d 9cbd b8af 2c3e
000001e0: 45fe 7abd 925f 2d3c 3931 78be 643d 9dbe
000001f0: eaa7 c13d c541 173e 64a4 f2bd be95 023e
00000200: 150e 393e e10f d13c 9d11 a73e feb6 523e
00000210: c2b5 c63d 12a9 61be 1f18 31be beef d4bb
00000220: e518 893e a063 863d 6f2f 393e ec4c 4bbd
00000230: e0a5 79be ad42 89be 6315 803e 86da 563d
00000240: df05 0b3d 4944 e1bd 93d8 763c a73e b13c
00000250: d283 0abe 786f 8dbd 89b8 33be 9ac7 2d3e
00000260: 6020 bbbd 7710 ae3d 9fb8 df3e aeea 943c
00000270: a320 edbd 1fac d13c 828f c13d 1bf7 c53d
00000280: 5273 9f3e 66ae 7c3d 394c 51bd 6517 a93e
00000290: 01f2 f33d 332d c4bc a0b9 e33e fb1e de39
000002a0: 9a12 1bbe 79af f33d e256 ee3d 002f b23d
000002b0: d68c 813e bee4 613e b445 e8bd fecb 9bbd
000002c0: 74f0 6b3a 4e1a 98be 41b5 ed3d c5df adbe
000002d0: 46f5 19bc c9fa 64be e3ca 273e 250e 003e
000002e0: ad83 263e 7730 d93d 9f3d 643e 05cf 9c3e
000002f0: bfbc f93c 27f8 b0bd b6ef dabd 8587 9ebe
00000300: 22b0 adbd eca0 043e d99c 02be c4e7 2c3d
00000310: 751b 69be f776 8cbd 75c8 053e 63eb e73c
00000320: 6b0a 3cbe a6f4 3cbe f99d 93bd 3b60 d13d
00000330: 82d4 163e e8c7 623e 2561 423d 5029 343e
00000340: 38e2 fe3d 9ecd 55bf b53f 983e 0e5f 923e
00000350: 28fb ccbc a51f a0be 365c 51bd 9213 c6be
00000360: 183e a3bd 3b74 98bd 0c5e f93d 1559 3c3d
00000370: fca8 103e f784 dbbc 2be9 ee3e ae75 f23d
00000380: 02b5 1c3d e6e9 8cbb 800b 0abe f806 763c
00000390: af3d f0bd 81fd 983d 7f7d f5bd a1d1 50bd
000003a0: d0b4 f8bd a5ed 443e 9478 6dbb 4bdd 2bbe
000003b0: c708 9d3c a23e b83d 9549 cb3d 2149 33bc
000003c0: 6696 63bd f248 383e ea14 d13d 33ea 3d3d
000003d0: b8e1 183d c292 cbb9 9b5b 8ebe 4ba6 2fbe
000003e0: 8c01 e6bb 3d01 3d3e 3f21 3bbd 0bfa 2dbc
000003f0: 1c36 473e 26ff 0c3e 394d 16be 207a 58bd
-0.02602566 -0.051505696 -0.0054752016 0.08766601 0.2441196 0.0005340495 0.03245925 0.009974806
-0.10237302 -0.22384283 -0.034643106 -0.06005831 -0.097533494 -0.028598899 0.30811176 -0.10419678
-0.118257985 0.13053538 0.040723644 0.030988691 -0.06691291 -0.116913505 -0.004959676 -0.057073534
0.11240964 -0.023479946 -0.073304236 -0.25987002 -0.112066545 -0.1401819 0.07545293 -0.1057669
0.2461146 -0.10370609 -0.012562727 -0.0064063943 -0.15026587 -0.32319397 -0.17500727 0.013657592
0.3561112 -0.24304648 0.0535839 -0.060938176 0.035021298 0.0060809893 0.029291509 -0.17698999
-0.033104822 -0.0391149 -0.1258921 0.092942365 0.15646711 -0.2467095 0.099531464 -0.07851312
-0.23249693 0.071498655 -0.17700782 0.13991104 -0.032818947 -0.06413953 -0.042478673 -0.38374484
-0.13589458 0.16844581 -0.17235017 -0.07186528 -0.20753816 0.07603032 0.07955787 -0.0035677801
0.2050328 0.2764586 0.020593513 0.20487247 0.04883408 -0.09645049 -0.37740085 -0.39602345
0.17640182 -0.11796285 0.14251706 -0.09633637 -0.16258645 -0.3130383 -0.14183347 -0.003851907
-0.0075994325 0.09242365 0.07654053 -0.28624982 -0.33440253 0.0072645834 0.12279574 -0.12865792
0.18067773 0.16610059 0.13619179 -0.021164656 -0.05826947 0.08094474 -0.14889634 -0.04040296
-0.37230554 0.034467414 -0.14295998 0.013538686 0.022737902 -0.31956887 -0.03597511 -0.25156978
0.0051832725 -0.595938 -0.119402215 -0.2326274 0.25397903 0.1445773 -0.07638137 0.16863906
-0.061277647 0.010581868 -0.24237527 -0.307109 0.09455855 0.14771183 -0.11847761 0.12752435
0.18071778 0.025520267 0.32630625 0.20577618 0.09702636 -0.22037151 -0.17294358 -0.006498306
0.26776806 0.06561971 0.180845 -0.049633905 -0.24379683 -0.26808682 0.25016317 0.052454494
0.033941146 -0.109993525 0.015066284 0.02163632 -0.13526848 -0.069060266 -0.17550863 0.16970673
-0.091370344 0.08499234 0.43695542 0.01817831 -0.115784906 0.025594769 0.094512 0.09666272
0.3114267 0.061689757 -0.051098082 0.3302566 0.11911393 -0.023947334 0.44477558 0.00042366222
-0.15143815 0.11898703 0.11637665 0.08700371 0.25302762 0.22059914 -0.1134142 -0.07607268
0.0009000369 -0.2970757 0.11606837 -0.33959785 -0.009396857 -0.22361292 0.16385989 0.12505396
0.16261168 0.10604947 0.22289132 0.30626693 0.030485509 -0.08641081 -0.106902525 -0.30962768
-0.0848086 0.12952012 -0.12755145 0.042213216 -0.2276438 -0.06858628 0.1306475 0.028310483
-0.18363349 -0.18452701 -0.07207865 0.10223433 0.14729503 0.2214657 0.047455925 0.17593884
0.124454916 -0.8351687 0.29736105 0.28588146 -0.025022104 -0.31274143 -0.05111333 -0.38686806
-0.07970828 -0.07444044 0.12176141 0.045983393 0.14126962 -0.026796801 0.46662268 0.11838852
0.03825856 -0.004300344 -0.1348095 0.01501631 -0.11730515 0.07470227 -0.11986827 -0.050981168
-0.12143862 0.19231279 -0.00362352 -0.16783635 0.019169224 0.08996321 0.09926144 -0.010942728
-0.055563353 0.17996576 0.10209067 0.046365928 0.037324637 -0.0003882852 -0.27804264 -0.1715328
-0.0070192274 0.18457504 -0.045686003 -0.010618697 0.19454235 0.13769206 -0.14677896 -0.052850842

output.bias f4 [25]
00000000: f629 cdbe b6dd a4bd ef4b ce3c 6317 d3be
00000010: b738 e7be 9822 85bc de10 96be 1753 dcbd
00000020: 6589 893e 48c2 18be d40c 1e3e ea8c 57be
00000030: f1df 053e 607e b93e 4d8f 6d3e a8cf ea3d
00000040: 3da9 dc3e e1b3 1b3e 4429 8bbe f932 903d
00000050: 7fd4 cd3d 1147 cebd 4773 0dbf e8bb aabd
00000060: 3b02 0b3f
-0.40071076 -0.080501005 0.025182692 -0.4122878 -0.45160457 -0.016251847 -0.29309744 -0.10758036
0.26862636 -0.14917862 0.15434581 -0.21049848 0.13073708 0.3622923 0.23199196 0.114653885
0.4309787 0.15205337 -0.2717992 0.07040972 0.10050296 -0.100721486 -0.55254024 -0.083366215
0.5430028
