code/models/best_model_035.pth (torch, 468277 bytes, 8 tensors)

conv1.weight f4 [1, 1, 5, 3]
0	0x3d2ad2c4	0.041704908
1	0x3dc0aba2	0.09407736
2	0x3e385284	0.18000227
3	0x3dc0c5d6	0.09412734
4	0x3ceb0361	0.028688135
5	0xbdf6bdf2	-0.12047948
6	0xbc306348	-0.010765858
7	0xbdba0734	-0.09083405
8	0x3cfa9ce2	0.030592386
9	0x3c9b5a0c	0.018963836
10	0x3cc61694	0.024180688
11	0xbda7705d	-0.081757285
12	0xbcf8d091	-0.03037289
13	0xbdedff87	-0.116210036
14	0xbcc9badb	-0.024625232

conv2.weight f4 [1, 1, 3, 3]
0	0xbed2b566	-0.4115402
1	0x3d601a4f	0.05471259
2	0x3dc40331	0.09570921
3	0xbe8f83be	-0.280302
4	0xbe5d4f1b	-0.21612208
5	0xbdadb917	-0.08482569
6	0xbe81f1d9	-0.25379828
7	0xbe0a15ca	-0.13484874
8	0xbd4b83df	-0.04968631

linear1.weight f4 [128, 870]
0	0xbd9d5bdc	-0.076835364
1	0xbe8865fd	-0.2664031
2	0x3c03ec7d	0.008051989
3	0xbd15457f	-0.03644323
4	0xbce89ef6	-0.028396111
5	0x3df00815	0.117202915
6	0x3d6aa37d	0.05728482
7	0x3e0682dd	0.13135858
8	0xbdfc554b	-0.12320956
9	0xbc68e57a	-0.014214868
10	0xbd2ddec5	-0.042448778
11	0x3ce59534	0.028025247
12	0xbdc72026	-0.09722929
13	0xbe5d53ff	-0.21614073
14	0x3dd6951d	0.1047766
15	0x3def1592	0.11674036
16	0x3dafbe87	0.08581262
17	0xbe0adf1c	-0.13561672
18	0xbd6acf02	-0.057326324
19	0xbd2ff5de	-0.042959087
20	0xbcf61c11	-0.03004268
21	0xbdb679d6	-0.08909957
22	0x3c0ec49d	0.008713868
23	0xbc90323b	-0.017602077
24	0xbd85efd9	-0.06539888
25	0x3d361833	0.044456672
26	0xbd3f5169	-0.0467085
27	0xbe9ea216	-0.30983037
28	0x3ce6f20c	0.028191589
29	0xbd979bd0	-0.07402766
30	0xbe4d7ceb	-0.20067184
31	0x3acdaf4c	0.0015692501
32	0xbd1b78a9	-0.037956867
33	0xbe80a123	-0.25122938
34	0xbd7f0c9c	-0.062267885
35	0xbe69dab2	-0.22837332
36	0xbe721290	-0.23639894
37	0x3c10b04d	0.008831096
38	0xbd83fb47	-0.06444412
39	0xbe9b0544	-0.30277455
40	0xbe7e4950	-0.24832654
41	0xbe653bec	-0.2238614
42	0x3c434e6a	0.011920551
43	0xbe39a2ea	-0.18128553
44	0x3c1b557a	0.009480828
45	0xbe24eda7	-0.16106282
46	0xbd8d8015	-0.06909195
47	0xbe406f16	-0.18792376
48	0x3dba197e	0.090868935
49	0x3dd13aed	0.10216317
50	0xbd840c1c	-0.06447622
51	0xbc841a24	-0.016125746
52	0xbd417608	-0.047231704
53	0xbdf3fd8e	-0.11913596
54	0xbdbd7bbb	-0.09252115
55	0xbe310ec8	-0.17290795
56	0xbe5c4a8e	-0.21512815
57	0xbb4c41da	-0.003116718
58	0x3d88772c	0.06663355
59	0xbd61a6ff	-0.0550909
60	0xbe396728	-0.18105757
61	0x3b780702	0.0037845974
62	0x3e5c4081	0.21508981
63	0xbe2ed1ae	-0.17072174
64	0x3e5a1722	0.21297887
65	0xbed12aa4	-0.40852845
66	0xbc347bef	-0.011015876
67	0xbbc5cda5	-0.0060364776
68	0x3e10ae7e	0.14129063
69	0x3d53ea6b	0.05173723
70	0x3cafb1e0	0.021447122
71	0x3cdd9ea9	0.027053194
72	0xbe57ae2b	-0.21062534
73	0xbd10fc23	-0.035396706
74	0xbea29c2e	-0.3175978
75	0xbe502119	-0.20325126
76	0x3ea2c014	0.3178717
77	0x3a3a2500	0.00071008503
78	0xbb317e57	-0.002708336
79	0x3e2b808b	0.16748254
80	0xbe21570b	-0.1575586
81	0x3d5ebd34	0.054379657
82	0x3dc6ebf6	0.09712975
83	0xbe0390c4	-0.12848192
84	0xbc0e9e37	-0.008704714
85	0xbe1bab41	-0.15202047
86	0xbe37e256	-0.17957434
87	0x3e997728	0.29973722
88	0xbde92f53	-0.113859795
89	0xbdc299b0	-0.0950197
90	0xbe18f9a4	-0.1493898
91	0xbd22b5a7	-0.03972402
92	0xbc4a0c2b	-0.012332003
93	0x3e2aaac0	0.16666698
94	0xbe05357b	-0.13008682
95	0xbc55d985	-0.013052349
96	0x3e767fd4	0.240722
97	0xbc348507	-0.011018044
98	0x3de54cfa	0.11196323
99	0x3d3e3353	0.046435665
100	0xbe1bd616	-0.15218386
101	0xbe85c60f	-0.2612767
102	0xbd9f9108	-0.077913344
103	0x3e47df13	0.1951869
104	0x3d9d8ed7	0.0769326
105	0xbdd95f55	-0.10613886
106	0xbb3c0a9a	-0.0028692842
107	0xbd508369	-0.050906572
108	0x3d2b6281	0.041841988
109	0x3eac5abf	0.33662984
110	0xbdd26169	-0.10272486
111	0x3b662e1f	0.0035122705
112	0x3eabee24	0.33580124
113	0xbd80e150	-0.06292975
114	0xbd337654	-0.04381402
115	0x3d107603	0.035268795
116	0xbdf3bf62	-0.11901738
117	0x3db59d87	0.088679366
118	0xba9971eb	-0.0011706924
119	0x3ec6fed0	0.38866282
120	0x3e341651	0.17586638
121	0xbe25c658	-0.16188943
122	0xbe4c9fec	-0.1998288
123	0x3e051f7e	0.13000295
124	0xbd9bad12	-0.0760137
125	0xbdd86e87	-0.105679564
126	0x3d11e63a	0.03561995
127	0xbd5f8aa0	-0.054575562
128	0xbd19e09d	-0.037567724
129	0x3e114edb	0.14190237
130	0xbeacb131	-0.33728936
131	0xbe922440	-0.28543282
132	0x3f06f84e	0.5272263
133	0x3e4590fe	0.19293591
134	0xbf2c5b0e	-0.6732644
135	0x3e39fdd8	0.1816324
136	0xbdbc4fa1	-0.091948755
137	0xbe4101f8	-0.18848407
138	0x3ceb49aa	0.02872165
139	0x3e0a1991	0.13486315
140	0x3a9f7081	0.0012164266
141	0x3dd4b859	0.10386724
142	0xbdfe578d	-0.12419043
143	0xbe0905ac	-0.1338107
144	0x3c895b53	0.01676718
145	0x3def6c15	0.11690537
146	0xbe2f14b6	-0.17097744
147	0xbd84e947	-0.064898066
148	0xbe057149	-0.13031496
149	0xbcbbdd53	-0.022932684
150	0xbe3dd7f1	-0.18539406
151	0xbd6d1d1f	-0.0578891
152	0xbe92341c	-0.2855538
153	0x3db08492	0.08619036
154	0xbe04a74b	-0.12954442
155	0xbe52e06b	-0.20593421
156	0x3d036769	0.03208104
157	0x3e02897d	0.1274776
158	0xbdf434ee	-0.11924158
159	0xbd0502c6	-0.032473348
160	0xbe1df01a	-0.15423623
161	0xbdbda63e	-0.09260224
162	0xbcad63a9	-0.021165686
163	0xbccf2b2d	-0.025289143
164	0xbe7e2658	-0.24819314
165	0xbdb00a81	-0.085957535
166	0x3d443d22	0.047909863
167	0xbcc16f8a	-0.023612756
168	0xbe08919c	-0.13336796
169	0x3cd81bf5	0.026380518
170	0x3e5c74ae	0.21528885
171	0xbded7ec2	-0.11596443
172	0x3e17d1cd	0.14826126
173	0xbdc487f9	-0.09596247
174	0x3e37a314	0.17933303
175	0x3d417d7c	0.04723881
176	0x3e211da1	0.15733959
177	0xbd99f422	-0.07517268
178	0x3b465922	0.003026553
179	0x3e20176e	0.15633938
180	0xbc9ffb5b	-0.019529035
181	0x3d51b313	0.05119617
182	0x3ddd052d	0.10792003
183	0xbe806169	-0.25074318
184	0x3e89350a	0.26798278
185	0xbace6828	-0.0015747594
186	0x3d082924	0.03324236
187	0x3ebaa05b	0.36450467
188	0x3b5a4d59	0.0033310263
189	0x3e4f75f6	0.20259842
190	0x3e282afc	0.16422647
191	0x3dd8a1bc	0.105777234
192	0x3e97252e	0.29520553
193	0xbdac7528	-0.08420783
194	0xbba9953c	-0.005175261
195	0x3e4c2ba3	0.19938521
196	0x3e143ab1	0.14475514
197	0xbccab4ca	-0.02474441
198	0x3d971182	0.07376386
199	0x3d17f14b	0.03709535
200	0x3e257f14	0.16161758
201	0x3e9e528a	0.30922347
202	0x3da07b26	0.07835989
203	0x3d8eba01	0.06969071
204	0xbe1c710e	-0.15277502
205	0xbd4bf345	-0.049792547
206	0x3e7d7240	0.24750614
207	0x3dfa784c	0.12229976
208	0x3ec4166f	0.38298365
209	0x3e00e1df	0.12586163
210	0xbe4bee0d	-0.19915028
211	0x3e400d46	0.18755063
212	0xbee65cc6	-0.44992656
213	0x3dfa5664	0.12223509
214	0x3d386faa	0.045028366
215	0xbe90dc45	-0.28293052
216	0x3d02e6ff	0.031958576
217	0x3dc63991	0.09678949
218	0xbeb09947	-0.3449194
219	0x3f0006a9	0.5001016
220	0x3ccd39e4	0.025052018
221	0x3d3196bf	0.043356653
222	0x3e88ba6c	0.2670473
223	0x3dedbb73	0.11608019
224	0x3eb53e87	0.35399267
225	0x3eb4d220	0.35316563
226	0x3f0be7b0	0.546504
227	0x3b035fd7	0.0020046139
228	0x3d7b70f2	0.06138701
229	0xbe142a08	-0.14469159
230	0xbe77e804	-0.242096
231	0x3ec9d363	0.39419088
232	0x3ccc9523	0.024973458
233	0x3d8dde94	0.06927219
234	0x3e68adc9	0.22722544
235	0x3c958142	0.018250111
236	0x3df75ae6	0.120778844
237	0xbdd7c4a7	-0.10535555
238	0x3e07c3aa	0.13258234
239	0xbe9a3c19	-0.30123976
240	0xbdbe9ce6	-0.0930727
241	0xbe27bb89	-0.16380133
242	0xbe7c2d6a	-0.24626699
243	0x3dccda86	0.100026175
244	0xbdacb1a2	-0.08432318
245	0xbeb3d7b2	-0.351255
246	0x3d8c2d13	0.06844535
247	0xbe2023d5	-0.15638669
248	0xbe313286	-0.1730443
249	0xbe2b8bde	-0.16752574
250	0x3de75c72	0.112969294
251	0xbebff949	-0.37494877
252	0x3e0c63c5	0.13709934
253	0x3cb93017	0.022605939
254	0xbe74fb22	-0.23923925
255	0x3cdc956f	0.026926724

linear1.bias f4 [128]
0	0xbcad3da4	-0.021147557
1	0xbd49a377	-0.049228158
2	0x3d6859ed	0.056726385
3	0x3cbb4e4d	0.022864485
4	0x3d26b3c9	0.0406988
5	0x3cac4eaf	0.021033613
6	0xbcd1a793	-0.0255926
7	0x3bdbd934	0.0067092422
8	0x3c5dc665	0.0135360705
9	0xbcf3d2b6	-0.02976356
10	0x3ce7755f	0.02825421
11	0xbbe217f5	-0.0068998286
12	0xbc9994a5	-0.018747637
13	0x3d0c8ff4	0.034316972
14	0xbd447075	-0.04795881
15	0xbd023914	-0.031792715
16	0x3d14905d	0.036270488
17	0x3d4a8761	0.049445514
18	0x3cc35b1c	0.023847155
19	0xbca26b2f	-0.0198265
20	0x3d146a73	0.03623433
21	0xbb6c6d83	-0.0036076016
22	0xbd2ad15a	-0.04170356
23	0xbc00cc93	-0.007861274
24	0x3c4c5f7b	0.012473936
25	0x3d3f83d9	0.0467566
26	0xbc430772	-0.011903631
27	0xbc96b539	-0.01839696
28	0xbc1290dc	-0.00894567
29	0xbc7cf0b3	-0.015438247
30	0x3cdd283c	0.026996724
31	0xbd0d9165	-0.034562487
32	0xbd11b645	-0.035574216
33	0x3ced5739	0.028972255
34	0xbc74e101	-0.014946223
35	0xbc4efe8f	-0.012633934
36	0xbc40f316	-0.011776706
37	0xbc3787f9	-0.011201852
38	0x3d6720b1	0.05642766
39	0x3d277b3c	0.04088901
40	0x3d2bab5c	0.041911468
41	0x3be0c21b	0.0068590767
42	0x3d19ca84	0.03754665
43	0xbcc71df2	-0.024306271
44	0xbbfd1883	-0.0077238693
45	0xbd35e659	-0.04440913
46	0xbc8f6234	-0.017502882
47	0x3ce3c8d2	0.02780572
48	0xbc78bce3	-0.015181753
49	0xbd22dc8a	-0.039761104
50	0xbc104ffb	-0.008808131
51	0x3c8dc22e	0.017304506
52	0x3d21e937	0.03952905
53	0xbcb58858	-0.02215974
54	0x3d4d5517	0.050129976
55	0xbb9fb1f4	-0.0048735086
56	0x3cae0dbd	0.021246785
57	0xbc5f67ef	-0.01363562
58	0xbc6d786e	-0.014494045
59	0xbd2a9819	-0.041648958
60	0xbbe834bc	-0.0070863646
61	0xbb8593f4	-0.0040764753
62	0xbc30e4e7	-0.010796762
63	0x3c6a071f	0.014283924
64	0xbd460f77	-0.048354592
65	0x3ccc9d77	0.024977429
66	0x3debf6d2	0.115216866
67	0x3c102419	0.008797669
68	0xbd0fc894	-0.035103396
69	0xbb1801ae	-0.002319436
70	0x3cc9814c	0.024597786
71	0xbdedb5de	-0.11606954
72	0x3c55bc43	0.013045373
73	0xbcc0e26c	-0.023545466
74	0x3d04a832	0.032386966
75	0xbd1b640c	-0.03793721
76	0xbd3f154f	-0.04665118
77	0x3d2efdb0	0.042722404
78	0xbcee59a0	-0.02909547
79	0x3cc23503	0.023706919
80	0x3d54e0e5	0.05197229
81	0x3d0d1aba	0.034449317
82	0xbc28bcc1	-0.010298909
83	0x3c819621	0.015818657
84	0x3ce92c40	0.028463483
85	0x3d2a6324	0.041598454
86	0x3bcba40a	0.0062146233
87	0x3c545d74	0.012961734
88	0x3d11fbb3	0.03564043
89	0x39c829c3	0.00038178088
90	0xbdb786a6	-0.08961229
91	0x3c87749e	0.0165351
92	0xbc1cb25d	-0.0095640095
93	0x3e09efe8	0.13470423
94	0x3d2dd9bb	0.042443972
95	0x3cf06eb1	0.029349657
96	0x3cce8d4b	0.025213858
97	0xbcdf50f7	-0.027260287
98	0x3d012341	0.03152776
99	0x3ccdd65b	0.025126627
100	0x3d07fb8b	0.033198874
101	0xbd097f04	-0.033568397
102	0x3b302a99	0.002688086
103	0xbd3369d4	-0.043802097
104	0x3d052d10	0.032513678
105	0x3cc20079	0.023681866
106	0xbc856ad6	-0.016286295
107	0x3cc747c7	0.024326218
108	0xbc6c8813	-0.0144367395
109	0xbc96e11e	-0.018417891
110	0xbc03b639	-0.008039051
111	0xbd068352	-0.03284008
112	0x3c2e4716	0.010637065
113	0x3cb59303	0.022164827
114	0x3d1bd7c9	0.038047586
115	0x3c02db8f	0.007986917
116	0xbbb74cdd	-0.0055938796
117	0x3d09f055	0.033676464
118	0xbd50c94f	-0.050973233
119	0x3d11c971	0.0355925
120	0xbc3d574f	-0.0115564605
121	0x3cfaa04b	0.030594012
122	0xbcf2bc4e	-0.029630806
123	0xbccd8bc0	-0.025091052
124	0x3b1058bd	0.0022025548
125	0x3ce75071	0.0282366
126	0xbd373c47	-0.04473522
127	0xbc9424a9	-0.018083887

linear2.weight f4 [32, 128]
0	0xbd6ef614	-0.058340147
1	0xbe11294a	-0.14175907
2	0x3d38817c	0.04504536
3	0xbd384473	-0.044987153
4	0x3d823866	0.063584134
5	0xbd6c4614	-0.05768402
6	0x3ca34584	0.019930609
7	0x3d7a5ee5	0.061125655
8	0x3cbbfd48	0.022947922
9	0xbc48ef54	-0.0122640915
10	0x3c080342	0.008301558
11	0xbd4da4fa	-0.050206162
12	0x3b7b6d5a	0.003836474
13	0x3cf816e2	0.030284349
14	0x3dc5828b	0.0964404
15	0xbc7100f5	-0.014709701
16	0x3d7d34dc	0.06181799
17	0x3c8eff7c	0.017455809
18	0xbc145416	-0.009053251
19	0xbd6f3a76	-0.058405362
20	0x3da11375	0.07865039
21	0x3bcd05d5	0.0062567987
22	0xbdc7ae2b	-0.09750017
23	0x3d76e267	0.060274508
24	0x3c3a7a23	0.011381659
25	0x3dceea1a	0.10103245
26	0x3d991ec5	0.07476572
27	0xbce93086	-0.02846552
28	0xbdc369cd	-0.09541664
29	0x3deaa6b1	0.11457575
30	0xbb0336d4	-0.0020021694
31	0x3c026327	0.00795821
32	0xbe1afaae	-0.15134689
33	0xbca44378	-0.020051703
34	0x3c21a14b	0.009865115
35	0xbda1eeee	-0.079069
36	0x3d76cae1	0.060252074
37	0x3cfb3d16	0.030668776
38	0x3e1a46dc	0.15066093
39	0x3b9d0c4b	0.004792725
40	0xbda4543b	-0.08023878
41	0x3d00d9f8	0.03145787
42	0xbb8289c4	-0.003983708
43	0x3d8a3fcd	0.0675045
44	0x3c1026b9	0.008798295
45	0xbd5f962b	-0.05458657
46	0x3d233984	0.039849773
47	0x3d740a95	0.059580404
48	0x3da4f689	0.08054835
49	0x3d857326	0.065161034
50	0x3d652541	0.05594373
51	0x3da60cc0	0.081079006
52	0x3c7ce7ef	0.015436157
53	0x3d4f88c0	0.050667524
54	0x3daf95fe	0.085735306
55	0xc00dedc5	-2.2176373
56	0xbb27b8bc	-0.0025592288
57	0xbe9d16a0	-0.30681324
58	0xbd824390	-0.06360543
59	0x3cfcdc47	0.030866755
60	0xbef10105	-0.4707109
61	0xbd72ddf3	-0.0592937
62	0xbda63a39	-0.08116574
63	0xbe8bc8e3	-0.27301702
64	0xbd2ba248	-0.04190281
65	0xbc562a7d	-0.013071653
66	0xbf29b6de	-0.6629466
67	0xbc0c6a5c	-0.00857028
68	0x3b87510d	0.004129535
69	0x3d1a4ec6	0.03767278
70	0xbbbfabc7	-0.005849335
71	0x3fb6967a	1.4264672
72	0x3eaff06a	0.3436311
73	0x3d2321ec	0.039827272
74	0x3d4726e5	0.048621077
75	0xbd48cd16	-0.04902371
76	0xbd098b7e	-0.033580296
77	0x3da391c7	0.07986789
78	0x3e0c993a	0.13730326
79	0xbcb00362	-0.021485988
80	0x3d825007	0.0636292
81	0x3d85a2d5	0.06525198
82	0xbd52b6b5	-0.051443774
83	0x3d17d917	0.037072267
84	0x3e106af1	0.14103295
85	0x3dba9fde	0.091125235
86	0xbd8b7352	-0.06809105
87	0xbcd866e2	-0.026416246
88	0xbce66be9	-0.028127627
89	0x3ee4dfad	0.447019
90	0x3c621388	0.013798602
91	0xbc8193ee	-0.015817609
92	0x3d3c4c17	0.045971002
93	0xbe4f3c95	-0.20237954
94	0x3d36a468	0.044590384
95	0xbd946b35	-0.072470106
96	0x3d5a3ba4	0.053279534
97	0xbdad2ca5	-0.08455781
98	0xbcd36416	-0.02580456
99	0x3dd2fdde	0.103023276
100	0x3dd6dfb5	0.104918875
101	0x3bab90b1	0.0052357544
102	0x3de902b4	0.11377469
103	0xba05eb4e	-0.00051086105
104	0x3ca30f65	0.019904802
105	0x3ca78aa0	0.020451844
106	0xbce04607	-0.027377142
107	0xbd6a6e6b	-0.05723421
108	0x3d96977a	0.073531106
109	0xbd5062d6	-0.050875507
110	0x3d279b31	0.040919486
111	0xbcf5b14c	-0.029991768
112	0xbd73004b	-0.05932645
113	0xbdb4b0bf	-0.08822774
114	0x3de04b04	0.10951808
115	0xbc56e8ee	-0.013117058
116	0x3dbb341d	0.09140799
117	0x3d7c41e9	0.061586294
118	0xbdde405c	-0.10852119
119	0x3d88c3a8	0.066779435
120	0x3d6cb3c0	0.05778861
121	0xbc8ba6df	-0.017047344
122	0xbc5fa45a	-0.013650024
123	0x3cef5205	0.029213915
124	0x3c7036a7	0.014661468
125	0xbd2b7bff	-0.0418663
126	0xbdb0d532	-0.08634414
127	0x3b86a872	0.0041094357
128	0xbd28550e	-0.04109674
129	0x3d3b3ad8	0.045710415
130	0xbd0675a4	-0.032827035
131	0x3cb9a045	0.02265943
132	0xbcbf1382	-0.023324732
133	0xbce105fd	-0.027468676
134	0x3d631dec	0.055448458
135	0xbdae1431	-0.08499945
136	0x3d4311d6	0.04762443
137	0xbd2dcb60	-0.04243028
138	0x3cd09f67	0.025466634
139	0x3d88d2dc	0.06680843
140	0x3c559404	0.013035778
141	0xbd31e8c3	-0.04343487
142	0xbc8d971d	-0.01728397
143	0xbb8589a8	-0.004075248
144	0xbca3d088	-0.019996896
145	0xbd7e257c	-0.062047467
146	0xbd3ec0b6	-0.046570502
147	0x3bc914ba	0.006136504
148	0x3bcc916c	0.0062429216
149	0x3c4dc8c9	0.012560078
150	0x3d0a9f04	0.033843055
151	0x3da0570e	0.07829104
152	0x3b0a49f8	0.0021101218
153	0xbd0cf0e8	-0.034409434
154	0x3be18674	0.006882483
155	0xbc0f4228	-0.0087438
156	0xbc07bded	-0.008285028
157	0x3c193173	0.0093501685
158	0xbd097734	-0.033560947
159	0x3d094625	0.03351416
160	0xbba23bb1	-0.0049509634
161	0xbd477764	-0.048697844
162	0xbddd30ea	-0.10800345
163	0xbd2b5528	-0.04182926
164	0xbd059f6d	-0.032622743
165	0x3cf72667	0.030169679
166	0xbd83f30f	-0.06442844
167	0xbdbafb07	-0.09129911
168	0xbdcecdcf	-0.100978486
169	0x3cc4b225	0.024010727
170	0xbb50636c	-0.0031797541
171	0x3d713981	0.05889273
172	0x3b4b0379	0.0030977412
173	0x3d0ff0ea	0.035141863
174	0x3cce1a07	0.025158895
175	0x3cd1fb31	0.025632473
176	0x3d0b1e3c	0.03396438
177	0x3c880903	0.01660586
178	0x3d83e19a	0.064395145
179	0x3db56175	0.08856479
180	0xbbb9a453	-0.005665341
181	0x3d4b52f8	0.049639672
182	0xbb69a6e5	-0.0035652455
183	0xbcaa7ff2	-0.020812962
184	0xbd7d7193	-0.06187589
185	0xbdaeb408	-0.08530432
186	0x3bd74117	0.0065690386
187	0x3b5b1bde	0.0033433358
188	0x3d295253	0.041338276
189	0x3bc812a5	0.006105738
190	0xbcd820b6	-0.026382785
191	0xbcb8fc36	-0.022581201
192	0x3db9c5fb	0.09070965
193	0x3c735ab3	0.014853167
194	0xbcc9d495	-0.0246375
195	0xbd6e0b9c	-0.05811654
196	0x3cbca566	0.023028087
197	0xbdbecca7	-0.09316378
198	0xbd208a9e	-0.039194696
199	0x3c4c4940	0.012468636
200	0x3d5b1d50	0.05349475
201	0x3cb65f3f	0.022262214
202	0xbc2f91f5	-0.010715951
203	0x3d27f75b	0.04100738
204	0xbc1ebde8	-0.009688832
205	0xbd8606d5	-0.06544272
206	0xbdb91979	-0.09038062
207	0xbc5f1498	-0.01361575
208	0xbbcc55ec	-0.0062358286
209	0xbd2f27d1	-0.04276258
210	0xb8533863	-5.0358834e-05
211	0xbd4edec1	-0.050505403
212	0x3de17490	0.11008561
213	0x3de0027c	0.10937974
214	0xbc8e884d	-0.017398978
215	0xbd9d0c0f	-0.076683156
216	0xbd9926de	-0.074781165
217	0xbe27550b	-0.16341035
218	0xbd93ad3d	-0.07210777
219	0xbd17c82a	-0.037056126
220	0x3dfe4ab9	0.12416596
221	0xbd6babde	-0.057536952
222	0xbd776992	-0.060403414
223	0xbd22c989	-0.03974298
224	0xbd3c68fc	-0.04599856
225	0xbd438aef	-0.04773992
226	0x3a512616	0.00079783925
227	0xbe0d6d4a	-0.13811222
228	0xbb9870bc	-0.004652111
229	0x3d0fce68	0.035108954
230	0x3d2635ae	0.040578537
231	0x3cdc9339	0.02692567
232	0xbd5edcc2	-0.05440975
233	0xbcd29673	-0.025706505
234	0xbd2d8d57	-0.04237112
235	0xbc336b86	-0.010950929
236	0x3d903841	0.070419796
237	0xbc774a9d	-0.015093473
238	0x3d9127b8	0.07087654
239	0xbc902b17	-0.017598672
240	0xbd795d8d	-0.060880233
241	0xbca940bb	-0.020660749
242	0x3cdbd46c	0.02683469
243	0xbbab9fe2	-0.0052375654
244	0xbd166c81	-0.03672457
245	0x3cf35b9d	0.02970677
246	0xbc7448a1	-0.014909894
247	0x3bc7b9af	0.0060951333
248	0x3cc12aeb	0.023580035
249	0xbdbab177	-0.0911588
250	0xbc5d20d7	-0.013496599
251	0x3ce0e5ff	0.02745342
252	0x3defc5f6	0.1170768
253	0x3c2c80b4	0.010528732
254	0x3c6f5b87	0.014609224
255	0x3c141068	0.009037115

linear2.bias f4 [32]
0	0xbeda57b9	-0.42645052
1	0xbc66a137	-0.014076523
2	0xbe1c349c	-0.15254444
3	0xbd2a28ea	-0.041542925
4	0xbd756cc1	-0.05991817
5	0x3dc3c5d6	0.095592186
6	0xbc296f72	-0.010341512
7	0xbd6b701d	-0.057479966
8	0xbb8cb772	-0.0042943293
9	0x3bba479f	0.0056848074
10	0x3d1280d0	0.035767376
11	0xbcfd7881	-0.03094125
12	0xbd481c84	-0.04885532
13	0x3d45579e	0.04817926
14	0xbc32977c	-0.0109003745
15	0x3c3dbea3	0.011581096
16	0x3aba5c7d	0.0014218237
17	0xbd901026	-0.0703433
18	0x3c4f24e8	0.0126430765
19	0x3cbf7304	0.023370273
20	0x3d6f6552	0.058446236
21	0x3e391cc4	0.1807738
22	0x3c000da3	0.007815751
23	0xbda36dbf	-0.07979917
24	0x3cbb3959	0.022854494
25	0x3e39ba4c	0.18137473
26	0xba4791c9	-0.0007612971
27	0xbd85383a	-0.06504865
28	0x3cc68f3d	0.024238223
29	0xbdb9df8c	-0.09075841
30	0x3c2c0c0d	0.01050092
31	0xbd958fbd	-0.073028065

output.weight f4 [10, 32]
0	0xbc8707fc	-0.0164833
1	0xbcf375ee	-0.02971932
2	0x3db943a4	0.090461046
3	0xbd824058	-0.06359929
4	0xbc866b24	-0.01640851
5	0xbe9732a4	-0.29530823
6	0x3def0f34	0.11672822
7	0xbd92eaf9	-0.07173724
8	0x3d577694	0.05260332
9	0xbdea7d1e	-0.114496455
10	0xbdb853b5	-0.09000341
11	0xbd6d4505	-0.05792715
12	0xbd88b89c	-0.066758364
13	0xbd8725dd	-0.06599019
14	0x3e01b971	0.12668397
15	0xbd377132	-0.044785686
16	0xbdb5f34d	-0.088842966
17	0xbe137e27	-0.14403592
18	0xbdeae255	-0.11468951
19	0xbc98b18b	-0.018639347
20	0x3d8a633e	0.0675721
21	0xbda09764	-0.078413755
22	0x3e7d6c56	0.24748358
23	0xbd992892	-0.07478441
24	0x3d8813ce	0.066444024
25	0x3e221a7e	0.15830418
26	0x3da88c97	0.082299404
27	0xbda4dede	-0.08050321
28	0xbd83773a	-0.06419225
29	0xbd02c2dd	-0.031924117
30	0x3e07a36a	0.13245931
31	0x3d2c6471	0.042087976
32	0x3e488042	0.19580176
33	0xbd98dac7	-0.074636035
34	0xbc2a6daf	-0.010402127
35	0xbd7f7bfb	-0.062374096
36	0xbcd56f12	-0.026053939
37	0x3e66fed7	0.22558151
38	0x3da9f93d	0.082994916
39	0xbdb5709d	-0.0885937
40	0xbc01e594	-0.007928271
41	0xbd4b5ec3	-0.04965092
42	0xbd09f75f	-0.033683177
43	0xbd907c9d	-0.07055018
44	0x3e8ad381	0.2711449
45	0xbd17078b	-0.036872428
46	0x3dc99640	0.09843111
47	0x3cca41c5	0.024689564
48	0xbe03e6d6	-0.12881026
49	0xbb705168	-0.0036669616
50	0xbdc93f5f	-0.0982654
51	0x3ccdb516	0.025110763
52	0x3c9060b1	0.017624231
53	0xbeb1da4c	-0.3473686
54	0xbde90c82	-0.11379339
55	0xbb34b675	-0.0027574573
56	0x3dc5390b	0.09630021
57	0x3ea5aa7c	0.32356632
58	0x3d9b864c	0.075939745
59	0xbd6e4296	-0.05816897
60	0xbced5ce3	-0.028974956
61	0xbdf10bfa	-0.117698625
62	0x3db27508	0.08713728
63	0xbc22addf	-0.009929149
64	0x3dc6a89e	0.0970013
65	0xbdfb8cd6	-0.12282722
66	0xbd2186f0	-0.039435327
67	0xbd493ee4	-0.049132243
68	0x3c2652ab	0.0101515455
69	0xbcb0f43f	-0.02160084
70	0x3d03d90e	0.03218942
71	0xbdfaaa75	-0.12239543
72	0xbd3c4ccc	-0.045971677
73	0x3ce1f28b	0.027581474
74	0x3d0b334e	0.033984475
75	0xbd837635	-0.064190306
76	0xbe959cd3	-0.2922121
77	0x3d018181	0.031617645
78	0x3d90368b	0.07041653
79	0x3dab0566	0.08350639
80	0xbdff7e6e	-0.124752864
81	0xbe30f93d	-0.17282577
82	0xbd39c946	-0.045357965
83	0x3dc09c70	0.09404838
84	0xbd10dd51	-0.035367314
85	0x3d1d414d	0.038392354
86	0xbdd3d739	-0.10343785
87	0xbd77b292	-0.060473032
88	0x3df33b9d	0.11876605
89	0xbe97b434	-0.29629672
90	0x3c8490f8	0.016182408
91	0xbd4aaaa3	-0.049479138
92	0x3d595cbd	0.053066958
93	0xbe963426	-0.2933666
94	0x3d1c2fc7	0.0381315
95	0xbd8b1d57	-0.067927055
96	0x3e025bd9	0.1273035
97	0xbd94331b	-0.0723631
98	0xbcf2116e	-0.029549327
99	0x3d79d911	0.060998026
100	0xbd03da9f	-0.032190915
101	0xbe33b00b	-0.17547624
102	0xbd66c237	-0.05633756
103	0xbbae5ea0	-0.005321339
104	0xbb94d3b8	-0.0045418404
105	0x3d1af433	0.037830543
106	0x3d8767b5	0.066115774
107	0x3d3fae03	0.04679681
108	0x3e797585	0.24361236
109	0x3d7d9acb	0.0619152
110	0xbd3e1586	-0.046407245
111	0x3d63a650	0.05557853
112	0xbd4a9a34	-0.049463466
113	0xbdca6cba	-0.09884019
114	0x3d26a5a3	0.040685307
115	0x3d9e8e5d	0.077419974
116	0x3c29c8c7	0.01036281
117	0xbd4d9902	-0.050194748
118	0xbe37b60c	-0.17940539
119	0xbc2e1edb	-0.010627474
120	0x3ac9db07	0.0015400358
121	0x3d3ffce7	0.046872046
122	0xbd85da0e	-0.06535731
123	0x3d0483c2	0.032352217
124	0x3b0e6d8c	0.0021732775
125	0xbc124cf6	-0.008929482
126	0xbd3c0bf1	-0.045909826
127	0xbd8df6a6	-0.0693181
128	0xbde4ea1d	-0.11177466
129	0xbc9aca10	-0.018895179
130	0x3d5a713c	0.053330645
131	0x3c93581b	0.017986348
132	0xbdc37ded	-0.09545503
133	0x3c45e1db	0.012077774
134	0x3b1f6c35	0.002432597
135	0xbd319483	-0.043354522
136	0x3d827b44	0.06371167
137	0xbd558bc7	-0.052135255
138	0xbc6b5478	-0.014363401
139	0x3c6985b2	0.014253067
140	0x3dd458e5	0.10368518
141	0x3d472947	0.04862335
142	0x3d00e04e	0.031463914
143	0xbc8b46bd	-0.017001504
144	0xbc3a9bb3	-0.011389661
145	0xbe8d619a	-0.27613527
146	0x3bb2311c	0.005437983
147	0x3bc088b8	0.005875673
148	0x3dc85337	0.09781497
149	0x3e173e33	0.14769821
150	0x3e816dc0	0.25279045
151	0xbddf4f56	-0.10903804
152	0x3ca1fb1d	0.01977306
153	0xbebf66a4	-0.37382996
154	0xbd1c84cc	-0.038212582
155	0xbc4fedcf	-0.012690975
156	0xbd283aa6	-0.041071557
157	0x3de0a225	0.109684266
158	0x3d48036e	0.048831396
159	0xbc93bc9c	-0.018034272
160	0xbfea5a7f	-1.8308867
161	0xbe042f6d	-0.12908716
162	0xbd06c371	-0.03290123
163	0x3e086887	0.13321124
164	0x3e2c03ff	0.167984
165	0x3ef5d560	0.48014355
166	0xbdff02f2	-0.12451734
167	0x3d2f6a70	0.042826116
168	0xbd6c113c	-0.057633623
169	0x3e171aa0	0.1475625
170	0x3ddaafcd	0.106780626
171	0x3dd0b8e2	0.101915136
172	0xbeb229c5	-0.34797493
173	0x3d552fb6	0.052047454
174	0xbda60151	-0.0810572
175	0x3dfc84aa	0.12329991
176	0xbd8c72e5	-0.06857852
177	0x3ebb119b	0.3653687
178	0x3dae96a9	0.0852483
179	0x3e00ba1a	0.12570992
180	0xbe29cae0	-0.16581297
181	0x3eff0994	0.49811995
182	0x3d0f75e4	0.03502454
183	0x3c81eebe	0.015860911
184	0x3befdca6	0.0073200045
185	0x3f1650d4	0.58717084
186	0xbe0c69b5	-0.13712199
187	0x3e125be0	0.1429286
188	0x3d9bbaf0	0.07604015
189	0x3eece5f7	0.462692
190	0xbe2f2617	-0.17104374
191	0xbc9ac429	-0.018892365
192	0xbd483a5d	-0.048883785
193	0x3d7cc86a	0.061714567
194	0xbbeed229	-0.0072882366
195	0x3e0b6b00	0.13615036
196	0xbdf50981	-0.11964703
197	0xbdaa2a94	-0.083089024
198	0xbdbd7e1a	-0.092525676
199	0x3dba53bf	0.090980045
200	0x3e0dd929	0.13852371
201	0xbd920c37	-0.07131236
202	0x3b61ad7d	0.0034435682
203	0x3e08eae7	0.13370858
204	0x3d5420f6	0.051789246
205	0x3da73f02	0.08166315
206	0xbdb4980d	-0.08818064
207	0xbda413ac	-0.080115646
208	0x3dadfbb4	0.08495274
209	0x3e9887b0	0.2979102
210	0x3dcc6a61	0.09981228
211	0xbd3c5134	-0.04597588
212	0x3df03492	0.11728777
213	0xbd801847	-0.062546305
214	0x3cd02f26	0.025413107
215	0xbcd38f79	-0.025825249
216	0xbdfbfaae	-0.12303673
217	0xbd7d2bea	-0.061809458
218	0xbdf06dfb	-0.11739727
219	0x3d15be07	0.036558177
220	0xbdfcc058	-0.12341374
221	0x3e2a89cf	0.16654132
222	0xbc6ff786	-0.0146464165
223	0xbd4b69b8	-0.049661368
224	0xbf3a8bac	-0.7286937
225	0x3d8f4cd7	0.06997078
226	0x3e142ee8	0.14471018
227	0x3e7eae5b	0.24871199
228	0x3e5f8151	0.21826674
229	0x3f12ed99	0.57393795
230	0xbdb55b0e	-0.08855258
231	0x3e552771	0.20815827
232	0x3e002690	0.1251471
233	0xbc891b32	-0.0167366
234	0xbd9b4888	-0.075821936
235	0x3e67edec	0.22649354
236	0xbee600a2	-0.44922358
237	0xbda61c06	-0.08110814
238	0xbd1bbf7a	-0.038024403
239	0xbd6877bf	-0.056754824
240	0x3d8d2fdc	0.06893894
241	0x3e2391d6	0.15973601
242	0x3d8bbd50	0.06823218
243	0xbda48437	-0.080330305
244	0xbe2e5faf	-0.17028688
245	0x3f71a237	0.94388145
246	0x3ee2b364	0.4427749
247	0x3deabc96	0.11461751
248	0xbdfebd21	-0.12438417
249	0x3eb23920	0.34809208
250	0xbe305497	-0.17219768
251	0x3eb46483	0.35232934
252	0xbe094bc8	-0.13407815
253	0xbf093fbb	-0.5361287
254	0xbdb0e327	-0.08637076
255	0x3e4562e8	0.19276011

output.bias f4 [10]
0	0xbc45ebba	-0.012080127
1	0xbfb10edc	-1.383266
2	0xbf8a29e5	-1.0794035
3	0xbf3e7d06	-0.7440952
4	0x3e2db01c	0.16961712
5	0xbf54f623	-0.83188075
6	0x3eafc5f0	0.34330702
7	0xbf391f20	-0.7231312
8	0x3ea59fce	0.32348484
9	0x3f373c4e	0.7157639
