code/models/best_model_034.pth (torch, 482997 bytes, 8 tensors)

conv1.weight f4 [1, 1, 5, 3]
000000 54 a8 b0 3d df eb a4 3d d0 7d 57 3e 3e a6 98 3e
       0.08625856 0.08052801 0.21044087 0.29814333
000010 c0 49 80 3e ec 3d 07 be 6e 1d 18 3e a9 c7 68 be
       0.25056267 -0.13207215 0.14854977 -0.22732414
000020 08 f2 42 3b 12 ea 5c 3e 62 ad bc 3d 47 ad 5d be
       0.0029746313 0.21573666 0.09212758 -0.21648131
000030 14 1b 95 bd fd 1f 80 be 29 5c 19 be
       -0.07280555 -0.25024405 -0.14976563

conv2.weight f4 [1, 1, 3, 3]
000000 95 9e 0f be 85 1b c7 3d 38 96 29 3e 51 4d 9f 3d
       -0.14025338 0.09722046 0.1656121 0.07778419
000010 16 0e 0c be 7e 50 91 3d c6 01 0d be 5a 5e c9 bd
       -0.13677248 0.07095431 -0.13770208 -0.09832449
000020 20 f5 fb 3c
       0.030756533

linear1.weight f4 [128, 900]
000000 58 a1 27 3d ee af 8c 3e 3c ea 36 bd f8 ee 55 bd
       0.040925354 0.27477974 -0.044656977 -0.05222985
000010 9e 77 00 bd 76 38 55 bd a3 7a e8 3d 75 de 8d ba
       -0.031364076 -0.0520558 0.11351516 -0.0010823744
000020 11 d0 85 3e 3f 56 6b 3d 0e a8 cb bd b9 70 cf 3d
       0.26135305 0.057455298 -0.09944163 0.10128922
000030 d1 fb 06 be 66 8a 5a bd 52 0f 27 bd 80 ad 18 3e
       -0.13181998 -0.053354643 -0.040786095 0.14909935
000040 73 d0 85 bd af f8 c4 bd ac 2e ee bd 29 ca 87 3d
       -0.06533899 -0.09617745 -0.11629996 0.06630356
000050 6d 96 63 bd 1b 1b 94 3d dc f2 94 3d 51 63 0b 3e
       -0.05556338 0.072317325 0.07272884 0.13612105
000060 99 55 0a bd ae a2 00 3d 40 6c 76 3d 20 c5 6a 3c
       -0.03377304 0.031405143 0.06016183 0.014329225
000070 15 49 0a bd ce 63 2b be 0d a7 fc 3d 9e a1 29 be
       -0.033761103 -0.16737291 0.1233655 -0.16565558
000080 6a 00 c0 3a fd 2c 3c 3c a9 16 36 be 2d e5 bc bd
       0.0014648561 0.011485335 -0.17782082 -0.09223399
000090 c6 c6 05 bd e8 2a 79 bb 2a e1 af bd c9 b4 e1 bd
       -0.03266027 -0.003801996 -0.085878685 -0.1102081
0000a0 2e 39 ae 3d bb 2f 3b be 75 3e b7 3b fd 37 4c bd
       0.08507 -0.18279926 0.0055921623 -0.049858082
0000b0 86 97 d7 3d 19 2a 21 3e 73 a2 e7 3d 10 36 d3 3d
       0.10526948 0.15738715 0.113102816 0.10313046
0000c0 0c 3a 0d bd 0f b0 1a be d7 68 2b 3e 4b 91 1c bd
       -0.034479186 -0.15106224 0.16739212 -0.0382245
0000d0 9e 68 7f 3d 40 60 04 be e3 ab 74 3d d3 05 19 3d
       0.06235563 -0.12927341 0.059734236 0.03735907
0000e0 ad bf 34 bd 7b 33 77 3d ee 5e 43 bc 41 67 6e bc
       -0.04412811 0.06035183 -0.0119244885 -0.014550985
0000f0 07 e9 be 3d 52 32 1b 3b 5c f3 ae bd 09 5a 29 be
       0.0932179 0.0023681116 -0.08542511 -0.16538252
000100 63 f9 9f bd a3 86 d9 3c bc 8f c4 bb 7b 66 ea bd
       -0.078112386 0.026553458 -0.00599858 -0.11445328
000110 84 c9 ff bd 73 be 89 3d 5e 84 25 be c1 6c 98 bd
       -0.12489608 0.067257784 -0.16163775 -0.07442618
000120 af 75 86 be f6 e0 4f 3e 90 3f bb 3d b4 7c 94 bd
       -0.2626166 0.2030066 0.09142983 -0.07250348
000130 d1 e1 85 bd e6 e9 86 bd 3f fc 82 bd 01 90 9c bd
       -0.06537212 -0.06587581 -0.063957684 -0.07644654
000140 ec e0 31 bd 7c 1c a6 bd 56 45 24 bc bf 56 e2 bd
       -0.043427393 -0.08110902 -0.010026297 -0.11051702
000150 68 17 a3 bd b2 e6 40 bc 17 ff 45 be c0 ec a6 3d
       -0.07963449 -0.011773752 -0.1933559 0.08150625
000160 48 d1 dc bd 46 60 15 bc 88 c1 5b bd 43 cb e3 3a
       -0.10782105 -0.009117192 -0.053651363 0.0017379302
000170 53 3c 9a bd c4 26 b1 3d f4 5c f7 3d dc 09 16 be
       -0.07531037 0.08649972 0.12078276 -0.14652199
000180 e8 dc e2 bd dd 50 e3 3d 01 13 41 3d 65 dd 10 bd
       -0.11077291 0.11099408 0.047137264 -0.03536739
000190 e3 1d d2 bd 4f 5f 60 3e 35 0f 95 3d 0a 30 0a 3d
       -0.10259607 0.21911357 0.07278291 0.03373722
0001a0 44 a6 17 be 85 a3 18 be 91 09 11 3e da 50 df 3d
       -0.14809519 -0.14906128 0.14163806 0.10904093
0001b0 ea cf 08 bb 52 4e 0f 3d 70 21 4a 3d 8e 94 a4 3d
       -0.002087588 0.0349868 0.049348295 0.08036147
0001c0 dd d3 a8 3d bb 42 e7 bd 3c be 4d 3c b5 30 10 be
       0.08243535 -0.11292025 0.012557562 -0.1408108
0001d0 a3 b3 9a bd 6d 74 79 be 65 b4 44 bd 1d fb 55 bd
       -0.07553794 -0.24360819 -0.0480236 -0.052241433
0001e0 67 00 85 be 1b 5f 81 3e a1 7c 3b 3e 3e 0c fd 3d
       -0.2597687 0.25267872 0.18309261 0.12355851
0001f0 ca 37 50 3d 42 ba 5c bd 02 a1 01 3e 2b b1 92 bd
       0.050834455 -0.053888567 0.12659076 -0.07162698
000200 d9 1b 24 3e a9 e3 07 bc bf 6a 86 bd 5e 72 14 be
       0.16026248 -0.0082940245 -0.06563329 -0.14496753
000210 d1 1d 4d 3d 14 63 7d be e0 ff cf bd b4 e3 c1 3d
       0.050077263 -0.24744827 -0.10156226 0.09467259
000220 55 11 9b be f5 a7 94 be 73 8f aa bd 6c 48 63 be
       -0.3028666 -0.2903439 -0.08328142 -0.22195596
000230 c9 01 0a 3e 50 7b 68 be 2d a7 3a 3d 31 7b b3 3d
       0.13477243 -0.2270329 0.045569587 0.08763731
000240 b4 83 8c 3e ba c3 81 bd d9 af 7e 3d a3 7f 4f 3e
       0.27444232 -0.0633616 0.06217942 0.20263533
000250 d1 d7 0c 3e 31 58 f5 3d 0c 3e 16 be ee 71 68 be
       0.13754202 0.11979712 -0.14672107 -0.2269971
000260 00 76 8c bd 77 fc 31 bb dc 29 4c bd 46 94 15 3e
       -0.06858444 -0.0027158537 -0.049844608 0.14607343
000270 06 3f 58 be 69 d1 0a be 6b 2f fa 3d 2d da 9d 3d
       -0.21117792 -0.13556446 0.122160755 0.07707629
000280 fc c7 aa 3d 6c a7 72 bd bb 82 bb 3d 44 c1 c2 bd
       0.08338925 -0.059241697 0.09155794 -0.09509519
000290 1d d8 20 be f1 c5 c0 bb f7 27 9f 3d 5d d3 00 be
       -0.1570744 -0.0058829715 0.077712946 -0.12580629
0002a0 36 15 e4 bc 20 15 5e 3d b2 16 83 3c 85 fc 33 be
       -0.027842145 0.054219365 0.016002033 -0.17576797
0002b0 1e f5 7c be 11 56 bf 3c 27 81 4a be a9 c6 5c 3c
       -0.2470288 0.02335647 -0.1977583 0.013475099
0002c0 19 19 ba bd b2 ec 99 3d 0b 8a ff 3d f6 11 8c bd
       -0.09086818 0.07515849 0.124775015 -0.06839363
0002d0 f2 c8 8f bc 06 c0 ce 3d 41 09 02 be c3 8a eb bd
       -0.017551873 0.10095219 -0.12698843 -0.11501076
0002e0 fe 82 9e be 04 0a 94 bd 53 e4 3c bc 17 f8 c3 3c
       -0.30959314 -0.07228473 -0.011529046 0.02392201
0002f0 9a 3f 76 be 51 c9 08 3c 88 d3 26 be 94 68 1b 3d
       -0.240477 0.008348779 -0.1629163 0.03794153
000300 a4 fb 78 bd fd a9 95 3d 37 aa 00 3e b9 97 10 be
       -0.06078686 0.07307813 0.12564932 -0.14120378
000310 6e b3 87 3d 63 38 16 3e 85 77 fb bd 0e 47 07 3d
       0.0662602 0.14669947 -0.12278656 0.033026747
000320 64 cf aa be 62 66 78 3d 27 2f 4c 3e d1 76 f3 be
       -0.3336135 0.060644515 0.19939862 -0.47551587
000330 00 5b ab 3d 5e ca 97 be 79 74 41 3e 31 67 2e 3e
       0.08366966 -0.2964658 0.18892087 0.17031552
000340 e7 dc a2 be 54 60 65 bd 27 e8 da bd a0 d7 45 be
       -0.3180916 -0.05600007 -0.10688811 -0.19320536
000350 72 da 5a bd 5f 92 14 be 79 13 b8 3d 73 ca 1d bd
       -0.053430982 -0.14508961 0.08988089 -0.03852315
000360 84 58 5f bd 41 57 8a 3d d4 19 d5 3d 47 be 38 3d
       -0.054527774 0.067549236 0.10405317 0.045103338
000370 c6 10 e6 bd 03 34 42 3d ba b6 aa be 8a c2 d4 3d
       -0.11233668 0.047412883 -0.33342534 0.10388668
000380 2e a1 d3 bc dd 51 8c bd 09 c4 a3 3d 07 32 fe bd
       -0.025833692 -0.06851552 0.07996375 -0.12411886
000390 7e c7 b3 bc fa ec 06 3e 33 c3 ce 3d ad 44 84 be
       -0.021945711 0.13176337 0.10095825 -0.25833645
0003a0 40 aa 2d be bf f8 56 3d 29 50 53 bd e6 58 36 3d
       -0.16959476 0.052483317 -0.05159012 0.044518374
0003b0 85 36 39 be 12 ac 7d 3e 2f f5 0e be 7d c4 0a be
       -0.18087204 0.24772671 -0.13960718 -0.13551517
0003c0 7a e1 e3 3c 4d b0 7d be ce 22 41 3d 87 12 a4 3a
       0.027817477 -0.24774285 0.047152333 0.0012517729
0003d0 58 76 04 bc 2b a1 b1 bd 70 6e a0 bc e7 84 05 be
       -0.008084856 -0.086733185 -0.01958391 -0.1303898
0003e0 ba c1 32 be 42 0f f7 bd eb f0 cf bd 6c 65 3f bd
       -0.17456713 -0.12063457 -0.10153373 -0.046727583
0003f0 21 c5 52 3e 2e af 2e be a5 05 1e be d3 52 b2 3d
       0.20583011 -0.17059013 -0.1543184 0.08707204

linear1.bias f4 [128]
000000 be 42 be bd e2 d9 b2 3d 73 9d 15 bd 2c 45 02 bd
       -0.09290074 0.08732964 -0.03652711 -0.03180425
000010 a3 06 d4 3d a2 46 c4 3d b6 87 a9 bd 2c 37 c2 bd
       0.10352828 0.09583785 -0.08277838 -0.094831795
000020 bf 52 4c bd b4 5a 63 bc 71 99 43 3d 11 90 e8 bb
       -0.0498836 -0.013876606 0.047753755 -0.007097252
000030 ed b2 60 3c e0 e4 d5 bd 16 60 be bd a0 f7 2b bc
       0.013714534 -0.10444045 -0.09295671 -0.01049605
000040 b9 83 4e 3d d1 86 a7 39 ba b4 54 bd 0a 45 6c bd
       0.05041859 0.00031953168 -0.051930167 -0.05768303
000050 d9 9c fd 3d 2a b6 b3 bd 41 db cb bc 84 6c 20 3d
       0.12383432 -0.087749794 -0.024884822 0.03916599
000060 a9 53 df ba 6d 6f a7 bd 10 67 70 bd 00 fe 04 3d
       -0.0017038482 -0.0817555 -0.058692038 0.032468796
000070 62 75 8f bc 2d ea bf bc 31 e5 ca bd 65 15 9c bd
       -0.017512027 -0.023427093 -0.09906996 -0.07621268
000080 9b 43 05 bd 4c 44 7b 3d de 72 d1 bd 19 d4 a1 bd
       -0.032535177 0.06134443 -0.10226987 -0.079017825
000090 65 f3 58 bc cb 67 36 bd 8c 15 19 bd 94 f9 5a 3d
       -0.0132416235 -0.04453258 -0.037374064 0.053460672
0000a0 67 bc 75 bc 11 7b 23 3d 6c 41 9c bd f2 ef 26 be
       -0.014998532 0.039912287 -0.07629666 -0.1630247
0000b0 23 f6 94 bc ce 4d 88 bd 44 7c d1 3d 89 9a 9c 3d
       -0.018183773 -0.06655465 0.1022878 0.07646663
0000c0 84 71 57 3d 97 7f a4 3c fd 08 cc 3c 33 41 f9 3d
       0.05259849 0.02008037 0.02490663 0.12170639
0000d0 12 78 1d 3d 03 5c 14 be 95 d8 87 bd 7b 9c 3b 3d
       0.038444586 -0.14488225 -0.066331066 0.04580353
0000e0 b3 e9 aa bd cc ca 37 3b ad 54 b5 3c b6 69 00 be
       -0.08345356 0.002804446 0.022135103 -0.12540326
0000f0 96 9c 27 3d 56 2f 9a bb 07 4e 3c 3d 13 ee 09 3d
       0.040920816 -0.00470535 0.04597285 0.03367431
000100 14 e0 ec ba db b0 f8 bd 8f 86 60 bc 9d 22 a9 bb
       -0.0018072152 -0.121431075 -0.013703956 -0.005161597
000110 63 51 9b 3c 5c dd 0d 3c 67 79 16 3e ab fa ed 3c
       0.018959707 0.008658733 0.14694749 0.029050192
000120 5a fc b4 bd 30 98 53 bb b6 6e 7a bc 52 ac 9e 3b
       -0.08837195 -0.0032286756 -0.015285185 0.0048423195
000130 8f 81 87 bc f7 51 9f 3d d4 14 33 bd 8a a1 18 be
       -0.01654127 0.077793054 -0.043721035 -0.14905372
000140 c0 9d a5 bc c9 c1 a4 bc 8a b1 ac 3c c1 a5 f6 3d
       -0.020216823 -0.020111935 0.021080751 0.12043334
000150 93 8a 83 3d 39 5a a4 bc 7c 33 a6 bc f4 43 ce 3d
       0.06422915 -0.020062553 -0.020288222 0.10071555
000160 40 97 f4 bc ff 14 02 be ae fe bb 3d 50 5c ac bc
       -0.029857278 -0.12703322 0.09179436 -0.021040112
000170 06 c8 3c 3c 83 c4 bb 3c 3c bf 8f 3d c4 72 8f 3c
       0.011522299 0.022920853 0.07018897 0.01751078
000180 b6 f6 1b bd 95 73 ff 3d 1d 6f c1 3c 06 22 cf 3d
       -0.03807708 0.124732174 0.023612553 0.10113911
000190 cd 80 07 bd 8f 2f e7 bc 3e 35 62 bd 02 bc 90 bd
       -0.03308182 -0.02822092 -0.055226557 -0.0706711
0001a0 fe 01 f9 3c da 6c f1 bb 00 a8 96 3c b8 2a ac 3c
       0.030396458 -0.0073677124 0.018390656 0.021016464
0001b0 dd bc ad 3d 72 0e 87 3d 66 34 78 bc c5 57 d3 bc
       0.084832884 0.06594552 -0.0151492115 -0.025798688
0001c0 16 46 c5 bd 65 37 51 bc 1a ef a6 bc 10 0d 9f bc
       -0.096325085 -0.012769555 -0.020377684 -0.019415408
0001d0 43 d0 69 3c 47 e1 9e 3d 9e aa 77 3d c7 70 c7 bd
       0.014270845 0.07757812 0.060465448 -0.097383074
0001e0 96 ec 87 bc 0a 59 c1 bd df 98 cf 3c 60 51 12 3d
       -0.016592305 -0.09440811 0.02534145 0.035722136
0001f0 35 fe c5 bc e6 72 f7 3c 1a 89 b9 3b 20 55 7a 3c
       -0.024169067 0.030206155 0.0056620957 0.015279084

linear2.weight f4 [32, 128]
000000 ff 86 c5 be 41 c8 bf bd 26 9d a8 bd 70 61 d5 bd
       -0.38579556 -0.09364367 -0.08233099 -0.10418975
000010 c2 de 2c bd a1 24 e6 bd 3b 1e e4 3a b5 b3 b1 bd
       -0.042204626 -0.11237455 0.0017404029 -0.086768545
000020 b3 ba ef bc c4 c3 ec 3d 1f d8 a7 bd 5a fe 5b 3d
       -0.02926383 0.11560777 -0.08195519 0.053709365
000030 9a 1a 62 bd 6b 65 ef bc 8b 1e 82 bd aa 9c 04 3c
       -0.05520115 -0.029223165 -0.06353482 0.008093992
000040 e1 c0 9f bd 1b 00 50 be da cd f1 3c e6 f7 a1 3d
       -0.078004606 -0.2031254 0.029517103 0.07908611
000050 15 9c 20 3d 44 2a 67 3e bf 23 3a 3d 25 92 61 bc
       0.03921135 0.22574717 0.045444246 -0.013767754
000060 c0 07 51 bd 75 92 60 3e c3 ee 7c 3e 4a ab db 3a
       -0.05103278 0.21930869 0.24700455 0.0016759422
000070 5f 17 11 3d 2a bc 28 3c 31 7e d2 bd 16 88 b8 be
       0.03542268 0.010298768 -0.10277975 -0.36041325
000080 7e ae 19 bd 08 a0 bf 3c a0 3e fb bb f8 9a da bd
       -0.037519924 0.023391739 -0.0076673776 -0.10674089
000090 ee cd e6 be 94 53 85 3e c5 4a 95 bc e7 9e 4f bc
       -0.45078987 0.26040328 -0.01822413 -0.012672163
0000a0 25 a2 44 bc fb 2b 25 bc 40 4d 38 bd 40 73 d9 3d
       -0.012001549 -0.010081287 -0.044995546 0.10617685
0000b0 5f 3a da 3d 3d e0 d5 be 9e 10 ee bc 4a e1 82 bd
       0.10655665 -0.41772643 -0.029060658 -0.06390627
0000c0 7f cb 54 bd 75 a2 b6 bc 05 cc 08 bd 4d 34 16 3d
       -0.05195188 -0.022294262 -0.033397693 0.03667097
0000d0 28 0f 20 3e c4 ef c0 3d b4 93 46 3d 87 1d 9b bc
       0.15630782 0.09420732 0.048480704 -0.018934978
0000e0 2f 2c a8 3d 96 29 8a ba b5 aa 5c 3d 50 e2 24 be
       0.08211552 -0.0010540958 0.053873736 -0.16101956
0000f0 c1 68 0c bc a1 ed 5f bd 2d 04 57 3d ad a2 4c 3c
       -0.008569897 -0.05466998 0.052494217 0.012489957
000100 75 d3 41 bb 53 15 0a be 09 34 79 bc f1 0a 6a 3a
       -0.00295755 -0.13484697 -0.01521016 0.0008928022
000110 83 3f 34 3d cb cf 05 bd 67 4e 60 3d 7f 60 0b 3c
       0.044005882 -0.03266887 0.05476227 0.008506893
000120 62 20 93 3c 63 43 fc bc 85 7d 28 3c 50 0b 2f bd
       0.017959777 -0.030793851 0.010283832 -0.042735398
000130 fb 15 7b bc ec 52 75 3d 93 c6 95 3b 75 96 07 bf
       -0.015325065 0.059893534 0.004570791 -0.52963954
000140 24 ec 0b 3c eb fb aa bd a8 9c cf 3c 91 4f ce bd
       0.008540187 -0.08348831 0.025343254 -0.1007377
000150 ad 3b 31 3d e9 3d 22 be 2e 8a 54 3d 6b b8 00 be
       0.043269802 -0.1584393 0.05188959 -0.1257035
000160 ac 64 0f bd 7a f6 59 3d 38 56 b8 3c c6 2c 90 bd
       -0.035008118 0.053213574 0.02250205 -0.0703979
000170 40 53 11 bb 4f ec 36 bb 13 7b 49 3c e9 d7 46 3d
       -0.0022174865 -0.0027911847 0.01229741 0.04854575
000180 81 b5 37 bd b9 8a cf 3d 05 bb 38 3d a8 86 3a 3d
       -0.04485083 0.10133881 0.04510023 0.045538574
000190 3f 2e a7 3d b9 7c 13 3b 89 67 ba bd b3 9c 04 be
       0.081631176 0.002250476 -0.09101779 -0.12950401
0001a0 d1 af 4f bd 8e a8 64 3d 5f 6d e8 3d fb cb 0e bd
       -0.05070478 0.05582481 0.11348986 -0.0348625
0001b0 25 30 fa bc 26 b1 3b bd d6 8b 01 3e 70 3f e7 be
       -0.030540535 -0.04582324 0.12651 -0.45165586
0001c0 4f 1e 87 be 16 51 08 be 40 cc 3d bd f4 9f 87 be
       -0.2639031 -0.13312182 -0.046337366 -0.26489222
0001d0 d7 d4 20 3d 05 fe 93 3d 6d 87 31 bd 5c ba 8e 3d
       0.03926548 0.07226185 -0.043342043 0.06969139
0001e0 74 01 da bc 2d 9f 3d bd 32 46 48 3d d0 5f ca 3d
       -0.026612021 -0.04629438 0.04889507 0.09881556
0001f0 1b ec 83 3d c2 26 1b 3e f4 dd 21 3d f8 00 ee 3b
       0.06441518 0.15151504 0.03951831 0.007263299
000200 fd 17 57 be e2 ad 45 be 5c 1e 8b bd 24 69 d4 bc
       -0.21005245 -0.19304612 -0.067929 -0.025929041
000210 50 b3 e7 bd b3 84 d0 be 40 08 84 3d f4 df 12 3a
       -0.11313498 -0.4072624 0.06446886 0.00056028296
000220 68 41 dc bc 34 d2 12 3e 9c 54 08 be df 23 29 bd
       -0.026886657 0.14337999 -0.13313526 -0.041293975
000230 5a 2b 16 3d 8a 92 38 3e 60 72 fc 3c e4 7f 9d bc
       0.036662437 0.1802465 0.030816257 -0.019226022
000240 64 9e a0 bd 8b 70 20 be 0c df fd 3b 5c ea 87 3e
       -0.078427106 -0.15667932 0.0077475365 0.2654599
000250 5b 0b e3 bb 53 d6 14 3f 82 2d 12 3c 1c aa 81 bc
       -0.006928844 0.5813953 0.008921983 -0.015828185
000260 87 91 f8 3c 8d 9c b2 3e 8c 61 c9 3e d3 25 02 3d
       0.03034283 0.34885064 0.39332235 0.031774353
000270 66 f4 95 bc 01 c1 79 3c 73 e0 0a 3d b1 5f 04 be
       -0.018305015 0.01524377 0.033905458 -0.12927128
000280 ec 1d 23 bd 18 da 92 bb e6 be c8 3d 1b e2 89 bd
       -0.039823458 -0.004481565 0.09802036 -0.06732579
000290 c2 4a 97 be 7b 6d 4d 3e 83 fa 2a bd 73 94 ca bc
       -0.29549223 0.20061295 -0.041742813 -0.02472899
0002a0 b7 c8 0f 3d be 21 f9 3c 9a b5 af 3c 7d ec 62 3f
       0.035103526 0.030411597 0.021448899 0.886421
0002b0 7b f7 81 3e 85 2d 2a be e0 e1 a7 bd 77 1d 75 bd
       0.25384125 -0.16618927 -0.08197379 -0.059842553
0002c0 cc 6a 9e 3a ea 00 79 3d ef 82 23 3d b8 05 20 bd
       0.0012086271 0.060791887 0.03991979 -0.039067954
0002d0 8d 2b 81 3b e9 2a 05 3f 98 d7 f5 3d 9d b2 84 bd
       0.0039419592 0.520186 0.12004012 -0.0647938
0002e0 db 1b f9 3d b0 d1 f3 3c e9 92 1b 3d 24 af 92 3d
       0.12163516 0.029763073 0.0379819 0.07162312
0002f0 f8 fe 90 bd 6e 9b 37 bc b5 9f 02 bd 10 38 1e 3d
       -0.070798814 -0.011206491 -0.03189059 0.038627684
000300 f5 1d c7 bc 98 43 ca 3d ea 90 c7 3c 2f e8 9a bd
       -0.024306277 0.09876174 0.024361093 -0.07563817
000310 28 6c a6 3d 16 21 36 3c 1b 76 28 be b0 5c 66 bc
       0.08126098 0.011116287 -0.16451304 -0.014060184
000320 f4 07 33 bd 62 8e 63 3d 9f f9 5d bb 70 db 38 bc
       -0.043708757 0.05555571 -0.003387071 -0.011282787
000330 01 13 62 3d bd 3c 1b be 61 93 78 39 d6 58 8a be
       0.055193905 -0.15159889 0.00023706026 -0.270209
000340 cb ec 39 bd 4d b6 80 3c 6e 63 df 3c 96 b6 79 be
       -0.04539184 0.015711928 0.027269091 -0.24386057
000350 ce 3a a0 bc 1d 83 81 bd fb ce 38 3d 2e ce f0 be
       -0.01955929 -0.06323836 0.045119267 -0.47032303
000360 00 35 23 bd 1b cd 86 3e 3a b3 e9 bc 1a cd 13 bd
       -0.039845467 0.26328358 -0.028527845 -0.036084272
000370 48 ac 85 3d 44 e5 21 bd 01 25 c0 3c 31 96 1f 3b
       0.06527001 -0.039525285 0.023455145 0.0024350996
000380 b4 84 48 3d 2d 53 e0 bc b3 35 fd 3c d7 2b 9a bc
       0.04895468 -0.027383411 0.030909395 -0.018819733
000390 c6 fe a6 3d e8 60 b8 3d 70 1a ef bc dd 5f 95 3d
       0.08154063 0.090028584 -0.029187411 0.07293675
0003a0 ae 44 83 3c 6a 3a ca bc d7 a1 60 3d 26 74 3f 3d
       0.01602396 -0.024686057 0.054841843 0.046741627
0003b0 3f 98 fc bd 2b a9 28 be 3b 2f 5d 3d 2e e0 a2 be
       -0.12333726 -0.16470782 0.05400012 -0.3181166
0003c0 6e 05 50 bd f2 99 c5 bd 1a 17 59 3c 46 45 4c be
       -0.05078643 -0.09648503 0.013250137 -0.199483
0003d0 74 68 7a 3d ec 99 8e 3c 68 a8 18 be 6d f4 ce 3e
       0.06113477 0.01740738 -0.14907992 0.40420857
0003e0 f4 ad e4 3b b1 e8 e1 3d 47 08 d2 3c 8b 91 54 3d
       0.0069787446 0.110307105 0.025638713 0.051896613
0003f0 96 6e aa ba 0b 07 12 3d 60 fa 9f 3b 72 a4 c6 bb
       -0.0013002928 0.035651248 0.004882142 -0.006062084

linear2.bias f4 [32]
000000 fd 88 85 3d 10 78 b2 bc c4 dc 08 3e cb 05 be 3c
       0.06520269 -0.021785766 0.13365465 0.023196122
000010 82 ea 91 be 34 e4 43 3d c3 c1 1b 3d 24 ff 96 bc
       -0.28499228 0.047825053 0.038026582 -0.018432207
000020 12 28 5c 3c f1 d1 fd bc 79 91 c6 3d bd 7e 06 bd
       0.013437288 -0.030983897 0.096957155 -0.03283571
000030 78 66 0f be f5 fa 5c 3d 4d c3 42 3c 9f 28 b0 3c
       -0.14003932 0.05395027 0.011887384 0.021503745
000040 72 7c 86 3d 39 d5 06 3e 4a 4c 15 bd eb e7 74 3e
       0.06566705 0.13167275 -0.036449708 0.23916595
000050 21 61 e2 bc f3 8d 48 be 79 28 23 bd 32 70 23 3b
       -0.027634205 -0.195854 -0.03983352 0.00249387
000060 51 f0 10 3e 7e 71 06 3e 24 2d 2f be 6d 8c eb 3b
       0.14154173 0.13129231 -0.17107064 0.007188371
000070 cc e2 6f bd 8f 13 2a 3e cf ad 4c 3e 9a bc 27 be
       -0.0585659 0.16609024 0.19988178 -0.1638054

output.weight f4 [5, 32]
000000 91 58 21 be b0 cb 34 3b fd a6 a3 bd 71 ed 08 bd
       -0.15756442 0.0027587228 -0.07990835 -0.033429567
000010 4d 49 8e 3e 3d 0e c2 bd 06 83 a7 be 7a 7d 9d 3d
       0.277903 -0.09475372 -0.3271715 0.076899484
000020 dd 20 d3 bc 6d 7d 96 3e 82 88 13 bd df 01 82 3e
       -0.025772506 0.29392567 -0.036018856 0.25392053
000030 b2 c6 96 3e 9a 62 2a 3e 7c 03 96 3d c8 60 8e be
       0.29448467 0.16639176 0.07324883 -0.27808213
000040 c9 47 60 3d f8 a1 0a 3d de 5c 85 3d bc ca a6 be
       0.05475596 0.03384587 0.06511854 -0.3257655
000050 24 65 fd 3b 10 0d 9b 3e 4a d1 53 3e 92 d6 ef 3b
       0.007733004 0.30283403 0.20685306 0.00731928
000060 ba 54 6c bc e1 d5 7a be da 01 ec 3d 70 8e a7 bd
       -0.014424497 -0.24495651 0.11523791 -0.08181465
000070 fd 22 d6 ba 64 91 2d be 9f 57 15 bd 85 0c 02 3e
       -0.0016337332 -0.16949993 -0.036460515 0.12700088
000080 68 bc 38 bd fc 7b e8 3d 7d 90 04 be 6c 53 e5 3d
       -0.045101553 0.11351773 -0.12945743 0.11197552
000090 6b c3 e7 3a 3f 1a a6 3c 8e 8c 23 3e 3b 87 3e 3e
       0.001768214 0.020276187 0.15971586 0.18606274
0000a0 34 0b 0a bd 7f 5e 05 be a9 d2 a4 bd 4d 32 27 3d
       -0.03370209 -0.13024329 -0.08047993 0.040819455
0000b0 1c db 14 be 31 17 3c 3e 30 e3 88 3d 54 a4 b3 3d
       -0.14536709 0.18368222 0.066839576 0.087715775
0000c0 ed 7b f3 3d 6e ad 64 bd 4e b2 c4 bd 92 de d2 3d
       0.11888871 -0.055829458 -0.096043214 0.10296358
0000d0 fa c6 24 3c b4 c2 22 be 75 28 0c be 94 3a 18 3a
       0.010057205 -0.15894586 -0.13687308 0.00058070687
0000e0 6f 3d da 3d f2 cf ed bd ea 33 d0 bb fd 1a 17 3e
       0.10656249 -0.11611928 -0.006353845 0.14756389
0000f0 d1 0b 0a be 19 91 22 3e 26 3b 06 3e ba 54 98 bd
       -0.1348107 0.15875663 0.13108501 -0.07438035
000100 5f e5 08 be 36 6a d2 be 13 31 a9 3e 50 77 e5 bd
       -0.13368748 -0.41096658 0.33045253 -0.11204398
000110 64 1c 81 be f3 39 18 3e 68 03 8b be 12 c4 4f be
       -0.25216973 0.14865856 -0.27151036 -0.20289639
000120 2e 55 0f bd d6 8d 2e 3e eb 3a d1 bb b1 8a 46 be
       -0.034993343 0.17046294 -0.0063851974 -0.19388844
000130 65 0d d1 3d 32 6d b3 3d 51 33 6b 3d 60 0a dc bd
       0.10207633 0.08761062 0.057421986 -0.107441664
000140 91 3a 83 3d 34 a5 66 3e 5a c6 3d bc 70 b2 3f 3e
       0.06407655 0.22523957 -0.011582935 0.18720412
000150 8c 95 74 3c b5 23 6f be 10 a9 92 3e e9 8b 02 3b
       0.014928233 -0.23353465 0.2864461 0.0019919819
000160 20 7b 41 3d 51 a6 89 3e 1a fe c3 bd fc b2 a0 bd
       0.04723656 0.26884702 -0.095699504 -0.078466386
000170 56 6a 2c 3e 74 4b 00 3e 0d 4c 07 3e 26 2a 12 bd
       0.16837439 0.12528783 0.13212605 -0.035684727
000180 4a 6c 81 3e 76 41 54 3e 26 8f 22 3e 07 a9 fc 3d
       0.2527793 0.20728096 0.1587492 0.12336927
000190 61 c2 81 be 2b de 6a be af 77 45 3e f4 0b 20 be
       -0.25343612 -0.22936313 0.19283937 -0.1562956
0001a0 70 74 c9 bc 43 af cc bd ad 62 56 3e d4 f2 e2 3c
       -0.024591655 -0.09994366 0.2093608 0.02770368
0001b0 b4 75 2b 3d ae ca 49 be 9e a5 8d 3d 1b 96 00 bc
       0.041860297 -0.19706222 0.069163546 -0.007848288
0001c0 f0 a2 d7 3d 84 65 bb 3d 9c 1f 22 3e 95 c5 ab 3d
       0.10529125 0.09150222 0.1583237 0.08387295
0001d0 e9 48 e8 3a 93 64 2d 3e 34 ff 48 3c 59 ee 16 3b
       0.0017721924 0.16932897 0.012267876 0.002303025
0001e0 1f bb 8b 3d fe 5a aa bd 80 b4 1e be e9 80 40 be
       0.068228 -0.08318137 -0.15498543 -0.18799175
0001f0 8a dc ca 3c d5 fb 82 bd aa 70 98 3d 7b a4 05 3d
       0.024763364 -0.063956894 0.07443364 0.032627564
000200 b7 0c c5 bd 2c 90 06 3e 63 e7 57 be 86 02 97 bd
       -0.09621566 0.13140935 -0.21084361 -0.07373528
000210 4c dc f6 3d 90 10 b2 3c ab 02 29 3e 74 33 6c 3d
       0.12053737 0.021736413 0.16504924 0.057666257
000220 c0 e4 cf bc 84 f5 b3 bd a1 15 98 bd 44 4e 60 be
       -0.025377631 -0.08787063 -0.074260004 -0.21904856
000230 46 8e 8b bd b4 37 de bd a3 4c 7e 3d db 23 10 3e
       -0.06814246 -0.10850468 0.062084805 0.14076178
000240 6a ab 1f ba 9a a9 3b be 8c 6b 86 bd 9b 75 f1 3a
       -0.00060909113 -0.18326417 -0.06563482 0.001842189
000250 f6 14 f9 3b a9 a5 a3 bd 83 41 90 bd e0 67 18 39
       0.0076013757 -0.079905815 -0.07043745 0.00014534546
000260 55 92 13 be 62 fd c4 3c 48 67 8a 3d 20 80 34 3e
       -0.1441129 0.024046604 0.067579806 0.17627001
000270 03 c2 4f 3e 00 15 be bd 73 97 2d be 26 37 83 3c
       0.20288853 -0.09281349 -0.16952305 0.016017508

output.bias f4 [5]
000000 5d b3 e0 be 93 0e ab 3d 6e 14 18 3e 59 5a 26 3e
       -0.43886843 0.08352389 0.14851543 0.16245402
000010 e9 ea be bd
       -0.09322149
