code/models/best_model_046.pth (torch, 480181 bytes, 8 tensors)

conv1.weight f4 [1, 1, 5, 3]
000000 f7 cf e4 3d 0e f8 79 3d 79 69 1b 3e 08 1c cb 3e
       0.11172479 0.06102758 0.15176953 0.39669824
000010 5f 99 b1 3e ec 0f 15 be 5e 0f af 3d 37 95 47 be
       0.34687325 -0.14556855 0.08547853 -0.19490515
000020 6a 7a 43 3d 22 76 43 3d 59 e7 83 3c d3 7b 55 be
       0.047724165 0.047720082 0.016101526 -0.20848016
000030 a2 0a 5c be cc 0f 5c be 78 d3 2b be
       -0.21488431 -0.21490401 -0.16779888

conv2.weight f4 [1, 1, 3, 3]
000000 2a fb 98 be 22 bf 29 3e 80 44 77 3e f2 7e 76 bd
       -0.29879123 0.16576818 0.24147224 -0.06017966
000010 1f 5a 11 be 39 7c 36 3e a4 b6 c6 bd 96 97 fb bd
       -0.14194535 0.17820825 -0.09702805 -0.12284772
000020 4c 90 89 3d
       0.067169756

linear1.weight f4 [128, 870]
000000 1f e4 c2 3c 1c b6 72 bd 06 c5 aa 3c 7f 55 5d bd
       0.023790417 -0.059255704 0.020845901 -0.054036614
000010 ad 4f 88 bd 76 05 9e bd 49 c1 84 bc d3 83 6f bd
       -0.06655822 -0.07715885 -0.016205447 -0.058475327
000020 24 32 a0 bd 9e 03 5a 3d c8 a3 01 bd 41 67 b0 bd
       -0.078220636 0.053226106 -0.031650335 -0.08613444
000030 7a 61 00 bd fc e3 d4 bd 44 ac 89 bd 4e f4 81 bd
       -0.03134296 -0.10395047 -0.0672231 -0.063454255
000040 a0 5c 06 3c ce f2 bd 3b e3 8c 51 bd 00 ff 05 3d
       0.008200794 0.005796767 -0.05115975 0.03271389
000050 c4 8b 99 bb eb 44 87 bd 1b 62 ad bc 4b 51 27 bd
       -0.004685851 -0.06604942 -0.021164944 -0.04084901
000060 f2 a1 c5 3c a2 9b 1e be fd 53 f2 bc ea 5c f0 bd
       0.024125073 -0.15489057 -0.029581064 -0.11736472
000070 0e 8f 0f be 71 87 8e bd c3 63 80 3b 0e 0a 99 bd
       -0.14019415 -0.06959427 0.0039181425 -0.07472621
000080 67 4d 85 3c 5b 5f 86 bc 8d 65 9b bc 55 c0 41 3d
       0.01627226 -0.01640289 -0.018969322 0.047302563
000090 bf 1a cb 3d 2d 60 0b 3d 7d c1 37 3d 1d 3d 07 be
       0.09917211 0.034027267 0.04486226 -0.13206907
0000a0 cd d7 3e 3d ad 90 6e bd 81 a6 8d bd eb 78 9a bd
       0.046592522 -0.058243442 -0.06916524 -0.075425945
0000b0 1a 35 93 bd 37 58 f5 3c f2 43 a3 bd cc ee 3e 3b
       -0.07187863 0.02994929 -0.07971944 0.0029134033
0000c0 cc a8 d1 bd 85 d2 78 bd ed e0 d0 bd 59 c3 bf 38
       -0.102372736 -0.060747642 -0.10199151 9.143976e-05
0000d0 05 9a 46 bd 44 83 80 bd 85 0a 51 3d 5f 1e 3d bd
       -0.04848673 -0.06275037 0.051035423 -0.046171542
0000e0 8f 0a 41 3c e0 f9 01 bd 52 f0 af bb 6b cb 03 3c
       0.0117823025 -0.03173244 -0.0053692246 0.008044104
0000f0 ec 0e 33 3c 1e d9 80 bd 72 5f 78 3c d6 ad 3d 3e
       0.010928851 -0.06291412 0.015159475 0.18523344
000100 79 80 5b 3d 4e 5e e0 3c 1b 0b 42 bd d0 0d 2e 3d
       0.053589318 0.027388718 -0.047373872 0.04249364
000110 35 c8 35 3e b7 b4 8d 3d 45 ac e8 3d 95 c8 2c 3d
       0.17752154 0.06919234 0.11360983 0.042183477
000120 3f 46 da 3c e3 f0 c4 bc 31 da 7d bd 03 ea b3 3c
       0.026644824 -0.024040645 -0.06197566 0.021962171
000130 59 f4 5c bd 58 97 0a 3d 11 74 03 3e a8 c6 36 3d
       -0.053943966 0.03383574 0.12837245 0.044623047
000140 39 cb 09 3c 58 74 27 3d 1d 09 ea 3c ab 8f 87 3d
       0.008410268 0.04088244 0.028568799 0.06619199
000150 ca 27 f8 bc 30 7a 6b 3e b8 a5 05 3e ee 4b e1 3d
       -0.03029241 0.2299583 0.13051498 0.110008106
000160 34 b8 b5 bb f7 2e a2 3c 7f 9d 8c 3d 38 12 6b 3d
       -0.0055456404 0.019797785 0.068659775 0.05739042
000170 70 4f 00 bd 2a f0 41 bc 5d ef 88 bd cf 3c bf 3d
       -0.031325758 -0.011837045 -0.0668628 0.0933777
000180 d6 52 04 3e df 80 01 bc 96 80 47 bd b8 01 cc 3c
       0.12922224 -0.00790426 -0.048706613 0.024903163
000190 88 81 29 3d ee 12 d7 3c dd d2 d9 bc 34 86 3a 3d
       0.041383296 0.026254144 -0.026589805 0.045538142
0001a0 b4 b9 71 3d c2 f1 ef bd d4 34 88 bd 41 95 33 3d
       0.05901499 -0.117160335 -0.06650701 0.04384351
0001b0 46 7e 5d 3c f8 f2 69 bd 90 5a d0 3d 00 fd 78 3d
       0.013518875 -0.05711648 0.101735234 0.060788155
0001c0 71 fa 6e bd a9 79 86 3d 28 5f 12 3e 86 c1 a6 bd
       -0.05834431 0.065661736 0.14294112 -0.081423804
0001d0 8c b8 c2 bd 7c 98 e4 bd 81 2c 25 bd b9 bf da bd
       -0.09507856 -0.111618966 -0.040325645 -0.106810994
0001e0 0c 91 35 bb fd 66 e7 3c 01 ea b6 bc 1d 84 66 3e
       -0.0027704863 0.02824735 -0.022328379 0.22511335
0001f0 28 16 b4 3d b4 2a a6 3c 13 a6 2c 3d c8 63 68 3b
       0.087932885 0.020284034 0.04215057 0.0035459865
000200 49 20 95 bc 0e 9a fb bc 8c b9 6b 3c 9d 1c b3 3c
       -0.018203871 -0.030713107 0.0143875 0.02186423
000210 a8 f4 0a bd 5f 54 98 3a f7 2b a8 bd 3e ff 33 3d
       -0.03392473 0.0011621824 -0.08211511 0.04394459
000220 80 6a d4 3c e6 e5 88 bd a8 4d e0 3d 37 9c 8c bc
       0.02592969 -0.06684475 0.10952312 -0.017164333
000230 e2 bd cf 3d 88 9d 03 bd 3e 75 7a bc 8a 8b df 3b
       0.10143639 -0.032132655 -0.015286742 0.0068220543
000240 9a e7 41 bc 6e 67 52 3c 6f d1 c6 3d 8f fd ad 3d
       -0.011835003 0.012842042 0.09707915 0.08495628
000250 42 b2 31 3e 8a fe 17 3e 8e a5 64 bc e1 64 45 bb
       0.17353156 0.14843193 -0.013955487 -0.0030119943
000260 65 cd 4a 3d 64 8f 37 3d 08 d6 bb 3d 58 44 b1 3d
       0.049512286 0.044814482 0.091716826 0.08655614
000270 10 cb 31 3d ff 1c 10 3d ce 85 3c 3d 02 29 a8 3d
       0.043406546 0.035183903 0.046026044 0.082109466
000280 f2 4e 30 3e 3e c5 a1 3d ba 2a 4e 3e ad a0 b8 3d
       0.17217615 0.07898949 0.20133486 0.090150215
000290 9c 4b 07 3e 6f a6 4d 3d 49 29 0b 3d ea db 9f bd
       0.13212436 0.05020755 0.03397492 -0.07805617
0002a0 ff ed 6c 3c 2b 17 6c bd 32 10 17 3e 97 a4 c3 3d
       0.01446104 -0.057639282 0.14752272 0.095528774
0002b0 ea 1a 65 3e 7d 79 4b 3d a5 27 d0 bd 5a de 75 bd
       0.22373548 0.049676407 -0.101638116 -0.060026504
0002c0 5c 9c 05 3e 20 29 3e be 14 00 14 3c e5 13 b0 3a
       0.13047928 -0.18570375 0.009033222 0.0013433663
0002d0 75 66 d4 b8 70 50 93 3d b4 b8 c8 bd 89 45 a8 3d
       -0.00010128032 0.071930766 -0.09800854 0.08216388
0002e0 83 14 9d bc 29 04 9e bc 4d 74 72 bd 3d 2e e7 3d
       -0.01917482 -0.019289093 -0.059192944 0.11288116
0002f0 51 65 f6 bc 2e 29 94 3d b9 1e 73 bb 20 f2 f6 bd
       -0.030077608 0.07234417 -0.003709717 -0.120579004
000300 43 fb db 3d 68 ad 64 bd 30 b1 c8 bd eb 18 8e bc
       0.10741284 -0.055829436 -0.09799421 -0.017345866
000310 88 34 9a 3d b4 f5 23 bd 6b 4f 34 bd 87 ac e9 3d
       0.07529551 -0.040029243 -0.04402105 0.1140986
000320 0f d2 1c bd 2d 2c f6 3c 37 9b f6 bc b6 cd ff bb
       -0.038286265 0.030050362 -0.03010331 -0.007806505
000330 c3 fe 7c bd 52 77 1b bd 2c 45 b8 bd 51 25 72 bd
       -0.061766397 -0.03795559 -0.089975685 -0.05911762
000340 7f 3a 5c bd 4c 04 38 bd ca ce 39 be 15 22 5e 3d
       -0.053766724 -0.044925973 -0.1814529 0.054231722
000350 f2 4e 0e bd a2 2e 90 bd e0 3d 10 bd 8a 13 df 3d
       -0.034743257 -0.070401445 -0.03521526 0.10892399
000360 d5 5a 17 3b 44 2e cb 3d 34 86 7f bd cd 2b dc bd
       0.0023094912 0.09920934 -0.062383845 -0.10750542
000370 43 7b 8b bd fb b6 31 3d 72 74 0f 3e d8 b0 bd bd
       -0.0681062 0.043387394 0.14009264 -0.09262246
000380 51 f9 95 bd b4 50 5e 3a 9f 2d 53 bd 55 30 93 bd
       -0.07322944 0.00084806536 -0.05155718 -0.07186953
000390 74 12 bc bd e4 ca c8 bd 58 5b 77 bb 52 8d ee bd
       -0.09183207 -0.09804323 -0.0037743654 -0.116480485
0003a0 5f 6c 7f bd c3 6a eb bc a1 ad d7 3d 36 fc d2 bd
       -0.06235921 -0.028737431 0.10531164 -0.10302012
0003b0 3a e4 56 3d c6 20 30 bd a7 33 f4 3d 12 fd d9 bd
       0.052463748 -0.043000005 0.119239144 -0.106439725
0003c0 42 6c da 3c 67 a6 0c be 01 3c 6a 3d c7 01 18 be
       0.02666295 -0.13735352 0.05718613 -0.14844428
0003d0 06 2b 83 3d 62 ed c9 bd df 39 0a bb 9b fe 2a bd
       0.064046904 -0.0985973 -0.0021091623 -0.041746717
0003e0 ea 44 f7 bb 82 4b a8 bd 44 a7 82 bd ed 6f 87 bd
       -0.007546057 -0.08217527 -0.0637956 -0.06613145
0003f0 84 cb 06 3d 8e 0f 76 3d d6 95 4e bd 06 b3 54 3d
       0.03290893 0.060073428 -0.050435863 0.051928543

linear1.bias f4 [128]
000000 f5 47 11 be 33 06 bf 3e 77 d7 c0 3e 9e 80 00 bf
       -0.14187606 0.37309417 0.37664387 -0.50196254
000010 e5 3d 41 3e 02 47 a4 be 3c a0 bc 3e 54 37 b1 be
       0.18871267 -0.32085425 0.36841 -0.34612525
000020 2a 9c 86 3d 01 a1 cf 3c f0 44 aa bd 06 94 dd 3c
       0.06572755 0.025345327 -0.0831393 0.027048122
000030 47 2b 16 3e bf 24 94 be 5e f3 fd 3e 31 c8 ba bd
       0.14664946 -0.28934285 0.49599737 -0.09120215
000040 28 b4 e8 bd cb e3 1a be 0b 1b 74 3e 32 bb 98 be
       -0.11362487 -0.15125959 0.23838441 -0.2983032
000050 0e df 15 3f 9b b1 a3 3e 95 5f 07 be f3 cb 88 3e
       0.5854348 0.3197144 -0.13220055 0.267181
000060 f8 a1 ba bd 39 b7 36 3e 83 2d 0e bf 93 80 a8 3e
       -0.09112924 0.17843331 -0.55538195 0.32910594
000070 f7 50 09 be 9d 0a ae 3d 6f 1c 27 3d d2 28 d2 be
       -0.13409792 0.08498118 0.0407986 -0.41046768
000080 7b 44 71 3d 7d c5 84 be a0 ed cd 3d 9b e8 f0 3d
       0.0589032 -0.25931922 0.10055089 0.11763116
000090 85 ae de 3e a8 ba 99 3d 3f d0 20 bf 85 fd 6b 3e
       0.43492523 0.07506305 -0.6281776 0.23045929
0000a0 d2 8d 0e 3e 46 1e 84 be 55 98 aa be 52 77 09 be
       0.13921288 -0.25804347 -0.33319345 -0.13424423
0000b0 e2 89 35 be a1 b8 66 be 3a a8 2d 3e 0b 5f e9 3e
       -0.1772838 -0.22531368 0.16958705 0.45580325
0000c0 76 57 74 3c 25 0a 9b be 41 38 ee be 3f 73 97 3d
       0.01491343 -0.30281177 -0.46527293 0.07395028
0000d0 a7 fe 01 bf bb 8e 28 3e 8c f9 a8 3e 41 fd 66 3e
       -0.50779194 0.16460697 0.3300289 0.22557546
0000e0 79 41 02 3e 85 0e 0a 3e cc 18 90 bd fb 0d d2 bc
       0.12720288 0.13482101 -0.0703598 -0.025641432
0000f0 7e af ee bd ac 0f fe bd 82 d4 e3 3e ad 09 c4 bd
       -0.11654566 -0.12405333 0.44498068 -0.09572158
000100 df a9 2c 3e 5a 84 ce bd 85 44 0f bb ec 6b c5 3e
       0.16861676 -0.10083838 -0.002186091 0.385589
000110 48 99 87 3d 60 3e 25 3e ff 64 9f 3e cb ff 14 3d
       0.06621033 0.16137075 0.3113174 0.036376756
000120 c3 7d 9e be cc a2 8e 3e 12 01 1a be fc 3b 92 3e
       -0.30955324 0.2785858 -0.15039471 0.2856139
000130 78 ab 1e be 7b a8 90 3e c7 ec ab 3e 9d f0 33 be
       -0.15495098 0.2825354 0.33579084 -0.17572255
000140 09 05 ab be 4b 62 1f be 4d c9 cb 3e a5 b7 7f 3e
       -0.3340228 -0.1556484 0.39802018 0.24972399
000150 9c a9 14 3b 05 d1 9a be 00 6a f8 3d db 50 9a be
       0.0022684103 -0.30237594 0.12129593 -0.30139813
000160 45 af bb 3d 0e 07 0e be 71 ec e5 bd fc f7 51 3e
       0.091642894 -0.13869879 -0.11226738 0.20504755
000170 77 d5 cf be db 23 67 ba a6 23 de be 50 dc 8d be
       -0.40592548 -0.00088172936 -0.43386573 -0.27707148
000180 53 62 17 3e 17 f8 97 be 29 5d 2f be 40 87 77 3e
       0.14783601 -0.29681465 -0.17125382 0.24172688
000190 6c 56 ee 3e 93 bb 27 3e 3f 0e ad bc 5d 4c d2 bd
       0.4655031 0.16380148 -0.021124957 -0.102684714
0001a0 fe bd 50 3e af 38 e3 3c 68 2f b6 be cf 71 72 3e
       0.20384976 0.02773699 -0.35583043 0.23676227
0001b0 eb 36 b1 be 30 3d 53 3e 81 7e e5 3e 7a 60 39 bc
       -0.34612212 0.2062881 0.44823077 -0.011314506
0001c0 d9 2b c7 be b3 80 0c 3f a4 ca 38 3d df 44 f5 bd
       -0.3890064 0.5488388 0.04511513 -0.11976027
0001d0 79 40 60 3e a7 80 b4 bd 3a 60 05 be c9 66 bf be
       0.21899594 -0.08813601 -0.13024989 -0.37383106
0001e0 50 64 9a be dc 4d 47 be 78 a7 c5 3e 9f f0 02 3e
       -0.30154657 -0.19463295 0.3860433 0.12787102
0001f0 d5 9e 36 3d 76 57 da 3e ce a9 32 3e a9 80 e7 bd
       0.044585068 0.42644852 0.17447588 -0.11303837

linear2.weight f4 [32, 128]
000000 e0 13 8f 3d 5e df e9 bd a3 c2 c8 3c 3d f1 56 bd
       0.06986213 -0.11419557 0.024506873 -0.052476157
000010 b9 aa f4 3c 1a 10 9f bc 94 31 56 3d da e8 bb 3d
       0.029866563 -0.019416858 0.052293375 0.09175272
000020 59 98 93 bd df bc da 3d 82 f7 86 3d 7b 8a dc bc
       -0.072067924 0.106805556 0.06590177 -0.026921501
000030 f1 b1 62 3d 64 c0 fe 3c 82 a5 06 3e a0 a2 3c 3d
       0.05534548 0.031097598 0.13149074 0.04605353
000040 10 8f d7 3d 60 16 86 bd c7 09 c2 3c 14 55 5b bd
       0.10525334 -0.065472364 0.023686303 -0.053547934
000050 b8 e4 4e 3d e7 7c 93 bd 1d b9 b7 bd e4 dc d0 bd
       0.050511092 -0.072015576 -0.089708544 -0.101983815
000060 2e 2b 09 3e d9 0e d0 bd 11 27 07 3e e2 eb 01 be
       0.13395378 -0.10159082 0.13198496 -0.12687638
000070 41 56 71 3d 3d 06 7b bd d5 a1 8a 3d 75 f5 a1 bd
       0.05892015 -0.061285246 0.06769148 -0.07908145
000080 38 c3 ad bd d7 ce 37 3d 3f aa 6f 3d 5f 5b f4 3c
       -0.08484501 0.044874992 0.05851197 0.029828725
000090 7f 31 d2 ba ac 3e 40 bc b2 42 4b 3d 65 7e 34 3d
       -0.001603648 -0.011733692 0.049624152 0.04406585
0000a0 74 95 fe bd 1c 8f 96 3d 85 55 ad bd d4 cd cc 3d
       -0.1243085 0.07351515 -0.08463577 0.10000196
0000b0 75 5d e3 3c e5 62 48 bd 86 71 0e be 08 eb 0b 3e
       0.027754525 -0.04892244 -0.13910493 0.13663876
0000c0 e3 19 d7 3b 76 12 ba bd 7e 46 15 3e 2b 01 25 bd
       0.0065643652 -0.090855524 0.14577672 -0.040284317
0000d0 5c e0 f7 bd 8f 6d 37 bc 98 a7 2b 3e 3f c1 d2 3c
       -0.1210334 -0.011195554 0.1676315 0.025726913
0000e0 e0 ce 01 3e 89 02 a6 3d b4 e4 90 3d 95 e5 d6 bd
       0.12676573 0.08105952 0.07074872 -0.10493008
0000f0 a6 db 84 bd bf 3a f6 bd ea 17 30 bd 28 88 b7 bd
       -0.06487207 -0.12022924 -0.042991556 -0.089615166
000100 3c 20 50 3d 97 7b ba bd 79 91 0d be 15 7c b5 3d
       0.05081199 -0.09105604 -0.13825025 0.088615574
000110 b1 3e 56 b9 f3 27 e8 bd 66 5e 91 3d fd 00 ff 3d
       -0.00020431985 -0.11335745 0.07098083 0.124513604
000120 a1 6f 79 3d 21 ca c6 bd af 9b 6c 3d 91 48 32 bd
       0.060897473 -0.09706522 0.05776566 -0.043526236
000130 e2 cf b1 bd 6c ce 7f bd d6 f7 d0 3c 9a b1 66 bd
       -0.086822286 -0.06245272 0.025508802 -0.056321718
000140 72 5e 04 be 27 23 eb 3d cd 05 04 be ed cc ee bc
       -0.12926653 0.11481314 -0.12892838 -0.02915045
000150 47 cf 1d bd 5c 1b 7b bd 3c d3 9e 3d 1d 05 32 3d
       -0.038527753 -0.06130539 0.077551335 0.043461908
000160 fc 90 ad bd 6f 2a 47 3d 0e 8d dd bd 76 81 89 bd
       -0.08474919 0.048624452 -0.1081792 -0.06714146
000170 b4 99 08 3e a9 fd 00 3e 25 5c b8 bd 6e 12 75 3b
       0.13339883 0.12596764 -0.0900195 0.0037395018
000180 34 9d f9 bc c4 67 21 be a7 9b 32 3d 8a d3 a5 3d
       -0.030470468 -0.1576224 0.043605473 0.080969885
000190 a1 1e 82 3d 6d 14 8b bc e4 34 e7 bd d8 72 f8 bb
       0.06353498 -0.016977513 -0.11289385 -0.00758205
0001a0 1d a0 9e 3d 66 05 96 bd 29 fb 7b 3d 84 de 5a bd
       0.07745383 -0.073252484 0.061518822 -0.053434864
0001b0 ce 8e 34 be 7c af 3c bb 2b 77 f9 3d 38 e9 d3 bd
       -0.176326 -0.002879112 0.121809326 -0.10347217
0001c0 f3 a9 bf bc 68 f9 ae 3d c5 d7 54 be b5 ed a3 bd
       -0.023396468 0.08543664 -0.20785435 -0.080043234
0001d0 61 9a 52 bc 4c ae 93 3d ad e9 95 bc 40 47 db bd
       -0.01285419 0.07210979 -0.018299902 -0.10706949
0001e0 f4 53 85 3d a3 ff eb bd bb a6 c9 3c b3 09 9d 3d
       0.065101534 -0.11523368 0.024615636 0.076678656
0001f0 92 91 fc bd a4 b3 59 bc 98 f2 ab bd ad 43 03 bd
       -0.12332453 -0.013287459 -0.083958805 -0.032046963
000200 a6 b2 3c 3e 4e 76 90 bd 3d e0 e0 3d 62 c7 1c 3a
       0.18427524 -0.07053815 0.1098027 0.0005980638
000210 5b dc a8 bd 46 de 05 3d f8 b2 15 3e 02 f7 b2 bd
       -0.082451545 0.03268268 0.14619052 -0.08738519
000220 80 35 66 3d c4 0c 50 3d ee 27 81 bc 95 f1 e6 bc
       0.056203365 0.050793424 -0.01576611 -0.028191367
000230 de 1a 09 3e f3 40 91 3d d1 58 bc 3c 0e e3 de 3d
       0.13389155 0.07092466 0.02299157 0.10883151
000240 79 58 09 bb 87 fd 9a 3d e7 c9 a9 bd b3 4e 0f 3d
       -0.0020957275 0.07567888 -0.08290463 0.034987163
000250 ae 24 9d 3d 6c 5d ab 3d b5 59 cc 3b 8a 76 02 3e
       0.07673012 0.08367428 0.00623628 0.12740532
000260 e5 ff 3c bd ed bc 08 3e e1 90 df bd 15 c1 9c 3d
       -0.046142478 0.1335332 -0.10916305 0.07654015
000270 12 18 f6 bb 5b b6 4e bd 23 f9 3f be 31 c4 0a be
       -0.0075101936 -0.050466876 -0.18747382 -0.13551404
000280 68 9e 2c 3d 02 80 6a 3d 13 37 88 3c b0 c4 a4 3d
       0.042143255 0.057250984 0.016627824 0.08045328
000290 8a d9 ed bd 7c 12 b8 3c 36 7a 18 be e0 d8 90 3d
       -0.11613758 0.022469752 -0.1489037 0.070726156
0002a0 1e f9 27 bd 14 88 ed bc 82 57 c1 3d ae c9 48 3d
       -0.04100906 -0.028995551 0.09440519 0.04902046
0002b0 f8 15 23 be 3e b3 8f 3d e8 a2 51 3d 0e c0 80 bd
       -0.15926349 0.070166096 0.05118075 -0.062866315
0002c0 d3 e0 10 be 8d c0 c9 bd 0c 89 3c bd 9a 9a 2d 3e
       -0.14148264 -0.09851179 -0.046029136 0.16953507
0002d0 4d 99 0c be ad 7c 81 bd 4f da 8b 3d 13 20 82 3c
       -0.13730355 -0.06322608 0.068287484 0.015884435
0002e0 45 b7 97 bd 36 f2 b7 3d ab 0c 8a 3d d1 2c b6 3c
       -0.07408003 0.08981745 0.067406975 0.022238167
0002f0 5b cb 53 bb e9 0f a4 bd 91 a6 70 3d 63 65 25 bd
       -0.0032317254 -0.08010847 0.0587526 -0.040379893
000300 14 e9 f7 3d 8b 30 ea 3d 48 8e 23 3d 89 a7 b9 3d
       0.12105003 0.1143504 0.03993061 0.09065158
000310 25 cd fa bd 1d 89 07 bd be c2 79 3c 58 a6 2c 3e
       -0.122461595 -0.033089746 0.015244184 0.1686033
000320 86 74 d6 3d 7c 74 27 3e 43 4c 63 3d 89 8c 99 3c
       0.10471444 0.16353029 0.05549265 0.01874377
000330 71 25 c3 3d f3 84 85 3d a3 36 d9 3d d2 c6 38 bd
       0.09528626 0.06519499 0.10606124 -0.045111485
000340 75 ec a6 3d 7f f5 7b bc 91 9a c2 bd dd 05 1b 3e
       0.08150569 -0.015378355 -0.095021375 0.15138955
000350 cc b4 10 3e 6e 99 04 bd de f5 43 3c c5 7b 02 3c
       0.14131469 -0.032372884 0.011960475 0.007964079
000360 75 68 e0 bd 0d 5d da bd 66 93 2b be ac eb 20 be
       -0.109574236 -0.10662279 -0.16755447 -0.15714902
000370 95 64 f4 3d b7 6a 03 3d a7 07 c8 3d 10 85 1a 3d
       0.11933247 0.032084193 0.097670846 0.037724555
000380 87 1f e8 3d 82 2f 83 3d 4b d2 37 bd bc f4 93 3c
       0.11334138 0.06405546 -0.044878285 0.018061034
000390 43 9a 12 bc 22 ab 13 3d 46 87 08 be 95 7b b5 3d
       -0.008947912 0.036051877 -0.13332853 0.08861462
0003a0 fe 5f 0b bd b9 f2 be ba 83 8e 32 be b2 04 14 be
       -0.034027092 -0.0014568187 -0.17437176 -0.14454916
0003b0 ff 53 48 bd 86 97 14 be c0 e8 93 bc a9 cf b6 3c
       -0.04890823 -0.14510927 -0.01805532 0.022315817
0003c0 ff ce 4b 3c 8a 09 8b bd 8b 0f c1 bd e2 1e a8 bd
       0.012439488 -0.06788929 -0.09426793 -0.082090154
0003d0 07 24 44 bd fc 4f da 3d b3 32 ba 3c 85 f9 d9 bd
       -0.04788592 0.10659787 0.022729253 -0.10643295
0003e0 7e 3a f1 3d 63 a4 60 bd fe 20 0b 3d d1 63 93 3d
       0.117787346 -0.05484427 0.03396701 0.07196773
0003f0 94 d0 52 3d b7 f0 27 be 38 8c eb bc ab 16 ed 3d
       0.051468447 -0.16400419 -0.028753385 0.11576589

linear2.bias f4 [32]
000000 20 13 c2 3d 9e 71 33 3e 3c a2 08 be 25 fc e0 bc
       0.09476304 0.1752381 -0.13343138 -0.027463982
000010 16 ae 0d 3e ba ac 22 be d2 d1 61 3e 13 2f 37 bc
       0.1383594 -0.15886202 0.22052696 -0.011180657
000020 49 4a a9 3e 64 1f 90 3e 14 da 76 3e d1 6f 5c 3e
       0.33064488 0.2814895 0.24106628 0.2152703
000030 72 b3 40 bd 13 22 a1 3e 8b 16 2f be 18 af 2c 3e
       -0.047046132 0.3147131 -0.17098443 0.16863668
000040 c4 8f a6 3e 7f da 29 bc 07 5f 75 3e 62 70 79 bc
       0.3253156 -0.010367035 0.23962031 -0.015224548
000050 66 ae 95 be d6 5a 01 be 07 b7 be be 6b 3f e4 be
       -0.29234618 -0.12632307 -0.37249014 -0.44579634
000060 71 70 be be 9c e4 c0 be 62 56 1f be ce 25 a8 be
       -0.3719516 -0.37674415 -0.15560296 -0.32841343
000070 22 24 91 3e 7a 25 37 be 9c 04 50 bd 94 40 2e 3c
       0.2834788 -0.1788539 -0.050785646 0.010635514

output.weight f4 [100, 32]
000000 eb 92 41 bd cc b8 c3 3c f3 5a 9a 3c 92 6b 56 3b
       -0.047259253 0.023891829 0.018842196 0.0032717925
000010 bd ee 5c be f1 e3 0e 3d 03 66 47 bd c3 ce 3d bd
       -0.21575446 0.03488535 -0.04868127 -0.04633976
000020 f9 f7 98 bc 04 70 5a bc ce 0c bc bd 0f b0 34 be
       -0.01867293 -0.013332371 -0.0918213 -0.17645286
000030 12 ca 9d bc bf 06 fd 3c 44 a2 0d 3e 6e ff 9f 3c
       -0.019261394 0.030887006 0.1383143 0.019530978
000040 1f 62 d1 3d 06 0a b7 ba cf 6e 22 be 0a c4 a0 bc
       0.10223793 -0.0013964779 -0.15862583 -0.019624729
000050 29 10 15 be 1d 28 2a 3d c9 d2 47 be 45 1b 64 be
       -0.14556946 0.04154216 -0.19514002 -0.22276028
000060 53 4c 24 3d cf 58 ca bd cc 63 48 be 18 0e e3 bd
       0.04011185 -0.0988022 -0.1956932 -0.110866725
000070 99 95 ea 3d aa 9b 3b be a4 33 3e 3d c1 53 c1 3c
       0.11454315 -0.183211 0.046435967 0.023599507
000080 ee e3 0c 3e d1 16 12 bd 61 91 18 be d3 c2 67 bd
       0.13758823 -0.03566629 -0.14899208 -0.056582283
000090 54 5e 91 bd 11 db a7 be ff 67 6d 3e 5e 41 58 3d
       -0.0709807 -0.32784322 0.23184203 0.052796714
0000a0 43 6c ba bd cd 21 41 be 37 e2 2a 3d 1a 67 35 3e
       -0.091026805 -0.1886055 0.04171964 0.17715111
0000b0 60 46 f8 bd 57 8d 69 be a8 33 8e 3d 8c 1d 21 be
       -0.12122798 -0.22807823 0.069434464 -0.15733927
0000c0 85 53 ad 3e ad 1b 54 bd 1d 46 16 3e af 18 27 3e
       0.33852783 -0.051784206 0.14675184 0.1631801
0000d0 bf f1 83 3e 39 37 93 be a8 ec 3d be 8e 61 65 bd
       0.25770375 -0.2875307 -0.18547308 -0.05600124
0000e0 34 5a 02 3d 26 be b0 bd 18 0d 70 3e 41 32 49 bd
       0.031824306 -0.08630018 0.23442495 -0.04912019
0000f0 3f b4 1b 3e 4d e6 f6 bb d2 67 74 3e 07 41 07 bd
       0.15205477 -0.007534778 0.2386773 -0.033021
000100 8f b7 f3 3d 52 02 83 be 05 b5 b3 3e fc f2 25 3d
       0.119002454 -0.25587708 0.35099044 0.04051493
000110 8e 2c d5 bd 86 d1 a8 be 86 10 e6 3c bd f3 15 be
       -0.10408889 -0.32972354 0.02808405 -0.1464376
000120 2a 5e 12 3d 64 ad ce be ca a0 f1 3e bf e2 db bc
       0.035734333 -0.40366662 0.47192985 -0.02684152
000130 40 e2 cb bd d0 e7 45 3e b6 80 8a be 36 d1 2d be
       -0.09955263 0.1932671 -0.27051324 -0.16974339
000140 79 0d 73 3e 53 52 41 bd 5c 19 cb bc 03 70 bb 3e
       0.23735608 -0.04719765 -0.024792366 0.36608896
000150 b4 7c f0 3d 3c e5 bb bd 11 ac 93 be 22 c3 80 be
       0.11742535 -0.09174582 -0.28842214 -0.25148875
000160 15 cb a5 bd 44 d4 8b be 18 39 19 3e 8c 4b 0c 3e
       -0.080953754 -0.27310383 0.14963186 0.13700694
000170 e9 1a a7 be a7 83 5c 3e 6b b3 c4 bd 53 9e 80 3e
       -0.32637718 0.21534596 -0.09604534 0.25120792
000180 85 4e f6 3d b4 01 a7 bd fd 96 09 3d a4 13 28 3d
       0.12026695 -0.08154622 0.03359126 0.041034356
000190 48 33 b2 bd d8 a9 df 3b fa 41 71 bd 85 ae 18 3e
       -0.08701187 0.006825667 -0.05890081 0.14910324
0001a0 23 e6 9c bd 4d fe 29 be 0a f5 36 3d f0 14 a0 bc
       -0.076610826 -0.16600914 0.04466728 -0.019541234
0001b0 b0 c2 9d 3d a0 07 f8 bd d3 2c ba bd 41 17 8a bd
       0.07703149 -0.12110829 -0.09090581 -0.067427166
0001c0 38 db 92 bc 2e ab 8b bd 76 90 ae bd d7 76 15 3e
       -0.017926797 -0.06819759 -0.085236475 0.14596115
0001d0 bb 84 56 3e 6f b1 d8 3d c8 61 0e be 5e e7 da bd
       0.2094907 0.10580718 -0.13904488 -0.10688661
0001e0 06 0e 2b bc eb 29 b6 bc 64 ea 7a 3d 19 af 41 be
       -0.010440355 -0.022236785 0.06125869 -0.1891445
0001f0 85 20 49 bd 50 ed af 3c 2f a9 f6 bd df f7 2c be
       -0.04910328 0.021475464 -0.12043988 -0.1689143
000200 27 63 f4 bd 21 98 f6 3c 01 2c c8 bd e3 35 2e be
       -0.11932974 0.030101838 -0.09774018 -0.17012744
000210 7d ed 9b 3d c3 89 3c 3c 6b 19 c1 bd a0 56 e4 3d
       0.07613657 0.011507454 -0.09428676 0.11149335
000220 8b 7a 50 be 30 28 fa 3d 32 31 cb 3d 92 44 10 3e
       -0.20359246 0.122146964 0.09921493 0.14088657
000230 1c b4 43 bd 3a 13 be bd 9c 78 87 3c b8 94 70 bd
       -0.047779188 -0.09281011 0.016537003 -0.05873558
000240 ce 17 3c bd 1c da af 3c a5 06 63 3e 97 3f a6 ba
       -0.04592114 0.021466307 0.22170503 -0.0012683746
000250 17 09 cd bd ad d0 83 bd 93 c4 71 3c 16 44 3f 3d
       -0.100114994 -0.06436286 0.01475634 0.04669579
000260 81 1d ca bd 2d e5 56 3e 75 49 8e bc 92 c3 0f 3d
       -0.09868909 0.20985861 -0.017369011 0.03509862
000270 34 b0 bd bd 80 2e 5b 3d e5 0e 37 bd e9 c1 d5 bd
       -0.09262124 0.053511143 -0.04469194 -0.10437376
000280 d6 ff 05 be 11 de 02 3e a9 4f 1b bc 67 e0 24 3d
       -0.13085875 0.12780024 -0.009479442 0.04025307
000290 1e 72 46 bd 0b 0e 09 be ef 12 66 3d 09 26 25 be
       -0.048448674 -0.13384263 0.0561704 -0.1612779
0002a0 e0 d1 c5 bd 00 69 89 bd 1a ec 28 bc 49 15 c3 3d
       -0.09659171 -0.0670948 -0.010310197 0.09525544
0002b0 b7 b2 fc bc 4f d9 e9 bc a8 95 f4 3d 72 04 b8 3c
       -0.030846937 -0.028546004 0.11942607 0.022463057
0002c0 3b 5e a0 3d 2b 95 f0 ba 02 c4 d3 bc ee 03 01 bd
       0.07830473 -0.0018355002 -0.0258503 -0.03149789
0002d0 a3 c8 95 bd d8 32 b3 3d 7a 26 75 bd d4 08 37 bd
       -0.07313659 0.08749932 -0.059851147 -0.044686154
0002e0 0e 4b 32 3d f5 74 ca 3c e1 a6 20 3c 5b 0b e1 3d
       0.04352861 0.024713973 0.009805412 0.10988494
0002f0 a1 d9 4f 3d 30 88 07 39 34 0e 10 be 47 54 c3 bd
       0.050744656 0.00012925337 -0.14067918 -0.09537559
000300 27 39 fa bd 07 03 f2 3d 04 29 82 bb e7 09 6d 3d
       -0.12217932 0.11816984 -0.0039721746 0.05787077
000310 8f c5 05 bd 94 0b 0c bd 0c 33 2c bd 63 be 1c bd
       -0.03265911 -0.03419073 -0.04204087 -0.038267504
000320 ef 2e df bd 89 5f 1b bd 32 a2 b0 3d a4 50 cd 3c
       -0.10897624 -0.037932906 0.08624686 0.025062867
000330 5d 6b 30 bd e3 84 f6 bd f2 ea 17 3c b7 34 25 be
       -0.04307114 -0.12037065 0.009272324 -0.1613339
000340 60 23 75 bd c4 01 e3 3d 0a 21 1c bc e0 3a a4 bd
       -0.05984819 0.11084321 -0.0095293615 -0.08019042
000350 54 5d 88 3c 36 63 07 3e 63 2c 4b bc a4 20 74 3d
       0.016646065 0.1322144 -0.012400719 0.05960144
000360 ba 87 a4 bd 0e e7 ca b9 b2 4e 55 3d 3c 1c 3e bd
       -0.080337 -0.00038700592 0.052077003 -0.046413645
000370 99 50 cf 3b a6 dd ba ba e0 eb ab bd 3d 2f 7e 3d
       0.0063267467 -0.001425673 -0.08394599 0.06205677
000380 26 9b fd 3c 58 c4 18 bd ec f4 eb 3c 6f b8 e0 3c
       0.03095777 -0.037296623 0.028803311 0.027431695
000390 4d 0f 39 3d 7e 5a c2 bd a7 a1 78 bc d5 37 04 bc
       0.045180608 -0.09489916 -0.01517526 -0.008069952
0003a0 16 69 5b bd ed 0d ca 3d 8a f1 3d be 32 50 33 3e
       -0.053567015 0.098659374 -0.18549171 0.17511061
0003b0 1a 62 02 be 23 df 97 3e 2b 2a 89 bd 70 e9 9f 3d
       -0.12732735 0.29662427 -0.06697496 0.078081965
0003c0 c2 68 5f 3d 46 37 0a be 4e 31 22 be fc 56 d0 3d
       0.054543264 -0.13497648 -0.15839121 0.10172841
0003d0 b9 4c bd bd 9c 45 dd 3c 80 e3 c2 3c 37 99 64 3d
       -0.09243149 0.027010731 0.023790121 0.05581018
0003e0 1d ad f8 3c 17 ac 51 3e 89 58 38 be 5c 4d 5d bd
       0.030355984 0.20475803 -0.18002523 -0.054028854
0003f0 5b b7 cb 3d 7a 90 a8 bd 4a c1 33 bd e1 db 03 3e
       0.09947082 -0.08230682 -0.043885507 0.12876846

output.bias f4 [100]
000000 fc 3b 82 3d 9e 68 10 be 36 4d 96 be 7f b5 b7 bd
       0.06359097 -0.14102408 -0.29355782 -0.089701645
000010 0e a3 c3 3d 83 32 f2 3d 9d 3a c9 bd 45 20 03 3f
       0.095525846 0.118260406 -0.09825633 0.51221114
000020 de 05 88 3d b8 27 2b 3e a6 09 e2 3e 24 aa ae bc
       0.06641744 0.1671437 0.44147986 -0.021321364
000030 c0 6d 9c be a5 e0 9f 3e b9 b8 6d 3e 0f 57 d6 3e
       -0.30552483 0.31226078 0.23214997 0.41863295
000040 ef e4 f0 be cb e6 03 be 63 a3 10 3e c4 83 ee 3d
       -0.47049662 -0.1288101 0.14124827 0.11646226
000050 ba 1b 6f be ab d8 8c bd 4d f9 7d 3e 9c 03 f3 3e
       -0.2335042 -0.06877264 0.24802132 0.4746369
000060 b9 8d 05 be 5c 6a 05 bf e0 32 c2 3e 06 d9 28 3f
       -0.13042344 -0.52115417 0.3792944 0.6595615
000070 49 0a 8f 3e fe 50 cb 3c aa b7 e7 3d 76 c4 3e 3e
       0.27937534 0.024818894 0.11314328 0.18629631
000080 c9 e6 0f 3f a8 8d 08 bf 21 d5 8a 3e 26 92 bb 3e
       0.56211525 -0.5334115 0.2711573 0.3663494
000090 03 0f 1d 3d 2c 43 18 3f a2 70 69 bf f9 54 70 be
       0.038344394 0.59477496 -0.9118749 -0.23469914
0000a0 bf 81 3e 3e 72 28 f5 3e f4 ca a4 3e b3 64 59 bf
       0.18604182 0.4788242 0.3218609 -0.8491928
0000b0 67 ad de 3e 53 ca cd 3b 3f cf 58 be e3 10 9f 3e
       0.4349167 0.0062802224 -0.21172808 0.3106757
0000c0 05 fa 81 be 0b ca 34 be a0 7c ab 3e 8e 7b b8 3d
       -0.25386062 -0.17655198 0.3349352 0.09007941
0000d0 84 3e 7b bf a4 68 55 3d df f8 e2 3c 50 f4 ec 3e
       -0.98142266 0.052101746 0.027706562 0.46280146
0000e0 6f ea 97 be ab 5a c9 bd 7e cb 66 bf ff d6 21 bd
       -0.29671046 -0.09831747 -0.90154254 -0.039511677
0000f0 70 7e 87 be 00 a3 c8 3c 92 bd a3 3e ef 93 ac be
       -0.26463652 0.024491787 0.31980568 -0.33706614
000100 01 83 05 bf 7c 80 a2 3c d5 36 ab 3e 73 3c 63 bd
       -0.5215302 0.019836657 0.3344027 -0.05547757
000110 26 48 a3 be eb f6 79 be 00 17 a8 be 7b 41 dd 3e
       -0.31890982 -0.24410598 -0.32830048 0.4321402
000120 97 e1 3e 3f 8e 00 36 bf e9 fc 9b 3e b7 d9 93 3e
       0.7456297 -0.71094596 0.30466393 0.2887704
000130 6b e4 a4 be f5 a8 9e be 08 ff 0f 3e 7f 7c b5 3e
       -0.3220552 -0.3098828 0.1406213 0.35446545
000140 8a 8d a3 3e 8a c8 d8 be 99 15 ee bd 7d 13 1a 3f
       0.31943923 -0.423405 -0.11625213 0.60185987
000150 f8 1c a5 be 5b 61 4b 3e ff a8 9f 3e 34 fe 6c bf
       -0.32248664 0.19861357 0.3118362 -0.92575383
000160 1f 48 6a bd de 27 31 3e 39 9e 7a bc e1 1e 8e bd
       -0.057197686 0.17300364 -0.015296512 -0.069394834
000170 d8 84 13 3f d9 d0 b0 bc b6 a0 46 bf 8b ab b0 3d
       0.5762458 -0.021583961 -0.77588975 0.08626469
000180 35 38 b4 3e aa 17 93 3e f8 f5 24 3f 4a 11 5c bf
       0.35199133 0.28728992 0.6443782 -0.8596388
