code/models/best_model_002.pth (torch, 483637 bytes, 8 tensors)

conv1.weight f4 [1, 1, 5, 3]
0	0x3f7c87de	0.98644817
1	0x3f5421e4	0.82864213
2	0x3f398c0f	0.7247934
3	0xbe28cb32	-0.16483763
4	0xbe2d9d19	-0.16954459
5	0xbd61ea75	-0.055155236
6	0x3d646b77	0.05576655
7	0x3e080a6a	0.13285223
8	0xbe1d221d	-0.15345044
9	0xbe1313d8	-0.14363039
10	0x3e9d942d	0.30777112
11	0xbf14c3be	-0.5811118
12	0xbf63d95c	-0.8900354
13	0xbe5f0856	-0.21780524
14	0xbf343d20	-0.7040577

conv2.weight f4 [1, 1, 3, 3]
0	0x3dcef8d7	0.10106056
1	0x3f137f50	0.5761614
2	0x3ef770b3	0.4832817
3	0xbd417513	-0.04723079
4	0xbc5f0ee7	-0.013614393
5	0xbe88903c	-0.26672542
6	0x3f47d783	0.7806322
7	0xbf234f02	-0.6379243
8	0xbf0a1396	-0.53936136

linear1.weight f4 [128, 900]
0	0xbd62596a	-0.055261053
1	0xbc30aab6	-0.010782888
2	0xbca23ccb	-0.019804379
3	0xbcf35284	-0.029702432
4	0xbcadc4c6	-0.021211993
5	0x3d0f829a	0.03503666
6	0x3c4f1020	0.012638122
7	0x3973fd21	0.00023268584
8	0xbd02c397	-0.03192481
9	0x3c45baee	0.012068493
10	0xbb965998	-0.004588317
11	0xbc288d34	-0.010287572
12	0x3cb96ade	0.022633966
13	0xbc633181	-0.013866783
14	0x3c7c71e4	0.015408013
15	0xbc98fa98	-0.01867418
16	0x3cb50a6e	0.0220997
17	0x3b5ee4d9	0.0034010916
18	0x3ae6fc35	0.0017622771
19	0xbc0c03a3	-0.008545789
20	0xbba2abb9	-0.0049643186
21	0xbcb4f9f8	-0.02209185
22	0x3c1b228b	0.009468685
23	0x3cbaecab	0.02281793
24	0x3c6f72be	0.014614759
25	0x3c07ef63	0.00829682
26	0x3c8aad8e	0.01692846
27	0xbc2519bd	-0.010076937
28	0x3bfd92ab	0.0077384314
29	0x3c079839	0.008276039
30	0x3b313762	0.0027041067
31	0x3d3c9c14	0.046047285
32	0x3cea54a8	0.02860482
33	0xbcc69170	-0.024239272
34	0xbb88b13f	-0.00417152
35	0xbce77c26	-0.02825744
36	0xbd00d2f7	-0.03145119
37	0x3c1a31c2	0.009411277
38	0xbc5ccf44	-0.01347715
39	0x3d2ac12e	0.041688137
40	0xbd206689	-0.039160285
41	0xbc4ddc22	-0.012564691
42	0xbc20f50d	-0.00982405
43	0xbcf8d715	-0.030375997
44	0xbc980cdb	-0.018560817
45	0x3d27dd58	0.040982574
46	0xbb9ab579	-0.0047213403
47	0x3d222c41	0.039592985
48	0x38db1ea8	0.00010448444
49	0x3cb6a248	0.022294179
50	0x3b684e80	0.003544718
51	0x3bc38c17	0.0059676277
52	0x3c2483ea	0.010041216
53	0xbba7bb2b	-0.0051187477
54	0x3d228cef	0.039685186
55	0xbc7bf649	-0.015378543
56	0x3caf77a3	0.021419352
57	0xbcffd686	-0.031230222
58	0xbb89a946	-0.004201087
59	0x3cb51aa6	0.022107434
60	0xbccc7d67	-0.02496214
61	0xbc643aa2	-0.013929995
62	0xbca28ba9	-0.019841986
63	0x3c6a8bf1	0.014315591
64	0x3c9d1fdf	0.019180236
65	0x3ca9e6f8	0.020740017
66	0xbc8be0b5	-0.017074922
67	0xbd020cac	-0.031750366
68	0xbc919e48	-0.01777567
69	0x3c3aefaf	0.011409684
70	0xbc822a23	-0.015889233
71	0xba61c71b	-0.0008612738
72	0x3d04c1f8	0.032411546
73	0x3c072782	0.0082491655
74	0xbbb57114	-0.0055371616
75	0x3c4787f8	0.012178414
76	0xbcbe4834	-0.023227789
77	0x3ca8ed14	0.02062086
78	0xbc4ecbbf	-0.012621819
79	0x3d119146	0.035538934
80	0x3c363c60	0.011122793
81	0xbbff6852	-0.0077944184
82	0xbd3192e9	-0.043352995
83	0x3ceec21e	0.029145297
84	0x3cdeaf0a	0.027183075
85	0xbca9beff	-0.020720957
86	0xbbfdedd7	-0.0077493
87	0x3cf65789	0.030071037
88	0x3c780dba	0.015139991
89	0xbcb0db00	-0.021588802
90	0xbbed9c71	-0.0072513153
91	0xbc8b9e9e	-0.017043408
92	0x3ccf5abb	0.025311818
93	0xbb8f2761	-0.004368708
94	0x3cf70e37	0.030158145
95	0xbb38ea2e	-0.0028215754
96	0xbc72cd38	-0.014819436
97	0xbc0a3b2f	-0.008436962
98	0xbc811b95	-0.015760222
99	0x3c0ba92e	0.008524222
100	0x3cd660db	0.026169231
101	0xbd0ebf1f	-0.034850236
102	0x3ce78fcd	0.028266812
103	0x3c72673b	0.01479512
104	0xbc106f80	-0.008815646
105	0xbc1a3570	-0.009412155
106	0x3c187990	0.0093063265
107	0x3a59b8ea	0.00083054474
108	0x3cb69ac4	0.022290595
109	0x3c9fa055	0.019485632
110	0x3c9807a8	0.018558338
111	0xbb9261fd	-0.0044672475
112	0xbc90c19d	-0.017670447
113	0x3a4cd955	0.00078143674
114	0x3c9b133b	0.018930068
115	0x3bacb909	0.0052710813
116	0x3b970457	0.0046086716
117	0x3bc81bd5	0.0061068335
118	0x3c963d54	0.01833979
119	0xbcabe333	-0.02098236
120	0x3d004be9	0.031322394
121	0xbcb54d9d	-0.022131735
122	0xba644144	-0.0008707235
123	0xbb8dcbd1	-0.0043272753
124	0xbb195369	-0.0023395664
125	0x3cd1b50e	0.025599029
126	0x3c6e26f0	0.014535651
127	0x3d06eee4	0.032942668
128	0x3cc005df	0.0234403
129	0xbd01b62a	-0.031667866
130	0x3d505921	0.05086625
131	0xbcf3bda5	-0.029753515
132	0x3ba47ef3	0.0050200163
133	0xbc1cbddf	-0.009566753
134	0xbc91fb51	-0.017820032
135	0x3c8f7999	0.017514037
136	0x3cbea3e3	0.023271507
137	0xbb9d98a7	-0.0048094573
138	0x3d2939dc	0.041314945
139	0xbd192ae2	-0.03739441
140	0xbc9215c9	-0.017832654
141	0xbc4d4955	-0.012529691
142	0x3cc7e7a6	0.02440245
143	0x3d0c0bc6	0.034190916
144	0x3d40f09c	0.047104463
145	0xbcb77f2b	-0.022399506
146	0x3bba2f15	0.005681882
147	0xbca11b1a	-0.019666243
148	0xbc845f85	-0.016158829
149	0x3ca0ddd8	0.019637033
150	0x3d036285	0.032076377
151	0xbd00f6f3	-0.03148551
152	0x3c9419b6	0.018078666
153	0xbbb5b06d	-0.005544713
154	0xbacac9e6	-0.0015471547
155	0x3c8f982d	0.017528618
156	0xbac4c204	-0.0015011434
157	0xbc91339c	-0.017724805
158	0x3be3c3bb	0.006950823
159	0xbc110487	-0.008851177
160	0xbb84518b	-0.004038041
161	0xbc8b1bef	-0.016981093
162	0xbd098083	-0.033569824
163	0x3c8e66dc	0.017383032
164	0x3c7c81da	0.015411818
165	0xbcbab811	-0.022792848
166	0xb9f15a77	-0.00046034504
167	0xbcc41048	-0.023933545
168	0x3d392830	0.04520434
169	0x3a771a8a	0.0009426257
170	0xbc0df024	-0.008663211
171	0x3d256385	0.040378112
172	0xbcae64be	-0.021288272
173	0x3b463e6c	0.0030249609
174	0x3c9d7d4b	0.019224783
175	0xbca0bb3f	-0.019620536
176	0x3a576f3c	0.00082181743
177	0x3ccdaa64	0.025105663
178	0x3bc127e7	0.0058946493
179	0xbc1c6b07	-0.009547002
180	0x3c9716d6	0.018443506
181	0xbd0949cf	-0.033517655
182	0xbcfaf4bd	-0.030634278
183	0xbbd924ca	-0.0066267
184	0xbc0df172	-0.008663522
185	0x39cb784a	0.000388088
186	0xbbad5d08	-0.005290631
187	0xbc2982db	-0.01034614
188	0xb982b9c4	-0.00024933938
189	0xbce6b5d4	-0.028162874
190	0x3b253154	0.0025206404
191	0xbc3fba00	-0.011702061
192	0xbc873ce8	-0.016508535
193	0xbc5bd93f	-0.013418495
194	0x3c377168	0.011196472
195	0x3c9a9f2d	0.018874729
196	0xbc648d0e	-0.013949646
197	0xbd03811d	-0.032105554
198	0x3c47e39c	0.012200262
199	0xbc3c7cd6	-0.011504373
200	0xbcaa6f5d	-0.020805055
201	0x3cab7c31	0.020933243
202	0xbc6a76cf	-0.014310553
203	0xbc403297	-0.011730812
204	0xbcee7aca	-0.029111285
205	0xbc37ab47	-0.011210269
206	0xbc8ce87a	-0.017200697
207	0xbc771794	-0.015081305
208	0x3cafcf74	0.021461226
209	0xbc9c62b3	-0.019090032
210	0x3c4c52f2	0.012470948
211	0xbd0edfe5	-0.03488149
212	0xbcd55137	-0.026039703
213	0x3d0124ef	0.031529363
214	0xbc808d2f	-0.015692322
215	0x3c91c4f2	0.017794106
216	0x3ba9f051	0.0051861187
217	0x3ca9336a	0.020654399
218	0xbca7f2e6	-0.020501565
219	0xbcf8b427	-0.03035934
220	0x3b2dacfc	0.0026500812
221	0x3cd4d063	0.025978273
222	0xba8320b9	-0.0010004259
223	0x3bc66bd9	0.006055337
224	0x3ce0231b	0.02736049
225	0xbcb4b67a	-0.022059668
226	0x3cc746f7	0.02432583
227	0x3d1460b4	0.036225036
228	0x3d06486e	0.032783918
229	0xbd0ff528	-0.03514591
230	0xbd0428f7	-0.03226563
231	0x3a79a0ed	0.0009522576
232	0xbc97d83c	-0.018535726
233	0xbc2d5f34	-0.01058178
234	0xbd009ba7	-0.03139844
235	0xbcaf956a	-0.02143355
236	0x3ce8eb17	0.028432412
237	0xbd3db333	-0.046313476
238	0xbcbc39bc	-0.022976749
239	0x3ab00a4c	0.0013430803
240	0x3cfbd481	0.030740978
241	0xbc3eecb0	-0.01165311
242	0x3a343cd9	0.0006875522
243	0xbcdf74d0	-0.02727738
244	0x3cd9cf53	0.026588118
245	0x3adec6f7	0.0016996552
246	0x39f49933	0.0004665345
247	0x3cc97889	0.024593608
248	0xbcf19e09	-0.029494302
249	0xba9e6227	-0.0012083695
250	0x3c26ec1e	0.010188131
251	0x3bc624df	0.006046876
252	0xbd1193e1	-0.03554142
253	0x3baa0bc8	0.0051893927
254	0xbb67bc9f	-0.003536023
255	0x3cea8ae1	0.028630676

linear1.bias f4 [128]
0	0xbd28134e	-0.041034035
1	0xbd2a01f6	-0.041505776
2	0xbd02bcee	-0.03191846
3	0x3c9ff886	0.019527685
4	0x3bbd59db	0.005778534
5	0xbc92a41f	-0.017900525
6	0x3c9002a8	0.017579392
7	0x3d12161f	0.035665628
8	0xbd6bb186	-0.057542346
9	0x3cf05300	0.029336452
10	0x3bb9d02d	0.0056705684
11	0x3d5570a8	0.05210939
12	0xbd9a408f	-0.07531845
13	0xbc8ab0c3	-0.01692999
14	0xbd2c3feb	-0.042053144
15	0x3d570bd4	0.052501515
16	0x3d1579ea	0.03649322
17	0x3cf28d0e	0.029608276
18	0xbc2a19d9	-0.010382139
19	0x3ce4821c	0.027894072
20	0xbba52949	-0.005040322
21	0xbd5b6002	-0.053558357
22	0xbd892da2	-0.06698157
23	0x3c8c306c	0.017112933
24	0xbd663175	-0.05619951
25	0x3d2f8697	0.042852964
26	0x3cf0d50b	0.029398462
27	0x3dc4d9b9	0.0961184
28	0x39b0934a	0.00033679075
29	0xbd04ae37	-0.032392707
30	0xbd324345	-0.043521184
31	0xbcb63303	-0.022241121
32	0xbd90effd	-0.07077024
33	0xbda27bd0	-0.079337716
34	0xbc207ea2	-0.009795817
35	0xbd1f62c5	-0.038912553
36	0x3d29987a	0.04140518
37	0xbb70f475	-0.0036766801
38	0xbdb0cec5	-0.08633188
39	0xbce30b86	-0.027715456
40	0x3ba40c7f	0.0050063725
41	0x3d6bdc22	0.057582982
42	0xbcc12bb1	-0.023580404
43	0xbd945b18	-0.07243937
44	0x3d93245b	0.07184669
45	0x3d6e2536	0.058140956
46	0xbd16b238	-0.036791056
47	0xbca912ce	-0.02063885
48	0xbd3a9641	-0.04555345
49	0xbc569d87	-0.013099081
50	0x3d05ddfb	0.0326824
51	0x3d519ec0	0.051176786
52	0x3ce502be	0.02795541
53	0x3d1d1c63	0.03835715
54	0xbcc0143d	-0.02344715
55	0xbd15cc10	-0.036571562
56	0x3c9481e8	0.01812835
57	0xbd871deb	-0.06597503
58	0xbd095af9	-0.033534024
59	0x3ca218aa	0.019787151
60	0xbb19475b	-0.0023388478
61	0xbc164df2	-0.009173857
62	0x3da79ac2	0.081838146
63	0xbda2694d	-0.07930241
64	0x3c673f9d	0.014114288
65	0x3d5bafe7	0.05363455
66	0x3cfea86a	0.031086165
67	0x3ad8b6e9	0.0016534004
68	0xbc243a5e	-0.010023681
69	0x3d9523e1	0.07282234
70	0x3d97435b	0.07385894
71	0xbbcac1ff	-0.006187677
72	0x3d91a30e	0.07111178
73	0xbc5a5d71	-0.013327942
74	0x3c303ce1	0.010756702
75	0x3cfb807d	0.030700916
76	0xbd06215a	-0.03274665
77	0xbcd3504b	-0.025795123
78	0x3c933a05	0.017972002
79	0x3ca9701f	0.020683346
80	0xbd7861ec	-0.06064026
81	0x3d4c7641	0.049917463
82	0xbd488dcb	-0.04896335
83	0xbd39f64e	-0.04540091
84	0x3ccd6838	0.02507411
85	0x3d549a11	0.05190474
86	0xbd3c7926	-0.046013974
87	0x3cf09cf7	0.029371722
88	0x3d960f19	0.073270984
89	0xbcdad60a	-0.02671339
90	0xbdcff699	-0.10154457
91	0x3d0975f1	0.033559743
92	0x3ca22647	0.019793643
93	0xbcdc5a61	-0.026898565
94	0xbcdcfd9a	-0.026976395
95	0x3bbfaa80	0.0058491826
96	0x3c6a89ca	0.014315078
97	0xbd4af8c5	-0.04955365
98	0xbc36cb0e	-0.01115681
99	0x3c809fe1	0.015701236
100	0x3d1cfc9d	0.03832685
101	0xbcbb16ce	-0.022838023
102	0xbd817ef6	-0.06323044
103	0xbc1fb698	-0.009748124
104	0xbd28cb5f	-0.041209575
105	0xbbed1d8b	-0.007236188
106	0xbe01ef75	-0.12689002
107	0xbdbf3283	-0.09335806
108	0xbd337e5c	-0.043821678
109	0xbb97939d	-0.004625751
110	0xbd3cab6e	-0.046061926
111	0x3d872cf2	0.066003695
112	0xbcbedecc	-0.023299597
113	0xbd0145db	-0.03156076
114	0x3d84ac90	0.06478226
115	0x3c5c1948	0.013433762
116	0x3cc8f32c	0.024530016
117	0xbdaac382	-0.083380714
118	0xbc081cb3	-0.008307624
119	0x3da4c646	0.0804563
120	0xbd2dc698	-0.042425722
121	0xbcd330ca	-0.0257801
122	0xbd426d8d	-0.047467757
123	0x3cc8dfc9	0.024520772
124	0xbd5a66cd	-0.053320695
125	0x3c63d647	0.013906068
126	0xbd112929	-0.035439644
127	0x3c74fd1c	0.014952924

linear2.weight f4 [32, 128]
0	0xbda8a68d	-0.08234892
1	0x3c2ead0a	0.010661373
2	0x3d8383a0	0.0642159
3	0xbc6d3f5c	-0.014480438
4	0xbd939165	-0.07205466
5	0x3cb7cfd6	0.022437971
6	0x3da3a466	0.07990341
7	0xbdd847ef	-0.10560595
8	0x3d89c365	0.06726722
9	0xbb70120b	-0.0036631848
10	0xbe1780bd	-0.14795204
11	0x3c7dc5e4	0.015489075
12	0x3d1fb1d3	0.038987946
13	0xbd1f6473	-0.038914155
14	0x3e04fe7e	0.12987706
15	0xbd8ba30a	-0.068182066
16	0x3cd1454e	0.025545742
17	0xbd9f908e	-0.077912435
18	0xbda72fde	-0.08163427
19	0x3daabfe1	0.08337379
20	0xbd8e2b43	-0.06941845
21	0x3da1d34c	0.0790163
22	0xbc106d28	-0.008815087
23	0x3dbede82	0.09319784
24	0xbd3c6a4d	-0.045999814
25	0xbd54f7cc	-0.05199413
26	0x3d97983d	0.07402084
27	0x3d1a284e	0.037636094
28	0x3d3ee71e	0.04660713
29	0xbbeb1108	-0.007173661
30	0x3d053a38	0.032526225
31	0xbc973785	-0.018459091
32	0x3be3bf48	0.0069502927
33	0x3d3e6891	0.04648644
34	0x3cada365	0.021196077
35	0x3d9651dd	0.07339833
36	0x3dbce8ae	0.09224068
37	0x3bb02831	0.005375885
38	0x3d8c61a5	0.06854562
39	0x3c83a33e	0.01606905
40	0x3d5037f6	0.05083462
41	0xbdbb3d09	-0.09142501
42	0xbcf84feb	-0.030311545
43	0x3d2332dd	0.03984343
44	0x3d7fb9cd	0.062433053
45	0x3ca652e7	0.020303203
46	0x3d76880d	0.060188342
47	0xbd9f7339	-0.07785649
48	0xbd805d05	-0.06267742
49	0xbd287a0e	-0.041132025
50	0xbc06f5a5	-0.008237277
51	0xbd1d0a4e	-0.038339905
52	0x3d06c140	0.03289914
53	0x3db4a8ce	0.088212594
54	0xbd4c4086	-0.04986622
55	0xbd1fb722	-0.03899301
56	0xba8cc2e6	-0.0010739237
57	0x3db512b5	0.08841459
58	0xbc94fe54	-0.01818768
59	0x3d5b0af0	0.053477228
60	0x3d33bddf	0.043882247
61	0xbd16b048	-0.03678921
62	0x3d24556b	0.040120523
63	0xbc725801	-0.01479149
64	0x3c9b9234	0.018990614
65	0xbc00f0b4	-0.007869888
66	0xbcb205b3	-0.021731233
67	0x3da4698a	0.080279425
68	0xbd19f3ea	-0.03758613
69	0x3d9b2d92	0.07577051
70	0x3cdcae27	0.026938511
71	0xbdd49497	-0.10379904
72	0x3c2d9ae4	0.010596011
73	0x3d882de7	0.0664938
74	0x3d15de8a	0.036589183
75	0x3c520fbc	0.012821134
76	0x3d8623e0	0.06549811
77	0x3d54b0cd	0.051926423
78	0xbddd1726	-0.10795431
79	0xbcab3bc3	-0.02090252
80	0x3daeab00	0.085287094
81	0xbe028704	-0.12746817
82	0xbd8f3537	-0.06992572
83	0xbd827a93	-0.063710354
84	0xbb8c8d04	-0.0042892713
85	0xbda4eefe	-0.08053397
86	0xbb6c82a3	-0.0036088608
87	0xbc818035	-0.015808204
88	0xbdb93c5c	-0.09044716
89	0xbd331f04	-0.04373075
90	0xbd79dd5f	-0.06100213
91	0x3c8b5798	0.017009541
92	0xbd59fd1d	-0.053219903
93	0x3cba45df	0.022738395
94	0x3d84c418	0.064827144
95	0x3d5f65fb	0.054540616
96	0x3ba32135	0.004978324
97	0xbc14a7ab	-0.009073178
98	0xbdee9273	-0.11649027
99	0xbdf54ed5	-0.11977927
100	0x3de55e04	0.11199573
101	0x3d8ed7ad	0.06974731
102	0xbbe4c87a	-0.0069819065
103	0xbcd14617	-0.025546117
104	0x3d2a3319	0.041552637
105	0x3da12d3b	0.07869955
106	0x3d3cba86	0.04607632
107	0x3ce86883	0.028370148
108	0x3dc172ad	0.09445701
109	0xbd8d76bf	-0.06907415
110	0x3d913840	0.07090807
111	0x3dd0a0c0	0.10186911
112	0x3db61d57	0.08892315
113	0xbdbd49e6	-0.09242611
114	0xbd81fde7	-0.06347256
115	0xbd0a94e3	-0.033833396
116	0x3d6520ca	0.055939473
117	0xbc86b139	-0.016441928
118	0x3d28dccf	0.041226204
119	0xbd038ae3	-0.032114875
120	0xbcb7d359	-0.022439646
121	0x3d70b38f	0.05876499
122	0xbc34c8b4	-0.0110341795
123	0xbc5673a6	-0.013089096
124	0x3c001508	0.007817514
125	0x3d1817e2	0.03713215
126	0xbdf34ec2	-0.11880256
127	0xbcf34f94	-0.029701032
128	0x3d942c02	0.07234956
129	0xbda2cf6c	-0.07949719
130	0x3c68ecec	0.014216643
131	0x3b1ff507	0.0024407522
132	0xbd4fb14f	-0.050706204
133	0xbcf155c1	-0.029459836
134	0x3cf5fd05	0.030027876
135	0xbd808459	-0.06275243
136	0xbc3ddc16	-0.011588117
137	0xbc0f03a3	-0.008728894
138	0xbb4739ae	-0.003039937
139	0x3d6fdf7b	0.058562737
140	0xbd8b840f	-0.068122976
141	0xbc343b4f	-0.011000468
142	0x3cb6ce52	0.022315178
143	0x3d58d546	0.05293777
144	0xbbb51388	-0.00552601
145	0xbb51046c	-0.0031893505
146	0x3c9dee82	0.019278768
147	0x3d05c635	0.032659728
148	0xbc8f43dc	-0.017488413
149	0xbd751dad	-0.059842754
150	0x3d54a6f5	0.051917035
151	0xbb90d334	-0.0044197086
152	0xbd49c21e	-0.04925739
153	0xbda78935	-0.08180467
154	0x3d788d78	0.06068179
155	0xbb6df353	-0.0036308363
156	0xbd9b2377	-0.07575124
157	0x3dd4c4f4	0.10389128
158	0xbdab54b6	-0.08365767
159	0x3c7003e8	0.014649369
160	0xbd01124f	-0.0315116
161	0xbd60cefe	-0.054884903
162	0x3d5e3b4a	0.05425576
163	0x3d721824	0.059105054
164	0x3c7c5286	0.0154005345
165	0x3d6286c4	0.055304304
166	0xbaeaaf67	-0.0017905057
167	0xbbe1f668	-0.006895829
168	0xbc47a4f9	-0.012185329
169	0x3c60bfcc	0.013717603
170	0xbda6eab0	-0.08150232
171	0xbcccaeed	-0.024985755
172	0x3d808b26	0.062765405
173	0xbd6115ce	-0.054952435
174	0x3a957418	0.0011402396
175	0x3d9cdd5c	0.076594085
176	0xbdb66465	-0.089058675
177	0xbd485314	-0.048907354
178	0x3d9d00f0	0.076661944
179	0x3da21d90	0.07915795
180	0x3d7bfbc0	0.061519384
181	0x3d1f40f4	0.038880304
182	0xbd8d7fef	-0.06909167
183	0xbd801720	-0.06254411
184	0x3c0504b8	0.008118801
185	0xbd2897ff	-0.04116058
186	0x3d34e019	0.04415903
187	0xbd62ee02	-0.055402763
188	0x3da36217	0.079776935
189	0xbcdc1d61	-0.026869478
190	0x3d1eedbb	0.038800936
191	0x3d027b9d	0.031856168
192	0x3db1890c	0.08668718
193	0x3c9449b6	0.018101554
194	0x3b29394e	0.002582151
195	0x3d017396	0.031604372
196	0xbd660be2	-0.056163676
197	0x3d2729a7	0.040811207
198	0x3d0a7421	0.033802155
199	0x3cf451d6	0.029824179
200	0x3d84f494	0.06491962
201	0x3d0337e8	0.03203574
202	0x3d5f7a6e	0.054560117
203	0x3dbf136a	0.09329875
204	0xbda92e71	-0.08260811
205	0xbc60554f	-0.013692214
206	0xbc95c806	-0.018283855
207	0xbcb6f69b	-0.022334388
208	0xbd70fb44	-0.058833376
209	0xbdc31947	-0.09526306
210	0x3d8a2080	0.0674448
211	0xbdddbeb6	-0.10827391
212	0x3da0c9e3	0.07851007
213	0x3d3a6202	0.045503624
214	0xbd8d24b9	-0.0689177
215	0x3cbd8da5	0.02313883
216	0xbcc3698b	-0.023854038
217	0xbd2bcf61	-0.04194582
218	0xbd829351	-0.063757546
219	0xbd5a328a	-0.053270854
220	0xbd2ab6a8	-0.0416781
221	0x3dac90e6	0.08426075
222	0xbd8c2cd2	-0.06844486
223	0x3cfe2a28	0.031025961
224	0xbb4ddc2d	-0.0031411753
225	0xbd54b9a6	-0.05193486
226	0xbda538b3	-0.08067455
227	0x3c9c486c	0.019077502
228	0x3cf05999	0.029339598
229	0x3bf71c0a	0.0075411843
230	0xbc81609c	-0.015793137
231	0x3d4a66a1	0.04941428
232	0xbd3b3ee1	-0.045714263
233	0x3d123088	0.035690814
234	0xbd73b2ff	-0.059496876
235	0xbcdfd92a	-0.027325232
236	0xbc853fad	-0.016265715
237	0xbcfbaac6	-0.03072108
238	0x3d3c7f78	0.04602
239	0x3d94c3c7	0.07263904
240	0x3dbb13cb	0.091346346
241	0xbd5bd375	-0.053668458
242	0xbcb61894	-0.022228517
243	0x3cd6085c	0.026127033
244	0x3d8b1f6e	0.06793104
245	0x3d4e443d	0.050358046
246	0x3d5f4ac4	0.05451466
247	0x3a5e78bb	0.0008486618
248	0x3da181b5	0.07886068
249	0xbb5e59e8	-0.00339281
250	0x3c38fda5	0.011290942
251	0xbcff98a4	-0.031200714
252	0x3d8c7bf7	0.06859582
253	0x3d804ac2	0.06264259
254	0xbda06b71	-0.07832993
255	0xbd3822df	-0.04495513

linear2.bias f4 [32]
0	0xbe5a5c96	-0.21324381
1	0x3eaa9142	0.33313948
2	0x3e146f29	0.14495529
3	0x3e462671	0.19350602
4	0x3e0db2f9	0.13837804
5	0xbdee2df8	-0.116298616
6	0xbe36d90c	-0.17856234
7	0x3d9009cb	0.07033118
8	0xb8bd34da	-9.022067e-05
9	0xbeceadf5	-0.40367094
10	0x3dee0625	0.11622266
11	0xbdb21769	-0.086958714
12	0xbdda4693	-0.10657992
13	0xbe62843c	-0.22120756
14	0xbe7000da	-0.23437825
15	0x3db58356	0.08862941
16	0xbe0f2cea	-0.13981977
17	0x3d527856	0.051384293
18	0x3d2de5bc	0.04245542
19	0x3d7d7b64	0.061885253
20	0xbe275967	-0.16342698
21	0xbde65b58	-0.11247891
22	0xbe35b7db	-0.17745917
23	0x3d1b9467	0.037983324
24	0x3a00ef77	0.00049184955
25	0xbd05a6cc	-0.032629773
26	0x3cd1c93e	0.025608655
27	0xbe5c134f	-0.2149174
28	0x3d576a50	0.052591622
29	0xbdb14cf0	-0.08657253
30	0xbddfd9ab	-0.10930189
31	0x3de7795a	0.11302443

output.weight f4 [10, 32]
0	0xbe3f3d43	-0.18675713
1	0x3e36e0c8	0.17859185
2	0x3dc17590	0.094462514
3	0x3e080cde	0.13286158
4	0xbd1b60ba	-0.037934043
5	0x3a946ede	0.0011324545
6	0xbcfd0ebd	-0.030890817
7	0x3dc3f2e1	0.0956781
8	0x3e06ccba	0.13164034
9	0xbe6169fe	-0.22013089
10	0x3df7a05c	0.12091133
11	0xbd32bab0	-0.04363507
12	0x3da3ee3b	0.08004423
13	0xbe1cba2c	-0.15305394
14	0xbe5a735e	-0.21333072
15	0x3e648d40	0.22319508
16	0xbd9baf3e	-0.07601784
17	0x3dafe3ed	0.08588395
18	0x3e4f93bf	0.20271204
19	0xbdc97180	-0.098361015
20	0x3d016901	0.03159428
21	0xbe1c6431	-0.15272595
22	0xbddc380e	-0.10752879
23	0x3df4038c	0.11914739
24	0x3da96fe1	0.08273292
25	0x3e08bb27	0.13352643
26	0x3e0678eb	0.13132064
27	0x3ca43fa4	0.020049877
28	0x3d54da71	0.051966134
29	0x3c5c2cbd	0.013438401
30	0xbdee2622	-0.11628367
31	0x3dfb47df	0.12269568
32	0x3e39d55a	0.18147793
33	0x3e33af11	0.17547251
34	0xbde4398e	-0.1114379
35	0x3dd1d325	0.10245351
36	0x3e18ee48	0.14934647
37	0x3d424865	0.047432322
38	0xbe1e94ab	-0.154864
39	0x3d87fc48	0.06639916
40	0x3c500a0c	0.012697708
41	0xbd6df930	-0.05809897
42	0x3dc3ef0c	0.09567079
43	0x3df233a7	0.11826258
44	0x3da72388	0.08161074
45	0x3e79dd40	0.24400806
46	0xbdd37973	-0.10325899
47	0xbdc83ef3	-0.097776316
48	0xbe169095	-0.14703591
49	0xbd85a5de	-0.06525777
50	0xbe041cfc	-0.12901682
51	0x3d9ac133	0.07556381
52	0xbe3d5a68	-0.18491518
53	0xbe1b9574	-0.1519373
54	0xbdb861a4	-0.090029985
55	0xbba751da	-0.005106193
56	0x3e14d165	0.14533003
57	0x3e22382a	0.15841737
58	0x3e005899	0.12533797
59	0xbb9f3c29	-0.0048594666
60	0xbdc5e9c9	-0.096637316
61	0x3d90a5ae	0.07062851
62	0x3da70253	0.0815474
63	0x3c43052a	0.011903087
64	0x3c9421da	0.018082548
65	0xbe25edcf	-0.16203998
66	0xbe6ea5d9	-0.23305453
67	0xbe8f30f7	-0.27967045
68	0xbe3b77d3	-0.18307428
69	0xbe0867ca	-0.13320842
70	0x3e27834a	0.16358677
71	0x3da0d9e8	0.07854062
72	0x3e20d222	0.1570516
73	0x3e142007	0.14465342
74	0x3e0dc2dc	0.13843864
75	0x3e04b0e8	0.1295811
76	0xbe3d8400	-0.18507385
77	0xbd97b041	-0.07406665
78	0xbe3f4e9f	-0.18682335
79	0xbdab707b	-0.08371063
80	0x3e37baf7	0.17942415
81	0xbcaaac80	-0.020834208
82	0x3d921772	0.07133378
83	0xbe0df165	-0.13861616
84	0x3dfefc20	0.12450433
85	0x3d994609	0.07484061
86	0x3d4ee91c	0.05051528
87	0x3e227b2b	0.15867297
88	0x3c34cd13	0.011035222
89	0x3e695174	0.22784978
90	0xbd4b7963	-0.04967631
91	0xbdce8b91	-0.10085214
92	0xbe6b3399	-0.22968902
93	0xbd693ff8	-0.05694577
94	0x3dcab9c9	0.09898717
95	0x3e32b559	0.17451991
96	0xbe7025a1	-0.23451854
97	0xbe3cc1a9	-0.1843325
98	0xbe1bfd22	-0.15233281
99	0x3cf5f3cd	0.03002348
100	0xbdfb583c	-0.12272689
101	0xbd261c71	-0.040554468
102	0x3e367c91	0.17820956
103	0xbd016962	-0.03159464
104	0xbe8b030b	-0.2715076
105	0xbe1b67cb	-0.15176313
106	0xbd9c293e	-0.07625054
107	0x3d7a9ad6	0.06118282
108	0xbea8864f	-0.3291497
109	0x3e349a1e	0.17636916
110	0x3e76c13a	0.24097148
111	0x38a643bf	7.9281155e-05
112	0xbe4f460b	-0.20241563
113	0xbe19c9ac	-0.15018338
114	0x3e04c0a1	0.12964107
115	0x3d296660	0.041357398
116	0x3ddbdcae	0.10735451
117	0xbe68d661	-0.22738029
118	0x3e3f98cf	0.18710636
119	0xbe0b8306	-0.136242
120	0x3da7ddb4	0.081965834
121	0xbe640943	-0.22269158
122	0x3e0436be	0.12911507
123	0x3e6ddfb3	0.23229866
124	0xbd46fc0c	-0.048580214
125	0x3d378698	0.044806093
126	0xbdc9d53b	-0.098551236
127	0xbe0361fd	-0.12830348
128	0xbe7446b5	-0.23855098
129	0x3e2befb2	0.16790655
130	0xbd8e5215	-0.0694925
131	0x3dc9ee10	0.0985986
132	0xbc9c5704	-0.019084461
133	0xbdaf0f10	-0.08547795
134	0xbde473d3	-0.11154904
135	0x3e2ab490	0.16670442
136	0xbdeb569f	-0.11491131
137	0xbe09d8a8	-0.13461554
138	0xbdfa5c32	-0.12224616
139	0x3d292a03	0.04129983
140	0x3d1a4633	0.037664603
141	0xbdd767f5	-0.10517875
142	0xbe2b3dab	-0.16722743
143	0xbe37a2a3	-0.17933135
144	0xbcc99ef2	-0.024611924
145	0x3d626a2d	0.05527704
146	0x3d687397	0.05675086
147	0xbd31b38d	-0.043384124
148	0xbdf142d7	-0.11780327
149	0x3dca3eb2	0.098752394
150	0xbe10c7ee	-0.14138767
151	0x3d8f3357	0.06992214
152	0x3c8622ad	0.016373957
153	0xbd913434	-0.07090035
154	0xbdd05b40	-0.101736546
155	0xbe2286bd	-0.15871711
156	0x3d3ade92	0.045622416
157	0xbe34371c	-0.17599148
158	0xbe08b9e2	-0.13352159
159	0x3c9248fc	0.017857067
160	0x3e448534	0.19191438
161	0xbce65b16	-0.028119605
162	0x3ca086df	0.019595562
163	0xbdd7c19e	-0.105349764
164	0xbe1ca60e	-0.1529772
165	0x3de1a901	0.11018563
166	0xbcffd4a6	-0.031229328
167	0x3e2d74be	0.16939065
168	0xbd37483f	-0.044746634
169	0x3e1032e4	0.14081913
170	0xbda4e3c3	-0.080512546
171	0xbd7c5fec	-0.061614916
172	0x3e19b139	0.15009011
173	0x3da42491	0.08014787
174	0x3cd0d768	0.025493339
175	0x3e07bad4	0.13254863
176	0xbddbb3ca	-0.107276514
177	0x3d890a2b	0.066913925
178	0x3dd7ee42	0.10543491
179	0x3db97358	0.09055203
180	0x3dd54273	0.10413065
181	0xbda386f4	-0.07984725
182	0xbdd27067	-0.10275345
183	0x3df1aaf2	0.11800183
184	0xbe235f30	-0.1595428
185	0xbdaf724c	-0.08566722
186	0xbdb4905d	-0.088165976
187	0x3e2d047f	0.16896246
188	0x3df0b772	0.117537394
189	0xbd7f6b79	-0.062358353
190	0x3c5b1d9a	0.013373757
191	0x3dd6ce9b	0.104886256
192	0x3b671b0d	0.0035263926
193	0x3de6a5b4	0.11262074
194	0xbda05baa	-0.078299835
195	0x3bb43e8e	0.005500621
196	0xbb48b0e3	-0.003062301
197	0xbd157ba4	-0.036494866
198	0xbd2af2f4	-0.041735604
199	0x3bada7a2	0.0052995244
200	0xbd8fa5a2	-0.07014014
201	0xbe38529a	-0.1800026
202	0x3dac9144	0.08426145
203	0xbd405350	-0.046954453
204	0x3d031a07	0.032007243
205	0xbdc9aa23	-0.09846904
206	0xbc117321	-0.0088775465
207	0x3e1269ac	0.14298123
208	0xbe2f02df	-0.17090939
209	0x3dcb4842	0.099258915
210	0x3dac3584	0.08408645
211	0x3e34d304	0.17658621
212	0x3dab97cb	0.083785616
213	0xbc9ccf15	-0.019141713
214	0xbe4d1abb	-0.20029728
215	0xbde2a024	-0.11065701
216	0x3d43e4b7	0.04782554
217	0x3e1e07b4	0.15432626
218	0xbe0b81b7	-0.13623701
219	0xbe54949d	-0.20759816
220	0x3b49ecfb	0.0030811417
221	0x3c12fd5e	0.00897154
222	0xbe0c0373	-0.13673191
223	0x3d9802c4	0.074224025
224	0xbdb93e16	-0.09045045
225	0x3e055721	0.13021518
226	0xbdacfcc6	-0.0844665
227	0x3e4abcf0	0.19798636
228	0xbe5c72d6	-0.21528181
229	0x3e141add	0.14463373
230	0x3e524195	0.2053283
231	0x3d4d3f61	0.05010927
232	0x3e8455a7	0.25846598
233	0xbdae50c8	-0.085115016
234	0xbd992c4d	-0.07479153
235	0x3e369fc5	0.17834385
236	0x3e42b38d	0.19013806
237	0xbe99ad1b	-0.30014881
238	0x3e0feba5	0.14054735
239	0xbe9630e4	-0.29334176
240	0x3d3197b0	0.04335755
241	0x3e1f0650	0.15529752
242	0xbe93078a	-0.2871669
243	0x3e20c323	0.15699439
244	0x3e83cb86	0.25741214
245	0x3cc1c815	0.023654977
246	0x3d59e84a	0.053200044
247	0xbe3b4518	-0.18288076
248	0xbdeaa725	-0.114576615
249	0x3e301592	0.17195728
250	0x3d6a554c	0.05721025
251	0x3e6ec39c	0.23316807
252	0xbe3c8207	-0.18408976
253	0x3e505ef3	0.2034872
254	0x3e7f195d	0.24912019
255	0xbe0bf715	-0.13668473

output.bias f4 [10]
0	0x3ee00201	0.4375153
1	0x3e351070	0.17682052
2	0xbe968072	-0.2939487
3	0xbda96d85	-0.08272842
4	0x3ea251d0	0.31703043
5	0xbec42575	-0.38309827
6	0x3eef3687	0.4672129
7	0xbd8479ce	-0.06468545
8	0xbf0ab804	-0.54187036
9	0x3c5c526d	0.013447386
