code/models/best_model_020.pth (torch, 488949 bytes, 8 tensors)

conv1.weight f4 [1, 1, 5, 3]
00000000: f2d2 18bd 02f4 63bc c510 93bd ff95 6f3e
00000010: c4a4 0d3e 7142 20be 0f1a 5f3e e4e8 233e
00000020: d853 6dbb e8d5 9e3d 071f 5a3c 2f8c f8bb
00000030: 1792 26be 64ff 32bd 9428 5abe
-0.037310548 -0.013913156 -0.07180933 0.23397063 0.13832384 -0.15650345 0.21787284 0.1600681
-0.0036213305 0.07755643 0.013313062 -0.0075850706 -0.16266666 -0.04370059 -0.21304542

conv2.weight f4 [1, 1, 3, 3]
00000000: 34f4 743d da7f 83bd f24a e5bc 37b8 f1bd
00000010: a018 8c3d 1d87 e6ba ce12 7bbd 39fd b13d
00000020: e90b 883d
0.059803203 -0.0642087 -0.027989838 -0.11802714 0.06840634 -0.0017587874 -0.06129723 0.086908765
0.06642897

linear1.weight f4 [128, 900]
00000000: eea9 683c 4507 f8bd 7aa1 1d3d 3cf5 08be
00000010: 6c2d 593d b770 d9be f09c 033c 7809 8d3e
00000020: 503d a7bd c5e0 18bd cd8e 4dbe a58f 21be
00000030: c33d 3dbe f6ee 51bd 6885 01be 0669 70bc
00000040: 0cf1 ec3d 2143 dabd 1de9 413e e45a 1c3d
00000050: 2b39 d5bd d804 13be 244e e5bd 485d 46be
00000060: 43d4 4b3e 1762 1bbd 3cad 343e 914d 5e3d
00000070: cafc 463c 3e25 113e 74a2 e9bd 6f4e 7dbd
00000080: 5dd7 0dbd a716 94bd 8dfb c13d 3014 943d
00000090: 32d2 70be 9d9f 2ebe 0e77 2b3e c74b 25bc
000000a0: a0b4 3bbd 9b50 95be b95c adbd a00a c8be
000000b0: 9d8e 2dbe b656 89be cac2 b5bd 0b5c bebd
000000c0: 8c67 8f3d 3ea2 f73d 9e50 e63d 6a9c fe3b
000000d0: b000 c2bc 77ed cdbd fed6 09bc c50c b93d
000000e0: 45d9 a4be 7a48 45be 860f ee3d c7fd 5c3d
000000f0: f061 cdbe 9361 23bd c669 893e 582d eb3c
00000100: 45e4 92be 5cbf 25bd 5ee0 bd3e 3abc 54bd
00000110: 4dfe 90bd 7458 773d 3ee2 d93c 988c 2d3e
00000120: 33b0 7fbd bc31 473e 1ff3 f63d e764 2bbe
00000130: e83d 313e 2f23 3a3d 1e65 ebbb c3e2 993e
00000140: 6971 0abc e239 bf3d 3079 e23d 56df ab3e
00000150: f27a febd faf2 18be fcc3 b1bd 9e2d 203d
00000160: 333d 313e 9400 173e 823d fc3e e219 5e3e
00000170: 41cc debd 91ed 36be 6a7d f83d 0d21 543e
00000180: 9cae 0a3e 9252 bcbd 8e55 0dbd c6b1 5a3d
00000190: 5104 8fbe c0a2 eebd a210 9a3b 7012 823d
000001a0: be8f 3a3e 3895 df3c 0ec7 503d 46f5 883e
000001b0: 7ea4 55bc 8ea6 c13d 0e59 93be 3529 533c
000001c0: 7c75 afbc 89ef bd3d 3f84 f63d 442f 203e
000001d0: 6342 05bd b7fb 6abd 789a 3cbd 113b bdbd
000001e0: f6cf 733d bf83 493e 13cf 143f e8e0 113e
000001f0: e2a3 0cbd 6dd2 d73c 18d9 c33d da3c 033e
00000200: 77f4 80bd ac43 70be de06 b8bd daff 193e
00000210: 64a3 7b3e a443 a3be aa83 94be adc4 0d3e
00000220: c014 eabe 7f14 24be c487 083c 0bf0 a6bd
00000230: c4f2 6f3d 84bd 143e 8df6 a43c 385e ffbe
00000240: 5566 303d 1648 563c b856 abbe 477a b73d
00000250: 2ad0 a23c dc66 b2be e245 8f3d 4634 6ebd
00000260: ea85 9dbe 02b3 1b3d 466b 6cbe ed59 5dbc
00000270: 5cf8 8d3e 9fcf 13be 1c00 2d3d ca64 703e
00000280: 9a98 7d3d 4c08 053d 1f31 543e c25f ae3e
00000290: 4f35 e73d 4f78 833c b7cf 3cbb 58aa 81be
000002a0: 0c61 e13c b977 953e d663 2b3e 3987 803d
000002b0: 2e8d f83d 16bc 833c 9992 12be 46c8 1abe
000002c0: 0224 7ebc 99b5 2e3e e01f d8bd 84bf 393c
000002d0: 3f5a 063c 3985 a0be f231 113e c618 8d3d
000002e0: 9baf 0cbe d012 f1bc d3b7 cebe 7351 fcbd
000002f0: dd60 7f3d b362 0f3d 2f1f 083e 90f0 4f3e
00000300: ea5c 0fbc 182a 06be 0ea2 4d3e b9c1 963d
00000310: 6e0e 59bd 4a0f 603e 26ea a3bd 4859 e2be
00000320: 2e49 85bd f153 0a3e 7142 543d a603 c43d
00000330: ac28 f73d 3218 f93d b4c7 e9bd 9ed3 42be
00000340: 02ac 7f3e 5ec9 edbd 67ea 25be cb58 e8bd
00000350: ef17 24bd d1d3 833d d9d5 4e3b 7d3b b3be
00000360: ae66 053e 3a9c 7dbd cf0b f83d c2d0 56be
00000370: dfde 643d 87f7 a93a 8616 dd3b b2ff 123e
00000380: 64e8 35bd 217f 7abd fc0e 9bbb b59d 893e
00000390: 76a2 263e a246 be3e d102 3c3e b0f0 763e
000003a0: aaf9 7bbd 6522 1cbe 162b 863e c520 48be
000003b0: 5f77 a1be 4484 8dbe b1d5 e73e 13e4 d33d
000003c0: bc6b 82bc 6a64 9d3e c430 da3e 0950 18be
000003d0: ad03 233e c272 7e3e 3dc8 373d d019 c8be
000003e0: 780e 873d f130 e9bd ce91 30be 65f6 04be
000003f0: c874 383e 7cbe c2be 4b35 783d ceae e7bd
0.014200671 -0.121107616 0.038484074 -0.133748 0.053021833 -0.42468807 0.008033022 0.27546287
-0.08165991 -0.037323732 -0.20074005 -0.15777452 -0.18480591 -0.05125328 -0.12648547 -0.014673477
0.115694135 -0.10657335 0.18936582 0.038172618 -0.104112945 -0.14357316 -0.11196545 -0.19371521
0.1990519 -0.037935343 0.17644209 0.05427319 0.012145231 0.14174363 -0.114079386 -0.06184238
-0.034629215 -0.07230883 0.09471808 0.07230413 -0.23517683 -0.17053075 0.16744635 -0.0100888675
-0.045826554 -0.2916306 -0.08464951 -0.39070606 -0.16948934 -0.26823968 -0.08875044 -0.092948996
0.07002172 0.12091492 0.11245845 0.007770111 -0.023681968 -0.100550584 -0.008413075 0.09035639
-0.32197013 -0.19265929 0.116240546 0.05395296 -0.40113783 -0.039887976 0.2683851 0.028708145
-0.2868978 -0.040465698 0.3708524 -0.05193732 -0.07079754 0.06038709 0.026597138 0.16948164
-0.062423896 0.19452566 0.120580904 -0.1673771 0.17308772 0.04544371 -0.007183685 0.30055818
-0.008449891 0.09337212 0.11058271 0.3356883 -0.12425794 -0.14936438 -0.08679959 0.039106004
0.17308502 0.14746314 0.49265677 0.21689561 -0.10878802 -0.17864062 0.12133296 0.20715733
0.1354317 -0.091954365 -0.03450542 0.053392194 -0.2793298 -0.11652136 0.00470169 0.06351173
0.18218896 0.027292833 0.050971083 0.2674963 -0.013039706 0.09455596 -0.2877888 0.0128882425
-0.021418326 0.09274203 0.12036943 0.1564303 -0.032534014 -0.05736896 -0.04604575 -0.09239782
0.0595245 0.19679163 0.5812847 0.14245951 -0.03433598 0.026345456 0.09562892 0.12816182
-0.06296628 -0.23463315 -0.08985685 0.15039006 0.24574047 -0.31887543 -0.29006702 0.13844557
-0.45718956 -0.16023444 0.00833315 -0.08151253 0.05858113 0.1452542 0.020137096 -0.4987657
0.04306634 0.01307871 -0.334646 0.089588694 0.019874651 -0.348441 0.06995751 -0.05815532
-0.3076623 0.038012512 -0.23087797 -0.0135102095 0.27728546 -0.1443467 0.042236432 0.23475948
0.06191311 0.032478616 0.20721863 0.34057432 0.11289465 0.016048579 -0.002881033 -0.25325274
0.027512096 0.29192904 0.16737303 0.06275792 0.12136303 0.016080897 -0.14313735 -0.15115461
-0.015511515 0.17061462 -0.10552955 0.011337165 0.008200227 -0.3135164 0.14179209 0.06889491
-0.13738863 -0.029427916 -0.40374622 -0.12320223 0.062348235 0.035006236 0.13293146 0.20306611
-0.00875018 -0.13101995 0.2008135 0.073611684 -0.052992277 0.21880832 -0.08003645 -0.4420874
-0.065080985 0.13508584 0.051821176 0.095710084 0.120683044 0.12162818 -0.114150435 -0.19026038
0.2496796 -0.11610673 -0.16202699 -0.11345061 -0.040061887 0.06436885 0.0031560569 -0.35006323
0.1302745 -0.061916567 0.12111627 -0.20978072 0.05587661 0.0012967446 0.00674707 0.14355353
-0.044411078 -0.061156396 -0.004732011 0.26878133 0.16272911 0.37163264 0.1836045 0.24115252
-0.061517395 -0.15247495 0.26204747 -0.1954375 -0.31536385 -0.27639973 0.4528022 0.10346236
-0.015920512 0.30740672 0.4261533 -0.14874281 0.15919371 0.24848464 0.044868696 -0.39082193
0.065945566 -0.11386288 -0.1724312 -0.12984617 0.18013299 -0.38035953 0.0605977 -0.11312638

linear1.bias f4 [128]
00000000: 2952 c73e 49b8 30bd d03b 063d 05ac debd
00000010: 94df e53d c726 203e cc0a 40be 840f 38be
00000020: ff02 d23e 1967 7d3e 63c2 b13e 5ce8 b7bd
00000030: 4b8b abbc 07c8 9fbe 1e09 64be d27e 103e
00000040: 5ede 6a3d e068 f4be 0eeb 19bd 6118 9d3d
00000050: fdda 86bd beb7 a13e 8aa6 233e 94f9 ccbe
00000060: 0868 373e 48f3 1dbd 8a03 f0be 7c03 7c3d
00000070: cdde d43c b093 27bf 6e77 c0be 46ce f0bd
00000080: 84f9 10bd 94ad 11bd 1281 23bf 3d86 7e3e
00000090: 9ac8 f4bd 7ed1 16bc 89c4 493e 2f13 82be
000000a0: 15ce 983e 5c8a 74be 957a 803d 3e8c 99be
000000b0: f0c4 aabd 5b6b 033d a569 bcbd ec28 5a3d
000000c0: cc88 b6be e2c9 72bd 723c 843e 46e0 3b3e
000000d0: 39fd f13e 5fa9 f8be 5a17 81be a92a 01bf
000000e0: 5e41 793d f573 44bf 8bbc 623e 2cc8 1d3f
000000f0: c6b8 ea3e 3cc8 263f 3f7f 67be 596a fcbc
00000100: 79b9 d33e 1ee3 d8bd 2b08 3fbf 32b1 d6be
00000110: 7bdb ea3d d3ed ce3e 1fa3 51bb 56a0 c5be
00000120: 65b0 953e 729f ee3d 72f9 dfbe f48f c1be
00000130: 26a4 9a3e 1e30 6cbc f2cf 38be e41c 883d
00000140: 1427 483e 3d45 5c3e 0edb 1b3c bafb cd3c
00000150: f48e 093e 1df2 7cbd 23ef 823d b4b2 bb3c
00000160: b13b dbbe b8e9 513e 8221 383d 1f9c d73e
00000170: afbc c13e d6cb de3e 543d 14be 0c2e 74bd
00000180: ca77 fb3e 3109 ec3e 0f4c e2bd 8221 dc3c
00000190: 0989 e8be 33d0 b9bd 5da4 28be 85a0 623e
000001a0: ef2f e5bd 1413 003e 585f b63d 6ee1 c6be
000001b0: eae6 b33d de0f 5b3e f3ad 0b3b 4901 173f
000001c0: 2d6a ff3d f5a0 1dba ff87 893e 60eb 31bc
000001d0: 814d 8abe 7096 c0bd 1012 6b3e 9c54 13bb
000001e0: d3a1 9d3e 10ca f4bd 6cdc 163d 3a26 3a3d
000001f0: a21f f13c c024 7abe 27a9 9c3d 426f 8e3e
0.3892987 -0.043144498 0.032771885 -0.10872654 0.11224285 0.15639792 -0.18754119 -0.17974669
0.4101791 0.2474636 0.34718618 -0.08979866 -0.020940444 -0.31207296 -0.22269103 0.14110878
0.057340972 -0.47736263 -0.03757768 0.076706655 -0.065847374 0.31585497 0.15981498 -0.40034163
0.17910779 -0.03856209 -0.468777 0.06152676 0.025985146 -0.6545973 -0.37591118 -0.117580935
-0.035394207 -0.035565928 -0.6386882 0.24855895 -0.11952324 -0.00920522 0.19703878 -0.2540526
0.29844728 -0.23880905 0.06273381 -0.2998981 -0.08338344 0.032084804 -0.091998376 0.053261682
-0.35651243 -0.05927456 0.25827366 0.18347272 0.47263506 -0.4856672 -0.25213128 -0.5045572
0.060853355 -0.76739436 0.22142236 0.61633563 0.45844096 0.65149283 -0.22607134 -0.03081243
0.41352442 -0.10590194 -0.7462184 -0.41932064 0.11467644 0.4041582 -0.0031988097 -0.3859889
0.2923614 0.116515055 -0.43745 -0.3780514 0.3020336 -0.014415769 -0.18048075 0.066461354
0.19546157 0.21510787 0.009512676 0.025144447 0.13433439 -0.061754335 0.06393268 0.02291236
-0.42818978 0.20499313 0.04495383 0.42111298 0.37839267 0.4351489 -0.1447652 -0.059614226
0.4911483 0.46100762 -0.11049663 0.026871447 -0.4541705 -0.09072914 -0.1646895 0.22131546
-0.11190783 0.12507278 0.08904904 -0.38843864 0.08784278 0.21392772 0.0021313399 0.58986336
0.12471423 -0.0006013059 0.2686157 -0.01085934 -0.27012256 -0.09403694 0.22956109 -0.002248085
0.30787525 -0.11952603 0.036831304 0.045446612 0.029434029 -0.24428082 0.07649451 0.27819258

linear2.weight f4 [32, 128]
00000000: 3a2f 7a3d 22a6 403c db2f e6b9 a801 9bbe
00000010: 3d16 853d 9719 7bbe 5226 2b3e e54e 573d
00000020: 566e 513e 921f 7cbe 3f1e 6dbc 369c abbd
00000030: 1a9c 6f3d 1678 683a 3efe 7ebe 5c73 87bd
00000040: cdd7 60be 6a55 8d3d 9797 23bb a434 b63b
00000050: 557d 90bd a0e8 93be 617b 943d 1398 243c
00000060: d193 f4bd 4f2d 833c 984e 5bbe b56c 5ab7
00000070: 7e7d 553b 10e3 abbd 28e5 3a3d 9b9d 0c3e
00000080: 5bf6 bfbb 660e 503e 3661 2d3e 0e76 05be
00000090: 36b8 ff3c 804f d2bc 8478 933b 680f 893e
000000a0: f56e 88bd a012 cd3d 7ee5 703a 508e 6e3d
000000b0: 0060 f93d f125 95bc dd7d 4e3d 1c94 273d
000000c0: 11d6 fabd e574 7d3d b937 62bd e470 ad3d
000000d0: 97d9 fbbd 9987 26bd ae0a ae3e 49bc 4c3e
000000e0: 9e43 7e3c 7906 c8bd 42a3 6fbd fcc3 91bd
000000f0: 83fd 74be 07a4 87be c531 56bd 5e80 c93b
00000100: f3e7 0bbe 7a21 193d 97dd 9d3e 4622 28be
00000110: 08cc 573d 8329 183e 8663 a33b 2008 61bd
00000120: 2f19 21be aa89 883d 920e 503d ab05 cebc
00000130: ca65 27be 3ec8 2bbe fd25 673d 51c8 df3b
00000140: 0d67 edbd 2d1d 03be 778f b83e 4366 ccbd
00000150: fd7a 153d d5a8 8abc 0031 133a 8539 2dbb
00000160: 0338 3e3e c1ce d7bb 98c8 9fbd bd5c 673e
00000170: c240 233d 9582 7c3d 0af8 eabd 84a2 f03c
00000180: b8e8 33be 88e3 1a3b 17c5 19be 7026 efbb
00000190: 2d56 a53d 2fc2 74bc d71b 44bd f94c a43d
000001a0: 3c51 853d 2008 873e bc91 7c3d 2246 ba3d
000001b0: c9a1 54bd 4a08 4bbe 502c e8bc 215a 5fbe
000001c0: e89a ffba 6a1d 3ebe b243 803e c211 fdbd
000001d0: df3e c33d 1daf 8ebc 429f 21be ddf4 dbbb
000001e0: a7e8 43be 68c8 813d ac81 b8bd c347 80bd
000001f0: 628c a43b 2544 373e b1f6 463e 9d9d a43e
00000200: fb79 a8bc daf1 c0bc 32b5 3d3c f5c0 913e
00000210: 3987 373e 57a3 55bd 5c81 dd3b 1bd5 933e
00000220: d0cc 51be d7f4 1d3e b857 3abd 3f94 ce3d
00000230: 76c5 6d3d 4a87 1cbd 4906 9d3d 6567 79bc
00000240: 935c 803e c154 423d 2fc2 cd3a 0007 72bc
00000250: ef6f bdbd 63ae 503e 997a 8abc a679 803e
00000260: 4a92 95bd fa55 52be 840e f33e 644a babb
00000270: ca2a e2bb 90b9 35be 0dd4 0a3e d1d7 a6bc
00000280: 5f66 4a3c bf38 103b a1b2 17bb b37d 20be
00000290: 63ae cb3c 5050 3abd a016 9cbe 062e 8f3e
000002a0: a6fa 10bd 8ab0 debd a737 623b af84 3b3e
000002b0: ed1a 0fbd b657 d33d 8ec8 8d3d 5f73 a9be
000002c0: a899 22be 82d1 dc3d 9bc7 0abe 4547 18be
000002d0: d13c 673d 5338 c23d fe84 143e 933f 07bd
000002e0: 0639 c3bd 75ba b23d b851 d53c 1f46 32be
000002f0: d729 6f3e 71f6 51be 7936 a63d 0ceb efbb
00000300: 80b3 103e 4548 d63b 01cf 1d3e b464 9f3d
00000310: 5870 453d e616 94be 6914 0f3c 3a4f f93c
00000320: 79c2 1dbe 36e2 bebd 97d8 bfbd 6430 ae3d
00000330: abf1 ba3e d290 193d 2794 8f3c 8cb4 29be
00000340: 0f48 70be ded7 e2bd f5b3 363d bed2 ffbd
00000350: 9687 833d a5ab 99bd 74d8 543e b3dc cd39
00000360: df8f 723e 88f9 1b3c ea13 1ebd 0776 eabd
00000370: 6453 a83d 5a6c 383e b9bf dcbd 5c5f c73c
00000380: 514d 563e 2ff3 833d dc58 113e 406d 2bbc
00000390: f44e 9cbe f306 a7bb ceaf a6bd e8ee 013e
000003a0: 2d60 f93b 3bfa ad3e b065 62bd 4367 083e
000003b0: a815 e9bd e78d 003e 04a6 94bd 3a68 933d
000003c0: 7b6a 49bc 4750 92be f31c bcbd feba c9bd
000003d0: aeee 82bb 13c7 c63b 78cd 34be 293c 8abb
000003e0: 23b4 1d3e abb7 a33e 95b1 f53d 2c4e 16be
000003f0: b428 b23b 7c95 693e 502a 903e 6092 a93c
0.061080195 0.011758359 -0.00043904674 -0.302747 0.06498382 -0.2452148 0.16713837 0.052565474
0.20452246 -0.24621418 -0.014472543 -0.08379404 0.05849848 0.0008867992 -0.24901673 -0.066138
-0.21957321 0.06901057 -0.002496218 0.0055604745 -0.07055155 -0.28888416 0.07250095 0.010046023
-0.11942256 0.016012816 -0.214167 -1.3019123e-05 0.003257602 -0.08392918 0.045628697 0.13731997
-0.0058582253 0.20317993 0.16931614 -0.13033316 0.031215768 -0.025672674 0.0045004506 0.26769567
-0.066617884 0.10013318 0.00091894704 0.05824119 0.12176514 -0.018206568 0.050413 0.040912732
-0.12247861 0.061879057 -0.055228923 0.08468798 -0.12297361 -0.04065666 0.33992523 0.199937
0.015519051 -0.097668596 -0.058505304 -0.07117459 -0.23924832 -0.2649233 -0.052293558 0.0061493358
-0.136627 0.03738544 0.30833122 -0.16419324 0.052684814 0.14859585 0.0049862294 -0.05493939
-0.15732263 0.06666882 0.050795145 -0.025149187 -0.16347423 -0.16775605 0.056432713 0.0068292995
-0.11591921 -0.12804098 0.36046955 -0.099804424 0.036494244 -0.016926209 0.00056149065 -0.002643199
0.18576054 -0.0065859263 -0.07801932 0.2259397 0.03985668 0.06164797 -0.11473091 0.029374368
-0.17569244 0.0023634154 -0.1501659 -0.0072982833 0.08073077 -0.014938875 -0.047878113 0.08022494
0.06509635 0.26373386 0.06166242 0.09095408 -0.051912103 -0.19827381 -0.028341442 -0.21811725
-0.0019501122 -0.18565908 0.25051647 -0.12356903 0.09533476 -0.017417485 -0.15783408 -0.0067125396
-0.19131719 0.063370526 -0.09009108 -0.062636875 0.0050216177 0.17897089 0.19430043 0.321515
-0.020565977 -0.023552824 0.011578845 0.28467527 0.17922677 -0.052157726 0.0067598056 0.28873524
-0.20488286 0.1542543 -0.04549381 0.100868694 0.05804964 -0.03821496 0.076672144 -0.015222405
0.2507063 0.04744411 0.001569813 -0.014772177 -0.09249865 0.20379023 -0.016904162 0.2509281
-0.07303293 -0.2054061 0.47472012 -0.0056851376 -0.0069020735 -0.17746568 0.13557453 -0.020366581
0.012353509 0.002200648 -0.0023147243 -0.1567295 0.024863428 -0.04548675 -0.30486012 0.279648
-0.035395287 -0.10873516 0.0034518035 0.18312334 -0.034937788 0.10319464 0.069230184 -0.33095834
-0.15878928 0.10782148 -0.13552706 -0.14870937 0.056454483 0.09483399 0.14503857 -0.033019613
-0.09532361 0.0872697 0.026039943 -0.17409562 0.23355804 -0.20504166 0.081158586 -0.007321721
0.14130974 0.006539377 0.15410997 0.077828795 0.048202842 -0.2892372 0.0087328935 0.030433286
-0.15406217 -0.0932049 -0.09367483 0.085053235 0.36512503 0.037491627 0.0175267 -0.1657278
-0.23464988 -0.1107633 0.044605214 -0.12491368 0.06422345 -0.07503442 0.20785695 0.0003926508
0.23687695 0.009519942 -0.03859321 -0.11448293 0.082190305 0.18010083 -0.10778756 0.024337463
0.20927931 0.06442868 0.14194053 -0.010463059 -0.30528986 -0.005097264 -0.08139001 0.12688792
0.007610342 0.33979973 -0.055272758 0.13320641 -0.11381084 0.12554131 -0.072582275 0.07197614
-0.012293453 -0.28576872 -0.09185209 -0.09850119 -0.003995738 0.006066212 -0.17656505 -0.0042185974
0.15400748 0.31976065 0.11996762 -0.14678258 0.005436981 0.2281093 0.28157282 0.02069968

linear2.bias f4 [32]
00000000: 2bbb e1be 588a 90bd 650b 363e 8fda e13e
00000010: 2d37 8fbe b60e b6bd 1538 26bd 07be 80bc
00000020: 4e38 0bbf b29a 133f 3957 b9be 1d80 a93e
00000030: ae30 f3bd ddbc f73e 5dac 19bf a524 12bf
00000040: 928f 10bf b35d 23bf 63c7 413e 7af8 8dbf
00000050: 58b1 033e 04a3 ddbc fb21 cabd 09d4 c63b
00000060: 0464 1d3f be8f b8bd f37a d0be 5151 4e3e
00000070: 71cf c7be b871 fb3e 2a09 43bd 77ac 143f
-0.4408811 -0.07057637 0.17777784 0.4411206 -0.27971783 -0.08889525 -0.040580828 -0.015715612
-0.5438279 0.5765792 -0.36199358 0.33105555 -0.11874519 0.4838628 -0.6002863 -0.57087165
-0.5646907 -0.6381485 0.18923716 -1.1091454 0.1286062 -0.027055271 -0.098697625 0.006067757
0.61480737 -0.09011792 -0.40718803 0.20148207 -0.39025453 0.49110198 -0.04761616 0.5807566

output.weight f4 [50, 32]
00000000: 70a1 c43d 0fe0 203e b1f2 1cbe 5499 e2bd
00000010: 3b81 4e3c bfe9 72be c6ad 0a3e 0dbd 33be
00000020: 4cd4 b73d 138f d33d 9568 51bd b7f0 c4bd
00000030: a382 053e 6a20 fd3d 8e11 94bd d056 8ebe
00000040: 12f6 8ebc 0165 333d a3a6 98bd 2e68 f43c
00000050: bfa9 61be 95d2 593e 7a91 00bd 7c86 b3be
00000060: e208 d33d db93 9fbd cf19 d6bc 3ec5 773e
00000070: f228 c2bb 5082 91bc 173d 713d 97af 7a3d
00000080: 421c 723d dc4d c5bd 11b5 973d f1b3 6f3e
00000090: 7af9 803d be63 bf3d 501e cf3d fdbe 9bbd
000000a0: 6586 eb3c d7d4 1abc a83e 9ebd 0a2d ba3d
000000b0: eceb af3d a6a0 ac3d 3630 7abe d16e 783d
000000c0: 1d49 37bd ad1e be3d 6643 a73d 3d56 50be
000000d0: d66e 18bd 2607 df3d b508 a13d b14f 993d
000000e0: 86b5 5abe eeef 82bd ca9d cd3c 378e 2b3e
000000f0: ab1f c4bc a79e 45bc 74e7 b8bd 556b 0a3e
00000100: 2833 ebbb 03d7 1dbd 11fe 9d3b 4256 9cbd
00000110: 61c0 0abd 8703 26be 5515 88bd f0f7 2d3e
00000120: b684 c83b e244 06be 6518 d6bd ca2a 1b3e
00000130: f10a ea3d cbf4 37be 78e2 983e 740d 553e
00000140: 1135 463e b4de 6fbe 4f8a 403e 9354 f7bd
00000150: ed0f 0f3e a43d 64bd 69b6 81bd 9df6 4c3d
00000160: 69f0 463e d57f 5bbe 0b09 6e3e 9921 193e
00000170: 7935 16bc 742f d83b a3de 66bd c1b8 123e
00000180: 69fa 333e 36ed 10be f767 123e d5dd 6f3b
00000190: 5eaf f2bd 77c5 54bd 1ad9 043e 21a0 d63c
000001a0: 6098 4abd 44c6 483d c179 cdbc edb5 a7bc
000001b0: 4fbc 8c3d 4687 ca3d 2f9a 30bc 37cb a03c
000001c0: 30fb 18be dda9 92bc 783b 703d 39bb 1bbe
000001d0: dfe8 eabc e8fb d6bd dd8a 94be a4a3 cebd
000001e0: 0fa7 113e 3158 51bd daa8 01bd 62c2 09be
000001f0: 1c2a ca3d 8333 a9bd 090e 59be 1197 9a3b
00000200: b977 a73b c652 93be c67a ec3b ccac 22bd
00000210: e603 293e 82b5 e2be 1afa 36be 799f 9b3c
00000220: 613e 95be c9ac db3d fb8e ea3d 0baf 1cbe
00000230: dc0e fe3d 583b cbbd 09b7 6c3e b3c1 c73d
00000240: 2699 72bd 46e1 1e3e 8f68 a4bd e83d 43bd
00000250: cb85 db3c 3f42 ab3d 256c ca3e caf2 e33b
00000260: adc5 c4bd 949c 503e 28fa 05be 4ab2 1d3d
00000270: a4bc 3abe 5c68 893e 09a6 07be 7c3f a6be
00000280: 412d 3d3e 3bd0 40bc 45cc 9cbe 2e4f f03c
00000290: 6c57 293e 128e 3f3e 8e8d 713e 6423 993e
000002a0: 9314 313e 3a96 6d3e 5e1b ef3d e491 a8bd
000002b0: ae7b 653e e464 1fbd 0c92 b73d c94f 90bc
000002c0: a99c 58be a860 2d3d ac09 8c3e 566e e03d
000002d0: 9d07 113e ce41 f43d ce72 fe3d 8350 34be
000002e0: 1ab7 3abe b5c7 1bbd 1121 923d 46d6 1cbe
000002f0: cc42 bd3d a89a 2abe 5679 bbbd f97b 083d
00000300: 1a2a 6f3e bcf5 ae3e e936 e73d 041e ff3c
00000310: 4d32 573e 9e2f 6b3e 1c98 0b3e 1021 ccbe
00000320: b167 173e 2967 53be 1f75 133e bc42 f73d
00000330: f7d9 d83d 69bc 9c3c 15ee 073e 5bdd 3e3e
00000340: a6cb e03d 23e5 cdbc a3bf 30bd 4e0c bfbe
00000350: 6357 003e cc6d aebe fa9d 773e 8444 92be
00000360: 1fca f0bd 5cbf b33c 1848 8cbe 97e4 6a3d
00000370: e195 483e b230 633d 2d49 903e 3037 4bbe
00000380: 8be6 13bc 6217 3c3e 9f86 0a3d 14a6 673d
00000390: d9a0 8f3d 93ad 11be 10ae 9c3d 3e3a 16bd
000003a0: 8370 42be c676 653e 9c7e bfbc cb9b ef3d
000003b0: 2948 a0bd 9ab5 973e 719a 2b3e 25e7 173e
000003c0: f8e3 e53d ac97 bcbd 560e df3b 434d 133d
000003d0: d5b0 1fbc e26d f23d 2219 033e 57cb cfbd
000003e0: 8ff6 75bd aa5e 993d 46d6 64be 87c6 583e
000003f0: 2cfd 64be 6840 763e 89c8 a1be 76b1 3dbe
0.09601104 0.15710472 -0.15326954 -0.11064401 0.012604053 -0.2372198 0.13542852 -0.17552586
0.08976039 0.103300236 -0.051125128 -0.09616225 0.13038115 0.12359698 -0.07229911 -0.27800608
-0.01745132 0.043797497 -0.074536584 0.029834833 -0.22037409 0.21271737 -0.031388737 -0.3506354
0.10304429 -0.07791873 -0.026135353 0.24196336 -0.005925291 -0.017762333 0.05889615 0.06120261
0.05910898 -0.09633991 0.074075826 0.23408486 0.06297584 0.09345196 0.101132035 -0.076047875
0.028750608 -0.009450159 -0.077267945 0.09090622 0.085899204 0.08429079 -0.24432454 0.060652558
-0.04474746 0.09283195 0.08167152 -0.20345397 -0.037215076 0.10890035 0.07862989 0.07485903
-0.21358308 -0.06393419 0.025099654 0.1675347 -0.023940882 -0.012061751 -0.09028521 0.13517506
-0.007177729 -0.03853513 0.004821547 -0.0763364 -0.033874873 -0.16212283 -0.06644694 0.16989112
0.006119336 -0.13112214 -0.10453872 0.15153041 0.11427868 -0.17964475 0.29860282 0.20805913
0.1935618 -0.23424798 0.1880276 -0.12076678 0.13970919 -0.055722848 -0.0633362 0.050039876
0.19427647 -0.21435483 0.23245637 0.14954223 -0.009168022 0.0065974537 -0.056364667 0.1432829
0.17575993 -0.14152989 0.14297472 0.0036600728 -0.11849855 -0.05194613 0.12973443 0.026199402
-0.049461722 0.049017206 -0.02508247 -0.020472491 0.068718545 0.098890826 -0.010778948 0.01962815
-0.1493957 -0.017903263 0.058650464 -0.15208139 -0.028675495 -0.10497266 -0.29012194 -0.10089806
0.14223884 -0.051109497 -0.03165517 -0.13453057 0.09871313 -0.08261778 -0.2119676 0.0047177156
0.0051107076 -0.2877409 0.007216784 -0.039715573 0.16505393 -0.44279104 -0.17868844 0.01899694
-0.29149154 0.107263155 0.114530526 -0.15301149 0.12405178 -0.09923428 0.23116697 0.09753742
-0.059228085 0.15515622 -0.080277555 -0.04766646 0.026797196 0.08362245 0.39535633 0.006956433
-0.09608016 0.2037223 -0.13083708 0.038500108 -0.18236023 0.26837432 -0.13246931 -0.3247031
0.18474294 -0.011768396 -0.30624595 0.02933463 0.16537255 0.1870654 0.23589155 0.29909813
0.17293005 0.23201838 0.11675142 -0.082309514 0.22410461 -0.038914576 0.08963403 -0.01761617
-0.21153511 0.042328507 0.2735113 0.10958545 0.1416306 0.11926614 0.12424241 -0.17608838
-0.1823391 -0.038032252 0.07135213 -0.15316114 0.09241256 -0.16660559 -0.09154002 0.033321355
0.23355904 0.34171855 0.1128977 0.031142242 0.21015282 0.22967383 0.13632244 -0.39868975
0.14785649 -0.20644821 0.14400147 0.120732754 0.105884485 0.01913281 0.13274415 0.18639128
0.10976343 -0.025133675 -0.04315151 -0.37314075 0.12533335 -0.34068143 0.24181357 -0.28567898
-0.117573015 0.021941833 -0.27398753 0.057346907 0.19588424 0.05546636 0.2818083 -0.19845271
-0.009027134 0.18368295 0.03381979 0.05655487 0.07013101 -0.1422637 0.07650387 -0.036676638
-0.18988232 0.2240859 -0.023375802 0.11699637 -0.078262635 0.29630738 0.16758133 0.14834268
0.11225122 -0.092086166 0.006807129 0.035962354 -0.00974675 0.11837365 0.12802556 -0.10146206
-0.06004959 0.07488759 -0.22347364 0.21169482 -0.22362202 0.24048007 -0.3159831 -0.18524727

output.bias f4 [50]
00000000: 3888 363f 9c88 ba3e f748 e33e 5fc3 52bf
00000010: cf3b e83d af7b 0ebc 020a 153d fe55 df3e
00000020: 01de 86bc a728 363e ade3 bd3e 44af 4f3f
00000030: 7e5b 3d3d 7bfa 11bf a33a 5fbe 11ed 1abf
00000040: 92f7 513e 666b 98bd 1801 4c3f 36bf 4d3f
00000050: 25e7 b53c 4d2f ae3e 4cec 853c b032 4ebf
00000060: b948 9c3e b062 fe3e b6a7 e8be 2acf f23e
00000070: bea6 efbf 0afc 0bbc 1acb 06bf 735d f1bd
00000080: 928c 59bc 797b a9bf e518 5bbc f50e 0b3e
00000090: 85ed 0dbe b718 5ebe f2ae 88bf 287a f9bf
000000a0: ba31 ff3d e76d 5ebe 7999 e1be d918 79bd
000000b0: ed69 c13f a86e f23c 1889 02be 535a 12be
000000c0: d8bf 463e eb58 3e3e
0.71301603 0.3643235 0.44391605 -0.8232936 0.113395326 -0.008696481 0.036386497 0.43620294
-0.016463282 0.17788945 0.37087765 0.8112681 0.046229832 -0.5702283 -0.21799712 -0.60517985
0.20504597 -0.074423596 0.7968917 0.8036989 0.022204945 0.34020463 0.016348027 -0.80546093
0.30524233 0.49684668 -0.45440453 0.4742368 -1.8722761 -0.0085439775 -0.5265366 -0.11785402
-0.0132781435 -1.3240806 -0.013372635 0.13579924 -0.13860138 -0.21689115 -1.0678389 -1.9490404
0.124606565 -0.21721612 -0.44062403 -0.060814712 1.5110451 0.02959378 -0.1274761 -0.14292268
0.1940912 0.18588607
