code/development/models/best_model_047.pth (torch, 480181 bytes, 8 tensors)

conv1.weight f4 [1, 1, 5, 3]
0.11540735 0.07585967 0.19418858 0.41894916 0.3455476 -0.14104775 0.13601904 -0.2629451
0.028919218 0.09746486 0.01259251 -0.21141224 -0.21948063 -0.2141359 -0.24055402
00000000: b05a ec3d 515c 9b3d 5fd9 463e 8180 d63e
00000010: 9deb b03e d26e 10be 9348 0b3e bda0 86be
00000020: ffe7 ec3c a89b c73d d150 4e3c 737c 58be
00000030: 88bf 60be 7146 5bbe cb53 76be

conv2.weight f4 [1, 1, 3, 3]
-0.33014905 0.19147368 0.25083315 -0.027025819 -0.17898475 0.20129323 -0.122176416 -0.15731108
0.07529966
00000000: 4c09 a9be ad11 443e 346d 803e 4065 ddbc
00000010: c747 37be d01f 4e3e a137 fabd 2816 21be
00000020: b536 9a3d

linear1.weight f4 [128, 870]
0.037917115 -0.010701245 0.015044967 -0.0352301 -0.076048404 -0.05220503 0.03441715 -0.038903218
-0.038259264 0.04261828 -0.055457577 -0.026675574 -0.042198896 -0.06901381 -0.018389236 -0.039119728
-0.008086439 -0.014731829 -0.00025807988 0.010273387 -0.043402135 -0.035486307 0.008718205 -0.04332706
0.03063143 -0.062435705 -0.011099998 -0.081689544 -0.060423378 0.020659965 -0.009802397 -0.055407222
-0.017969988 -0.02929774 -0.050588414 0.06685755 0.11813871 0.022862114 0.0058839587 -0.10891308
0.047513742 -0.049767062 0.007220083 -0.04763045 -0.07476074 0.036097277 -0.07731689 0.008033954
-0.065475665 0.0072644386 -0.080604315 -0.043635484 -0.0021532797 -0.04801566 0.012960038 -0.07857875
0.02671585 0.00870487 -0.12085456 0.12090914 -0.032236725 -0.06769372 0.04641641 0.03950668
-0.014226541 0.021047639 -0.0351542 -0.011886806 0.11564689 -0.0035941482 0.05240166 0.07956276
0.01572316 0.038603697 -0.11242737 -0.056279942 -0.018823402 -0.013552652 0.017229578 0.11378936
0.011642701 -0.04098095 -0.038028214 0.03757198 0.0624958 0.08439946 0.049835157 0.07617738
0.036226094 0.057148613 0.15984556 0.02924512 0.07814638 0.056727126 -0.0743294 0.06335641
0.0863264 -0.020730805 0.053979132 0.03321571 0.09543629 0.0823843 0.10117164 0.106817745
0.0029209168 -0.09543257 -0.049126778 0.13120258 0.040588208 -0.008402336 0.07205075 0.008457313
-0.014899145 0.07955671 0.14531724 0.013628921 -0.047262736 -0.029482676 -0.12286413 -0.03639106
0.089909665 -0.024183162 -0.035162117 0.17493351 0.09566402 0.03995971 0.0015088463 0.077899165
0.022104437 0.01068418 0.056370072 -0.022274237 -0.12985636 -0.015805496 -0.07940168 -0.022708526
-0.031595957 -0.022879805 0.044724602 -0.052657817 0.055054523 0.009213064 -0.02965014 -0.029711183
-0.00054136285 0.0053251944 0.08267663 0.13145079 0.06467954 0.15522964 0.01951081 0.00013426832
-0.00554077 0.01745033 0.10235538 0.102064066 0.03856794 -0.05207136 0.06422848 -0.05061352
0.10885267 0.121938035 0.18338893 -0.00988593 0.06915589 0.16321085 0.012906754 -0.051508028
0.040949292 -0.10095323 0.15351982 0.080023915 0.15832165 0.04367326 -0.070887044 -0.022970727
0.054692704 -0.059019923 -0.009004466 0.062038403 -0.0085561825 0.027987735 -0.04001451 0.062142834
-0.019433232 -0.010286843 -0.036366586 0.054685693 0.0022093793 0.15683699 -0.003400987 -0.18149854
-0.0021450713 -0.1507796 -0.15781073 -0.043103553 0.07946058 -0.0350667 -0.016789889 0.05220043
-0.027346699 0.070613205 0.020786427 -0.03908358 -0.10702393 -0.076769404 -0.18345715 -0.019925117
-0.16063277 0.0004276618 -0.18315428 0.06723115 -0.11659948 -0.07580375 -0.07462978 0.009711719
-0.0090520475 0.059426267 -0.087979436 -0.04678833 -0.054141734 0.110336356 0.12904494 -0.09894608
-0.0628962 0.02065515 -0.035802796 -0.076014616 -0.063777424 -0.05774111 -0.03804984 -0.117629685
-0.20808838 0.0060084243 0.025106166 -0.027691787 0.050467044 0.0069027743 0.11428714 -0.047762115
0.050006326 -0.13381752 0.049251597 -0.115192905 0.024706913 -0.07109592 0.05241567 0.023966312
-0.0075030276 -0.03847735 -0.09875281 -0.019008145 -0.043352693 0.0299679 -0.02372281 0.04314749
00000000: fa4e 1b3d 4654 2fbc 2a7f 763c 704d 10bd
00000010: 44bf 9bbd f1d4 55bd fff8 0c3d fb58 1fbd
00000020: bfb5 1cbd 8190 2e3d 7c27 63bd bc86 dabc
00000030: c0d8 2cbd 1d57 8dbd 06a5 96bc 023c 20bd
00000040: fc7c 04bc c55d 71bc e54e 87b9 b551 283c
00000050: 70c6 31bd 175a 11bd cdd6 0e3c b777 31bd
00000060: c4ee fa3c 95bc 7fbd c4dc 35bc d94c a7bd
00000070: 817e 77bd 163f a93c 3c9a 20bc aff2 62bd
00000080: cc35 93bc d001 f0bc cc35 4fbd 9cec 883d
00000090: b5f2 f13d 5449 bb3c 39ce c03b d20d dfbd
000000a0: c59d 423d 8cd8 4bbd 7296 ec3b 2618 43bd
000000b0: 291c 99bd bdda 133d 5158 9ebd d8a0 033c
000000c0: 1b18 86bd 870a ee3b e013 a5bd 1fbb 32bd
000000d0: 0a1e 0dbb 12ac 44bd 5756 543c e5ed a0bd
000000e0: 33db da3c df9e 0e3c 9882 f7bd 369f f73d
000000f0: a80a 04bd 01a3 8abd 221f 3e3d c2d1 213d
00000100: 7016 69bc 196c ac3c dafd 0fbd e1c0 42bc
00000110: 47d8 ec3d cd8b 6bbb 1fa3 563d cdf1 a23d
00000120: dbcd 803c e91e 1e3d 5240 e6bd cc85 66bd
00000130: 8933 9abc f10b 5ebc 0b25 8d3c 650a e93d
00000140: 07c1 3e3c a4db 27bd 79c3 1bbd 14e5 193d
00000150: 99fb 7f3d a0d9 ac3d f31f 4c3d e302 9c3d
00000160: d061 143d aa14 6a3d 8eae 233e 7693 ef3c
00000170: 360b a03d b45a 683d 033a 98bd 01c1 813d
00000180: e5cb b03d a6d3 a9bc 3919 5d3d 320d 083d
00000190: 1a74 c33d 1ab9 a83d 1433 cf3d 43c3 da3d
000001a0: da6c 3f3b 2772 c3bd 2939 49bd f859 063e
000001b0: d23f 263d f4a9 09bc 588f 933d 8b90 0a3c
000001c0: 8b1b 74bc a1ee a23d 0bce 143e d64b 5f3c
000001d0: 9296 41bd a785 f1bc 30a0 fbbd cb0e 15bd
000001e0: 8f22 b83d c41b c6bc 2706 10bd c521 333e
000001f0: 7feb c33d cbac 233d 7bc4 c53a 9989 9f3d
00000200: 5d14 b53c b30c 2f3c 4ee4 663d 7678 b6bc
00000210: 11f9 04be 877a 81bc 599d a2bd 3b07 babc
00000220: c36a 01bd 6e6e bbbc 2531 373d b9af 57bd
00000230: da80 613d 64f2 163c dae4 f2bc de64 f3bc
00000240: 3fea 0dba f87e ae3b 5d52 a93d 099b 063e
00000250: b576 843d 85f4 1e3e 22d5 9f3c 61ca 0c39
00000260: 598f b5bb fff3 8e3c b39f d13d f706 d13d
00000270: 6bf9 1d3d c748 55bd 398a 833d 1f50 4fbd
00000280: 26ee de3d a6ba f93d 4fca 3b3e 99f8 21bc
00000290: 9aa1 8d3d bf20 273e da76 533c 15fa 52bd
000002a0: 72ba 273d 91c0 cebd 4d34 1d3e 94e3 a33d
000002b0: 121f 223e bbe2 323d 3a2d 91bd 1b2d bcbc
000002c0: 7505 603d e0be 71bd 7887 13bc fb1b 7e3d
000002d0: 3b2f 0cbc 8946 e53c 41e6 23bd 7c89 7e3d
000002e0: 7132 9fbc 268a 28bc 21f5 14bd 1bfe 5f3d
000002f0: 3ccb 103b e099 203e 18e3 5ebb c1da 39be
00000300: 5394 0cbb f865 1abe 2399 21be 5a8d 30bd
00000310: 3bbc a23d 1aa2 0fbd f38a 89bc 1ed0 553d
00000320: 2f06 e0bc a89d 903d 4c48 aa3c 1b16 20bd
00000330: 5d2f dbbd 4739 9dbd 31dc 3bbe 003a a3bc
00000340: eb7c 24be cc37 e039 cc8c 3bbe 7cb0 893d
00000350: b5cb eebd ff3e 9bbd 80d7 98bd e71d 1f3c
00000360: 0a4f 14bc f568 733d 902e b4bd 1fa5 3fbd
00000370: b9c3 5dbd 07f8 e13d 5b24 043e 3ea4 cabd
00000380: b9cf 80bd fd34 a93c f4a5 12bd 8dad 9bbd
00000390: bd9d 82bd f181 6cbd 26da 1bbd d5e7 f0bd
000003a0: 1f15 55be 51e2 c43b 72ab cd3c e3d9 e2bc
000003b0: 88b6 4e3d ab30 e23b 600f ea3d 35a2 43bd
000003c0: 6fd3 4c3d 7607 09be 0bbc 493d 42ea ebbd
000003d0: 2766 ca3c bd9a 91bd d0b1 563d 0055 c43c
000003e0: f5db f5bb 6d9a 1dbd ea3e cabd f8b6 9bbc
000003f0: 9892 31bd 3e7f f53c 5756 c2bc 6cbb 303d

linear1.bias f4 [128]
-0.12111067 0.008786612 0.36677754 -0.26000103 0.21772593 -0.27987567 0.3912116 -0.19783498
0.0988825 0.19777907 -0.1383977 -0.02040251 0.1743134 -0.3671891 0.47605276 -0.3235478
-0.16816227 0.02566117 0.2530204 -0.31394815 0.48147923 0.22663254 -0.123069786 0.28573453
0.024977 0.2554384 -0.52208 0.2892771 -0.10720175 -0.07611068 0.18010528 -0.21429782
0.19207275 -0.3012632 0.15987581 0.16139717 0.31492123 0.10922436 -0.52143425 0.40401694
0.04266015 -0.05788631 -0.29580256 -0.10483769 -0.30032822 -0.008343294 0.18358052 0.4043206
0.00071106607 -0.27257568 -0.255158 0.16778915 -0.46488002 0.10044828 0.31322768 0.31220254
0.07453711 0.13259351 0.014245651 0.11263115 -0.12939128 -0.07654332 0.31105113 -0.074779525
0.12217654 -0.0558758 -0.055079855 0.45313254 -0.08127789 0.22975668 0.28939846 0.03028891
-0.34364542 0.13444205 -0.009051987 0.2590109 -0.16240428 0.21878377 0.33845696 -0.15010335
-0.32904202 0.025191912 0.19397864 0.31939384 0.008526573 -0.22471231 0.09062135 -0.34137976
0.12273282 -0.13541785 -0.15498132 0.10064386 -0.3922965 -0.14184828 -0.37380657 -0.27032885
0.11847731 -0.31491932 -0.08075935 0.2849528 0.42658308 0.23682101 0.0050290716 -0.083666466
0.16936043 0.06680095 -0.34791386 0.23204419 -0.2619162 0.26490325 0.40619707 -0.079779394
-0.43812886 0.5441133 -0.105171636 -0.15114394 0.111024074 -0.08330765 -0.075863324 -0.39465797
-0.11103667 -0.088591956 0.3919064 0.31281114 -0.11260384 0.33589378 0.13053383 -0.22938024
00000000: df08 f8bd b9f5 0f3c 44ca bb3e db1e 85be
00000010: 8cf3 5e3e dd4b 8fbe e34c c83e 4195 4abe
00000020: e882 ca3d 9986 4a3e 20b8 0dbe 2a23 a7bc
00000030: 367f 323e 3600 bcbe 30bd f33e 0fa8 a5be
00000040: bb32 2cbe 6037 d23c e48b 813e d0bd a0be
00000050: 7284 f63e 5c12 683e 030c fcbd cc4b 923e
00000060: 919c cc3c d2c8 823e 09a7 05bf 211c 943e
00000070: 978c dbbd ebdf 9bbd 856d 383e e370 5bbe
00000080: b8ae 443e 2c3f 9abe 7cb6 233e 4d45 253e
00000090: 5b3d a13e 05b1 df3d b77c 05bf 4fdb ce3e
000000a0: 69bc 2e3d 321a 6dbd 6f73 97be 25b5 d6bd
000000b0: 9fc4 99be 50b2 08bc 88fc 3b3e 1c03 cf3e
000000c0: d666 3a3a 0a8f 8bbe 12a4 82be ebd0 2b3e
000000d0: c104 eebe d4b7 cd3d 615f a03e 03d9 9f3e
000000e0: eaa6 983d 98c6 073e 9766 693c 29ab e63d
000000f0: 267f 04be bfc2 9cbd 1842 9f3e 0226 99bd
00000100: b237 fa3d 06de 64bd 6a9b 61bd fd00 e83e
00000110: 0675 a6bd 5645 6b3e 092c 943e 7320 f83c
00000120: 4bf2 afbe 2dab 093e c94e 14bc 149d 843e
00000130: 4f4d 26be da08 603e 3b4a ad3e b1b4 19be
00000140: 3278 a8be 455f ce3c 56a2 463e 9787 a33e
00000150: 0ab3 0b3c fc1a 66be b097 b93d 54c9 aebe
00000160: 585b fb3d faaa 0abe 6cb3 1ebe 5e1e ce3d
00000170: 16db c8be ad40 11be 9363 bfbe 8b68 8abe
00000180: 3ba4 f23d 1b3d a1be 2865 a5bd 55e5 913e
00000190: 1969 da3e 3581 723e e9ca a43b 5359 abbd
000001a0: d26c 2d3e f0ce 883d c421 b2be fe9c 6d3e
000001b0: e119 86be 66a1 873e 10f9 cf3e 6163 a3bd
000001c0: 6d52 e0be 024b 0b3f 3a64 d7bd 7ac5 1abe
000001d0: 9760 e33d 349d aabd 3b5e 9bbd 9c10 cabe
000001e0: 3267 e3bd b36f b5bd f5a7 c83e c828 a03e
000001f0: d89c e6bd 45fa ab3e a9aa 053e a7e2 6abe

linear2.weight f4 [32, 128]
0.09221866 -0.14039175 0.014859207 -0.05816858 0.049793255 -0.043102726 0.044204213 0.06536088
-0.062184088 0.08054487 0.071011744 -0.0148592945 0.048784167 0.031968188 0.15774746 0.03890483
0.111009814 -0.05843275 0.02537162 -0.06397412 0.0321675 -0.06840777 -0.080760226 -0.10644707
0.15972185 -0.08649958 0.13732289 -0.107216455 0.065237366 -0.074936315 0.05763641 -0.064899325
-0.05583146 0.046269942 0.053442586 0.041366078 -0.0015440782 -0.011157486 -0.00831202 0.062186662
-0.12937482 0.07455589 -0.073043205 0.08565406 0.01612427 -0.03064351 -0.12284199 0.12909457
0.024641884 -0.085336454 0.18698378 -0.022730181 -0.13753146 -0.0022273902 0.15188813 0.054124184
0.11720827 0.08295034 0.076120645 -0.07952143 -0.047594056 -0.13775243 -0.038246207 -0.10506467
0.09057284 -0.12150276 -0.10409786 0.08804821 -0.0305399 -0.093968816 0.038367487 0.096946746
0.050901894 -0.060130928 0.06466787 -0.0544856 -0.07575952 -0.06857751 0.040053207 -0.042975593
-0.14134586 0.09394096 -0.12787545 -0.02713243 -0.041494217 -0.07613269 0.09829958 0.037544582
-0.1016277 0.03832669 -0.099412955 -0.095133014 0.12681992 0.10385277 -0.08659037 0.01823424
-0.035781734 -0.13310182 0.042655863 0.08422285 0.06372363 0.031782888 -0.10088301 -0.005212187
0.07301318 -0.05439469 0.04424512 -0.05226369 -0.13095061 -0.0053505246 0.10513722 -0.09294363
-0.04212302 0.088756055 -0.23166743 -0.082868665 -0.014275847 0.08616545 -0.015991395 -0.09384197
0.08554158 -0.08528389 0.043970443 0.08299803 -0.10918999 -0.0021201756 -0.08570397 -0.04943429
0.18085802 -0.03859329 0.10526008 0.004777255 -0.065313675 0.048136562 0.12340655 -0.075042985
0.07972767 0.04425976 -0.027248338 0.017521018 0.13754164 0.05022121 0.014765087 0.095557615
0.004768895 0.06627304 -0.06006498 0.05452346 0.07327497 0.089895196 0.024952358 0.1028251
-0.04700748 0.12852278 -0.10488577 0.068408355 -0.010732163 -0.01642684 -0.15613516 -0.096231386
0.020344203 0.054910555 0.020501887 0.10087694 -0.10630392 0.039851967 -0.08534661 0.06763965
-0.015968118 -0.019053085 0.070574366 0.07964698 -0.1295409 0.055855487 0.04136774 -0.055517353
-0.121349916 -0.08537842 -0.032084696 0.16304208 -0.11484253 -0.06626621 0.035887368 -0.033589564
-0.07031339 0.052753612 0.051086497 0.003711595 -0.018467339 -0.07969585 0.058313448 -0.051777728
0.106739536 0.13483402 0.0044139256 0.07780906 -0.10744578 -0.03147466 0.01703723 0.14021698
0.0933394 0.1345536 0.034385376 0.007361986 0.13290605 0.08063204 0.06152806 -0.01248914
0.06202755 0.0015913972 -0.087526 0.15668023 0.11087366 -0.015433082 -0.012347408 0.010505419
-0.12767108 -0.07864545 -0.1735315 -0.15644133 0.09624963 0.030342845 0.07416121 0.03159008
0.08504955 0.06191043 -0.021188552 0.026633324 -0.030825984 -0.009153585 -0.122136265 0.06257905
-0.013610087 0.037020586 -0.15463266 -0.14235625 -0.03709551 -0.14698884 -0.010022693 0.039290547
0.0018431118 -0.05900614 -0.1071646 -0.08464776 -0.010676212 0.083492786 0.016472558 -0.086869866
0.11728515 -0.03302504 0.034401584 0.07083279 0.04162419 -0.13190018 -0.024303222 0.15464321
00000000: 23dd bc3d dbc2 0fbe 0874 733c 2d42 6ebd
00000010: 03f4 4b3d 7c8c 30bd 7a0f 353d eddb 853d
00000020: beb4 7ebd b5f4 a43d 9b6e 913d 6674 73bc
00000030: e8d1 473d 13f1 023d 8d88 213e ac5a 1f3d
00000040: 1d59 e33d 2e57 6fbd 25d8 cf3c dd04 83bd
00000050: 12c2 033d 5f19 8cbd 9e65 a5bd ec00 dabd
00000060: 208e 233e b126 b1bd 5f9e 0c3e 4d94 dbbd
00000070: 2b9b 853d 3678 99bd 2814 6c3d f0e9 84bd
00000080: 87af 64bd 8d85 3d3d 9de6 5a3d 7a6f 293d
00000090: ab62 caba e3cd 36bc 242f 08bc 71b7 7e3d
000000a0: d57a 04be c2b0 983d ad97 95bd 656b af3d
000000b0: 0c17 843c 1908 fbbc 9594 fbbd 5e31 043e
000000c0: c7dd c93c e1c4 aebd ad78 3f3e a534 babc
000000d0: 0cd5 0cbe 68f9 11bb 9088 1b3e 52b1 5d3d
000000e0: e40a f03d dee1 a93d 24e5 9b3d 22dc a2bd
000000f0: fcf1 42bd f90e 0dbe 0ea8 1cbd 252c d7bd
00000100: 417e b93d 70d6 f8bd 4231 d5bd 9f52 b43d
00000110: d02e fabc b972 c0bd 3a27 1d3d 048c c63d
00000120: 817e 503d d94b 76bd 9770 843d 4b2c 5fbd
00000130: cf27 9bbd 5e72 8cbd d50e 243d 2d07 30bd
00000140: f8bc 10be 1e64 c03d c8f1 02be d444 debc
00000150: d7f5 29bd 75eb 9bbd 4a51 c93d 59c8 193d
00000160: 2f22 d0bd 73fc 1c3d 0599 cbbd 19d5 c2bd
00000170: 15dd 013e c3b0 d43d 4b56 b1bd f95f 953c
00000180: de8f 12bd d84b 08be eab7 2e3d 087d ac3d
00000190: 8981 823d c62e 023d c09b cebd feca aabb
000001a0: ef87 953d f7cc 5ebd 5f3a 353d 7312 56bd
000001b0: eb17 06be 7453 afbb 2f52 d73d 3b59 bebd
000001c0: 3089 2cbd bcc5 b53d 3a3a 6dbe 0cb7 a9bd
000001d0: 3ee5 69bc 8377 b03d 6300 83bc 3830 c0bd
000001e0: 6d30 af3d 52a9 aebd 5a1a 343d dffa a93d
000001f0: 009f dfbd a5f2 0abb 9085 afbd 9c7b 4abd
00000200: d832 393e ff13 1ebd 9992 d73d 858a 9c3b
00000210: 2dc3 85bd d82a 453d 93bc fc3d 23b0 99bd
00000220: 4348 a33d b949 353d e837 dfbc 3d88 8f3c
00000230: b7d7 0c3e c1b4 4d3d 43e9 713c b6b3 c33d
00000240: 6444 9c3b 29ba 873d b206 76bd fe53 5f3d
00000250: 3011 963d f91a b83d e368 cc3c f795 d23d
00000260: ea8a 40bd 7a9b 033e 5ace d6bd ae19 8c3d
00000270: f4d5 2fbc 9591 86bc e5e1 1fbe f614 c5bd
00000280: e3a8 a63c e4e9 603d 93f3 a73c 9298 ce3d
00000290: dfb5 d9bd d13b 233d 34ca aebd a886 8a3d
000002a0: 92cf 82bc 3715 9cbc 4b89 903d f51d a33d
000002b0: 5fa6 04be b9c8 643d 3871 293d 2a66 63bd
000002c0: 4e86 f8bd e2da aebd 3e6b 03bd 81f4 263e
000002d0: 8f32 ebbd 94b6 87bd a2fe 123d 3695 09bd
000002e0: 7700 90bd 2c14 583d 1340 513d 3b3e 733b
000002f0: d148 97bc 9437 a3bd 15da 6e3d e214 54bd
00000300: 429a da3d ee11 0a3e b1a2 903b 5b5a 9f3d
00000310: 880c dcbd 93eb 00bd a991 8b3c 0a95 0f3e
00000320: ba28 bf3d 6bc8 093e aed7 0c3d d13c f13b
00000330: 8618 083e 6922 a53d d904 7c3d 409f 4cbc
00000340: 9a10 7e3d 6e96 d03a d540 b3bd c870 203e
00000350: bb11 e33d 0adb 7cbc c84c 4abc ec1e 2c3c
00000360: 35bc 02be de10 a1bd 3eb2 31be 2832 20be
00000370: 871e c53d 8f91 f83c d5e1 973d 9a64 013d
00000380: 752e ae3d cb95 7d3d 9d93 adbc 212e da3c
00000390: c686 fcbc ebf8 15bc 9422 fabd 7229 803d
000003a0: d8fc 5ebc e6a2 173d 0658 1ebe d6c5 11be
000003b0: 76f1 17bd 3e84 16be 3936 24bc 20ef 203d
000003c0: 9294 f13a 6cb0 71bd 1d79 dbbd ce5b adbd
000003d0: 47eb 2ebc 44fe aa3d 75f1 863c d4e8 b1bd
000003e0: 3233 f03d 4445 07bd ade8 0c3d c810 913d
000003f0: 207e 2a3d d710 07be 8d17 c7bc ca5a 1e3e

linear2.bias f4 [32]
0.16774674 0.17704283 -0.06326569 0.14024879 0.04251038 -0.19373602 0.27727684 -0.029203676
0.23555171 0.27351496 0.25036725 0.28155574 -0.040136136 0.29562017 -0.07234334 0.178255
0.36808848 -0.050827127 0.17558433 -0.06839317 -0.27689832 -0.17595011 -0.33514217 -0.4427468
-0.28294596 -0.27671573 -0.19414611 -0.18532556 0.19036138 -0.055085644 -0.15798439 0.047346562
00000000: cdc5 2b3e b74a 353e 7191 81bd 619d 0f3e
00000010: 5d1f 2e3d bc62 46be 3bf7 8d3e 8c3c efbc
00000020: 7834 713e 270a 8c3e 2330 803e 1328 903e
00000030: ca65 24bd 875b 973e bf28 94bd 7b88 363e
00000040: 1876 bc3e 1b30 50bd 61cc 333e b811 8cbd
00000050: 9ec5 8dbe 442c 34be c197 abbe b5af e2be
00000060: 4bde 90be afad 8dbe 3dce 46be fcc5 3dbe
00000070: 18ee 423e 7ca1 61bd a9c6 21be 78ee 413d

output.weight f4 [100, 32]
-0.082060985 0.0319518 0.024955716 -0.02342598 -0.17422731 0.0023143762 -0.13005413 -0.14407833
-0.014317867 0.012736375 -0.17511302 -0.18716915 0.012279165 0.07926089 0.09733768 0.073280066
0.06960253 -0.040066507 -0.09833569 0.014222325 -0.11756971 -0.020896962 -0.23487158 -0.20369242
0.07959235 -0.042302787 -0.118823506 -0.095112436 0.16963317 -0.18737799 0.0005718071 0.012500296
0.11309759 -0.096008115 -0.1681137 -0.13955168 -0.110520676 -0.37337857 0.3089946 0.08320777
-0.07013214 -0.23510432 -0.005068618 0.17277773 -0.15032184 -0.19166711 0.08207934 -0.11970772
0.29773766 -0.044870313 0.08106923 0.10967752 0.2520868 -0.07317655 -0.17564292 -0.05025257
0.062281698 -0.16655132 0.11752418 -0.018772077 0.1328826 0.011502634 0.29709014 -0.084074676
0.14896508 -0.15329751 0.21659622 0.1649302 -0.08715801 -0.3604464 0.059529856 -0.1311915
0.026472729 -0.26948917 0.3140672 0.021008464 -0.041446745 0.096030764 -0.24046817 -0.17287526
0.14190261 0.023713984 -0.010563592 0.36462602 0.19843972 -0.14820369 -0.17764215 -0.2377957
-0.0073888144 -0.22349177 0.08939021 0.14378501 -0.32516733 0.24875331 -0.13352358 0.16714777
0.14761382 -0.06012718 0.07669287 -0.033962533 -0.043229643 -0.0034557837 -0.016239205 0.1240306
-0.040423248 -0.10411972 0.047266345 0.0027930948 0.14897546 -0.118228965 -0.06213472 -0.06888854
-0.06996839 -0.12411741 -0.07752435 0.14250264 0.23080888 0.16641101 -0.12122948 -0.10337153
0.027331877 0.009405873 0.08703044 -0.20683677 -0.045889035 0.04116112 -0.10041092 -0.19362345
-0.13807654 -0.045792148 -0.05811216 -0.03550514 0.035080314 -0.0018533655 -0.097458966 0.09307411
-0.1700528 0.17462386 0.17927286 0.10760164 -0.0887412 -0.20620058 0.04855125 -0.12186624
0.008956641 0.056574743 0.26944193 -0.023840426 -0.1366782 -0.13567455 0.027975183 0.04945419
-0.13051477 0.1883363 -0.012130741 0.022988243 -0.08668036 0.09538972 0.017688802 -0.0928316
-0.08445608 0.09241864 -0.003541812 0.045743924 -0.11504499 -0.087671265 0.014697441 -0.15936407
-0.15836291 -0.07750125 0.046044815 0.07623661 -0.081037246 -0.07650819 0.043808088 0.0545856
0.089701094 -0.033615764 -0.06147807 -0.022403536 -0.08468577 0.13551663 0.0031476666 -0.009477398
0.111806594 -0.032539412 -0.007896061 0.23670284 -0.005251951 -0.033115957 -0.1952904 -0.08352402
-0.11536116 0.11373036 -0.000602563 0.01512643 -0.051866326 -0.041564256 -0.062114008 -0.044594277
-0.091853164 -0.059411418 0.044954017 0.0013580882 -0.037199326 -0.09735274 -0.0022780304 -0.14035025
0.011574359 0.07108009 -0.013527182 -0.08062779 0.016968815 0.08076588 -0.031017331 0.051911242
-0.055393647 -0.037027817 0.040958088 -0.08280839 0.033523757 0.011202698 -0.031509954 0.032292873
0.03559725 0.026265863 0.16044112 0.05636837 0.13965835 -0.04448943 0.009209313 -0.023929708
-0.029117659 0.094521336 -0.15185799 0.19811589 -0.13664867 0.27045727 0.030146498 0.043678965
-0.012202179 -0.1528786 -0.1418962 0.11527394 -0.13465194 -0.011233741 0.004849391 0.04315161
0.034639984 0.24528173 -0.14190945 -0.019904165 0.09958562 -0.12887524 -0.0038142074 0.085475445
00000000: 970f a8bd e4df 023d ee6f cc3c d7e7 bfbc
00000010: a568 32be caac 173b e92c 05be 4589 13be
00000020: 7d95 6abc 3bac 503c d450 33be 45a9 3fbe
00000030: 8d2e 493c 8953 a23d fa58 c73d dc13 963d
00000040: c58b 8e3d c71c 24bd 3964 c9bd c104 693c
00000050: 63c8 f0bd 1b30 abbc 2d82 70be bf94 50be
00000060: 5001 a33d b045 2dbd bd59 f3bd 4fca c2bd
00000070: 51b4 2d3e 04e0 3fbe 53e5 153a 0bce 4c3c
00000080: b69f e73d e79f c4bd ff25 2cbe a3e6 0ebe
00000090: aa58 e2bd 7a2b bfbe 8a34 9e3e d668 aa3d
000000a0: 70a1 8fbd 30bf 70be a616 a6bb a5ec 303e
000000b0: f8ed 19be 6244 44be 3719 a83d 5229 f5bd
000000c0: 1271 983e efc9 37bd a007 a63d 9c9e e03d
000000d0: 8511 813e 96dd 95bd bddb 33be a4d5 4dbd
000000e0: 181b 7f3d 6e8c 2abe 84b0 f03d e6c7 99bc
000000f0: 6012 083e 8b75 3c3c 331c 983e 582f acbd
00000100: 4d8a 183e 06fa 1cbe 66cb 5d3e 76e3 283e
00000110: e67f b2bd 6e8c b8be 94d5 733d 1157 06be
00000120: 56dd d83c 7cfa 89be 6bcd a03e f119 ac3c
00000130: 10c4 29bd c7ab c43d 4a3d 76be 3606 31be
00000140: eb4e 113e d443 c23c eb12 2dbc 43b0 ba3e
00000150: c833 4b3e b5c2 17be d3e7 35be b780 73be
00000160: de1d f2bb 07db 64be 3712 b73d 613c 133e
00000170: 557c a6be 30b9 7e3e 68ba 08be c928 2b3e
00000180: 1428 173e eb47 76bd 2711 9d3d 4c1c 0bbd
00000190: 9111 31bd 6e7a 62bb 1508 85bc c103 fe3d
000001a0: d992 25bd b83c d5bd 5b9a 413d 5b0c 373b
000001b0: 068d 183e 0722 f2bd fa80 7ebd 6f15 8dbd
000001c0: 964b 8fbd 4531 febd 16c5 9ebd 36ec 113e
000001d0: 2a59 6c3e a667 2a3e 2947 f8bd 74b4 d3bd
000001e0: 1ae7 df3c 171b 1a3c 043d b23d 05cd 53be
000001f0: 24f6 3bbd 9098 283d 3ea4 cdbd 3a45 46be
00000200: f063 0dbe 8c90 3bbd 0407 6ebd d66d 11bd
00000210: 60b0 0f3d a0ec f2ba 9198 c7bd a49d be3d
00000220: 5222 2ebe 99d0 323e 4e93 373e 405e dc3d
00000230: f2bd b5bd 3f26 53be addd 463d 0295 f9bd
00000240: e0be 123c ebba 673d 4bf4 893e ff4c c3bc
00000250: 5ff5 0bbe 45ee 0abe 362c e53c 7a90 4a3d
00000260: aaa5 05be 3bdb 403e 04c0 46bc d751 bc3c
00000270: 7985 b1bd af5b c33d 1be8 903c 7e1e bebd
00000280: 4ff7 acbd fc45 bd3d bf1d 68bb fb5d 3b3d
00000290: b59c ebbd fe8c b3bd 89cd 703c 5630 23be
000002a0: e329 22be fab8 9ebd 7d99 3c3d f121 9c3d
000002b0: dbf6 a5bd 53b0 9cbd 1c70 333d 2695 5f3d
000002c0: 35b5 b73d afb0 09bd 6ed0 7bbd 9f87 b7bc
000002d0: bc6f adbd dfc4 0a3e 1549 4e3b 1747 1bbc
000002e0: dbfa e43d 0c48 05bd 7b5e 01bc 3b62 723e
000002f0: 8f18 acbb 99a4 07bd 35fa 47be a40e abbd
00000300: 7942 ecbd 77eb e83d 52f5 1dba d9d4 773c
00000310: c971 54bd 483f 2abd 426b 7ebd 7da8 36bd
00000320: 831d bcbd 6359 73bd b421 383d e101 b23a
00000330: 525e 18bd e060 c7bd 024b 15bb fab7 0fbe
00000340: 61a2 3d3c 7092 913d 1da1 5dbc 2f20 a5bd
00000350: 2f02 8b3c 9568 a53d 0f18 febc e2a0 543d
00000360: 73e4 62bd 7baa 17bd abc3 273d 7297 a9bd
00000370: 3550 093d 858b 373c 9510 01bd 8845 043d
00000380: 6cce 113d 822b d73c ad4a 243e 85e2 663d
00000390: 9902 0f3e 8c3a 36bd a9e2 163c 3c08 c4bc
000003a0: 2888 eebc 6794 c13d a980 1bbe e4de 4a3e
000003b0: a1ed 0bbe 6079 8a3e caf5 f63c b7e8 323d
000003c0: a6eb 47bc 358c 1cbe 3d4d 11be be14 ec3d
000003d0: 33e2 09be ba0d 38bc a4e7 9e3b bebf 303d
000003e0: a8e2 0d3d 222b 7b3e b650 11be 0f0e a3bc
000003f0: 8cf3 cb3d dff7 03be c8f7 79bb c00d af3d

output.bias f4 [100]
0.06580324 -0.090551995 -0.2100808 -0.1408559 -0.047674563 0.021465665 -0.15439197 0.48204958
-0.04711567 0.11256268 0.50449866 -0.08639955 -0.47922942 0.21668969 0.17575753 0.23041187
-0.51342696 -0.07079439 0.1857449 0.11199684 0.20617007 -0.017991114 0.17092235 0.3677363
-0.13766043 -0.5395956 0.30465755 0.5592667 0.111502 0.031633 0.13389325 0.09156454
0.4389883 -0.4828379 0.3139102 0.34031528 0.010580926 0.4807742 -0.8185601 0.06790885
0.3352038 0.22159833 0.2715918 -0.43588898 0.4832776 -0.110779196 -0.2650611 0.24794763
-0.32013565 -0.25063488 0.20810485 0.13504726 -0.7243435 0.08706228 -0.18369268 0.43787107
-0.34941673 -0.0022971018 -0.71489 0.06416319 -0.17799759 0.05768131 0.12588517 -0.35892314
-0.47636846 -0.07069347 0.138205 -0.08722183 -0.19057615 -0.28704476 -0.21061487 0.14349355
0.54292214 -0.6430714 0.30614594 0.23948121 -0.15122434 -0.30954885 0.25067192 0.45617113
0.3343798 -0.39654294 -0.16970041 0.47666615 -0.20265268 0.17108549 0.14133607 -0.78172034
-0.09336515 0.35124162 -0.022305587 0.099465825 0.39119875 0.20952407 -0.816934 0.020234438
0.25367168 0.31555703 0.5775228 -0.5823195
00000000: d9c3 863d 5373 b9bd 6c1f 57be 873c 10be
00000010: 6746 43bd c3d8 af3c ee18 1ebe 34cf f63e
00000020: 5cfc 40bd 4387 e63d d326 013f 3ff2 b0bd
00000030: 8f5d f5be e7e3 5d3e c8f9 333e 17f1 6b3e
00000040: f36f 03bf a6fc 90bd e933 3e3e 995e e53d
00000050: 3f1e 533e 1a62 93bc 4506 2f3e ef47 bc3e
00000060: dbf6 0cbe f022 0abf 13fc 9b3e 1a2c 0f3f
00000070: 295b e43d 9b91 013d 501b 093e 3186 bb3d
00000080: 13c3 e03e 8736 f7be d6b8 a03e ce3d ae3e
00000090: 9f5b 2d3c 0928 f63e 288d 51bf cc13 8b3d
000000a0: d59f ab3e acea 623e 150e 8b3e d72c dfbe
000000b0: 2970 f73e 34e0 e2bd 17b6 87be fce5 7d3e
000000c0: d2e8 a3be 3753 80be 7019 553e d449 0a3e
000000d0: 936e 39bf b54d b23d ef19 3cbe a330 e03e
000000e0: c0e6 b2be f98a 16bb 0803 37bf fe67 833d
000000f0: 0045 36be 3d43 6c3d 0be8 003e c6c4 b7be
00000100: 91e6 f3be bdc7 90bd 9d85 0d3e 5ca1 b2bd
00000110: 6526 43be 88f7 92be 6dab 57be f9ef 123e
00000120: f2fc 0a3f 54a0 24bf 29bf 9c3e 903a 753e
00000130: 8eda 1abe 307d 9ebe 1258 803e 438f e93e
00000140: d433 ab3e ad07 cbbe f2c5 2dbe 960d f43e
00000150: 2f84 4fbe 0931 2f3e 67ba 103e d31e 48bf
00000160: 3a36 bfbd f1d5 b33e 35ba b6bc bdb4 cb3d
00000170: 344b c83e 7a8d 563e 9622 51bf b1c2 a53c
00000180: 41e1 813e b190 a13e 89d8 133f e412 15bf
