code/development/models/best_model_018.pth (torch, 488949 bytes, 8 tensors)

conv1.weight f4 [1, 1, 5, 3]
000000 49 f4 03 3f 69 b5 86 bb 0c de 63 be b8 b1 20 3f
       0.51544625 -0.0041109812 -0.22252673 0.6277118
000010 a8 53 d7 3e b9 8a a2 bd 97 c9 df be 96 6c 93 3d
       0.42056012 -0.079366155 -0.43708488 0.071984455
000020 5a c5 0d bf 60 12 a9 3e 24 ef 9d 3e b3 56 c9 bd
       -0.5537926 0.33021832 0.30846512 -0.0983099
000030 12 b1 c3 be 64 3e 2d 3e c9 3c 6a be
       -0.3822103 0.16918331 -0.2287475

conv2.weight f4 [1, 1, 3, 3]
000000 fe 64 b2 3d ca 70 bf bc 1d 78 99 3d 8c 90 c5 be
       0.08710669 -0.023369212 0.07493613 -0.38586843
000010 ba 85 14 3e 9a 37 c0 be b5 e5 a7 3d cd 45 f0 3e
       0.14504138 -0.3754242 0.0819811 0.46928254
000020 22 61 b6 be
       -0.3562098

linear1.weight f4 [128, 900]
000000 33 56 c6 3d 60 f4 90 bd 2b b4 ce 3d ee 66 f5 3d
       0.0968441 -0.07077861 0.10092958 0.11982523
000010 e3 f1 cc bb 12 89 0c 3e e3 39 93 bd 7f 81 5f bd
       -0.006254421 0.13724163 -0.071887754 -0.054566856
000020 1a 63 65 be af 1e ea 3d 2d d3 b6 bb ee 5f 98 3c
       -0.22401085 0.11431634 -0.0055793733 0.01860043
000030 58 7c 98 3d 42 87 02 3e 6b ce f0 bd 69 e9 98 bd
       0.07445592 0.1274691 -0.11758121 -0.074663945
000040 40 37 de bd cf d8 15 3d df d4 5f 3d 52 71 20 3e
       -0.10850382 0.036583718 0.05464637 0.15668228
000050 f6 6e 08 be de 1d 1a 3e 0b f2 f8 3d ac 10 e2 bd
       -0.13323578 0.15050456 0.12155541 -0.11038336
000060 40 a9 fd bd be be 86 3c ee 96 a0 3d 07 36 a3 bd
       -0.123857975 0.016448375 0.078412876 -0.07969289
000070 82 1a a7 3d bc ce ed bd 72 6b 5b bd 40 2d 01 be
       0.08159353 -0.11611697 -0.053569265 -0.12614918
000080 8b e0 36 3d 1a 2e 80 bc 8a 83 27 3e 10 69 a6 3c
       0.044647735 -0.015646983 0.16358772 0.02031377
000090 af 50 01 be a3 72 25 bd c2 30 a2 bd 0f 2e 90 3d
       -0.12628435 -0.04039253 -0.07919456 0.07040035
0000a0 44 8e ee 3d dd e4 b2 3d 8e 66 a8 3e 2b ee 3a bd
       0.11648229 0.087350585 0.32890743 -0.04563729
0000b0 81 c2 11 bd 12 fd 9c be cc d8 89 3d 1b 36 06 be
       -0.035585884 -0.30661827 0.06730804 -0.13106577
0000c0 fd 04 e2 3c 6b c5 3d 3c 56 ce f7 3b cb 46 8e be
       0.02759027 0.011582713 0.007562439 -0.27788386
0000d0 67 76 32 3e 55 4a 1e 3d 69 18 55 bb 3a bd 2b 3c
       0.1742798 0.038645107 -0.003251577 0.010482127
0000e0 b6 53 48 be 24 4a ca 3c 03 c3 1e be 2b 58 02 3e
       -0.19563183 0.024693556 -0.15504079 0.12728946
0000f0 6c 13 93 3c 7d 3b 80 be d5 47 18 3e 99 a4 a1 3d
       0.017953597 -0.25045386 0.14871152 0.07892723
000100 5c aa 16 3c e2 03 66 be 15 c1 a9 bd ad 21 82 3d
       0.00919589 -0.22462419 -0.082887806 0.063540794
000110 d0 bd 04 3d db b6 29 3e 02 10 c5 3d 12 96 88 bd
       0.03240758 0.1657366 0.09622194 -0.06669249
000120 6b c5 29 bc 16 5e 83 be e6 0a 0f 3e 3a 1c 7f 3e
       -0.0103620095 -0.2565772 0.13969001 0.24913111
000130 ff 13 1d 3d ca 84 73 bd 7f 7c d1 bd 4f 1c 86 3d
       0.038349148 -0.05945281 -0.10228824 0.06548368
000140 02 e6 9a bd f9 85 0b bc e3 f4 5f 3d da c5 17 3e
       -0.07563402 -0.008515828 0.0546769 0.14821568
000150 ec 17 cf b9 54 91 a2 bd 1f f6 d8 3d 80 3f 85 3d
       -0.0003949994 -0.079378754 0.10593819 0.06506252
000160 3b 77 25 3e c6 e5 fe 3d fe 6f 29 3d c7 7a 07 bd
       0.16158764 0.124461696 0.04136657 -0.033076074
000170 54 61 6c bd 5b a6 ce bd 28 cf c5 bd 85 f8 c7 b9
       -0.057710007 -0.100903235 -0.096586525 -0.000381414
000180 ae 28 3e 3d 48 46 84 3e 68 1c 0c bd ca a0 3b be
       0.046425514 0.2583487 -0.034206778 -0.18323055
000190 ed 76 a8 3b 1f 01 6d 3d 3a e9 b1 3c 26 a3 91 be
       0.00514113 0.057862397 0.021717656 -0.28444785
0001a0 77 33 4e 3e 7f 9d d7 bd c6 df 56 bc 60 23 84 be
       0.2013682 -0.10528087 -0.013114875 -0.2580824
0001b0 36 ac f3 bd 1f 2b 00 bd 0f d4 c9 bd 6d 3b ae bd
       -0.11898081 -0.031291123 -0.098549 -0.08507428
0001c0 c2 6a b6 bd 64 86 3c be 9f eb dc bd ac e9 7e 3d
       -0.08907081 -0.18410641 -0.10787129 0.062234566
0001d0 5a ba 90 3d 24 e8 14 be c6 e6 3b 3e 07 c8 80 be
       0.07066794 -0.1454168 0.18349752 -0.2515261
0001e0 e3 e0 98 bd e6 78 fe bd 0e f5 02 3d 66 fb fb 3c
       -0.07464769 -0.12425403 0.031971984 0.030759525
0001f0 a3 0c 13 be aa 08 dd bd c1 b7 b2 3c 36 60 45 3e
       -0.1436029 -0.10792668 0.021816136 0.19274983
000200 f1 66 6f 3d 9a bd 4d bd 25 7c 7d 3d b3 b9 75 bd
       0.058447782 -0.050229646 0.06188597 -0.05999155
000210 87 1e 8a 3d 68 0e 90 3e ba 24 0e bd 07 45 32 3e
       0.06744104 0.2813599 -0.034702994 0.17409144
000220 bb b2 37 bd c8 3d 81 3e 57 e0 a1 3d 01 cd 85 3e
       -0.044848185 0.25242448 0.079041176 0.26132968
000230 74 c5 76 bc af b4 dd bd b2 38 dc bc 04 fc b7 bc
       -0.015061725 -0.10825478 -0.026882503 -0.022459038
000240 be f7 a8 3d 0d 5c bf bc 72 ef 6e bd 38 83 ad 3e
       0.08250378 -0.023359323 -0.05833382 0.33889174
000250 08 04 88 be 4d 41 db 3d 76 a9 2b be 3b 43 71 be
       -0.26565576 0.107058145 -0.16763863 -0.23560803
000260 70 9c 06 3e 16 bd a1 3d f5 3c 6f be c3 91 28 be
       0.13145614 0.078973934 -0.23363097 -0.16461854
000270 d5 c6 1c be ea bd 0e bc 92 09 77 be fc be 92 3e
       -0.15310223 -0.008712271 -0.24124745 0.28661335
000280 ce d9 e7 bc ba d0 87 bd 14 3b 51 3c f1 6c 89 3c
       -0.0283021 -0.06631608 0.012770433 0.01677558
000290 33 42 48 bd 41 1d 72 3e 2c fe 39 bd d5 44 52 3e
       -0.048891257 0.23643972 -0.045408413 0.2053407
0002a0 2f 0a e6 bd 56 85 fa be 85 64 d2 3d 65 10 0f 3d
       -0.11232411 -0.48929852 0.10273079 0.034927744
0002b0 c5 98 9f 38 56 ab dd bc c7 d7 ad 3d 6b 42 a8 be
       7.610166e-05 -0.027059238 0.08488422 -0.32863173
0002c0 29 fa d7 bd 81 30 c7 bd bc 3e c5 3d 1f 53 b1 3d
       -0.10545761 -0.09726048 0.09631106 0.08658432
0002d0 e1 01 9a 3d 7c 81 8c 3d c9 3b 8c 39 ba 8f 10 be
       0.075198896 0.06860635 0.00026747424 -0.14117327
0002e0 bc 1e 0b be ff 1d 0b be bf 88 fe bc 36 72 91 bd
       -0.13585943 -0.13585661 -0.031071065 -0.07101862
0002f0 7e 49 43 be 11 a1 5d 3d 3b c2 93 3c ba 5b 53 3e
       -0.19071004 0.054108683 0.018036952 0.2064046
000300 01 57 02 3e 1b 48 88 3e 8f 68 b7 bc 22 f7 08 3c
       0.12728502 0.26617512 -0.022388725 0.008359702
000310 2d ca 1e 3d b2 81 dc 3d c9 d7 d9 3d eb 66 58 3e
       0.03876703 0.10766925 0.10636861 0.2113301
000320 e8 cd 72 3d 0c 84 a3 be a9 e0 a9 be db 91 07 3e
       0.0592784 -0.3193668 -0.33179215 0.13239233
000330 92 6b 04 3e 52 d0 49 be 70 22 c3 3a 41 a3 fa bc
       0.1293166 -0.19708374 0.0014887583 -0.030595424
000340 79 23 0c bd cb 19 c3 bc 96 93 17 be 6a 53 81 be
       -0.034213517 -0.02381601 -0.14802393 -0.25258952
000350 1c 28 94 3d 46 59 e8 3d 10 dd a7 3d 95 67 72 3e
       0.07234213 0.113451526 0.08196461 0.23672326
000360 1e b5 29 3e 89 31 78 3d 08 38 5c 3d 1a 1e b8 3b
       0.16572997 0.060594115 0.053764373 0.0056188228
000370 0b a2 1d bd 58 24 0f be 07 fe 5b bd 1d 45 cc 3d
       -0.038484614 -0.13978708 -0.053709056 0.0997412
000380 2b f8 5f 3c 9c 7c 6c bd 10 8f a4 bd 66 3a 65 3e
       0.013670008 -0.057736024 -0.080350995 0.22385558
000390 8b 8e 2c 3e 7e a3 0f bb 2e 31 37 3d 74 80 d9 3d
       0.16851251 -0.0021917517 0.044724636 0.106202036
0003a0 25 39 17 ba 73 5b 78 3e 75 59 7f 3c 31 2f 73 3d
       -0.0005768708 0.24253635 0.015585293 0.059371177
0003b0 f7 5c 6a be 3e 48 9e 3b e5 70 14 3e 9c 29 91 bd
       -0.22887026 0.0048303893 0.14496191 -0.070880145
0003c0 51 86 e2 3c 9e 76 b3 3c 51 c3 09 be bd d4 47 3e
       0.027651938 0.021907147 -0.13453414 0.19514747
0003d0 1b 7f b1 bd 4c 31 ad 3e 4b d7 7a 3c 0d f0 1c bc
       -0.086668216 0.33826673 0.015310119 -0.009578717
0003e0 fb 7e 51 3e 5d 02 57 be 0c 85 30 3e 2b e0 88 bd
       0.20458595 -0.20996995 0.17238253 -0.06683382
0003f0 65 d9 2d be 91 84 66 be 7f 8d 75 bc cb 68 35 be
       -0.1697746 -0.22511508 -0.014987349 -0.17715757

linear1.bias f4 [128]
000000 af 53 98 3e 11 8a 24 be a9 3e df be 87 e7 d6 bc
       0.29751346 -0.16068293 -0.43602493 -0.026233448
000010 d9 e9 0d bf 14 00 af be 47 48 a5 be 59 59 31 bf
       -0.5543495 -0.34179747 -0.32281706 -0.6927696
000020 11 b2 ff 3e 32 c0 a3 3e 3f cc 49 bd d3 a0 03 3f
       0.4994054 0.3198257 -0.04926705 0.51417273
000030 68 4f 03 bf 44 02 b6 3e aa ae 35 be 3c 27 76 3e
       -0.5129304 0.35548604 -0.1774241 0.24038404
000040 f1 87 b7 be 5d cd 23 be 71 1e 0b 3e 7f aa 62 bf
       -0.35845903 -0.15996309 0.13585831 -0.88541406
000050 85 d8 dd be 97 72 73 be bb e3 f2 be 28 35 48 bf
       -0.43329254 -0.23774181 -0.4743937 -0.7820611
000060 b3 7f 8f 3c 38 46 b1 bd 18 46 c1 3e eb 1c 1c 3e
       0.017516946 -0.08655971 0.3774879 0.15245406
000070 60 da aa bd 47 17 57 be 5c d5 13 3f 13 38 09 bf
       -0.08342433 -0.21004973 0.57747436 -0.5360119
000080 5a ae 59 3e a6 49 b2 be 3f f2 01 3e a6 de 02 be
       0.21257916 -0.34821814 0.12690066 -0.12780246
000090 0e 0f cd 3e 25 08 b8 be e0 9d 43 be 49 1a 24 bf
       0.40050548 -0.35943714 -0.19103193 -0.6410261
0000a0 2e c1 88 3f 5a a4 07 bf 4c 7d 83 bf 52 08 1e 3e
       1.0683954 -0.52985156 -1.0272613 0.15432861
0000b0 db ba c9 be 75 32 0e bf 62 88 aa 3e a1 83 5e 3d
       -0.39400372 -0.5554574 0.33307177 0.05432475
0000c0 af 7f 23 bf be 5b 36 3f f0 53 22 3e 63 65 5b bf
       -0.63866705 0.7123374 0.15852332 -0.8570158
0000d0 bc 6e 3c bf e1 9f af 3e 0f 03 10 3e 6d a5 65 3e
       -0.7360647 0.34301665 0.14063667 0.22426386
0000e0 93 f9 b4 be c1 ac 81 bd e2 c5 9b 3e 70 8c 6c 3e
       -0.3534666 -0.06331778 0.3042441 0.23100448
0000f0 1b bb 78 be a9 fe d7 be b0 b8 3b 3f 98 c0 0b bf
       -0.24290125 -0.42186478 0.73328686 -0.5459075
000100 3c c8 9b 3e 38 7b f8 3c 8a 14 b8 ba cc d4 c1 3e
       0.30426204 0.030332193 -0.0014044207 0.37857664
000110 d8 a8 5d be 3d eb 76 bd 97 4d 86 3e fe 1a f8 3c
       -0.2164644 -0.060282934 0.2623107 0.030286308
000120 03 93 10 bf 1e 11 96 3e 92 b4 44 3f d4 5f 8b 3c
       -0.5647432 0.29309934 0.7683803 0.017013468
000130 f9 58 6e 3f 91 39 e8 bb b8 b8 f0 be 96 48 10 3f
       0.9310451 -0.0070869406 -0.4701593 0.5636076
000140 39 b9 8d 3e 8d 18 b0 3d 36 a3 97 3e 11 05 1b bf
       0.27680376 0.08598433 0.29616708 -0.60554606
000150 b3 3a b6 3e b3 20 f4 bd 7f 62 d2 be b2 00 c8 3e
       0.3559166 -0.119202994 -0.41090772 0.3906303
000160 23 d0 b9 be 3b 88 b7 3e 60 82 1f 3f f7 b6 be 3e
       -0.36291608 0.35846123 0.6230831 0.37248966
000170 f3 8d ce 3e 60 84 4b 3e 8c 0d 49 3c 2a 3c 6e be
       0.40342674 0.19874716 0.012271296 -0.23265138
000180 ef ea 3f 3f 39 ea 89 be 12 13 0d 3e c9 72 58 bf
       0.74967855 -0.2693651 0.13776806 -0.8455015
000190 90 e8 41 bd cc ad 96 be 9c 85 ac 3e 69 da ea be
       -0.04734093 -0.29429471 0.33695686 -0.4586976
0001a0 21 4d 96 3e 84 75 27 bf 76 19 0e bd 04 8b 61 3f
       0.2935572 -0.6541369 -0.03469225 0.88102746
0001b0 c7 8e c5 be 04 57 1d be 3c 85 8d bd 91 03 8f be
       -0.38585493 -0.15365225 -0.06910178 -0.27932408
0001c0 8d ad 3f 3d ed 6a 82 3d 64 56 2d be 06 2e ec bd
       0.04679637 0.06368051 -0.16927487 -0.11532216
0001d0 26 0e e6 be 24 07 6d 3e 44 86 1a bd cf f2 4a bd
       -0.4493267 0.23147255 -0.037725702 -0.049547967
0001e0 2d 0f b9 3e 46 42 10 be 92 2c 9e bd 33 83 56 be
       0.3614439 -0.14087781 -0.07723345 -0.20948486
0001f0 6f 7f f3 be 96 8d 4a be 82 9b 30 bd 11 5f 7e 3c
       -0.47558162 -0.19780573 -0.043117054 0.015525595

linear2.weight f4 [32, 128]
000000 75 8d 0b bd b3 6b 71 3d ae 22 6d 3c 7f 9d 74 be
       -0.03407045 0.0589406 0.0144736 -0.23888205
000010 46 59 b7 3d d0 5f 12 3e 61 47 8b 3d a5 f2 da 3c
       0.089525744 0.14294362 0.06800724 0.02672703
000020 eb 0a 36 3d 29 2b 92 3e b7 40 6c 3e 5c 6c 1f bc
       0.044444006 0.28548554 0.23071562 -0.009730425
000030 84 b1 7f be 4b b1 16 bd fd 25 07 be 80 e6 ef 3d
       -0.2497006 -0.036790174 -0.13198085 0.11713886
000040 b1 33 8f bd 42 63 8f bd ac 1e bd 3d c8 ad 01 3e
       -0.06992281 -0.07001354 0.09234366 0.12663949
000050 a4 fb a0 bd e9 69 4b bc 9e 96 04 3e c2 1d a7 be
       -0.07860497 -0.012415388 0.12948081 -0.3263989
000060 13 36 df bc d5 7a 04 3e 96 d7 5b bd 5a 1c f1 bd
       -0.027247464 0.12937482 -0.053672396 -0.11772986
000070 b2 dd c0 bd f9 85 ae bd 28 ba 37 3e 07 54 38 3c
       -0.09417285 -0.08521647 0.17942107 0.011250502
000080 15 35 4c 3e ff e3 da 3c b7 1e 17 3d 9d 62 0c be
       0.19942124 0.026720045 0.036894526 -0.13709493
000090 39 ba 89 3d 9a 7d 67 be e6 76 af 3d 80 4b 17 bd
       0.06724972 -0.22606507 0.085676 -0.036937237
0000a0 ee 63 69 be e5 ec 84 bd c7 c8 81 3e c2 51 c9 bd
       -0.22792026 -0.064904965 0.25348493 -0.09830047
0000b0 9b 21 4d 3e 45 e1 1b 3e 0b 4f 3c 3e c6 b5 85 3a
       0.2003235 0.15222652 0.18389527 0.0010201267
0000c0 6a 9c 84 3e 32 c5 d5 3c 4b fe 68 be 00 1f e8 bd
       0.25900584 0.026095007 -0.22753255 -0.11334038
0000d0 b2 1f 2d 3e 8a 46 5c 3e e8 3f 63 be 02 a6 65 be
       0.16906622 0.21511284 -0.22192347 -0.22426608
0000e0 c1 42 19 3e ec 2d 50 be 18 ad b5 bc b2 f6 23 3e
       0.14966871 -0.20330018 -0.022177264 0.16012076
0000f0 e2 2b 03 3e 87 04 db 3d 24 b8 2d be d6 eb ec 3c
       0.12809709 0.10694223 -0.16964775 0.02892105
000100 4f cd 80 3d 74 a9 55 bc 96 2d 3a 3e 86 9a 89 3d
       0.062891595 -0.013040889 0.18181452 0.06718926
000110 b4 17 57 3e 14 13 7f 3d cd 97 e3 3d 0c a5 c1 bd
       0.21005136 0.062274054 0.11112938 -0.09455308
000120 1b e5 07 3e a7 bb 2d 3e 7f e4 f8 bd 2e 1b cc bd
       0.1327099 0.16966115 -0.12152957 -0.099661216
000130 d9 cb b3 bd 8f b7 87 bd da e6 7b be c1 ab 2b be
       -0.08779115 -0.06626808 -0.24599782 -0.16764738
000140 e1 65 5d be 9a 98 9e 3c 99 be 2e be a1 17 47 be
       -0.21620895 0.019359875 -0.17064895 -0.19442607
000150 ab 16 bb 3d cd bf 24 3e e1 9c c9 bc 89 45 54 3e
       0.09135183 0.16088791 -0.024610939 0.2072965
000160 7a 71 d0 3d ee ff bd 3d e9 aa 26 3e a9 8e a0 be
       0.10177894 0.0927733 0.16276135 -0.3135884
000170 e6 a4 86 3e 4b 3a 83 3b 36 c5 83 be 9e a4 72 be
       0.26297683 0.004004752 -0.25736398 -0.23695609
000180 79 cb 87 bd f5 be 3a 3e 2e 3c 65 bb 19 a7 18 be
       -0.06630606 0.18236907 -0.0034978497 -0.14907493
000190 4f 54 d2 bd dc 4f e0 3d 15 b9 a7 3d 90 e1 ec bc
       -0.10269987 0.10952732 0.081895985 -0.02891615
0001a0 4e 2a f8 3c 8b ae 97 3e d7 c1 38 be b5 33 5e 3e
       0.03029361 0.29625353 -0.18042694 0.21699412
0001b0 cf 72 23 bd 68 34 8b bd f5 c5 b2 3d 65 ba a4 3e
       -0.039904412 -0.06797105 0.087291636 0.32173458
0001c0 52 50 f5 3d dc 87 03 be 5f 23 30 bc 57 9f 88 bd
       0.119782105 -0.12844795 -0.010750621 -0.06671017
0001d0 51 48 e4 3d 8b 3c 5a be 0c bb b2 bd 97 24 07 3e
       0.11146606 -0.21312158 -0.087270826 0.13197552
0001e0 f1 1d b0 bc 3c b6 03 be 0b 04 a9 bd 0d 5f 27 3e
       -0.021498652 -0.12862486 -0.08252724 0.16344853
0001f0 79 fb 7d 3e 36 7f 17 3e 5e b6 3d 3e 6f 78 92 3e
       0.2480296 0.14794621 0.18526599 0.2860751
000200 51 51 c2 bc c5 e8 e2 bd e4 4f 4d bd 5a 38 82 bd
       -0.023720415 -0.110795535 -0.050125018 -0.063584045
000210 fd ab b1 3d 50 70 aa bd 9e b8 ff bc d6 08 3d 3e
       0.08675382 -0.08322203 -0.031215962 0.18460402
000220 62 2e ef 39 a3 b8 d9 3d 8e c6 53 3e dc ec 08 be
       0.0004562019 0.1063092 0.20681211 -0.13371605
000230 26 85 18 be a1 4a 82 3e 36 32 17 be 6e fc 57 3c
       -0.14894542 0.25447562 -0.14765248 0.0131827425
000240 50 3f e7 bd fa 54 99 be 07 6c 2e be 35 c8 1a 3d
       -0.11291373 -0.29947644 -0.17033397 0.03778859
000250 44 33 b0 bd 4a a0 df 3d 14 4c b4 3b 4b e4 1e 3e
       -0.08603528 0.109192446 0.0055022333 0.15516774
000260 b2 09 ff bd 63 fd cc 3c 93 fd 7c be da 67 65 be
       -0.12453021 0.025023168 -0.24706106 -0.22402897
000270 54 43 43 3e 92 8b 0a 3d a5 b7 1a be bb ad b1 3d
       0.19068652 0.03382451 -0.15109117 0.086757146
000280 14 22 50 be 44 15 37 3e ca 14 18 3d 2d 8f 30 bd
       -0.203255 0.17879206 0.0371292 -0.043105293
000290 f5 fc ab bd 5c 72 f0 3d 54 c0 64 be cd 4e 92 3d
       -0.08397857 0.11740562 -0.22338992 0.07143936
0002a0 9c 23 59 3e 8e 5a c7 3d 1b b2 28 3e d7 a7 2a 3d
       0.2120499 0.09734069 0.16474192 0.04166397
0002b0 e3 4a 89 be 76 18 6d 3e d2 dd f3 3c 3a 0f 84 3d
       -0.26814947 0.23153862 0.029768858 0.06448217
0002c0 e8 71 20 3e 80 55 6d bd 02 a2 87 3e 79 5f 29 3e
       0.15668452 -0.057942867 0.2649079 0.16540326
0002d0 de 77 3f 3e 3d d1 b2 bc f8 70 0b be 07 45 2e 3e
       0.1869807 -0.021828288 -0.13617313 0.1701852
0002e0 19 dd 66 be 55 24 ea bc 2d 15 98 bd b2 e3 09 3e
       -0.2254528 -0.028581778 -0.07425914 0.13465765
0002f0 65 87 35 be db e0 f6 bd 3d 85 2f be b8 80 9c bd
       -0.1772743 -0.120546065 -0.1714067 -0.07641739
000300 4a 96 7b 3d ba 42 05 be 89 ed 51 be 6e 33 2b 3d
       0.061422624 -0.13013735 -0.20500769 0.041797094
000310 c6 2e 94 bd 0c 37 c0 bd 4b cd 90 3d 87 0b b6 be
       -0.07235484 -0.09385499 0.070704065 -0.3555567
000320 d3 d0 30 3d b2 54 d6 bd a3 30 99 be 42 fe 6d 3d
       0.0431679 -0.10465373 -0.2991992 0.058103807
000330 65 39 0b be b8 2c b6 bd 54 26 6f be 9c 55 7c bd
       -0.13596113 -0.08895248 -0.23354465 -0.06160508
000340 4f 8d 87 bd 0a 4d d2 be 7a 29 3d bd bf f1 3a bd
       -0.06618749 -0.410744 -0.046182133 -0.045640703
000350 b0 c4 5d 3d 11 85 2d 3e 00 81 c7 3d 85 47 84 be
       0.054142654 0.16945292 0.09741402 -0.25835815
000360 32 62 ce 3c 72 cf 20 3e 0f 5f c6 3d 2d 85 41 be
       0.025193308 0.15704134 0.096861 -0.18898459
000370 09 61 d7 bd f1 09 c8 3c 78 47 2f be cd e2 9c be
       -0.10516555 0.024418803 -0.17117107 -0.30641785
000380 58 b5 19 bd 5d 01 27 be 98 8b d2 3d 3c 9d 18 bd
       -0.03752646 -0.16309114 0.10280532 -0.037259325
000390 6b 3b d8 bd 5b 5f d8 3c 3a c4 14 be fe fa a9 3d
       -0.10558208 0.026412657 -0.1452798 0.08299826
0003a0 e2 30 1f 3d 56 a6 f7 3d 36 f7 a4 be 4c 11 36 be
       0.038864978 0.12092273 -0.32219857 -0.17780036
0003b0 04 0a 16 3e df ea 23 3d 60 3b 29 bd 78 d9 90 be
       0.14652258 0.040018912 -0.04131639 -0.28290915
0003c0 f4 2a 47 3e 68 2c 73 3e 6e 6a d1 3d e2 2c 89 bd
       0.19449979 0.23747408 0.10225378 -0.06698014
0003d0 7b 21 22 be df 35 94 3e 46 2a 0b be b5 e0 bc bc
       -0.15833084 0.2894735 -0.13590345 -0.023056367
0003e0 11 96 87 be 4b 16 dd bc b7 61 2a be 4f 13 ed 3d
       -0.2648168 -0.02698817 -0.16638838 0.115759484
0003f0 ce 71 28 be d9 a0 e5 3d 01 81 38 bd 98 29 fc bd
       -0.16449663 0.1121232 -0.045044903 -0.12312621

linear2.bias f4 [32]
000000 08 de 2c be fe c2 9f be e2 59 0b be da 9c a0 be
       -0.16881573 -0.31203455 -0.13608506 -0.31369668
000010 c0 02 f9 3e f9 25 e3 3d e1 3d db bd 34 f6 40 be
       0.4863491 0.11091227 -0.10705162 -0.18843919
000020 a9 b4 86 be 74 57 4f 3f af b7 65 3e 9a 8d 05 3f
       -0.26309708 0.8099282 0.22433351 0.5216919
000030 e9 48 02 3e 2c e9 57 3e 3a 0e 41 bf 28 bd b9 be
       0.12723126 0.21085042 -0.75412333 -0.36277127
000040 e3 c4 87 be 37 88 29 3f 48 4c c7 be 2b 34 a5 3d
       -0.265174 0.6622347 -0.38925385 0.08066591
000050 4c 83 5d 3d 0b c0 56 3d db b9 51 3e 36 64 a8 3e
       0.054080293 0.05242924 0.20481054 0.32888955
000060 bb 56 c8 3e 8c 87 c2 be 62 90 da be 34 9f f6 3e
       0.3912867 -0.3799404 -0.4268828 0.48168337
000070 34 25 05 bf 16 9e 39 3f ed ac 20 bd da f2 35 be
       -0.5200989 0.72506845 -0.039227415 -0.17768422

output.weight f4 [50, 32]
000000 34 f2 3c bd 59 e4 61 3e 84 6c f6 bc df 49 d6 be
       -0.04612942 0.22059764 -0.030081041 -0.41853234
000010 dd fc c9 3d 4a 12 11 3d db c7 93 be 64 10 e4 bd
       0.09862683 0.035417832 -0.28863415 -0.11135939
000020 0b 09 8d bd 56 be a9 be 57 e7 e5 bc 0a 79 6b be
       -0.068864904 -0.33153027 -0.028064413 -0.22995391
000030 ed a5 5d bc 7e 77 02 3e ad 7f 84 bd f4 6c 6d be
       -0.013528329 0.12740895 -0.06469665 -0.23186094
000040 7c 31 56 be 48 17 29 be 24 70 d7 3d c5 8b 96 3d
       -0.20917314 -0.16512787 0.10519436 0.07350878
000050 2d ba 3f 3e b5 df 90 be 8e d6 f8 3d 74 b4 0b be
       0.18723364 -0.28295675 0.12150298 -0.13643056
000060 20 6e 41 3d e8 4b 85 3c b3 34 2d be 8e 61 f4 3c
       0.047224164 0.016271546 -0.16914634 0.029831674
000070 e8 8e 6d 3c ef a7 6b be 15 54 50 3e d0 82 49 be
       0.014499404 -0.2301328 0.20344575 -0.19678807
000080 c1 62 2a be b7 5d 42 3d 4a 7a 42 bc 17 bb 0c be
       -0.16639234 0.047452655 -0.011869976 -0.13743244
000090 ee 8d e4 bb 63 05 23 3e 6e 44 8a 3e a9 fe d2 bd
       -0.006974927 0.15920024 0.27005333 -0.10302479
0000a0 03 26 d6 3c dc 8f ca 3e 0f 3d 0d 3e ff 5b e2 3e
       0.026141172 0.3956288 0.13792823 0.44210812
0000b0 b0 42 25 bd b6 e6 a3 3d 81 fb e8 3d c0 9e b8 3e
       -0.0403468 0.08002989 0.113760956 0.36058617
0000c0 ce 8f 50 be ea a6 15 bd 8c f8 8e 3d 52 a0 5c 3d
       -0.20367357 -0.036536135 0.06981 0.05386383
0000d0 35 72 c3 bd ec 4a 90 bc b1 48 ad be 4a 67 4a 3d
       -0.09543268 -0.01761385 -0.33844522 0.04941491
0000e0 7c 35 fa bc 95 3a f1 bd b3 df 75 be 29 7b 4f 3d
       -0.030543081 -0.11778752 -0.24011116 0.050654564
0000f0 d8 c8 d1 bc 17 f8 12 be d9 85 a0 3e 7b d5 b9 bd
       -0.025608465 -0.14352451 0.31352118 -0.09073921
000100 e6 9f a2 3d d9 6f 28 3d 1f 8f 9d be b1 12 f8 3d
       0.079406545 0.04112229 -0.30773255 0.1211294
000110 9c 21 7b 3d 93 25 b7 bc 49 6a 56 bd 13 46 38 bd
       0.06131135 -0.022356784 -0.052347455 -0.044988703
000120 c7 8b 59 3e 67 b2 fe 3d ca 08 05 3e a7 c4 2b be
       0.21244727 0.12436371 0.12991634 -0.16774236
000130 e0 59 0b be 8c 12 b3 3d 73 d2 d5 3d b2 c7 fd bd
       -0.13608503 0.08743772 0.10440531 -0.123916045
000140 9a 5d b6 3d 61 12 95 be f0 67 8e 3e b3 e7 cf 3d
       0.08904572 -0.29115584 0.27813673 0.10151615
000150 22 63 c5 3d 72 5b 88 bd fd 3a 3b be 55 23 93 3e
       0.09638049 -0.06658067 -0.18284221 0.28737894
000160 93 f7 20 3e 4e a6 93 be 8e f5 bc be 85 99 da 3d
       0.15719442 -0.28837818 -0.36906093 0.10673813
000170 29 05 13 be 1a 41 04 bd 23 c1 24 be a8 21 80 3e
       -0.14357437 -0.03228865 -0.16089301 0.25025678
000180 bb 31 d1 3d 42 b7 25 be 45 cd 01 bd 52 be 1b 3e
       0.102145635 -0.16183189 -0.0316899 0.1520932
000190 de 6e a4 be 42 a5 89 39 d2 49 f8 bc 80 1e 9b 3c
       -0.32115835 0.00026253803 -0.030308638 0.018935442
0001a0 cc 50 f7 3c eb 8c 46 be 5a 07 89 be 70 f1 32 be
       0.030189894 -0.19389693 -0.2676342 -0.17474914
0001b0 ba ac 15 bd 87 e2 e4 3d f5 e9 01 bc 44 67 92 3e
       -0.036541678 0.11176019 -0.007929315 0.2859441
0001c0 15 2f 10 3e ff 3f f9 bd ef d9 04 be 91 34 08 3e
       0.1408046 -0.121704094 -0.1297376 0.13301302
0001d0 e8 f0 61 3e df 13 48 be 1c 9d 29 be 7c c4 34 3e
       0.22064555 -0.1953883 -0.16563839 0.17653078
0001e0 23 e8 aa bd e5 a3 34 bd f6 e0 bf bb c4 55 49 3d
       -0.08345058 -0.044101615 -0.005855675 0.049154058
0001f0 56 ad 94 3e fc b7 f0 3c 62 3d 2b 3d 92 f8 de 3d
       0.29038495 0.029384606 0.041806586 0.10887255
000200 3b b9 9c bd b5 05 86 3e 5d a7 2b be c8 d1 3f be
       -0.076525174 0.2617623 -0.16763063 -0.18732369
000210 69 3d 48 be 82 df 64 be 80 1a 69 3e 71 a4 df bd
       -0.19554676 -0.22350886 0.22764015 -0.109200366
000220 eb 52 77 3e 09 44 5d bd 04 78 34 bd 70 71 95 3d
       0.24152724 -0.05401996 -0.04405977 0.07297027
000230 19 5f 3b be e5 3d 63 be 08 09 77 bd c9 14 b8 bd
       -0.18297996 -0.2219158 -0.060311347 -0.089883395
000240 bb a8 c4 3d 46 93 84 bc 04 f3 06 be bb ce ed bd
       0.09602495 -0.016183507 -0.1317864 -0.11611696
000250 2f 45 30 3e 7c 8f 0f 3e e0 0e 3f 3e 76 20 6f be
       0.17213891 0.14019579 0.18658018 -0.23352227
000260 af 72 6f be a5 37 35 bd b7 e5 26 bd 10 6d 03 bd
       -0.23383592 -0.04424252 -0.040746417 -0.032086432
000270 a6 61 9c be db dd 99 3e 49 ff 54 3e a6 64 27 3d
       -0.3054325 0.30052075 0.20800509 0.04086747
000280 af 7d ed 3d 48 00 19 3e ca 9e ee be 02 88 32 bd
       0.11596238 0.14941514 -0.4660552 -0.04358674
000290 35 3b 37 3a 0b af ee bd 1a c5 a2 3e 04 0c 70 3e
       0.00069897185 -0.116544805 0.31791002 0.23442084
0002a0 f8 33 59 be de 35 5b 3e 18 2d b2 3c 8a 38 3a bd
       -0.21211231 0.21407267 0.021750018 -0.045464076
0002b0 ab c7 a3 3e 9d 0f d2 bb 77 a6 23 bd 55 d4 2b 3d
       0.31988272 -0.0064105527 -0.039953675 0.041950542
0002c0 f6 8c 24 be dd 0e b5 be 4d c3 b1 bd 1c 06 4f 3d
       -0.16069397 -0.35362902 -0.08679829 0.050542936
0002d0 08 c6 1b be 4e 21 47 be 4a c2 7f 3e c9 a4 0b 3e
       -0.15212262 -0.19446298 0.24976459 0.1363708
0002e0 cd 4d 2b be 25 ce 20 3d 3d 37 b3 3e e2 46 8d 3e
       -0.16728897 0.039259095 0.3500308 0.27593142
0002f0 b0 8c 8a be 41 aa a9 3d e3 ff aa be 1d 92 74 3d
       -0.2706046 0.082844265 -0.3339835 0.059709657
000300 f8 ff 41 bd 03 45 82 3e 09 53 68 3e 39 6f bf be
       -0.04736325 0.25443277 0.22687925 -0.37389544
000310 65 e4 65 3c 36 13 89 3d 74 c8 81 bd 3b af bf bc
       0.014031504 0.06693117 -0.063370615 -0.023398986
000320 69 a7 16 be c7 19 c3 bd e4 16 7b bc 9a 65 89 3d
       -0.147123 -0.09526401 -0.015325282 0.06708832
000330 be cc a2 3d f7 12 28 3d 87 d5 f6 bd 71 50 4c be
       0.07949208 0.04103371 -0.12052446 -0.19952561
000340 17 36 0b 3d 47 92 fd bc 37 db 5a 3d c5 34 7d 3e
       0.03398713 -0.03095354 0.053431716 0.24727161
000350 7e d5 e3 3d d3 c6 8b 3e 73 8f aa be ea e4 1b 3e
       0.11124705 0.27300128 -0.33312568 0.15224043
000360 72 a6 8d bd d0 9c 25 3e 35 61 68 3e 35 01 d4 3e
       -0.069165125 0.161731 0.22693332 0.4140717
000370 74 e2 5d 3e ef f6 26 3e b1 1b d9 3c f1 28 2e be
       0.21668416 0.16305135 0.026502462 -0.17007805
000380 76 e2 0e be 71 40 68 3c f5 ae 38 bd 12 aa 47 3e
       -0.13953575 0.01417552 -0.045088727 0.1949847
000390 d7 c8 2c 3e 6a 3a a6 bd b3 d6 38 3e 30 0a 94 bd
       0.1687349 -0.0811661 0.18050651 -0.072285056
0003a0 2f 58 76 be 91 26 18 be d0 ff 47 be ec bc 26 be
       -0.24057077 -0.14858462 -0.19531178 -0.16283005
0003b0 d6 b7 b3 3d 48 92 82 3e ba a4 18 be d3 69 0b be
       0.08775298 0.2550223 -0.14906588 -0.13614587
0003c0 b3 90 62 3e cd 05 a1 3d 64 c5 1a 3e 30 d3 8e 3d
       0.22125511 0.078624345 0.15114361 0.069738746
0003d0 dc c5 9f bd bf f3 01 3e f9 6e 9b bd dc f7 aa be
       -0.078014106 0.12690638 -0.07589526 -0.33392227
0003e0 05 14 1d be 02 47 14 be 01 4e ca bd 54 4d 02 3e
       -0.15339668 -0.14480212 -0.09878159 0.12724811
0003f0 8f 0f 79 be 6b 46 3f 3e 20 d8 62 3e 68 18 25 3e
       -0.24322341 0.18679206 0.22152758 0.16122591

output.bias f4 [50]
000000 cc a2 01 3d 41 9f 58 3e a0 b7 8d bd a1 4c 98 bf
       0.031649396 0.211545 -0.06919789 -1.1898385
000010 b7 55 37 bf c6 02 04 3e 6c d0 9d 3d 5c a1 ae 3e
       -0.71615165 0.12891683 0.07705769 0.34107482
000020 28 45 a0 bd 7c ba b5 3e de f3 0d 3f a3 33 41 3e
       -0.078256905 0.3549384 0.55450237 0.18867354
000030 1e db c3 be 71 b9 22 3f 55 3a 60 3f 2c b2 63 bf
       -0.3825311 0.6356421 0.8758901 -0.88943744
000040 b7 6f e8 3e 49 9f b2 3e 1e 0a 34 bf ae c8 91 bf
       0.45397732 0.3488715 -0.7032794 -1.1389368
000050 2f ed 8b 3c 1a dc 85 3f b2 d0 4a be 47 09 23 be
       0.017080871 1.0457795 -0.19806173 -0.15921508
000060 59 2b eb be cf 16 95 3f 7a 03 19 3f 14 8c 68 be
       -0.4593151 1.1647586 0.5977093 -0.22709686
000070 de da 40 be 42 d8 02 bf e1 d7 0d bf c8 32 9e 3e
       -0.18833491 -0.51111233 -0.5540753 0.30898118
000080 9c e8 05 be ad 35 85 bf 8a 9c 94 bf 12 9a 28 3e
       -0.13077015 -1.0407006 -1.1610272 0.16465023
000090 79 a0 45 be fe f9 fa be 72 13 a7 be 2f dd 00 3f
       -0.19299497 -0.49018854 -0.32632023 0.503375
0000a0 9f d7 17 3f 4a dd 3b be 4c 59 94 3e 2d 60 e7 3e
       0.59313387 -0.18346134 0.28974378 0.45190564
0000b0 6c 3b b7 3e 10 7a a9 be 43 a4 2b 3e ff a9 60 3e
       0.35787523 -0.3310094 0.1676188 0.21939848
0000c0 a3 c9 11 3e 20 c7 8a bf
       0.14237075 -1.0842018
