code/development/models/best_model_043.pth (torch, 480181 bytes, 8 tensors)

conv1.weight f4 [1, 1, 5, 3]
000000 b5 e6 b2 3d 66 11 51 3c 39 ce 17 3e a5 2d 86 3e
       0.0873541 0.012760496 0.14824761 0.262067
000010 ca 62 61 3e 6d fa fe bd 5c 90 1f bc cd 70 17 be
       0.22010341 -0.12450109 -0.009739008 -0.14789124
000020 0c 79 79 3d e4 44 49 3d 5a 46 f0 3c 8c 6a 0e be
       0.060906455 0.049137965 0.029330421 -0.13907832
000030 f7 07 09 be f4 1c 1c be 10 c1 ce bd
       -0.13381945 -0.1524542 -0.100954175

conv2.weight f4 [1, 1, 3, 3]
000000 be 96 6f be 97 ab db 3d d6 c4 4c 3e 74 a4 76 bd
       -0.23397347 0.107260875 0.19996962 -0.06021543
000010 b0 fb c5 bd 88 c3 13 3e 00 a8 77 bd 29 fa c5 bd
       -0.09667146 0.14430058 -0.06046295 -0.09666855
000020 1f ba e4 3c
       0.02792078

linear1.weight f4 [128, 870]
000000 85 b8 c4 3c 0c f0 37 bc 87 02 bb 3d 9e be 62 bd
       0.024013767 -0.011226665 0.091313414 -0.055357568
000010 e2 80 3a bd cf bd 19 bd 37 76 96 bd 06 ec e3 bd
       -0.04553307 -0.03753453 -0.073467664 -0.11129002
000020 71 98 f0 bb 6f a9 81 3b f7 a2 3c be cd 80 20 bd
       -0.007342391 0.0039569656 -0.18421541 -0.039185334
000030 a8 84 3e bc dd 84 3c be 1f d2 e1 bd e7 ae ee bd
       -0.011628307 -0.18410058 -0.110264055 -0.11654454
000040 a6 45 e7 bc e9 f6 87 3c 58 9e b6 bd 6d 85 6b 3d
       -0.028231453 0.016597228 -0.089169204 0.05750029
000050 81 5e e9 bc 0e 14 bf bd ad 9e 89 3c 60 d4 cc 3b
       -0.028487446 -0.09329997 0.016799295 0.006250903
000060 dc 98 6a 3d 5a 18 45 be 26 43 8b 3c 0f 0d d8 bd
       0.057274684 -0.1924757 0.016999792 -0.10549366
000070 5d c9 d9 bd 82 dd d1 bc 9f 66 45 bd 45 b8 54 bd
       -0.1063411 -0.025618318 -0.04819357 -0.051933546
000080 db 82 69 bd 52 48 78 bd 0f 29 8d bc 9e 4b a1 3d
       -0.05700956 -0.060615845 -0.017231492 0.07875751
000090 eb e7 73 3e 1f 45 09 bd e8 95 ba 3d 24 4a 1a be
       0.23818938 -0.033513185 0.091106236 -0.15067345
0000a0 d6 90 71 3c 5b 35 5b bc da 49 31 bd c6 26 2c be
       0.014744004 -0.01337942 -0.04328332 -0.16811666
0000b0 e7 8f b6 bd 86 3a 58 3d 54 c2 ec bd 7c c1 92 bc
       -0.08914166 0.052790187 -0.11560503 -0.017914526
0000c0 41 79 27 be df 50 bd bd b9 80 20 be 6c 02 4f bd
       -0.16354848 -0.092439406 -0.15674104 -0.05053942
0000d0 7d 91 fe bc 45 8a 76 be 78 9b 16 3d 45 6e ca bd
       -0.031075234 -0.24076183 0.03676936 -0.098843135
0000e0 56 58 ea 3c e7 c5 62 bd 33 80 3a 3c 3f 3d a4 3a
       0.028606575 -0.055364516 0.011383104 0.001253046
0000f0 d3 f1 0d 3e 02 08 91 bd 82 5d e5 3c 93 e4 56 3e
       0.1386178 -0.070816055 0.02799869 0.20985632
000100 4a 40 31 3e e6 22 cc 3d 8b a0 ac 3b ce 22 30 3d
       0.1730968 0.09967594 0.0052681617 0.043001942
000110 8d d8 c2 3d 59 4f 26 3e 92 f5 21 3e 4e 37 fc 3d
       0.0951396 0.16241206 0.15816334 0.12315236
000120 a6 c5 15 3e ee 0e 00 bd c9 c3 00 bd 71 f1 6f 3d
       0.14626178 -0.031264238 -0.031436715 0.058579866
000130 bb 54 af bb a8 bf 1a 3e 75 5e 25 3e 77 6a 5f bb
       -0.005350677 0.15112174 0.16149314 -0.0034090558
000140 f2 c6 b5 3c 94 e4 15 bc e6 11 08 3e ac 5f 2d 3d
       0.022189591 -0.009148736 0.13288078 0.042327568
000150 a2 e5 0c bd a9 a3 c4 3e 3b 29 63 3e fb cd 7a 3e
       -0.034398682 0.38406113 0.22183697 0.24492638
000160 a9 ac 00 3d a6 a2 03 3c 8c ab 74 3e ee 88 04 3e
       0.03141466 0.008034384 0.23893565 0.1294286
000170 a1 99 df 3d f6 d4 3b bd 6b 8d 36 bd f8 af 91 bd
       0.10917974 -0.045857392 -0.04456846 -0.071136415
000180 76 19 7b 3e 4a 77 37 3d ce 1e cc bd ac 5e 0f 3e
       0.24521431 0.044791497 -0.09966813 0.14000958
000190 e6 ca 58 3d 28 d8 e3 3d d3 b2 11 bd 6c 3d ec 3d
       0.052927874 0.11125213 -0.03557093 0.11535153
0001a0 52 bf 14 3e 69 76 2e be a8 c7 82 3c ec c8 19 3d
       0.14526108 -0.17037357 0.015964344 0.03754513
0001b0 b4 b2 71 bc 60 44 84 bd dd 21 e5 3d 01 cd 3d 3e
       -0.014752079 -0.06458354 0.111880995 0.18535234
0001c0 1d 18 7b bd d1 33 1c 3d 20 ce 1e 3e d3 9f b5 bd
       -0.061302293 0.038135353 0.15508318 -0.08868375
0001d0 21 3d 70 bd fe 27 20 be 36 ea d3 bc 40 1b 24 bd
       -0.058652047 -0.15640256 -0.025868516 -0.04006505
0001e0 86 eb 79 3c c8 1f bb bd 54 d6 0f bd 88 ab 49 3e
       0.015253907 -0.09136921 -0.03511651 0.1969434
0001f0 c5 c7 49 3e 0e 4d 13 3a a7 25 bc 3c 90 ce d0 bc
       0.19705112 0.0005619087 0.022967173 -0.025489122
000200 72 fc 23 bd c3 8b df bc 8f d9 e9 bc 2d e2 61 bc
       -0.040035672 -0.027288323 -0.028546123 -0.013786835
000210 d3 a2 7c 3c 21 6c 2e 3d 67 7d 79 bd 34 18 e9 3c
       0.01541968 0.04258359 -0.06091061 0.028453924
000220 c5 9a 9c 3c 88 e7 10 bd 5f d4 33 3e 88 a7 99 3d
       0.019116769 -0.035377055 0.17561482 0.07502657
000230 68 be ed 3d 75 3c f8 3c 30 e7 f5 bb 98 97 85 bd
       0.11608583 0.030302266 -0.0075043663 -0.06523055
000240 aa 8a b4 bd e6 81 dd bc eb 5f 2f 3e 37 99 1e 3e
       -0.088155106 -0.02703948 0.17126434 0.15488134
000250 23 82 ee 3d 61 1d da 3d 8c ff 6a 3d a5 d7 8e 3d
       0.11645915 0.10650135 0.057372615 0.06974725
000260 db a2 9b 3d 39 fd 64 3d 33 43 30 3e 94 0f 10 3e
       0.075994216 0.055905554 0.17213134 0.14068443
000270 7e eb 9e 3d 33 21 d2 3c 70 98 bb 3d 26 df 31 3d
       0.0775976 0.025650596 0.091599345 0.0434257
000280 48 b9 49 3e ae 36 aa 3d 2b f7 6c 3e 6d cc f8 3c
       0.19699585 0.083112106 0.23141162 0.030370915
000290 23 20 58 3e 87 d5 57 3b 42 62 ef 3d f8 a0 b5 bd
       0.21106009 0.0032933669 0.11688663 -0.08868593
0002a0 e4 a2 27 3d 6b d4 26 be 60 43 9c 3e 70 59 38 3e
       0.04092683 -0.16291969 0.30520153 0.18002868
0002b0 8d 73 83 3e 9c fa 1c 3d e7 a4 47 bd a6 68 06 be
       0.25674096 0.038324937 -0.048741248 -0.13125858
0002c0 3d 9c 13 3e c3 83 ec bd a2 b5 62 3d 1c 29 43 3c
       0.14415069 -0.11548569 0.055349 0.011911657
0002d0 5e 5b 5e bc 3f fb 8c 3d 48 ac 1e be 54 66 14 3e
       -0.013571588 0.06883859 -0.15495408 0.1449216
0002e0 1d a0 c2 bd 6e 81 86 bd 87 c7 76 bc ba 69 e4 3d
       -0.095031954 -0.065676555 -0.015062219 0.11152978
0002f0 dd 72 00 39 2c c9 79 3e 75 55 f4 3d 93 59 fd bd
       0.00012249821 0.24393147 0.11930362 -0.123706006
000300 7a b9 12 3e 1c 6e 92 bd 9d ea 5c be fe fb b2 bd
       0.14328566 -0.07149908 -0.21573873 -0.0873947
000310 c6 f4 d3 3d f7 0d 3c be 1f d9 ff bd ea 48 d6 3d
       0.10349421 -0.18364702 -0.124925844 0.10463126
000320 9a 5f 99 3b f0 b6 a2 3d 60 30 22 bd d6 fd 85 bd
       0.004680586 0.07945049 -0.039596915 -0.06542556
000330 61 70 c8 bd ec 09 e6 bc 70 6f 5c be 49 92 02 be
       -0.097870596 -0.028080903 -0.21526885 -0.12751116
000340 67 2b 32 be 74 a0 f4 bd 81 20 26 be c7 60 42 3d
       -0.17399369 -0.119446665 -0.16223337 0.047455575
000350 d4 7e d0 bd 27 45 1b be 39 6f 2b bd ac 99 5b 3b
       -0.101804405 -0.15163098 -0.041854117 0.0033508344
000360 dd 6e bf 3c 27 2b 10 3e 6e e7 20 be 57 8e 03 be
       0.023368293 0.14078961 -0.15713283 -0.12847267
000370 0d 4f e2 bd 6c d5 11 3e 36 87 14 3d ec 1a 12 be
       -0.11050234 0.1424157 0.03626176 -0.14268082
000380 a0 76 b9 bd aa 40 02 bd 0e 7a 64 bd ae 6e d2 bd
       -0.09055829 -0.03179995 -0.055780463 -0.10275017
000390 ea 2f 2a be 50 58 db bd b6 ce 8c bd de 6f 7a be
       -0.1661984 -0.10710204 -0.068753645 -0.24456736
0003a0 74 55 1a be 47 f2 88 bd c3 eb 8d 3d ac 48 66 be
       -0.1507166 -0.06686836 0.069297336 -0.2248866
0003b0 23 db 75 3d a0 ef d0 bd 2b 27 a8 3d 2e ea 43 be
       0.06002344 -0.10201955 0.08210596 -0.19132301
0003c0 95 1b 76 3c 9f 35 74 be 97 16 78 3d cf e9 80 be
       0.0150212245 -0.2384858 0.06056842 -0.25178382
0003d0 52 6f aa 3d 19 96 e7 bd ff 1c a8 bd 46 76 8f bd
       0.08322014 -0.11307926 -0.082086556 -0.07004981
0003e0 d2 a2 37 bd 34 b4 fb bd e3 ce 01 be 10 b5 cd bd
       -0.044833012 -0.122902304 -0.12676577 -0.100443006
0003f0 2e 5f 86 bd ff cb 31 bd 0e 22 9c bd 76 98 31 bd
       -0.06561123 -0.043407436 -0.07623683 -0.04335829

linear1.bias f4 [128]
000000 6a 01 c2 bd da 61 1a 3e 28 4a 81 3e 75 67 32 be
       -0.09472926 0.1507639 0.2525189 -0.17422278
000010 08 19 d5 3c 27 a8 ad be ef 6a e1 3e f2 08 8b be
       0.026012912 -0.33917353 0.44026896 -0.27155262
000020 8c 08 ae bd fa 18 b4 bd 76 64 6f 3d 4a 26 60 bc
       -0.08497724 -0.087938264 0.058445416 -0.013681004
000030 ae 3f 09 3e 05 21 5f be 78 90 d0 3e 9d b6 56 bd
       0.13403198 -0.2178994 0.4073522 -0.052420247
000040 c5 ac b8 3d 70 21 99 3d eb a8 b1 3e 75 8b 69 be
       0.09017328 0.07477081 0.34699187 -0.22807105
000050 ac 1f c3 3e 17 32 b6 3d 48 1f dd bd 9f 27 76 3e
       0.381101 0.08896273 -0.10796982 0.24038552
000060 ec c5 e6 3d 04 6b 35 3e 0b 01 ee be a7 da 42 3e
       0.11268219 0.17716604 -0.4648517 0.19028722
000070 42 3d 61 be 91 be 04 be 61 c1 47 3e 2a 31 81 be
       -0.21996024 -0.1296332 0.19507362 -0.25232822
000080 2f e6 c2 3d 03 ce bc bd a2 1b 81 3d 14 eb 30 3e
       0.0951656 -0.09218981 0.06304099 0.17277175
000090 68 1f c2 3e 04 7a 78 3c 34 19 12 bf 7e 40 b1 3e
       0.37914586 0.01516581 -0.57069707 0.34619516
0000a0 49 53 c3 bc 69 b2 d8 bd 08 b4 a8 be 16 1a 0d be
       -0.023843424 -0.10580904 -0.32949853 -0.13779482
0000b0 87 18 86 be 59 81 b9 bd f3 ee 43 3b 0d b3 fb 3e
       -0.26190588 -0.09057874 0.0029897064 0.49160042
0000c0 34 5a ee bd 50 2c a7 be 2c 46 88 be b7 2c 1c 3e
       -0.11638299 -0.32650995 -0.26616037 0.15251432
0000d0 8e 2b a6 be 50 85 18 3e b7 8b bd 3e cf 17 ce 3e
       -0.32455105 0.14894605 0.37020656 0.4025254
0000e0 89 71 47 3e b8 48 1f 3e 10 d0 61 bd f0 a0 2d be
       0.19476904 0.15555084 -0.055130064 -0.16955924
0000f0 e4 0f 5a be bc 4c 30 bd d0 ff 25 3e 2a 75 7d 3d
       -0.21295124 -0.04304193 0.16210866 0.061879314
000100 1e 6c 0f 3e 08 0c 29 bb e9 4e 8b bd 27 b4 a5 3e
       0.14006087 -0.0025794525 -0.0680216 0.32364008
000110 ee f5 36 be 93 37 a8 3d b4 92 5b 3e a5 11 b8 bd
       -0.17867252 0.08213725 0.21442682 -0.089877404
000120 18 3b 9b be 2d 5c 58 3d f0 c6 fd bc e7 ab 9d 3e
       -0.30318522 0.05282228 -0.03097865 0.30795214
000130 11 ea ff bd 4a 4f 5c 3e 96 df 8b 3e a3 0d 62 be
       -0.124958165 0.21514621 0.2731902 -0.22075514
000140 f1 42 d5 be dd 21 82 3d bf c4 82 3e 66 7f ad 3e
       -0.41652635 0.06354115 0.2554073 0.3388626
000150 4d 18 a3 bc 73 00 5e be 2a 11 41 3e 52 7c a3 be
       -0.019909048 -0.21679859 0.18854204 -0.31930786
000160 66 81 df 3d 16 8e 62 3d b5 d8 33 bd 9d bd 43 3e
       0.10913353 0.055311285 -0.04390784 0.191153
000170 68 9e 1d be ea 9f 24 be bb d5 ba be 94 87 aa be
       -0.15392458 -0.16076627 -0.36491188 -0.33306563
000180 7e a1 da bc 74 c5 6e be 20 c0 36 bd fe 70 a4 3e
       -0.026688334 -0.2331751 -0.04461682 0.32117456
000190 fd 3c b6 3e 20 e7 4f 3e 43 0a 3d 3d 9d 79 2a be
       0.35593405 0.20303011 0.046152364 -0.16647954
0001a0 ba 91 67 3d fb 61 08 3d b2 8f a7 be c5 ed b6 3e
       0.05653546 0.033296566 -0.32726818 0.3572828
0001b0 0b b5 bd be f3 d0 b1 3e f6 ac 82 3e 97 3e 15 bc
       -0.37052187 0.34729728 0.25522584 -0.009109161
0001c0 ba 12 9f be 6c fb 00 3f 10 d5 17 bd 09 85 d4 bd
       -0.31068975 0.5038364 -0.037068427 -0.10376937
0001d0 57 5c 80 3e ae de 82 be e6 5a 14 be d5 48 c2 be
       0.2507045 -0.25560516 -0.144878 -0.3794619
0001e0 90 1f d1 bd 15 92 f0 bd 60 ee cd 3e c2 03 44 3e
       -0.10211098 -0.11746613 0.40220928 0.19142058
0001f0 47 f3 25 3d a9 97 06 3f de 7b 78 3e 50 97 cc bd
       0.04051521 0.52575165 0.24266002 -0.09989798

linear2.weight f4 [32, 128]
000000 7c 8a a1 3d 6b f4 1f be 19 e7 66 3c e8 34 89 bd
       0.07887742 -0.15620582 0.014093184 -0.06699544
000010 5a a9 bd 3b 99 33 91 3b ba 97 a8 3d 76 af fa 3d
       0.0057880105 0.0044311997 0.082320645 0.12240498
000020 0a 26 0a be 34 17 ea 3d e3 e2 84 3d 04 86 9c 3c
       -0.13491073 0.11430207 0.06488588 0.019106872
000030 af a9 0a 3d 5b d2 8e 3d 78 ab e8 3d f1 1e 97 3d
       0.03385323 0.06973716 0.1136083 0.073789485
000040 13 6f 05 3e f6 02 31 bd 4f 8f c0 3c 5b cf 09 bd
       0.13030653 -0.043215714 0.023505835 -0.033645015
000050 29 69 3c 3d 91 17 91 bd 60 9f b4 bd 26 20 0f be
       0.045998726 -0.07084573 -0.08819461 -0.13977107
000060 cf ec 2d 3e c3 15 df bd ca d3 36 3e b4 a1 1c be
       0.16984867 -0.108928226 0.17854229 -0.1529606
000070 ce 28 7b 3d 3c a2 7b bd 85 63 a0 3d 6c cb ec bd
       0.06131821 -0.061434016 0.07831482 -0.11562237
000080 24 3c f9 bd 29 0a b4 3c fb fe 8e 3d b9 58 95 3c
       -0.12169674 0.021977501 0.069822274 0.018230783
000090 49 00 51 bc e7 98 85 bb 51 0d 33 3d 75 45 84 3d
       -0.012756416 -0.0040770653 0.04371387 0.064585604
0000a0 2f f1 1d be b3 6a 7c 3d 07 7d 9a bd 7c e2 f0 3d
       -0.15424035 0.061625194 -0.07543378 0.117619485
0000b0 02 bb 98 3c 4d 90 3f bd be 4f 0b be ff 5c f4 3d
       0.01864386 -0.046768475 -0.13604638 0.119318
0000c0 5d 2f 60 bc 94 6b 9d bd d0 59 43 3e 45 2f 03 bc
       -0.013683167 -0.076865345 0.1907723 -0.008006875
0000d0 4c 89 14 be 3b 38 cb bc 49 0a 2b 3e 69 43 3d 3d
       -0.145055 -0.024807086 0.16703142 0.046206865
0000e0 bb 92 e2 3d 1c 8f b4 3d 86 10 ce 3d 3c 3f 0c be
       0.11063143 0.088163584 0.10061745 -0.13695997
0000f0 09 87 93 bd 96 81 31 be 7f dc 82 bc 7f 62 f2 bd
       -0.0720349 -0.1733459 -0.015974281 -0.11835193
000100 66 cc 43 3d 03 67 d6 bd ea 53 0b be 3b a2 96 3d
       0.04780235 -0.10468867 -0.1360623 0.07355162
000110 83 eb 51 bd 9b d0 f3 bd 67 0a 40 3d 95 fc 02 3e
       -0.051249992 -0.11905023 0.04688492 0.12791665
000120 30 09 a3 3d 98 c2 f6 bd 6e 9f 80 3d 85 39 a2 bd
       0.07960737 -0.120488346 0.06280409 -0.07921127
000130 dd 4e c3 bd 50 0c 8c bd 0b 5a f9 3c 85 4e 9f bd
       -0.09536526 -0.06838286 0.030438444 -0.07778648
000140 ad e0 25 be 86 bb 03 3e c4 0d 10 be 50 12 af bc
       -0.16198988 0.12864503 -0.14067751 -0.021371037
000150 63 73 96 bd ab 28 dc bd da ee ba 3d 9e b7 00 3d
       -0.07346227 -0.10749944 0.091275886 0.03142511
000160 01 26 be bd 84 8b 90 3c 23 8e 07 be 9d 11 39 bd
       -0.092845924 0.017644651 -0.13237815 -0.045182813
000170 d2 41 0a 3e c7 c4 ef 3d 41 d2 a2 bd 9d a3 c9 3c
       0.13501671 0.11707454 -0.07950259 0.02461415
000180 ea 04 a5 bd 57 23 3a be 5f cf b6 3b ae e0 9d 3d
       -0.08057578 -0.18177544 0.00557892 0.0770887
000190 6a c4 0c 3d 40 4b 6f 3b d6 31 25 be 37 1e ac bb
       0.034367003 0.0036513358 -0.16132292 -0.0052526253
0001a0 8e c1 fb 3d 9b db 99 bd f0 33 76 3d a1 b8 86 bd
       0.12292777 -0.075125895 0.060108125 -0.06578184
0001b0 39 93 50 be 9f f5 da bc b2 a4 0f 3e 84 dc 09 be
       -0.20368661 -0.02672845 0.1402767 -0.13463026
0001c0 43 12 22 3b 3d 71 b3 3d d3 10 84 be 47 2f c4 bd
       0.0024730123 0.08761833 -0.25794086 -0.0957933
0001d0 1c 1d 17 bd c2 96 bc 3d bd 10 e9 bb 20 79 fb bd
       -0.036892995 0.09208442 -0.007112591 -0.12278962
0001e0 8d 27 5d 3d d3 16 19 be 7b 40 ea 3c 02 45 06 3d
       0.053992797 -0.14950113 0.0285952 0.032780655
0001f0 c1 ab fe bd 4d c0 63 bc c9 f8 ac bd 54 bd 8a bd
       -0.12435103 -0.013900829 -0.084458895 -0.06774393
000200 88 cd 49 3e c3 19 a4 bd 2d bd c4 3d a7 50 f4 3c
       0.1970731 -0.08012726 0.09606395 0.029823614
000210 43 ab d9 bd c5 67 30 3c 71 db 54 3e cb 55 b1 bd
       -0.10628369 0.010766928 0.20786835 -0.08658942
000220 20 5d 8f 3d d3 93 92 3c 15 d6 26 bc fe ee 02 bd
       0.07000184 0.017892754 -0.010182877 -0.031966202
000230 dc ea 2f 3e b7 d9 82 3d 98 67 ca bc b8 de f1 3d
       0.17179435 0.06389182 -0.0247076 0.11810058
000240 40 53 ea bc b7 e6 e6 3d fc 56 05 be 25 18 45 3d
       -0.02860415 0.11274474 -0.13021463 0.04811873
000250 3d 5e 99 3d d4 9b a8 3d 83 3c f1 3c 21 35 3f 3e
       0.07488678 0.08232847 0.0294478 0.18672611
000260 fd 91 55 bd 43 90 2a 3e a6 b7 02 be 3c 99 93 3d
       -0.05214118 0.16656594 -0.12765369 0.072069615
000270 b7 94 cc bc 9d 92 26 bd af 9f 69 be 32 6f 0c be
       -0.024973257 -0.040667165 -0.2281482 -0.13714293
000280 66 8a 50 3d 4f a8 ed 3d 97 14 66 3c 0c 66 03 3e
       0.050913237 0.11604368 0.014042995 0.12831897
000290 5d 58 14 be 8c 52 8d 3c 2d 9e 1e be 3c 55 50 3d
       -0.14486833 0.017251275 -0.15490027 0.050862536
0002a0 5d 63 23 bc 80 4a 53 bb ca 5f f8 3d c1 1f 6b 3d
       -0.0099724205 -0.003224045 0.12127645 0.05740333
0002b0 e0 a9 2a be a0 f4 51 3d 50 bb fa 3c d5 ea 97 bd
       -0.16666365 0.051258683 0.030606896 -0.074178375
0002c0 fe a3 17 be e2 a2 27 be 8c 35 9a bd b6 82 3b 3e
       -0.14808652 -0.16370729 -0.075297445 0.18311581
0002d0 d2 79 10 be 67 18 83 bd 56 6b d4 3d c9 1c f7 3b
       -0.14108971 -0.06401139 0.10372035 0.0075412733
0002e0 1a 98 94 bd 66 c8 6d 3d ff 81 c1 3d 08 5b 0b bd
       -0.072555736 0.058052443 0.09448623 -0.03402236
0002f0 3b 89 1d bd 65 9c c0 bd 58 91 25 3d ce b4 1d bd
       -0.03846095 -0.0940483 0.040421814 -0.038502507
000300 0a 90 0c 3e 92 7b 28 3e be f6 50 3d e0 82 99 3d
       0.13726822 0.16453388 0.05101656 0.074956656
000310 f5 c9 08 be 6f cb ae bd c0 db 28 bd 17 b9 48 3e
       -0.1335829 -0.08534896 -0.041225195 0.19601856
000320 66 f7 a1 3d 0a a8 6e 3e e8 54 88 3d fb 40 4d 3d
       0.07908516 0.2330629 0.066568196 0.0501108
000330 7c 45 08 3e 04 43 bc 3d b9 a3 af 3d cb 1e 8f bc
       0.13307756 0.0919247 0.085761495 -0.017470738
000340 ca 27 b1 3d 0f f3 cb 3c 15 01 6b bd 49 61 33 3e
       0.08650167 0.024896173 -0.05737408 0.1751758
000350 9e 71 13 3e db 3a f4 bc 05 90 16 3c d1 f9 91 3c
       0.1439881 -0.02981322 0.00918961 0.017819317
000360 b6 43 05 be cd f7 16 bd f1 78 4f be 86 c6 14 be
       -0.13014111 -0.036857415 -0.20260979 -0.14528856
000370 9e 92 fe 3d 2b 9f c7 3c 6b 9c 0a 3e f3 de 1d 3d
       0.12430309 0.02436789 0.13536231 0.0385427
000380 65 ad 24 3e 13 bf b7 3d 30 76 68 bd 42 f7 7c 3d
       0.1608177 0.089719914 -0.056753337 0.06175924
000390 5a a2 f1 bc bf 0e 2f 3d 2b 19 b2 bd 9e ac aa 3d
       -0.02949636 0.042738672 -0.08696207 0.08333705
0003a0 b5 28 99 bd 8a 46 b5 3c f9 6c 35 be 49 98 2b be
       -0.074784674 0.022128362 -0.17717351 -0.16757311
0003b0 89 9e 3c bd 51 46 2e be 23 f3 18 bd 35 58 96 3d
       -0.04604963 -0.17019011 -0.03734125 0.07341043
0003c0 d7 fc c8 bb 6b b7 a0 bd 02 51 c7 bd a2 60 fc bd
       -0.0061336565 -0.07847484 -0.09732248 -0.12323119
0003d0 81 54 9f bc 09 35 03 3e 5a 99 34 bc b8 33 dd bd
       -0.019449474 0.128132 -0.01102289 -0.1080088
0003e0 9e 3f 23 3e 6d 87 0e bd ba 66 2c 3d c3 38 c8 3d
       0.15942237 -0.03479712 0.042090155 0.097764514
0003f0 ac c2 93 3d 52 be 1c be 7e ae 81 bc ab 83 27 3e
       0.07214865 -0.15306976 -0.015830275 0.16358821

linear2.bias f4 [32]
000000 85 f6 02 3e f3 e4 59 3e e9 72 17 be 61 dd 71 bd
       0.12789352 0.21278743 -0.14789928 -0.059049014
000010 4c fb 92 3d 68 1a 2d be d3 76 83 3e 7f ce 22 3d
       0.07176837 -0.16904604 0.25676593 0.03974771
000020 5c 3b 37 3e f5 9c 7d 3e c3 e5 86 3e 38 ac 7b 3e
       0.17893738 0.24766906 0.2634717 0.24577415
000030 3c 6e 64 bd 97 c1 a5 3e c5 9c cd bd 1d 5d 44 3d
       -0.05576919 0.3237426 -0.10039667 0.047940362
000040 09 a1 8f 3e a9 fb 2e bd 94 d8 f2 3d 20 3f b2 bd
       0.28052548 -0.04272047 0.11857715 -0.087034464
000050 a0 a8 5c be 61 a2 4f be 82 e9 a0 be ad 5e 00 bf
       -0.215487 -0.20276786 -0.31428152 -0.50144464
000060 04 49 58 be b9 fc 8a be 6b 2f 66 be fa a4 81 be
       -0.21121603 -0.27145937 -0.22479026 -0.2532118
000070 00 31 62 3e 65 46 27 bd a4 34 08 be 73 74 70 3d
       0.22089005 -0.040838618 -0.13301331 0.058704805

output.weight f4 [100, 32]
000000 17 a0 6f bd 5c 16 cb 3d b3 77 b0 3d 82 68 f3 3c
       -0.058502283 0.09916374 0.08616581 0.02971292
000010 72 80 56 be 84 ff 15 3d c7 cc d4 bd d0 ca ae bd
       -0.20947435 0.03662063 -0.10390621 -0.08534777
000020 5e cb 4f bc 44 46 02 3c 5a 5d 4c bd c1 9e c0 bd
       -0.012682764 0.007951323 -0.049893714 -0.0940528
000030 06 f6 a0 bd fa b0 28 3d 24 a2 17 3e ea 4e 74 3d
       -0.07859425 0.041184403 0.14807945 0.05964557
000040 55 1d 8b 3d 8e 5f b1 3c 7e 30 24 be 3d 54 4c bd
       0.06792704 0.02165201 -0.16034123 -0.049885023
000050 bd dc e5 bd 16 70 fa bc 8a 4b 2c be e0 82 5a be
       -0.11223743 -0.030571025 -0.16825691 -0.21338987
000060 e5 c0 2d 3d ef 5f 95 bd 4d 0a 3b be 09 26 a7 bd
       0.042420287 -0.072936885 -0.18265648 -0.081615515
000070 00 0b e6 3d 4e b7 2c be d7 87 f9 3a 89 6a 77 ba
       0.11232567 -0.168668 0.0019037676 -0.0009438177
000080 81 d9 0d 3e 5d e2 af bd 4f 1b bf bd 1f 64 b0 bd
       0.13852502 -0.08588097 -0.093313806 -0.086128466
000090 5c c8 8c bd 96 da 9e be aa fc 49 3e ab 9c 23 bd
       -0.06874153 -0.31026143 0.1972529 -0.039944332
0000a0 94 4e cb bd 44 bb 85 be 35 8b 27 bb 80 8d 3c 3e
       -0.09927097 -0.26119435 -0.0025565152 0.18413353
0000b0 8e 6c aa bd 78 8b 15 be a9 38 68 3d aa ea 3c be
       -0.083214864 -0.14603984 0.05669466 -0.18448892
0000c0 c6 9c bc 3e e6 2b 00 be 57 29 38 3e 8d 51 69 3e
       0.3683836 -0.12516746 0.1798452 0.22785015
0000d0 ab 7b 8f 3e ad b8 81 be c0 cc 1c be 27 39 70 bd
       0.2802404 -0.2533621 -0.15312481 -0.058648255
0000e0 af 33 a7 3e 45 d2 fc bd 0c 74 78 3e 02 59 27 bd
       0.3265662 -0.12344793 0.24263018 -0.04085637
0000f0 30 0f 25 3e 05 0a ba bc 14 f9 80 3e 84 22 b3 bd
       0.16119075 -0.022709856 0.25190032 -0.08746818
000100 d9 22 63 3d 48 c8 98 be 4f 69 5e 3e bc f8 b4 3d
       0.055453155 -0.29840302 0.2171986 0.08836505
000110 0e 89 0a be 0f 6a 70 be 5a 7b d5 3d 0a dd 30 be
       -0.13528845 -0.23477958 0.10423918 -0.1727182
000120 72 1c cf 3c 02 fe b8 be c7 e2 b6 3e df 5a 80 bd
       0.025282118 -0.36131293 0.35719892 -0.06267332
000130 1b c0 fa bc 54 89 34 3e 7d 40 25 be 0b f2 44 be
       -0.030609181 0.17630512 -0.16137882 -0.19232957
000140 b7 bc bf 3e ca 65 d6 39 ce 1f b8 3c 44 85 c9 3e
       0.37448665 0.000408931 0.022476103 0.39359486
000150 9a 36 68 3e 1c a0 b7 bd ce 02 9c be 33 5e 85 be
       0.22677079 -0.08966085 -0.3047089 -0.2604843
000160 af 7f c2 bc b9 f6 a5 be d6 61 b9 3d 62 61 1a 3e
       -0.023742525 -0.32414797 0.09051864 0.15076211
000170 fd 82 aa be 83 0e 37 3e 6f 0e c8 bd e8 08 65 3e
       -0.3330306 0.1787663 -0.09768378 0.22366679
000180 8e 91 22 3e b5 12 01 be 08 33 c1 3d b8 47 38 bd
       0.15875837 -0.12604792 0.094335616 -0.04499027
000190 b4 c8 97 bd 94 67 1e bd 10 e1 c2 3c b6 d5 3f 3e
       -0.07411328 -0.038673 0.023788959 0.18733868
0001a0 85 5d 48 bd 6f de 1d be 02 62 47 3b 5f b1 0e bc
       -0.048917312 -0.15416883 0.0030423407 -0.008709281
0001b0 27 7c 26 3e d0 65 09 be 7d 8f a2 bd 01 5a 3e bd
       0.16258298 -0.13417745 -0.079375245 -0.046472553
0001c0 a1 cd 98 3b a0 73 ed bd 55 05 f6 bd 4f eb 2c 3e
       0.0046631848 -0.11594319 -0.12012736 0.16886638
0001d0 49 7d 8a 3e 4c 44 0b 3e 8a 60 07 be e9 24 fb bd
       0.2704871 0.13600272 -0.1322042 -0.122628994
0001e0 1e fc 09 3d 1d a1 51 bd ef 32 ea 3d 04 28 56 be
       0.033687703 -0.05117904 0.11435496 -0.20913702
0001f0 d0 60 89 bd 3a 4d 07 3d f3 a7 a8 bd f0 27 36 be
       -0.06707919 0.033032633 -0.08235159 -0.17788672
000200 af 52 e7 bd 90 41 e8 3c ef 9f f5 bd 89 17 05 be
       -0.112950675 0.028351575 -0.119933955 -0.12997259
000210 24 4a f7 3c 3f 7b 38 3c 8e 99 db bd b5 29 1a 3e
       0.03018672 0.011259853 -0.107226476 0.15054972
000220 dd 19 6a be d5 f2 93 3d 2c 84 15 3e 69 d0 e2 3d
       -0.22861429 0.07224051 0.14601201 0.11074907
000230 e9 fd c2 bd d6 d8 b1 bd 3c 3f 06 3b 4f 37 bb bd
       -0.09521086 -0.08683936 0.0020484468 -0.09141409
000240 0e ef c0 bc c0 be 28 3d b8 9a 65 3e c3 71 86 3c
       -0.02355149 0.04119754 0.22422302 0.016411668
000250 e4 fe ec bd 9b 49 65 bc 2f d5 29 3d 8a a1 55 3d
       -0.11572054 -0.0139946 0.041463073 0.05215601
000260 4d ef 65 bd 2e 6e 4d 3e 88 09 91 bc d4 20 2d 3d
       -0.056136418 0.20061561 -0.01770474 0.042267635
000270 8a 4a b2 bd d6 df c8 3d 01 ca 60 bd 78 c3 06 be
       -0.087056234 0.09808318 -0.054880146 -0.13160503
000280 37 75 09 be c0 c6 f7 3d 3a 5c 60 bc 26 72 35 3d
       -0.1342362 0.120984554 -0.0136938635 0.044298314
000290 4e 30 75 bd 8b 27 29 be 03 17 94 3d e6 7e 2e be
       -0.05986052 -0.1651899 0.07230952 -0.17040595
0002a0 e2 49 af bd 15 9a 2e bd 95 20 80 3d f4 c9 2c 3e
       -0.08559014 -0.042627413 0.062562145 0.16873914
0002b0 e1 e1 26 bd 9d 9e a5 bd db cb 06 3e b1 90 0d 3d
       -0.04074276 -0.08086894 0.13163702 0.034561817
0002c0 db 9b fe 3c e9 a3 0a bc 6a c7 8a bc 55 87 5d bd
       0.031080177 -0.008461931 -0.016940791 -0.05408414
0002d0 4c ce d0 bd 03 f8 d6 3d ad 0f 39 bd 8f 6e ac bc
       -0.10195598 0.10496523 -0.045180965 -0.021048812
0002e0 01 7b f9 3d 7c b6 09 bb aa 22 68 3d c2 d5 0a 3e
       0.12181664 -0.002101331 0.056673683 0.13558105
0002f0 73 63 29 bb 54 09 54 3c c9 e5 22 be 7d 52 db bd
       -0.002584663 0.012941677 -0.15907969 -0.10709093
000300 dd 82 09 be 62 43 04 3e 96 43 c6 bc 8d 77 0a 3d
       -0.13428827 0.1291633 -0.02420215 0.03380542
000310 b7 06 44 bd 55 67 0c bd c3 c0 32 3c f6 3b 01 bd
       -0.047857966 -0.034278233 0.010910216 -0.031551324
000320 b2 aa d2 bd 65 d2 14 bd 2d 68 87 3d 10 92 8f 3d
       -0.10286464 -0.03633346 0.06611667 0.07010281
000330 82 b3 80 bd 78 28 1d be 88 32 a4 3c 28 16 5b be
       -0.062842384 -0.15347469 0.020043626 -0.2139517
000340 ef 0f 0c bd 4c b2 d2 3d d2 93 39 39 f0 02 7b bd
       -0.034194883 0.10287914 0.00017698042 -0.0612821
000350 c3 0d 09 bc 19 46 b7 3d 5a 58 6b bd b7 39 4b 3d
       -0.008365097 0.08948917 -0.057457305 0.049615588
000360 37 fd a4 bd 3d 2e fb bc c8 43 e8 3d b4 31 cd bc
       -0.080561094 -0.030661697 0.11341053 -0.025048114
000370 24 39 82 3c 8b 23 d3 3c 00 36 8d bd c8 c1 93 3d
       0.015896387 0.025773784 -0.06895065 0.07214695
000380 7b 70 ba 3d 02 95 04 bd 60 0d 60 3d 19 69 33 bc
       0.09103485 -0.032368667 0.054700255 -0.01095035
000390 ad c7 6e 3d 5b 07 d9 bd ea 9f 33 bc a7 b7 63 3c
       0.058295894 -0.10597106 -0.010963419 0.013898767
0003a0 fe 51 d2 3a 72 c0 87 3d 2b 6f 21 be 34 62 4a 3e
       0.0016046164 0.06628503 -0.15765063 0.19764024
0003b0 98 9e 23 be 3e 71 9f 3e 10 f5 fe bc 59 e2 f4 3d
       -0.15978467 0.31141084 -0.031122714 0.11957235
0003c0 2e 6e 1a bd 38 41 e5 bd 0d a7 50 be 7e 24 46 3d
       -0.03770273 -0.1119408 -0.20376225 0.048374645
0003d0 63 16 c6 bd 89 7a 6e 3d 70 05 8f 3c cd 9e 68 3d
       -0.09672239 0.058222327 0.017458647 0.05679207
0003e0 e1 30 0e 3d eb 2f 88 3e ca bf 56 be 4d 26 3b bc
       0.034714583 0.26599059 -0.20971599 -0.011422706
0003f0 0e 9b c8 3d f8 e1 06 be 89 b4 bd 3c 53 b8 ab 3d
       0.09795199 -0.13172138 0.023157375 0.083847664

output.bias f4 [100]
000000 a7 23 87 3d 15 5b ae be cd 86 ec be 44 28 53 be
       0.06598597 -0.34053865 -0.46196595 -0.20620829
000010 e9 f3 41 3e 72 5d b2 bd e3 6d 11 be 4e 3e e8 3e
       0.189407 -0.087092295 -0.14202075 0.45360035
000020 32 0b b2 3b ae 24 60 3e b3 24 d5 3e 61 de 3a bd
       0.0054334635 0.21888992 0.41629562 -0.045622233
000030 7f f3 a8 be b2 2b d1 3e 86 54 64 3e 82 44 af 3e
       -0.32998273 0.4085365 0.22297868 0.34231955
000040 83 46 19 bf 65 e9 06 be 70 0c 3e 3d 51 30 88 3e
       -0.5987322 -0.1317497 0.04639858 0.26599362
000050 03 de 88 be 41 48 5e bd 02 cb 10 3e bb 9d b7 3e
       -0.26731881 -0.054268125 0.14139941 0.35862526
000060 80 d5 cb 3c 10 1e 0f bf 5a 56 e3 3e e8 e6 2e 3f
       0.024882078 -0.55905247 0.4440182 0.68321085
000070 b6 68 47 3e 1e 8d 68 bd 5c 36 0e 3e d9 79 fe 3d
       0.19473538 -0.056775205 0.13887924 0.12425584
000080 2e 86 20 3f fb 73 06 bf a0 f1 2b 3e 8d 21 a0 3e
       0.6270474 -0.5252072 0.16791391 0.31275597
000090 4e bb 27 3e 1a f6 1e 3f ac 43 78 bf e0 9f 9b 3c
       0.16380045 0.6209427 -0.9697826 0.018997133
0000a0 d1 46 74 3e d6 fc c4 3e 19 f2 66 3e 88 0e 49 bf
       0.2385514 0.3847415 0.2255329 -0.785378
0000b0 50 8b b6 3e 55 c5 0b 3c 6b 98 04 be f8 9c c8 3e
       0.35653162 0.008530934 -0.12948768 0.39182258
0000c0 2d f4 aa be 17 80 74 be f6 c7 be 3e 04 89 72 be
       -0.33389416 -0.23876987 0.37261933 -0.2368508
0000d0 6c 10 9d bf d4 49 b7 3d 70 52 50 3e 86 e2 c6 3e
       -1.2270637 0.089496285 0.20343947 0.388447
0000e0 3b 10 d7 be 85 f4 e3 bd 33 05 83 bf 99 d1 d5 bc
       -0.4200457 -0.11130623 -1.0235962 -0.02610092
0000f0 57 d3 87 bd 78 3e 05 3e 50 c4 6e 3e d0 4a bd be
       -0.06632107 0.13012111 0.23317075 -0.3697114
000100 70 92 df be af 29 97 bd 58 78 47 3e 35 0e 86 bd
       -0.4366641 -0.073809974 0.19479501 -0.065456785
000110 8a a0 8e be 0c 15 41 be b9 b3 ef be 11 44 c9 3e
       -0.27856857 -0.18855685 -0.46816805 0.39309743
000120 e3 88 3b 3f ba 35 24 bf dc 30 87 3e a1 68 e3 3e
       0.7325575 -0.6414448 0.26404464 0.44415763
000130 57 27 b7 be f1 fe b6 be a2 57 a5 3c d4 2b f6 3e
       -0.357722 -0.3574138 0.020183388 0.48080313
000140 07 b4 8e 3e 23 41 d5 be bb e9 c1 be e3 b4 e6 3e
       0.27871725 -0.41651258 -0.37873635 0.4505988
000150 c4 ce 4c be cc d5 8e 3e fe bd bc 3e 23 54 82 bf
       -0.2000075 0.2789749 0.36863703 -1.0181926
000160 aa 0a a0 3c 7d f3 4d 3e dc 08 47 3d 90 94 cb 3c
       0.019536335 0.20112415 0.048592433 0.024851114
000170 80 45 b8 3e b6 dd 8a bd 0b e1 74 bf 8a 63 c9 3d
       0.35990524 -0.06780569 -0.9565589 0.09833439
000180 0e fe c0 3e 21 92 b4 3e 4a c2 f3 3e 21 73 6c bf
       0.37693828 0.35267738 0.47609168 -0.9236317
