code/development/models/best_model_042.pth (torch, 480181 bytes, 8 tensors)

conv1.weight f4 [1, 1, 5, 3]
00000000: 0425 a73d bba3 b43b 485f 263e 39a1 453e
00000010: 4972 3b3e c684 dabd 2a0f f9bc 511f 0cbe
00000020: 39f5 653d acfe 313d d572 a33c 7d39 0fbe
00000030: af59 e3bd 725b eebd 9744 96bd
0.08161357 0.0055126823 0.16247284 0.19299783 0.18305315 -0.10669856 -0.030402739 -0.13683821
0.056142066 0.043455765 0.019952217 -0.13986774 -0.1110109 -0.116385356 -0.07337301

conv2.weight f4 [1, 1, 3, 3]
00000000: 820e 33be 5ae0 9a3d fb12 163e 9b99 5fbd
00000010: 602c 7cbd cdb1 f33d 60da 4fbd 1aad 8abd
00000020: 4570 9f3c
-0.17486003 0.07562323 0.14655678 -0.05458985 -0.061565757 0.11899147 -0.050745368 -0.06771298
0.019462714

linear1.weight f4 [128, 870]
00000000: 2552 8fbc 209d 05bd 410b 093e 52f6 c1bd
00000010: 95f1 dfbc 7bf7 71bd 0bec 21be f330 30be
00000020: 543c 653c 0e17 2cbc 5ed1 19be 7a6c cbbd
00000030: f314 94bd 260d 67be c570 04be bcf2 cabd
00000040: 2c7c c73c ee16 50bb 25fd 19be 8277 3b3d
00000050: a9fb 95bd 921a 64bd 21c2 1a3d f93c f43c
00000060: b4b0 a23d 1db9 80be 7253 0bbd fab7 0fbe
00000070: a4b3 3bbe c69e 773c 4e0f e2bd 7ea3 79bd
00000080: 901a 2dbd 4cf1 0abe 23bc efbc 9c46 113e
00000090: 7949 933e a688 bfbd 57bf 933d 69e3 2bbe
000000a0: 4b5b 0abd 8c30 073d 4f67 0dbd e22d 4abe
000000b0: b018 eabd 92fa 6e3c 2671 74be 0157 3fbd
000000c0: d064 2dbe a5cd e5bd ff02 49be 225f 11be
000000d0: f0bd cdbc de81 b2be 2cb8 693d 6069 2fbe
000000e0: a2d8 b13c 2aac d6bc 71cc c43c ef42 9e3d
000000f0: df7d 243e e340 25bd 9526 723d 2de5 753e
00000100: 200c 4f3e 1aa9 9c3d 2979 8dbd 7034 d33d
00000110: 0abf 5d3d 3ed7 733e b13f ba3d 0f24 193e
00000120: b90c 293e 0406 97bd 6337 bebd ce0d d43d
00000130: 3988 4d3d 814f 733e 3995 0e3e 4ccb c1bc
00000140: 9fa1 993c e421 fbbc b097 4e3e 67e7 083e
00000150: 9b31 44bd 80bb c83e cc93 473e 767c 8d3e
00000160: 7f20 183d 8e23 df3c b52d bf3e 00e0 283e
00000170: a2da d43d 01c4 1ebd ac20 c93c d112 6fbd
00000180: 76ba 923e 0f70 553d 7070 9fbd ba58 953e
00000190: 6d8d a73d 8e97 0d3e 3d0e 103e 0f14 ad3d
000001a0: fd38 0d3e 8fd5 91be 788e aabd 9623 463e
000001b0: f1f9 00bd 484b 4a3d 1e7d 1f3e e89c 443e
000001c0: 6531 d0bd f89d bc3d 6e52 813e f530 70bd
000001d0: 2d11 0cbe de91 0fbe b83d 5b3c abf5 263d
000001e0: b7b5 57bd 50ae 3fbe 809b c2bc f891 393e
000001f0: e844 a03e e806 5cbd 20d0 773c af35 72bd
00000200: d2f7 f0bc 6152 333d 586b 7abd 12b4 783d
00000210: 7623 d33d 8d1c 1c3d 8a63 f3bc 442e e63d
00000220: 09b5 703d 9c10 bdbd c5c8 3c3e 0fdd a63d
00000230: 81d6 a33d f47d 383d 3d9e 08bd f777 cdbd
00000240: 3600 6ebd b872 c1bb 9c98 553e e9f3 513e
00000250: 7d5f 193e 3bba af3d cd83 013e 76ff a33d
00000260: ce71 3ebc 07d6 9c3d 7789 4e3e 89d0 1b3e
00000270: a310 083e a6b1 a83d 9f5b f63c 9a61 293e
00000280: 6a0d 2b3e 75ea a73d d500 663e 2de6 b83d
00000290: 03a2 723e 423e 133d 19f4 843e 7456 c2bd
000002a0: 3193 083e 4c67 0ebe e8a7 c93e 90e4 863e
000002b0: cdbb 8f3e 56ad 923c e425 2ebd 749a 8ebd
000002c0: f1e8 ab3d 255e 05be 05e4 303d bed1 98bd
000002d0: f0e6 01bd 6a70 263e 4a14 3bbe 286a 173e
000002e0: 71c0 8bbd fb4f 14be 1226 59bb 9ae1 6b3e
000002f0: 1d7b 3ebd a2a5 a83e 9511 fe3d fa31 4bbd
00000300: 7b9b a53d 6c16 32bd f178 49be 82e0 42be
00000310: 9ffc 2c3e 05e9 a8be 8feb afbd 53aa 903d
00000320: 8a57 3fbd 911f f93d b90e 58bd 88f1 92bd
00000330: 9117 33be 777f 67bd 3925 a6be 50dd 1ebe
00000340: d5bf 33be b0d7 bcbd ac8c 73be 2576 83bc
00000350: d53f e1bd 0939 84be c714 59bd 46f7 10bd
00000360: 2839 49bd dd53 263e ce62 7abe b22b 3cbe
00000370: f7d6 4dbe 07cc 4c3e 75cb feba 7f1e 30be
00000380: 0833 92bd 4fe2 fcbd 2e57 a6bd 4976 0dbe
00000390: 9329 2ebe a476 0ebe 1be6 eebd 8604 98be
000003a0: 6ecb 6abe b2ed b9bd e05b b63c 8d89 92be
000003b0: 2fe3 1d3d 51a7 efbd b3fd 503b 2765 63be
000003c0: 61c3 89bb cbc9 85be b6c2 263d 7b6a 92be
000003d0: 979c 0a3c 9fd5 1abe a9f9 c1bd 909e 5bbd
000003e0: 9e32 1bbc a07f 08be 9242 c8bd 974b 1bbe
000003f0: e26d abbd 2c87 fcbd 94e9 babd 144a efbd
-0.017495224 -0.03262055 0.133832 -0.0947081 -0.027336875 -0.059073906 -0.158127 -0.17206173
0.013991434 -0.010503544 -0.15021273 -0.099328 -0.07230558 -0.2256361 -0.12933643 -0.09909579
0.024351202 -0.0031751948 -0.15037973 0.04576827 -0.07323391 -0.055689402 0.037782792 0.02981423
0.0794386 -0.2514123 -0.034015127 -0.14035025 -0.18330246 0.015113538 -0.110380754 -0.060946934
-0.04226166 -0.1356861 -0.029264515 0.14187092 0.28766993 -0.093522355 0.072142296 -0.16785969
-0.03377847 0.033005282 -0.03452235 -0.19744065 -0.1143049 0.014586108 -0.23871288 -0.046713833
-0.16932988 -0.11220864 -0.19630049 -0.14196447 -0.025114983 -0.34864706 0.057060406 -0.17130041
0.021709744 -0.026205141 0.024023267 0.0772761 0.16063641 -0.040345084 0.059118826 0.24013205
0.20219469 0.07649441 -0.06907875 0.10312736 0.054137267 0.23812577 0.090941794 0.14955162
0.1650876 -0.07374194 -0.09287908 0.103541955 0.05017874 0.23760797 0.13924111 -0.02365651
0.018753825 -0.030655809 0.20175052 0.13369523 -0.04789887 0.3920555 0.19489974 0.2763402
0.037140366 0.027238633 0.3733956 0.16491699 0.103932634 -0.038761143 0.024551712 -0.058367554
0.28657883 0.05210882 -0.077851176 0.29169255 0.08181272 0.13827345 0.14067931 0.084510915
0.1379127 -0.28483245 -0.08327955 0.19349512 -0.031488363 0.0493882 0.15575072 0.1920048
-0.10165671 0.09209818 0.252582 -0.05864044 -0.13678427 -0.14020488 0.013381414 0.04076163
-0.05266353 -0.18718839 -0.023755789 0.18122089 0.3130257 -0.053717524 0.015125304 -0.059133228
-0.029415045 0.043779735 -0.061137527 0.060718603 0.10309498 0.038113166 -0.02971055 0.11239293
0.0587664 -0.092316836 0.18435962 0.08147632 0.07999898 0.045041993 -0.033354033 -0.10032647
-0.05810567 -0.005903568 0.20858997 0.205032 0.14977832 0.085804425 0.12647934 0.0800771
-0.011623813 0.0765801 0.20169626 0.15216269 0.13287596 0.08237009 0.030072985 0.16541138
0.16704336 0.08199016 0.22461255 0.090282775 0.23694615 0.035948046 0.25967482 -0.09489146
0.13337399 -0.13906592 0.39385915 0.26346254 0.28072968 0.017904919 -0.042516604 -0.06963053
0.083940394 -0.13024195 0.043186206 -0.0746188 -0.03171438 0.1625382 -0.18269458 0.14786589
-0.06823815 -0.14483635 -0.0033134264 0.23035279 -0.04650413 0.32938868 0.12405697 -0.04960821
0.08086296 -0.043478414 -0.19675042 -0.19030955 0.16893242 -0.3299028 -0.08589851 0.07063737
-0.046714343 0.12164224 -0.052748416 -0.07174975 -0.17489459 -0.056518044 -0.32450274 -0.15514112
-0.17553647 -0.092208266 -0.23784131 -0.016047547 -0.10998503 -0.25824764 -0.05299833 -0.03539207
-0.049126774 0.16242929 -0.24451753 -0.18376043 -0.20101534 0.19999705 -0.0019439297 -0.17199133
-0.0713864 -0.123478524 -0.08122097 -0.13814653 -0.17008047 -0.13912445 -0.11664983 -0.2969095
-0.22929165 -0.0907854 0.022260606 -0.28620568 0.038546737 -0.11701835 0.0031889498 -0.22206555
-0.004204199 -0.26130518 0.040713035 -0.28596863 0.0084601855 -0.15120552 -0.09471447 -0.053618014
-0.009472517 -0.13329935 -0.09778322 -0.15165554 -0.08370568 -0.123304695 -0.09126583 -0.11684051

linear1.bias f4 [128]
00000000: 43e8 a9bd 5170 d03d 1a47 3e3e d3b6 cabd
00000010: 594d 51ba e461 a1be 7663 db3e a192 65be
00000020: f2e6 bfbd b057 9fbd b95e 1b3d 67c0 0e3c
00000030: 15b0 e23d 47a3 16be 3d6e 9a3e 121e 693c
00000040: cccd 9e3d 3c08 9b3d 74fb b83e bee2 0ebe
00000050: 6977 763e 3330 913c 084b 40bd 66db 2c3e
00000060: 0d88 4c3e 31f1 dd3d ba91 c0be 34a5 063e
00000070: a2a1 71be 9181 11be 7eb8 973e 9ca1 3abe
00000080: e95d b53d 05a2 38bd d168 8b3d 08de 293e
00000090: 8012 aa3e 3bc5 7e3c 676c dcbe c8a6 483e
000000a0: 30e4 8dbd 275e acbd 42d8 adbe f130 34be
000000b0: 5bb7 4cbe 6813 35bd a55e 6cbd f040 db3e
000000c0: 13ae 02be b765 41be cfcf 31be 96a0 983d
000000d0: 88b0 87be c888 e93d 1013 9d3e 842d c73e
000000e0: cb51 093e 57b3 903d fec5 95bc 37e8 70bd
000000f0: dc56 57be 96ba 183c 35cf e13d 933b ce3d
00000100: fb6d 8b3d a90e 013d d9ac 1abd f66b 7e3e
00000110: 1661 47be 1221 e43d e038 023e d4de 8cbd
00000120: d514 97be bf88 89bb 3e49 adbd a4f5 9b3e
00000130: 80e8 93bd 22e2 283e 1e9a 3e3e 0a83 5ebe
00000140: 706a a4be 8896 c23d 54f5 683e bbc8 7e3e
00000150: 799d 24bd 2dd2 01be 63a1 533e a0e2 8fbe
00000160: 1e90 9f3d 8314 b03d 382e 15bc 7fa2 3a3e
00000170: 7a92 81bd 8818 12be 18de c4be d04c 94be
00000180: 6a84 96bd bf8f 24be 567e bebc 8b7b ad3e
00000190: fc56 833e 93a3 373e 8db6 bf3d 8a20 31be
000001a0: 1109 113d 4a3f b43c f7e1 80be 6bff d83e
000001b0: a69e a4be fbf2 933e 2be6 443e 79f6 a4bc
000001c0: 47dc 42be 983f e13e eaba 22bd 3d4d a93b
000001d0: 6c2f 573e 96df 8cbe 00d8 08be 5232 85be
000001e0: e861 68bd 40c7 e4bd 7452 b83e 1bdf e43d
000001f0: 577c ad3d 2f07 ee3e c440 873e 87e6 25be
-0.082962535 0.10177673 0.1858181 -0.09898152 -0.0007984243 -0.31519997 0.4284932 -0.22419216
-0.09370221 -0.07780397 0.03793213 0.0087128645 0.11068741 -0.14710723 0.3016223 0.014228361
0.077540964 0.0756993 0.36129344 -0.13953683 0.24068989 0.017723178 -0.046946555 0.16880569
0.19973774 0.10837019 -0.3761118 0.13148957 -0.23596814 -0.14209582 0.29632944 -0.18225712
0.088558026 -0.04507639 0.068071015 0.16588604 0.3321724 0.015549953 -0.43051454 0.19594872
-0.06928289 -0.08416396 -0.33954054 -0.17596795 -0.1999182 -0.04420796 -0.057707448 0.4282298
-0.12761717 -0.18886457 -0.17364429 0.07452504 -0.2650187 0.11403042 0.30678606 0.38901913
0.13410108 0.07065456 -0.018282887 -0.058815207 -0.21029228 0.009321829 0.1102585 0.10069957
0.068080865 0.03150812 -0.037762497 0.24845871 -0.19470629 0.1113912 0.12717009 -0.068784386
-0.2950808 -0.0041972096 -0.084612355 0.30460846 -0.0722208 0.16492513 0.18613479 -0.21729675
-0.32112455 0.09501368 0.22749835 0.2488126 -0.04018924 -0.12677832 0.20667033 -0.2810259
0.0779116 0.08597662 -0.009105258 0.1822605 -0.06326766 -0.1426717 -0.38450694 -0.28964853
-0.07349475 -0.1607046 -0.023253601 0.33883318 0.256523 0.17933492 0.09360991 -0.17297569
0.035409037 0.022002835 -0.25172397 0.42382368 -0.3215229 0.28896317 0.19228427 -0.020137059
-0.19029342 0.4399383 -0.039729036 0.005166678 0.21014184 -0.27514333 -0.13363647 -0.26014954
-0.056733996 -0.111708164 0.36000407 0.111753665 0.084709816 0.46489856 0.264166 -0.1620122

linear2.weight f4 [32, 128]
00000000: 65d5 aa3d e8c7 45be 157b a73b 45aa 7bbd
00000010: 0af8 193c 87a3 c33c 5051 c53d f53a 173e
00000020: 8f58 2ebe c70c dd3d a3b1 a33d 0343 623c
00000030: 655a 1f3d b1e6 ae3d 1a49 083e c0e1 923d
00000040: cf1f 173e 46ca 14bd 8ef6 053d 2a34 2abd
00000050: cf00 5f3d 678a b9bd 60a6 b2bd 4a07 2dbe
00000060: e5a3 433e f3f1 dfbd 2114 4d3e a3c8 39be
00000070: 2e58 9f3d aee1 a1bd ba61 9c3d 20a6 f1bd
00000080: fe82 24be ec4a c93c b4d6 b43d 9b18 863c
00000090: 64a6 60bc 93d3 94bb 9f44 3d3d 5d36 af3d
000000a0: bc81 26be ab8e 753d f4cc bbbd d47a 013e
000000b0: e09a aa3c 7136 4bbd 9de2 02be 8b78 ea3d
000000c0: 2959 62bd b7d3 e6bd a7eb 5a3e e20e f3bb
000000d0: 20ee 34be 4902 4ebd 89fa 283e 0163 543d
000000e0: e52f ec3d 068b e73d 3c21 ea3d 5f78 4dbe
000000f0: 7cae a1bd c384 45be 8bf5 a1bb f5d9 0bbe
00000100: 528d 163d 2c77 d8bd d492 0bbe 01c6 313d
00000110: 5fc3 a9bd ecca d1bd cdbb 2a3d f1ad eb3d
00000120: c24c b13d 10b5 1abe d9b4 983d da01 96bd
00000130: c108 1cbe 0709 babd b8cc 623d 309e b6bd
00000140: 8a2c 4bbe 358e 263e e347 3ebe 95f9 37bd
00000150: ef35 dcbd f0d0 26be d149 b73d 1958 803c
00000160: 2d3c c1bd bd29 8f3c e631 fcbd 6dd0 59bd
00000170: 3f19 243e 35b8 243e db1c 7fbd 8898 403d
00000180: 3167 bfbd b29a 82be 4cab dcba 901e c03d
00000190: ac4c ca3c b94d 06bc 77fa 37be 86f7 15bd
000001a0: dede f53d 2b4d b8bd 44b3 923d 0f1a aebd
000001b0: 5647 4abe 4719 47bd 5d2b 063e b6eb 16be
000001c0: 0dfe 683c 45fd b33d 1bf1 9cbe 99a1 f2bd
000001d0: 98d6 37bd 9d2e f93d a4ba 0cba 6e5b 16be
000001e0: 0246 353d 8d7b 4cbe 2419 163d b511 fabb
000001f0: dd69 0fbe 05a1 17bd 2dba 09be 8cca d3bd
00000200: a2e3 513e bc41 a7bd d707 f33d 9f41 073d
00000210: 9a6a febd f3a7 99ba d90f 8a3e c84a eabd
00000220: cbd1 a23d 12d1 183d 1ff1 423b 8a89 4ebd
00000230: 9675 4d3e 8323 9a3d 7745 cabc 9ca5 e33d
00000240: 5e72 03bd 76ce 273e 9096 2fbe 370d 623d
00000250: 167d e73d 50f0 d03d a336 1e3d 5164 4b3e
00000260: fcda 0ebd 23a4 2e3e a717 34be 53f0 7e3d
00000270: 1b8f 4cbd c1fc 4fbc 045c 87be 6f9e 21be
00000280: f5b3 883d 4bdf 033e 0f08 a7ba 438f 243e
00000290: e23a 19be 6a13 483c bc86 36be 53f9 323d
000002a0: 4bd2 9c3b 7ca6 143c 0bc5 253e 3d61 c43c
000002b0: cfb9 52be 0341 003d c395 d7bb 0988 b9bd
000002c0: 9367 25be 4d36 68be 5ffb 02be fee1 4d3e
000002d0: 6f54 1bbe ae14 7fbd 9def 123e 65cd 03bb
000002e0: 53c0 a2bd 8d0d 493d e1f3 e73d 927f 41bd
000002f0: 986b 56bd f1ac c5bd 7c95 ff3c 826a 40bd
00000300: ab4e 2a3e 46cd 3b3e 7691 813d 04ab 8d3d
00000310: cd14 23be ee62 b7bd 8a3e 59bd 3bc9 663e
00000320: 6941 cf3d d2a6 973e 0947 853d 5808 513d
00000330: 97b5 3f3e ca88 063e af2c f63d 8512 0abd
00000340: dde9 e63d 4ed5 043d 7a3a 66bd b71c 543e
00000350: 3797 343e 4933 bdbc 372c 2dbc bf62 bf3c
00000360: 2d46 24be 7f65 c0bc 3fb3 83be 02aa 44be
00000370: 56ff 0f3e 3409 553d e0b8 183e 69c7 eb3c
00000380: 19d4 343e 6052 cf3d 65ba 9abd 13e0 e43d
00000390: 8cbb 0f3b 17fc 6e3d 30d8 73bd 76af a03d
000003a0: 44ff babd 6a79 093d c622 5abe 14ac 3fbe
000003b0: 43ee 6fbd c749 49be b78b 0dbd c1bb dc3d
000003c0: 7bfe d6bc bfea dbbd 87dd debd d88a 0dbe
000003d0: 4e8e 8fbc c19e 143e a88b 23bd 0bae d3bd
000003e0: 29e4 363e 3ec8 2fbd 7bc1 1b3d eae7 ff3d
000003f0: 6cb4 da3d 2b52 42be e3cc 0bbc 2fb8 413e
0.08341483 -0.1931454 0.005111108 -0.06144168 0.009397516 0.023881687 0.0963465 0.14768584
-0.1702597 0.10793453 0.07992866 0.013809922 0.038904566 0.08540095 0.13309136 0.07171965
0.14758228 -0.036325715 0.032705836 -0.041553654 0.05444413 -0.09059601 -0.0872314 -0.16897312
0.1910549 -0.1093482 0.2002721 -0.18142943 0.07780491 -0.07904373 0.07635827 -0.11799264
-0.16065595 0.024571858 0.08830014 0.016369155 -0.013711546 -0.004541823 0.04620802 0.08555291
-0.16260427 0.059950512 -0.09169951 0.12644511 0.020825803 -0.049612466 -0.12781759 0.11448773
-0.05526081 -0.1127085 0.21378957 -0.0074175457 -0.17668962 -0.050295148 0.16501822 0.05185223
0.11532573 0.113058135 0.1143212 -0.20065449 -0.078946084 -0.19288926 -0.004942601 -0.13657363
0.036755867 -0.10569605 -0.13630229 0.043401722 -0.08289217 -0.102437824 0.041683007 0.11507786
0.086572185 -0.15108132 0.07456369 -0.07324572 -0.15237714 -0.09083753 0.055371016 -0.089168906
-0.19841209 0.16265185 -0.1858211 -0.044915754 -0.107524745 -0.16290641 0.08949626 0.015667008
-0.09435306 0.017475957 -0.12314205 -0.053177286 0.16025256 0.16085894 -0.062283378 0.047020465
-0.09345854 -0.25508648 -0.0016835718 0.09380829 0.024694763 -0.008197241 -0.17966639 -0.03661301
0.12005399 -0.089990936 0.071630985 -0.08501064 -0.19753775 -0.04860809 0.1310248 -0.14738354
0.014220727 0.08788542 -0.306527 -0.118472286 -0.044882387 0.12167094 -0.0005368388 -0.14683315
0.044256218 -0.19969006 0.03664507 -0.0076315054 -0.14005227 -0.037018795 -0.13449927 -0.10341367
0.20496991 -0.08166835 0.1186673 0.033021566 -0.124226764 -0.0011723026 0.26965216 -0.11440045
0.07950171 0.03730876 0.002974577 -0.050424136 0.20064387 0.075263046 -0.024691327 0.11115572
-0.03209149 0.16387352 -0.17147279 0.055188384 0.11303155 0.10202086 0.038626324 0.19862486
-0.03487681 0.170548 -0.17587148 0.06224091 -0.049941164 -0.012694539 -0.2643739 -0.15783094
0.06674949 0.12878148 -0.001274349 0.16070275 -0.14963868 0.01221166 -0.17824835 0.043694805
0.004785811 0.009072896 0.16188447 0.023972148 -0.20578693 0.031312 -0.0065791323 -0.0905915
-0.16152792 -0.22676964 -0.12791203 0.2010574 -0.15168928 -0.06227558 0.14349218 -0.0020111438
-0.07946839 0.04908519 0.11325813 -0.0472408 -0.052348703 -0.096521266 0.03119921 -0.046976574
0.16631572 0.18340024 0.063265726 0.06917384 -0.15925904 -0.08954416 -0.053038158 0.22537701
0.10119898 0.2961946 0.065076895 0.051033348 0.18721615 0.13138118 0.120202415 -0.033709068
0.11275075 0.032429986 -0.05620811 0.20714079 0.17635809 -0.023095744 -0.010569624 0.023362515
-0.16042395 -0.023485897 -0.2572269 -0.19205478 0.14062247 0.05201073 0.14914274 0.02878161
0.17659034 0.10123134 -0.07555083 0.11175551 0.0021931855 0.05834588 -0.059532344 0.078459665
-0.09130719 0.033563055 -0.21302328 -0.18717986 -0.058576833 -0.1965705 -0.03455707 0.10777999
-0.026244393 -0.10738134 -0.10882097 -0.13822496 -0.01752391 0.14513685 -0.03992811 -0.103359304
0.17860474 -0.042915575 0.038026314 0.12495406 0.10678944 -0.18976657 -0.0085327355 0.18917917

linear2.bias f4 [32]
00000000: 693c a03d 409d 753e b628 b0bd 7b7b c3bd
00000010: e529 613d b083 b6bd fe24 5b3e 8a9b bb3c
00000020: 129f ef3d 1aa8 313e 2af4 423e 793d 853e
00000030: b762 17bd c7dc 7c3e 4387 bdbd 994a 773c
00000040: 803d 773e 2e2b 0bbd dfb6 463d 4e3c f0bd
00000050: 5dab 8cbe 259e 83be b6ac 97be db59 e2be
00000060: cf85 1fbe 7860 86be 2903 31be 65d7 82be
00000070: e7e6 4d3e 30a6 2cbd b508 17be 98c2 b83d
0.07824022 0.23985767 -0.08601515 -0.095450364 0.054971594 -0.08911836 0.2140083 0.022901315
0.11700262 0.17349282 0.19038454 0.26023462 -0.036959376 0.24693595 -0.09254315 0.015093469
0.24144554 -0.033976726 0.048514243 -0.11730252 -0.2747449 -0.25706592 -0.29623955 -0.4420918
-0.15578388 -0.26245475 -0.17286362 -0.25554958 0.20107614 -0.042150676 -0.14749415 0.09021491

output.weight f4 [100, 32]
00000000: b4da 10bd a42b 0f3e 23f8 cb3d 6785 c03d
00000010: 1284 3cbe d69f a93c df74 d2bd 0007 adbd
00000020: 1a8d 0dbd c355 01bd 0406 7abd 9d38 7bbd
00000030: aa5b dfbd 9e6e db3c e9e4 1c3e 84de 4f3d
00000040: 0db2 433d eda0 3b3b 1448 6bbe da86 18bd
00000050: d173 09be d302 58bd 7f73 11be 5be4 26be
00000060: f224 643d 6ccd 77bd 7d7d fcbd 530a 88bd
00000070: a258 ee3d 76c6 04be 0a27 71bd 2633 273c
00000080: 488e da3d 21e5 2ebe 6976 e9bd 755e b4bd
00000090: 39fd dcbd cce3 8ebe 2ef7 5a3e 6bbf b2bd
000000a0: c5ed d5bd 4516 95be d113 9fbc 79e7 263e
000000b0: 83a1 9ebd 4cfe 1ebe 1d18 a83d e471 65be
000000c0: 717f d93e 4ae4 1ebe c025 f73d bd35 8e3e
000000d0: 64bc a93e 3ff8 6dbe 3cac e9bd b738 18bd
000000e0: 8705 b73e 279a 20be f906 583e 4a58 66bd
000000f0: 3d20 0e3e 056c cc3c b9fa 593e 42ac d4bd
00000100: d740 c73d 4192 c6be 8022 393e 4bc4 823d
00000110: e54c 26be e1a2 83be 9e9b 5a3e 945e 61be
00000120: ab13 9b3d 90ce 9dbe 9a68 b23e f350 dabd
00000130: 0273 cabd b9a7 153e 4c78 2dbe 2b7f 80be
00000140: 08c8 c13e 7ffd 3dbc 2b90 8f3d 7367 fc3e
00000150: b789 943e 5979 dfbd 176a b5be a365 86be
00000160: d2c7 acbd e0b4 b0be 890f cf3d 2a36 573e
00000170: 0fc1 ccbe 463b 6a3e 1282 c9bd 7ec8 293e
00000180: 1ee4 d03d 54b0 c1bd 5afa 023e 06f9 71bc
00000190: 9d48 a9bd fd6a afbc 3a56 063d eda4 813e
000001a0: ce60 3bbd c901 33be faa0 9cbc e5a6 6dbd
000001b0: 86be 3c3e 2143 ddbd 75e7 eabd c243 1abd
000001c0: 5402 053b 55a5 11be dfec c7bd 4476 503e
000001d0: 6dca a53e aede 093e 8f09 11be d5a8 29be
000001e0: 1c2c 593d 2836 a0bd e550 da3d 052c 82be
000001f0: dc35 92bd ad69 8d3c cd92 a7bd 22a5 58be
00000200: c4d4 dfbd 2fc6 2c3d e767 04be 806d abbd
00000210: 0fd9 303d 894f 1c3c ad73 d2bd 3a8c 1c3e
00000220: c014 80be e777 d03c cc9a 173e 4815 b83d
00000230: bb78 cfbd b32a 9fbd f35f 11bc 4575 9abd
00000240: a95f c8bc 9edd 3e3d f7a1 7a3e 7668 513d
00000250: 3aa0 09be 1a30 2d3d 0300 9d3d 52ef 373d
00000260: e21a 5cbd 797b 363e 5d7f 45bc 6c19 bf3c
00000270: a09c 56bd 064b fa3d 5bd7 c0bd 12c5 1ebe
00000280: f5df 1dbe 9a02 043e 09b1 73bd 6030 673d
00000290: 506e 76bd 8685 1abe f7d8 c93d d2e5 31be
000002a0: d7c7 ccbd 0237 88bd e917 8e3d 57e9 2f3e
000002b0: 714c 41bd e280 d3bd 79cf db3d d19e bd3b
000002c0: baae c53c 268b 123c 2fa4 46bd 767e 0abd
000002d0: 3f0f 00be ea89 0a3e 8b95 84bd ceab f33b
000002e0: 8200 223e f448 25bd 9d94 e33d 22b5 fc3d
000002f0: d60a 54bc d662 6a3d c638 0bbe 5b99 ccbd
00000300: 1fcc 1abe 8214 083e 0ed3 bfbc 82b9 eb3a
00000310: b2e4 9abd 7fda 53bd 37f2 193d 948a dbbc
00000320: 48b4 babd 4aa6 27bd e75e 8c3d 8dd4 ae3d
00000330: d696 abbd a0c3 29be c855 3abc 99d6 46be
00000340: 3b34 11bd 0ee5 053e fe15 4a3c 16bb 9bbd
00000350: 11f2 3cbd e184 c03d 0ac8 b1bd 7f41 3c3d
00000360: ca13 86bd 5832 8cbd 907e 0e3e 24fa 86bb
00000370: 570e 083d d81f 113c f836 24bd 6823 7a3d
00000380: d63d 9a3d 70ed 9ebd b7ef 323d 937d 2d3d
00000390: 4905 f93d 73f0 e4bd 6690 e93c 7ed7 0d3d
000003a0: 1970 69bb febe e83b 1025 28be 82d9 153e
000003b0: 08bd fcbd cd43 913e 40a1 d13c 4c15 0c3e
000003c0: 1722 6cbd 200f 9bbd 04ab 47be 6deb a03d
000003d0: f9c4 4fbd 7f87 8a3d 69c1 b13c 984d 063d
000003e0: 4dc8 fe3b e6f3 993e 4f32 52be 66d7 6bbd
000003f0: 4edb ca3d 4cf5 04be 47c0 d63c 44ed a63d
-0.03536482 0.13981491 0.09959438 0.094004445 -0.18409756 0.020706099 -0.10276198 -0.08448601
-0.034558393 -0.03157593 -0.061040893 -0.061333288 -0.109061554 0.026786145 0.15321697 0.050749317
0.047777224 0.0028629855 -0.22976714 -0.03723798 -0.13423087 -0.05273707 -0.14204215 -0.16298048
0.055699296 -0.06049864 -0.123286225 -0.06642594 0.11637999 -0.12966332 -0.05887512 0.010205066
0.10671669 -0.17079593 -0.11399538 -0.08807079 -0.10790486 -0.2790817 0.21383354 -0.08727916
-0.104457416 -0.29118553 -0.019418629 0.16299237 -0.0774565 -0.15526694 0.08207724 -0.22406727
0.42480043 -0.15516773 0.12067747 0.27775374 0.33151543 -0.2323923 -0.11409804 -0.037163462
0.35746405 -0.15683804 0.2109641 -0.056236543 0.13879485 0.024953851 0.2128705 -0.10384418
0.09729164 -0.38783458 0.18079567 0.06385096 -0.1624027 -0.25710204 0.21348426 -0.22008735
0.07572111 -0.30821657 0.3484543 -0.10659971 -0.09885217 0.14614762 -0.16940421 -0.2509702
0.37847924 -0.011596083 0.0700992 0.49297675 0.29011318 -0.10911817 -0.35432503 -0.26249418
-0.0843655 -0.34512997 0.10110385 0.21016756 -0.39991042 0.22874174 -0.09839262 0.16580388
0.1019976 -0.0945746 0.12790814 -0.0147688445 -0.08265803 -0.02141332 0.032797076 0.2532114
-0.045746617 -0.1748115 -0.019119728 -0.05802049 0.18432054 -0.108038194 -0.11469928 -0.037662275
0.0020295577 -0.14223225 -0.097619765 0.20357615 0.32381 0.13463852 -0.14163803 -0.1656831
0.05302058 -0.078228295 0.10659961 -0.2542421 -0.07139179 0.017262304 -0.08182297 -0.21156743
-0.10929254 0.04218119 -0.1293026 -0.08370495 0.043175753 0.009540447 -0.1027597 0.15287867
-0.2501583 0.025447799 0.14805144 0.08988434 -0.101304494 -0.07771816 -0.008872974 -0.07541899
-0.024459677 0.04659807 0.24475847 0.051125012 -0.13440028 0.0422822 0.07666018 0.044905968
-0.053736575 0.17820539 -0.012054292 0.023327552 -0.052395463 0.12221341 -0.09416076 -0.15504864
-0.15417464 0.12891617 -0.059495006 0.05644262 -0.060163796 -0.15089998 0.09855836 -0.17372826
-0.09999054 -0.06651117 0.06938154 0.17178856 -0.04719204 -0.10327317 0.10732932 0.0057867547
0.024131168 0.008944308 -0.04849642 -0.03381201 -0.12505816 0.13529173 -0.064738356 0.007436252
0.15820506 -0.040352777 0.1111233 0.12339236 -0.012942037 0.057223164 -0.13595876 -0.09990188
-0.15116929 0.13289073 -0.023416068 0.0017984363 -0.075631514 -0.051722046 0.03758451 -0.026799478
-0.09116417 -0.04093007 0.06854039 0.085366346 -0.08378379 -0.16578531 -0.011372991 -0.194178
-0.0354502 0.13075659 0.012334345 -0.07604043 -0.04612929 0.09400345 -0.086807325 0.0459609
-0.06546743 -0.0684554 0.13915467 -0.0041191746 0.0332168 0.00885769 -0.040091485 0.061068922
0.075313255 -0.07760131 0.04368564 0.042356085 0.12159211 -0.111786745 0.028511237 0.034629337
-0.0035619794 0.007102846 -0.16420388 0.14633754 -0.12340742 0.2837204 0.025589585 0.13679999
-0.057649698 -0.07571244 -0.19498831 0.07857404 -0.050724957 0.06764125 0.02169867 0.032788843
0.0077753426 0.30068892 -0.20527004 -0.057578467 0.0990511 -0.12984198 0.026214732 0.081507236

output.bias f4 [100]
00000000: 1099 263e 4d75 afbe c49b 0dbf 6302 9bbe
00000010: 5603 6c3e 8abb c2bd 62f8 3ebe 159d 0a3f
00000020: 9f84 9d3d ecbe 563e e99e e03e f8b5 d0bd
00000030: b078 a9be e193 023f eb51 5e3e 75a1 b33e
00000040: 1346 39bf bcdb a2bd e6ff dcbc a631 5e3e
00000050: 10a4 b2be bb48 94bd 00de 633e 97d8 b83e
00000060: 9020 81bc 4dae 08bf 0b73 e13e 8fd4 393f
00000070: 2730 ee3d e87e 87be 52de b53d 7c08 073e
00000080: 0fe8 303f 8133 e3be 013b 1b3e 8508 893e
00000090: f1e8 8c3e 2c62 153f 8eb9 8abf 6d43 923d
000000a0: 5490 623e 8427 d83e 80a9 973e 21a7 35bf
000000b0: 99e0 843e 14d7 8fbc ca57 513d 49e0 e63e
000000c0: 3fc1 aabe 652d b4be 7f5b ae3e dadc b1be
000000d0: 92ca a9bf db06 113c 0c85 853e 7633 c03e
000000e0: 29b9 e9be 122a 46be a83b 8fbf ffc8 263d
000000f0: e3c6 65bb 3271 ed3c dd16 b93e 68b3 dabe
00000100: 453c e6be 4a06 31be 83c5 3d3e e2c4 febc
00000110: 4df8 81be ee6f 57be 3f68 09bf c0f6 bf3e
00000120: e64f 153f cb1b 2dbf 0b3e 6c3e 7cb3 073f
00000130: 78c7 b3be 24e4 a3be 782b 10be fd92 eb3e
00000140: 30a8 473e c0f5 e9be 1430 dfbe c931 e53e
00000150: 2ef2 21be f0c1 203e d2ea ee3e 26a9 7bbf
00000160: ee10 6f3d 4a00 133e 1ab1 213e fdf1 033c
00000170: a0cc af3e 6aae 14bd 94f9 59bf 7082 3f3e
00000180: 69e5 ef3e 9031 af3e 3796 ea3e 03e6 67bf
0.16269326 -0.3426918 -0.55315804 -0.30275258 0.23048148 -0.095084265 -0.18649438 0.5414594
0.07691311 0.20971268 0.4387124 -0.10190958 -0.3309989 0.51006895 0.21710937 0.3508412
-0.7237255 -0.07952067 -0.02697749 0.21698627 -0.34890795 -0.07240435 0.22252655 0.36102745
-0.015762597 -0.5339096 0.44033083 0.72589964 0.11630278 -0.2646401 0.08880295 0.1318683
0.69104093 -0.44375232 0.15159227 0.26764312 0.2752147 0.58352923 -1.0837877 0.07141767
0.2212537 0.42217648 0.29621506 -0.70958143 0.25952604 -0.017558612 0.051109113 0.4509299
-0.3335056 -0.35190883 0.3405418 -0.3473881 -1.3264945 0.008851732 0.2607807 0.37539262
-0.45649078 -0.19351986 -1.1190081 0.04071903 -0.0035061173 0.02898464 0.36150256 -0.42715
-0.44967857 -0.17287555 0.18532376 -0.03109974 -0.2538475 -0.21038792 -0.5367469 0.37492943
0.5832504 -0.67620534 0.23070543 0.53008246 -0.3511312 -0.32009995 -0.14079082 0.4601058
0.19497752 -0.45695305 -0.43591368 0.44764546 -0.1581504 0.15698981 0.4666353 -0.98304975
0.058365755 0.14355579 0.15790215 0.0080533 0.34335804 -0.036299147 -0.8514645 0.18702102
0.46854714 0.342175 0.4581773 -0.90585345
