code/development/models/best_model_040.pth (torch, 480181 bytes, 8 tensors)

conv1.weight f4 [1, 1, 5, 3]
00000000: ae7a 633d 4d5a a4ba 4ddb 083e bbf0 423e
00000010: a693 cb3d 1823 e5bd 33f2 4bbc 4388 1bbd
00000020: 2120 233d 6a13 363d 27fd af3c 1bad c3bb
00000030: fb52 08be 86cb d6bd 6ad8 f6bd
0.05553692 -0.0012539119 0.13364907 0.19037144 0.09940271 -0.11188334 -0.0124478815 -0.037971746
0.039825562 0.04445211 0.021483017 -0.0059715635 -0.13312905 -0.10488038 -0.120529965

conv2.weight f4 [1, 1, 3, 3]
00000000: 6555 1fbe bcad 8b3d 28b2 de3d 3eef 1dbd
00000010: 8851 76bd 264e 9c3d 8ffb d6bc 5b1e 0abd
00000020: 7068 68bb
-0.15559919 0.068202466 0.10873824 -0.038558237 -0.060136348 0.07632093 -0.026243 -0.033720355
-0.003546264

linear1.weight f4 [128, 870]
00000000: 9f39 5b3e a77f 6ebe 0577 bdbe 6479 a4be
00000010: bc2c 823d 8906 8dbe f73c 303c 92f1 8abe
00000020: af11 a0be 6631 71be 9043 6bbc 092f 0ebe
00000030: ff01 1c3e 41e5 0fbe bcf3 153e 399e 42bd
00000040: b561 60bd 0f95 dfbd 35fd 54be aca4 213e
00000050: 4e5d 963d 695a 8cbd 1780 5cbe 2606 95bb
00000060: 04e9 24be 410e 2fbe 4276 7c3e 6f06 c43d
00000070: a627 85be be7e 353e 0189 553e 6c2d c33d
00000080: cc61 553e 9ff5 d03d d406 b53e 5fa9 a23c
00000090: d942 a13e 4972 e4bd 7855 ecbd a586 bebd
000000a0: 088c d13d 17f6 6b3e 2b05 1d3e b666 8b3e
000000b0: 8c0c 923e a29b 00bd 56c3 babe 4f74 b6bd
000000c0: e966 bb3e 5a0d f13d f8cc 293e 4d49 bdbc
000000d0: 1b49 d33d 8661 9a3e 2a26 293e eb3e 90be
000000e0: 266f 3e3e d73b 6b3e 4fa8 083c 3c0b 143f
000000f0: 77e8 12be d444 223e 378f 58be bfe9 a5bd
00000100: e5f4 76be 2fcb c13c 1cba 92bb a8d6 c23e
00000110: 1bfd 363e 0a2b 843d c873 a23e 62b3 b73d
00000120: 2715 f23d 612f 913e a7c1 77bd 9277 273d
00000130: 9aac 8cbd ea0a a8bd f595 35bc baf0 9f3e
00000140: 1c30 10bd 256e 153f dc6e 1b3e f959 483e
00000150: 2a44 60be 18b0 833e 29be e13e aa61 9d3e
00000160: d53a 1c3c 95ba 27be 0693 ff3e cf89 1dbe
00000170: 7563 42be 7c5a 21bd 1016 9ebd 4983 69be
00000180: 4f08 463e 53ce 753c f8b3 4e3d 4f4f 193f
00000190: 198b 66bc 0e96 833d cbb1 c4bc 4c3e 91bd
000001a0: 091d 833e 0804 b03c 88ec f43e 7a53 a23d
000001b0: 6e3d f43d ae47 7bbe 071c 833e bbb5 d1be
000001c0: 681f 203f e42c 133f 5658 7b3e d7b5 9fbe
000001d0: eefd e1bd bee1 963d fc90 e0be ba53 0dbf
000001e0: 427e ec3d e285 b53d 6e5f d33e a0e7 21be
000001f0: 09c4 14bd 259b 50be 19c0 bdbe 3537 3fbd
00000200: 09c0 c6bd 7cae 8dbd 6904 a6be 0d61 843d
00000210: aa65 ab3d 9746 523e c8ba 26be af6d a8be
00000220: 5dae b13e 1f0c f33d e1fd fd3e 888d 32be
00000230: db00 0fbd e3ab 18be 0b90 f03b a32a 12bf
00000240: b644 43bd 62e0 87be bcc5 463e 8f7c 5e3d
00000250: 63b9 46be 83f3 2cbd c127 c33d 22d6 74be
00000260: e41f 89be a066 2a3f 6660 733e 1d89 483e
00000270: dc1f 2f3e 2652 a13e db63 033f 73ce c03e
00000280: 0231 16bf 4080 d6be d08e b23d 1f73 40be
00000290: 22c7 253f 9ce8 9b3e 6fc2 80bd d0a6 62be
000002a0: 6f85 39be 8488 a53e 966a d1bd b9bf 50bd
000002b0: c263 893e 22cf cfbe 88e2 873e aee3 8abc
000002c0: 3d6b 503f f52d 293e 6fe8 7abe 2d9a 153d
000002d0: 491a c9bd 9449 1a3d 499b b03e 65ce ccbd
000002e0: bb46 273f 0de7 b23d c965 41be 70da a53e
000002f0: 7b80 a33d 6a30 b83d 1470 08bd 43e3 0b3f
00000300: ce47 6dbe ae19 91be 070a 85be a48f 8fbe
00000310: 06ae 44bd 0c29 ffbe 98d8 02be 36a2 b03d
00000320: b682 143e 4e37 7dbe 3752 9e3e c492 acbd
00000330: 8aed 0cbd 9ac4 6d3e c292 bebe 8500 8e3c
00000340: 1763 efbe cf40 dc3e 6bb8 f33d 9da5 9c3d
00000350: 4f64 ff3d 4fbe 12bf e67b 08bf 8e4e 75be
00000360: d8ac 0cbe 9c12 b0bd 456e d23e 3e47 4c3c
00000370: eb12 8dbd 84b1 613d 9e9b 3bbe 325d 1b3e
00000380: c938 2dbf 9d32 0ebf c477 3f3c c31c b73d
00000390: c2b6 99bd ef3f a23d cdde 84bd 4e70 4dbe
000003a0: 5244 043c ffcd 3abe 4681 ccbe edf3 95be
000003b0: e0bf 973c 26e8 fa3e ed12 c4be 67c1 413e
000003c0: 769d adbe 072c 1cbe 3506 93be bd20 af3e
000003d0: a35c 94be e270 f3bd 2ba6 d6be 2845 743e
000003e0: 164b 2a3d 5fb7 90be 0040 18be b96a ab3e
000003f0: 7240 5dbb 38c6 4d3e 2c3e ea3e 7fef ef3c
0.214087 -0.23290883 -0.37004867 -0.32123864 0.06356189 -0.27544048 0.010756723 -0.2713743
-0.31263492 -0.23554 -0.01435937 -0.1388513 0.15235136 -0.14052297 0.14643759 -0.047514174
-0.05478068 -0.109171025 -0.20799716 0.15785474 0.07342015 -0.06853182 -0.21533237 -0.004547852
-0.16104513 -0.17095281 0.24654487 0.095715396 -0.26006812 0.1772413 0.20853044 0.09530148
0.20838088 0.102030985 0.35356772 0.019856153 0.31496313 -0.11154611 -0.11539739 -0.09303025
0.10231787 0.23043095 0.15334003 0.272268 0.28525198 -0.031398423 -0.36477154 -0.08908903
0.36601952 0.11770125 0.16582096 -0.023106242 0.10316678 0.3015253 0.16518465 -0.28173003
0.18597087 0.22972046 0.008340909 0.5782964 -0.14346491 0.15846568 -0.21148382 -0.08101224
-0.24116857 0.023656456 -0.0044777524 0.38054395 0.1786999 0.064535215 0.3172896 0.089697614
0.11820441 0.2835646 -0.060487416 0.040885516 -0.06868859 -0.08205207 -0.011083116 0.31238347
-0.03520213 0.5837119 0.15179008 0.19565572 -0.21901003 0.25720286 0.44090393 0.30738574
0.009535511 -0.16379769 0.49916857 -0.15384601 -0.18983252 -0.039392933 -0.07719052 -0.22803988
0.19339107 0.015002805 0.0504646 0.5988664 -0.014071249 0.06425105 -0.02401056 -0.0709196
0.2560809 0.021486297 0.4783671 0.07926078 0.11925779 -0.24539062 0.2560732 -0.40958962
0.6254792 0.5749037 0.24545416 -0.3119342 -0.11034761 0.07367276 -0.43860614 -0.5520588
0.11547519 0.08863427 0.41283745 -0.15811014 -0.036319766 -0.20371683 -0.3706062 -0.04668351
-0.097045965 -0.06918046 -0.3242524 0.064638235 0.08369 0.2053474 -0.16282189 -0.32896182
0.3470334 0.11867546 0.49607757 -0.17436802 -0.034912925 -0.1490932 0.00734139 -0.5709631
-0.04767295 -0.26538378 0.19411367 0.054318007 -0.19406657 -0.04222442 0.09529067 -0.2390981
-0.26782143 0.66562843 0.23767242 0.19583555 0.17101997 0.31507987 0.5132424 0.37657508
-0.5866853 -0.41894722 0.087186456 -0.18793915 0.6475698 0.30450904 -0.06287085 -0.22133946
-0.18117307 0.32330716 -0.10225408 -0.05096409 0.26833922 -0.40587717 0.26540017 -0.01695427
0.8141363 0.16521437 -0.24502729 0.036523987 -0.098194666 0.037667826 0.34493473 -0.10000304
0.653423 0.08735476 -0.18886484 0.32393217 0.0798349 0.08993609 -0.03331001 0.5464365
-0.23171923 -0.28339905 -0.25984213 -0.28039277 -0.048017524 -0.49836004 -0.12777936 0.08624689
0.14502987 -0.24728128 0.309221 -0.08426431 -0.034406222 0.23219529 -0.37221342 0.017334232
-0.46755287 0.43018195 0.11900409 0.07648776 0.12470304 -0.5732164 -0.53314054 -0.23955747
-0.1373781 -0.085972995 0.41099754 0.012468157 -0.06888374 0.055100933 -0.18321082 0.1517227
-0.6766477 -0.5554598 0.011686269 0.08941033 -0.075055614 0.079223506 -0.064878084 -0.20062372
0.008072929 -0.18242644 -0.39942378 -0.29287663 0.01852411 0.4900524 -0.3829569 0.18921433
-0.33909196 -0.1525117 -0.28715673 0.34204665 -0.28976926 -0.11886765 -0.4192365 0.23854506
0.041575514 -0.282649 -0.14868164 0.3347986 -0.0033760336 0.20095146 0.45750558 0.029289005

linear1.bias f4 [128]
00000000: f02d fabd f0c5 13bc e4af a3bb 0a1f 913c
00000010: 1a74 503d 0330 373e 2cd5 dfbd 0013 5e3c
00000020: 0e16 dfbd c3b9 10bd 0fab 4abd e4ba 243c
00000030: 5c2c e73c 9fd6 7e3e b952 e5bd fd13 783c
00000040: ebfc 9d3c ff58 b0bd 39ea 87bc f3fd 1ebe
00000050: 2e5a 35be c64e e93b 5392 5ebd 3e51 af3c
00000060: 1e20 bd3c 1357 37bc e98a eabc 12ad 82be
00000070: ee1b adba cf1a 86be a6ed 88be 9c03 123c
00000080: 3688 89bd f5e0 41be f714 d3bb 3223 c9bd
00000090: f25b 2cbe f746 f33c abd5 583c 8b9c bf3c
000000a0: 0bf0 c0bc ef0b 39bf 0f86 383e b96b 083f
000000b0: 3305 1b3e e1a8 013e 0091 bb3d dd2e 67bb
000000c0: 1c2b c2bd 8c51 91bd 7720 e6bc 8bd0 49bc
000000d0: f02c 92be 455c dabd d066 a7bb 5763 25bb
000000e0: a367 db3a b17a ce3b 8c0c 6abe eed5 8fbd
000000f0: 7d7c a1bc b20c 1d3d 322c 563e 7ce1 013f
00000100: 0f25 8f3c e74a 0a3d 2a3c 41be ce52 8dbc
00000110: 00ed 23bc 03c2 b7bd c949 36bc 3229 a73b
00000120: 37a4 86bc 9284 96be 2252 c9ba 1ca7 54be
00000130: b466 7bbe 88c1 32be 2d2a c2bc 28c6 4f3d
00000140: bd31 bebb 0070 0ebe b3b3 a53c 6927 6cbc
00000150: b4cb 07bd c668 e2bc 487d 15bc 9bd7 b6bc
00000160: f3b4 13be aa1c 5f3b 0236 2a3e 062e efbc
00000170: 4c84 86be f0d1 cebc b010 eabb 4ec2 0bbe
00000180: cf42 d2bc e17c 313d 89db 52bd 58d2 94bd
00000190: bedd e8be 5126 11bd a669 443c 7187 cfbc
000001a0: 203f dd3b 01e0 1dbc 3284 13bd 0ce2 d0bd
000001b0: 287c b13c bc46 7c3e 6f86 05bb c919 573e
000001c0: 5f6d 1ebd d08a a13e 8ee7 463c 486e 59be
000001d0: fa12 073d 3075 40bd d825 b33c 503b 54bc
000001e0: b342 98bc 30fe a7be 80d8 133e 5f35 1ebe
000001f0: abe2 79bc e006 2bbe 5f15 f63d ecbd 6fbc
-0.12215793 -0.00901936 -0.004995333 0.017714996 0.050891973 0.17889409 -0.10929331 0.013554335
-0.108928785 -0.035333406 -0.04947954 0.010054324 0.028219394 0.24886559 -0.11197419 0.015141484
0.01928564 -0.08610725 -0.016591178 -0.15526561 -0.17710182 0.007119986 -0.054338764 0.021401044
0.023086604 -0.011190194 -0.02863069 -0.25522667 -0.0013207176 -0.26192328 -0.2674381 0.008911993
-0.06715433 -0.1893347 -0.006441708 -0.09821166 -0.1683195 0.029696925 0.013234536 0.023390075
-0.023551961 -0.72283834 0.1801989 0.5328937 0.15138702 0.12662078 0.09158516 -0.0035275735
-0.09480879 -0.07095632 -0.028091652 -0.012317787 -0.2854991 -0.1066213 -0.0051086918 -0.0025236213
0.001673926 0.006301247 -0.22856349 -0.07023226 -0.019712681 0.038342185 0.20915297 0.50734687
0.017473726 0.03376284 -0.18870607 -0.017251398 -0.010005236 -0.08972552 -0.01112599 0.0051013464
-0.016435726 -0.29398018 -0.001535956 -0.20766872 -0.24550897 -0.17456639 -0.023701752 0.050726086
-0.005804269 -0.13909912 0.020227289 -0.014413693 -0.03315325 -0.02763785 -0.009124108 -0.022319606
-0.14424495 0.0034044185 0.16622165 -0.02919675 -0.2627281 -0.02524659 -0.0071431026 -0.1364834
-0.025666622 0.043331984 -0.051478896 -0.072666824 -0.45481676 -0.035436932 0.011988079 -0.025333138
0.00675191 -0.009635926 -0.036014743 -0.10199365 0.021665648 0.24636358 -0.0020374318 0.2100593
-0.038678523 0.31551218 0.012140168 -0.21233475 0.03297708 -0.04698676 0.021868631 -0.012953594
-0.018586492 -0.32811117 0.14438057 -0.15450047 -0.015251796 -0.16701841 0.12015795 -0.014632683

linear2.weight f4 [32, 128]
00000000: d28c 5a3e ccc2 92bd 5276 023d d682 0abd
00000010: 31d2 0ebe 6be0 2a3e 5e8e 3e3d 3790 993c
00000020: c9b3 3abe 82af 163d 614c 203e 9a35 733a
00000030: f00f 1e3e 20d6 093e aadf 1b3f 0a84 bdbb
00000040: b7e8 cbbc 2598 19be 0b79 0d3d 547b 0fbe
00000050: 08bd 82bd decb 7b3c b959 ae3a 730c ddbe
00000060: 53f6 243a bd66 1e3c 4164 2d3e e71c 21bb
00000070: bd25 a43c 2265 89bd d355 bb3c 48ec 47be
00000080: 7a50 a0bd 9bf0 b83e 1748 83bb a1aa a73d
00000090: af40 92bd d0df 03bd 58a3 1fbd afe0 963e
000000a0: 5335 9cbd 87a7 4f3d 760f 51bd 833a f33d
000000b0: 3bab 53bd 00f5 d5bd 7a60 9ebd 517c b2ba
000000c0: d9df 193e c5a7 79bd 985a 763d 6bf2 e33c
000000d0: 8aad 80be a517 403d 18f0 95bb 8a58 74bc
000000e0: afc0 d2bb 089d 9abc 9988 21be 4a2d 8ebe
000000f0: 66e7 393d 44be e4be 8af3 7fbe c329 bebe
00000100: 575d 09bc 3ccb 1c3e 247e 0ebf c86c 333d
00000110: f31d 593c 1c8b 96bd 8a19 91bc dbd1 0dbd
00000120: 31b0 15bc bed1 25be b964 2d3d 9045 a7be
00000130: 979c 4cbd 26de e93d 59cd 5d3c 36a3 343e
00000140: d8e1 453c 5249 7f3d 5bd5 d6bc a5d6 94bb
00000150: 9b9c a7bd f07c 9cbe 79b1 ca3c a8d9 e13d
00000160: cac9 023e 86d6 16bd 250e 5d3d be93 4dbc
00000170: c7f4 be3d dc13 013e 5d41 0a3d 9e7a 0fbe
00000180: 4928 ef3b f309 8ebe 1456 0d3c 065f 1d3e
00000190: 8f06 7f3e c73c bcbb 21e7 e2be 2f2d b2bb
000001a0: 84ae aabc 7c9f 66bc 2088 f83b 6cd7 9cbd
000001b0: 32a3 0bbd adb3 64be f522 0e3c 79eb d5be
000001c0: b321 603e 3f29 ba3e 5708 1bbe 318a 8dbe
000001d0: ee68 8a3d 8e24 1b3e bee9 e43b 4896 1abd
000001e0: 705b a8bd 4450 3dbe 900d b83c 83b0 003d
000001f0: 1167 13bc e42a 2b3e 97e8 03be e554 4e3c
00000200: b66b f43e b2f8 e2bb dab4 543c 49ac 1dbc
00000210: 11fd 63be 0f46 653d 1032 f73d e118 4f3c
00000220: 516c 323e eb9d 693c 4fee 1dbd 95de 893b
00000230: daba 6d3e 3055 95be b0de 4a3d 347d 8cbb
00000240: 5e43 79bc 71d1 513e 3674 1a3c 0147 da3d
00000250: a0bd 3f3e 9078 f3bd 591e a83c 8cc8 9f3e
00000260: e831 413b 9828 003d 9cb3 a1be abf5 793e
00000270: f99e 1d3c 4414 6b3c d85e 44be b942 313d
00000280: 6159 c73e a1f6 343e 3186 213c 19c9 ef3d
00000290: cf32 1bbf 5fbe 9dbc 96d5 87bc 366d b33e
000002a0: 8f00 16bd 2e6d 353e 983f f2bd 00b3 93bd
000002b0: 7c4f bbbe 21d7 883d cb8c 043c df92 a43c
000002c0: 5cdf 9fbd 743a 7ebd 7808 d4be 5c5c fe3c
000002d0: 67cb 1abe d28a f93d 3dd4 c2bc 60b6 113c
000002e0: 1280 edbd 47f5 02bc 92a2 5c3e 9463 a9bd
000002f0: d340 0e3e 2cf7 e93c 6422 e2bd 1a41 a6bd
00000300: 6ab7 ca3c 175d 223f ae79 5b3e 3759 373b
00000310: daeb 023c d5fa 21be d769 b8bb 5ed2 3cbc
00000320: b532 e3bb 52a4 8c3e 7733 9abb 2c4b 323d
00000330: 9a1e 203e dc8e d83d 2996 0f3c 474b ab3d
00000340: 7b74 173c 8cba 2e3b b473 013c bbc6 373d
00000350: ac6b 253e e6a5 82bd a8d8 253d 17f3 efbc
00000360: 97b8 56bd 60cc 69bc 71cc 87bd 5b15 5a3c
00000370: d087 8d3d 78e9 afbd 6fb1 803c c6ef c03d
00000380: 909a 89ba a854 95bc 5e66 373c 8829 193d
00000390: 35b5 593e 6277 e0ba 79d2 46be 4e60 813b
000003a0: 9e60 7fbc 2fa3 0fba 07bc c6be b33f 5cbe
000003b0: dd9d 91bc 1502 21be af65 81bc 0d51 443e
000003c0: a063 e5bc 05c6 4bbe 2308 cc3d 7a2f 03be
000003d0: 97ec b9bd 98f0 343b 69f4 96bb 1730 0dbc
000003e0: 5353 54bd 1c2e 623e 4fb7 c83d 088a 103e
000003f0: c8a0 04bb e056 90bd 7f12 3b3b 8a8c 633c
0.21342781 -0.07166061 0.03185112 -0.03381618 -0.13947369 0.16687171 0.04652249 0.018745525
-0.18232645 0.03678847 0.15654136 0.00092777016 0.15435767 0.13460588 0.6088816 -0.0057835625
-0.02489124 -0.14999445 0.034539264 -0.1401189 -0.06383711 0.01536843 0.0013301886 -0.4317356
0.00062928087 0.009668049 0.16932775 -0.0024583878 0.020037526 -0.06708743 0.022868073 -0.19523728
-0.0782785 0.36121067 -0.0040063965 0.08186842 -0.07141244 -0.032195866 -0.038974136 0.29468295
-0.07627358 0.050696876 -0.051040135 0.118763946 -0.05167697 -0.10447121 -0.07733245 -0.0013617371
0.15026797 -0.060951013 0.06014499 0.027825555 -0.251324 0.04689755 -0.0045757405 -0.0149136875
-0.006431661 -0.018873706 -0.15774764 -0.27768928 0.045386694 -0.4467641 -0.24995247 -0.37141237
-0.00838407 0.15311903 -0.55661225 0.043804914 0.013251769 -0.07350752 -0.017712373 -0.034623962
-0.009136246 -0.16193292 0.042332385 -0.3267026 -0.049954023 0.114193246 0.013537728 0.17640385
0.012077771 0.062325783 -0.026224783 -0.004542189 -0.08184167 -0.3056407 0.024742829 0.11027843
0.12772289 -0.03682568 0.053968567 -0.0125474315 0.09324031 0.12605232 0.03375374 -0.14011618
0.0072985035 -0.27741966 0.00862648 0.1536828 0.24904846 -0.00574455 -0.44316962 -0.005437515
-0.020835169 -0.01407611 0.0075845867 -0.07658276 -0.034091182 -0.22334166 0.008675327 -0.41781214
0.21887855 0.36359593 -0.151399 -0.27644494 0.06758295 0.15150663 0.006985872 -0.037740976
-0.08220565 -0.1848765 0.022467405 0.031418335 -0.008996741 0.1671558 -0.12881695 0.012593483
0.47738427 -0.0069266194 0.0129825715 -0.0096235955 -0.22264506 0.055975016 0.120700955 0.012640209
0.17424132 0.014258842 -0.038557347 0.004207442 0.2321581 -0.29166555 0.049528778 -0.0042873863
-0.0152138155 0.20490052 0.009427121 0.10658074 0.1872468 -0.1188823 0.020522283 0.31207693
0.002947921 0.031288713 -0.31582344 0.24410121 0.009620422 0.014348093 -0.19176805 0.043276522
0.38935378 0.17672206 0.009858654 0.11708278 -0.606244 -0.019255815 -0.016581338 0.3504426
-0.036621626 0.1771743 -0.11828536 -0.07211876 -0.3658408 0.066816576 0.008090208 0.020089565
-0.07806274 -0.062067464 -0.4141271 0.0310499 -0.15116654 0.12184681 -0.023782844 0.008893579
-0.11596693 -0.007993049 0.2154639 -0.08270946 0.13891916 0.028560244 -0.11041716 -0.08117886
0.024745662 0.63423294 0.21433136 0.002797676 0.007990802 -0.15818341 -0.0056278515 -0.011524765
-0.006933535 0.27469116 -0.004705842 0.04352872 0.15636674 0.10574123 0.008763828 0.083639674
0.00924408 0.0026661484 0.007901121 0.04486726 0.16154355 -0.06379299 0.040489823 -0.029290719
-0.052422132 -0.014269918 -0.06630791 0.013310756 0.0691067 -0.085894525 0.015709607 0.09420733
-0.0010498334 -0.018228844 0.01119384 0.037393123 0.21260531 -0.0017125423 -0.19416226 0.003948248
-0.015587 -0.00054793333 -0.38815328 -0.21508674 -0.01777547 -0.1572345 -0.015795557 0.19171543
-0.028001606 -0.19899757 0.099624895 -0.1281108 -0.09078329 0.0027609225 -0.0046067727 -0.008617423
-0.051837277 0.22087902 0.09800588 0.14115155 -0.0020237435 -0.0704782 0.002854496 0.013888488

linear2.bias f4 [32]
00000000: 3612 a23b 46eb 1dbe 4d79 94bd b517 3bbe
00000010: f7e2 bf3e 177a 92bd 19a4 8dbd 1d6d 823e
00000020: 3781 1dbe 878d 063e 5298 ab3e 96bd bfbe
00000030: a4e5 c4be 098a 95be 79b4 6f3d 4b06 bdbd
00000040: 6f8b ca3e 3fac c63e dec2 49be d592 46be
00000050: 5bdf 9cbe b5ab 303e c603 c23d 3de0 673d
00000060: a271 1ebe 6376 563d 827d ab3d f3f6 58bc
00000070: c952 bc3d 45c7 d7be f854 873d a749 acbd
0.0049460186 -0.15421781 -0.07249699 -0.18270762 0.37477848 -0.07152193 -0.06916065 0.25473872
-0.15381323 0.13139926 0.3351465 -0.3744933 -0.38456452 -0.29206875 0.05852172 -0.09229716
0.39559504 0.38803288 -0.19703242 -0.1939195 -0.30639157 0.17253001 0.09473376 0.056610335
-0.15473035 0.052358996 0.08373548 -0.013242471 0.091954775 -0.42144218 0.066080034 -0.084124856

output.weight f4 [100, 32]
00000000: c4a7 4cbe 1fd5 2d3d fb6c 233e a2c2 e3bd
00000010: 43d3 04be b5d1 4cbe 5337 b13d f37e 3cbe
00000020: 2ff2 27bd 20a0 34be 43d4 0abe b56e 6c3e
00000030: b3a3 233e 9ca8 c7be d373 b6bc f307 2e3c
00000040: 3cb0 263e 5fd3 893d 7b30 133e eb42 85be
00000050: d3ac c43d 9a46 b6bd 6185 33be a5a6 abbe
00000060: 8670 5d3d c1d8 a83d df2c 1dbe 4381 e43d
00000070: 3a51 6abd 2a9a abbd 85ad ce3d 7268 a23d
00000080: be0d 9cbd d061 56be 29e4 013e d3a5 463e
00000090: 4b96 763d 95d4 523e ced8 cbba 079f 133e
000000a0: 65b9 33be 156b da3d e59a 503e dd5d c4bd
000000b0: 88fc 1bbe ff0d 563e 60a7 81be 4f8c bcbd
000000c0: 14b9 06be 79fa b63d 5d8b e7bd 6582 9e3e
000000d0: 93d7 313d 0778 8b3d e89c b7bd 3aa2 e33c
000000e0: 7bfe 453c 60b0 8bbe 7514 d23d 32cd 27be
000000f0: 28e6 f13d fb99 c73c eb96 b73e 08fc 9e3e
00000100: bec5 a3bd 7f51 193e 5644 14be c130 5f3e
00000110: e4d1 46be 7b68 8ebe 71f1 d13d bb22 e7bd
00000120: e55d f8b9 54b3 793d 4b4d b23e 2560 8cbd
00000130: a3f0 5fbe 866e c53d 9472 69be c461 193e
00000140: fb0d aa3d 165d 213b 11fc a5be ca85 403d
00000150: 1d59 77be 4b6d 973e 13f6 24be 9a9e 143c
00000160: 0157 8a3d b8f3 9a3d 0c9f 363e 1c69 593e
00000170: 7229 933d bafe 733d e1af 06be 6c4d 4b3e
00000180: d9e9 da3d fd84 bd3e cedf bfbd 6db7 a2bd
00000190: 20f8 24be 49b1 05be a52d 7f3d 0335 b33e
000001a0: c168 083e 4b7e 0ebe 4039 6b3c 949d a73e
000001b0: 6e2d 293e 6451 f4bd 51a4 e1bd 6f03 80be
000001c0: 22e8 f6bd 4fa9 213e 5d70 48bd f5e5 013e
000001d0: 9b5a 82be 8e7c 273e 43f1 a03e ec21 ebbd
000001e0: ee19 1bbd b793 523e 9f57 20bd d5da 53be
000001f0: 0ad3 fa3d b00d 2fbe 986f 383d ac32 71be
00000200: 8961 423e 007f 843d 5cf4 8f3d c688 c3bd
00000210: 0b42 92bd 30da b93d 9fcc 02bd 9459 06bd
00000220: fdcd 0e3d 44ca cb3d 3414 95be 450f 0b3e
00000230: 2791 b1bd 76bc fb3d fefb f0bd 6972 e93a
00000240: b65b e13c b137 db3d 4db9 50bd 3f13 1e3d
00000250: 5c8c 0dbe a1c5 d4bd 782d a83c a2ce 803e
00000260: bddd 4abd 67c9 d13d c2f2 ee3c cb48 e3bb
00000270: 913d 253d 6897 5c3d 02c7 183e dd6a 983d
00000280: 7688 103e a6b0 943e b6bd f83c 65cf ff3d
00000290: c80b 9d3d 70cc 89bd 4869 4ebc f7be 513e
000002a0: 367e 80be b885 9cbe 63d3 573d 4b29 cb3c
000002b0: e82b 413e 32f8 ca3e 2a8b e13d 5605 64be
000002c0: a391 573e d967 bb3d a9ae 96be 16f1 b4bd
000002d0: 4cf2 11bc 229a 643c 083b c1be 5c4d 8b3b
000002e0: 02dd 253d aad3 c9be 89fc 513e af81 903c
000002f0: 6948 b73d bfe7 22be af7f 0dbf 1c8e fb3d
00000300: ed6d 0fbe fb3f a8bd 3cbf bcbd 4ce5 e43d
00000310: 5520 873e dbe6 a8be b982 263e 9c6e dc3d
00000320: c6c0 95be a06d c8bd 5a8c 4e3e 64b3 9b3e
00000330: 7fd0 a63d 9459 a03d abb0 c53d 8e6c 65bd
00000340: 5ee0 75be 9b61 2dbd 06c4 b63e 3344 f4be
00000350: 83f8 503e 2481 353e d2fd 5bbe 3904 cc3d
00000360: 1d64 c5bd f394 07be 57f1 8e3d 285f 4cbd
00000370: e39c e2bc 6ccf ccbd 7e5a 8fbe 4752 acbd
00000380: f05b 02be cbc2 b63e 585a b83e 92fb fb3d
00000390: 7278 1cbd c5ea 1b3d 3a1a 933e 5146 24bc
000003a0: b3cb be3e 4d94 273e 28da 673e 5c7c 69be
000003b0: 9118 913c fa8b e43e 4332 d4be f723 323f
000003c0: 2290 f0be bcc8 883c f268 e4bd 8c50 d8be
000003d0: e6dc 123e 1979 93be f4cb 35be 9d54 b7be
000003e0: 73ef 363e 58c0 05bf 8f55 debe 988f 253c
000003f0: 7f53 f5be 892c 6cbe f390 9a3e 6175 6dbe
-0.19985873 0.042439576 0.15959541 -0.11121108 -0.12971215 -0.20001872 0.086531304 -0.18407802
-0.04100245 -0.17639208 -0.13557534 0.23089106 0.15980415 -0.38995826 -0.022272026 0.010622012
0.16278166 0.06729769 0.14373963 -0.26027617 0.09603276 -0.08900185 -0.17531349 -0.33525577
0.05406239 0.082444675 -0.15349148 0.11157467 -0.05720637 -0.08379014 0.1009169 0.079300776
-0.076198086 -0.2093575 0.12684692 0.19399194 0.060201924 0.20588906 -0.0015552284 0.14416133
-0.17551191 0.106649555 0.20371588 -0.095882155 -0.15233052 0.20903777 -0.2532301 -0.09206449
-0.13156539 0.089344926 -0.11305878 0.30958858 0.04341848 0.06810003 -0.08965474 0.027787317
0.012084599 -0.27283 0.10257808 -0.1638687 0.11811477 0.024365416 0.3585733 0.3105166
-0.07996701 0.14972495 -0.14479193 0.21795942 -0.19416004 -0.27814087 0.102511294 -0.11285921
-0.00047372203 0.060962036 0.34824595 -0.068542756 -0.2186914 0.09640221 -0.22797614 0.14978701
0.08303448 0.0024622134 -0.32418874 0.04700259 -0.24155088 0.2957557 -0.16109495 0.009071017
0.06754876 0.07566017 0.17834109 0.21231502 0.071856394 0.059569098 -0.1315303 0.19853753
0.10689134 0.37015525 -0.09368859 -0.07945142 -0.16110277 -0.1305591 0.06229939 0.35001382
0.1332121 -0.13915364 0.014356911 0.3273741 0.16521236 -0.119295865 -0.11017669 -0.2500262
-0.120559946 0.15787242 -0.048935283 0.12685378 -0.2545975 0.16356108 0.31434068 -0.114810795
-0.037866525 0.20564161 -0.039146062 -0.20688947 0.12247284 -0.17095065 0.0450283 -0.23554486
0.18982519 0.06469536 0.0702903 -0.09547572 -0.07141503 0.09074819 -0.031933423 -0.032800272
0.034864414 0.099506885 -0.29116976 0.13580044 -0.08670264 0.122918054 -0.11766814 0.0017810586
0.027509551 0.10703982 -0.050957967 0.038592573 -0.13823074 -0.10389257 0.020529494 0.25157648
-0.049527872 0.102434926 0.02916849 -0.006936168 0.040341917 0.05385533 0.14919665 0.074422576
0.14114556 0.29041022 0.030363899 0.12490729 0.07668263 -0.067284465 -0.012598343 0.20483004
-0.2509629 -0.3057077 0.05269183 0.024799963 0.18864405 0.39642483 0.110128716 -0.2226766
0.2105165 0.09150667 -0.2943013 -0.08835046 -0.008907866 0.013952764 -0.3774035 0.0042511653
0.040493973 -0.394193 0.20506491 0.017639963 0.08949358 -0.15908717 -0.55272955 0.122829646
-0.14006777 -0.08215328 -0.092161626 0.111765474 0.26391855 -0.3298863 0.16260804 0.107632846
-0.29248637 -0.09786534 0.20170727 0.30410302 0.08145236 0.07829586 0.09652837 -0.05601173
-0.2401137 -0.042329412 0.3569643 -0.47708282 0.204073 0.17725044 -0.21483544 0.09961743
-0.09638236 -0.13240413 0.06979626 -0.049895436 -0.0276627 -0.100005 -0.27998728 -0.08414131
-0.12730384 0.3569549 0.36006427 0.123038426 -0.038200803 0.03806569 0.28730947 -0.01002653
0.37264785 0.16365166 0.22641814 -0.22801346 0.01771191 0.44638044 -0.41444597 0.6958613
-0.46984965 0.01669728 -0.11152829 -0.42248952 0.14342079 -0.28803328 -0.17753583 -0.35806742
0.1786478 -0.5224662 -0.4342465 0.010105036 -0.47915265 -0.23063864 0.30188712 -0.23189308

output.bias f4 [100]
00000000: 8a3f 3f3f 6032 b53c 215b bbbe 4691 9e3e
00000010: 1b48 1bbf 277d 53bf ca39 263f 9bef 4abf
00000020: 3871 c6be 54f9 c7be c876 c43d aed6 ac3e
00000030: ff1d 0d3f 8724 373f 3fbb 43be 14d3 5f3e
00000040: 7f9c 1c3e 80b4 ae3b 435d 8c3e de4e 1d3f
00000050: f4c7 d1be 2d47 8c3e 303e 2e3d cca4 c23d
00000060: 9ab3 9fbf b0e9 523f 3dfc 0cc0 450f 12be
00000070: aec8 e03e 963a 5d3e c2f5 a3be 80cc fcbe
00000080: 43e6 68bf 62ab 303e febc debd 1646 b53e
00000090: da71 6d3e ccd6 bbbf acf1 a13e 57d7 84be
000000a0: da3a e3be 7c9f 4e3f 1c43 0d3d 639d a53e
000000b0: 4864 00bf a140 5f3f 2c4b 0d3f 328d 53bf
000000c0: 06fe 9fbe 0c0a 87bf eeb4 253f 576c ca3e
000000d0: 33e6 b4be 39dc 2c3f ff75 783e 905e 1d3f
000000e0: f945 cc3e dc3a 3bbf f512 acbe 45ff db3e
000000f0: 110a a9bd 6882 aebe 87ce 3d3e 493f 5bbf
00000100: 4769 f23d afdd 1abf 85ee 41bf 2625 05bf
00000110: 4dae c1bf 90c1 4bc0 fb77 e8bf 5683 513f
00000120: 4889 683d ea19 dabc 7c99 ad3e a6fe 27bf
00000130: b7f7 1bbf 68b9 4abe 02a1 fcbe e84d a83e
00000140: e6b4 00be 9759 cdba b35f 6c3e 238f 143f
00000150: 9ef5 2d3f 7e61 a2be bbcc 18bf e6c1 86bf
00000160: 31f7 d73e c726 5ebf b917 93be 8eb8 3f3f
00000170: 01e0 3fbf 9ef6 cf3e 9b6c 37be 9695 133f
00000180: dfcd 9d3e c839 13be 6490 993e e76c 2b3f
0.7470633 0.022118747 -0.36592963 0.3097021 -0.606569 -0.8261284 0.6493193 -0.7927186
-0.38758254 -0.3905741 0.09592968 0.33757538 0.55123895 0.7154011 -0.19114397 0.21857864
0.15294074 0.005331576 0.27414903 0.61448467 -0.40972865 0.27398053 0.042539775 0.09504089
-1.2476685 0.8238783 -2.2028954 -0.14263637 0.43903106 0.2160438 -0.32023436 -0.4937477
-0.9097635 0.17252877 -0.10875891 0.35405034 0.23187962 -1.4674926 0.31629694 -0.2594554
-0.44380838 0.80712104 0.03448783 0.3234664 -0.5015302 0.8720799 0.5519283 -0.8263732
-0.31248492 -1.0549941 0.647292 0.39535782 -0.35331878 0.67523533 0.24263762 0.61472416
0.39897135 -0.7313669 -0.33608213 0.42968193 -0.08253873 -0.34083867 0.18535815 -0.8564344
0.11836486 -0.6049451 -0.75754577 -0.5200981 -1.5131317 -3.183689 -1.8161615 0.8184103
0.056771547 -0.026623685 0.33906162 -0.6562294 -0.6092486 -0.1979729 -0.4934159 0.32871938
-0.12569007 -0.0015666959 0.23083381 0.5803091 0.6795291 -0.31715006 -0.59687394 -1.0527923
0.4218078 -0.8677792 -0.28729036 0.74890983 -0.7495118 0.4061784 -0.17912523 0.57650125
0.3082113 -0.1437751 0.29992974 0.66963047
