code/development/models/best_model_011.pth (torch, 485621 bytes, 8 tensors)

conv1.weight f4 [1, 1, 5, 3]
000000 51 d8 1f 3e bd bd 33 3e 88 bb b1 3d 41 dc b3 3c
       0.15609862 0.17552848 0.08678347 0.021955611
000010 6c 9d 87 bd c7 7c a8 bd e0 19 0b 3d 1b bb 47 3d
       -0.06621823 -0.082269244 0.033960223 0.048762422
000020 76 5c ed bd 17 af aa bc 9e bb a3 bc fe 05 64 3c
       -0.11589901 -0.020835442 -0.019986924 0.013917444
000030 4e 02 17 bd b3 7f 1f bd 34 96 f2 bd
       -0.036867432 -0.038940143 -0.11845055

conv2.weight f4 [1, 1, 3, 3]
000000 a2 87 89 bd c6 c5 d7 bb 61 11 d3 3d d9 e2 43 bb
       -0.06715323 -0.0065848557 0.10306049 -0.002988985
000010 b0 e2 c0 bc 0b ec 0f 3d 23 00 dd bb 03 03 7c bc
       -0.023545593 0.035137217 -0.006744401 -0.015381577
000020 7b 5d 56 3c
       0.013083811

linear1.weight f4 [128, 900]
000000 5c b3 68 bd f3 84 ec bc 79 68 63 3e 38 fc ad 3e
       -0.056811675 -0.028871989 0.22207822 0.3398149
000010 ed b8 56 be 2b b5 8b 3d 58 52 f9 3d c6 0f 1a 3e
       -0.20968981 0.068216644 0.12173909 0.1504508
000020 a4 31 44 be e9 f4 44 3e 2e fb d9 3d d1 c0 ca bb
       -0.19159561 0.19234051 0.10643612 -0.0061875363
000030 b2 34 1b bd 8a a9 2c 3d 0e 09 8b bb fa c6 d6 3d
       -0.03789205 0.042153873 -0.0042430228 0.104871705
000040 cd 33 1f be 01 3d b9 3d 27 39 09 be 58 73 e9 3d
       -0.15547104 0.09044839 -0.13400708 0.11398953
000050 5d 62 37 3e 50 1d 2e 3c 43 87 b2 3e 76 f2 7f be
       0.17908616 0.010627106 0.34868822 -0.24994835
000060 38 34 dd be 97 e6 9b 3d d3 95 23 be 1e dd 35 3e
       -0.43203902 0.07612341 -0.15975122 0.17760131
000070 5b b4 84 3c 8b e2 78 3d 3c 10 bb be 86 83 80 be
       0.016199281 0.060762923 -0.36535823 -0.25100344
000080 2b 2f 2e be 34 96 ce bd 87 9c e0 3b 86 24 81 be
       -0.1701018 -0.10087243 0.006854597 -0.25223178
000090 76 48 83 bd ac 23 c8 3d 24 d1 09 3e 96 de 4e be
       -0.06410305 0.09772429 0.13458687 -0.20202097
0000a0 6b 8f 0a bd 86 ec a8 bd cc 32 0d 3c d5 06 9f 3b
       -0.03382818 -0.08248238 0.008618068 0.0048531094
0000b0 cf 96 30 3e f0 6d 59 3d 89 a4 31 bd 60 d5 ac 3d
       0.17245029 0.05308336 -0.043369804 0.084391356
0000c0 af 0b 7a 3e 8d 9e b9 3d b3 05 a8 be 0b 6f c8 3c
       0.2441852 0.09063444 -0.32816848 0.024467012
0000d0 b6 bf 5b be 0c 66 4c 3e d1 a8 b7 be 8c 10 62 3d
       -0.2145985 0.19960803 -0.35870984 0.05519156
0000e0 a1 bb 24 3c 18 03 b7 be 21 65 77 3e 4e 7d b6 3c
       0.0100545 -0.35744548 0.24159671 0.022276547
0000f0 36 58 76 3d 22 3e 0a 3d 8d 9c 67 3e 50 58 92 3e
       0.06014272 0.03375066 0.22618313 0.28583002
000100 8b c2 3a bd 7e 88 bb 3e ba dc 43 3d 40 80 9d 3e
       -0.045595687 0.36627573 0.047817923 0.3076191
000110 b2 46 a0 3d 0b 71 03 be 08 16 e2 be 8e b2 8b 3e
       0.07825984 -0.12836091 -0.44157434 0.27284664
000120 95 7f 00 3d d3 9e bb bd d9 85 9e 3e 5c 5a 29 3e
       0.03137167 -0.09161153 0.30961493 0.16538376
000130 3e 07 15 be c1 16 b3 3e f2 a4 86 bd 25 f8 da 3b
       -0.14553544 0.34978297 -0.065744296 0.006682413
000140 81 5a 53 3e 8f fb 70 be d8 25 27 bd 15 a4 b3 3e
       0.20639993 -0.23533462 -0.040807575 0.35086122
000150 00 0f af bd 6a 8a cc 3e fe f9 09 be 93 d8 c6 be
       -0.08547783 0.39949352 -0.1347427 -0.38837108
000160 ba ad 67 be 5d ce bb 3e 4a 6f 53 be 62 bc 7c 3e
       -0.22624865 0.3668088 -0.20647922 0.24681237
000170 c3 1b 67 be b3 2c 13 3d ae 6c e4 be d5 0b b2 bd
       -0.22569184 0.0359313 -0.44614166 -0.08693663
000180 ef c5 81 3d 82 c5 7a 3e 3b a5 9e 3d 1a ea 05 bf
       0.06336581 0.24489406 0.07746359 -0.52310336
000190 bc b3 24 3c a5 56 89 be 17 16 c8 bd 1d d1 8b be
       0.010052618 -0.26823917 -0.09769838 -0.27307978
0001a0 00 c0 c9 bd 92 26 b9 3d 4c 0d c4 bd 33 34 93 be
       -0.09851074 0.0904056 -0.09572849 -0.28750762
0001b0 a5 d2 9c bb e9 c3 72 be 13 e1 47 3d e1 d3 09 be
       -0.004785853 -0.23707546 0.048798632 -0.13459732
0001c0 ca ac 69 bb 73 cb 0f be 5c d5 b4 be 89 b9 a0 be
       -0.0035655969 -0.14042453 -0.3531903 -0.31391552
0001d0 6e 70 03 bd 1a 2d 74 be 32 15 9f be 1b aa 7e be
       -0.032089643 -0.2384533 -0.31070858 -0.24869578
0001e0 6c 37 48 3e cb e2 2a bc 1b f6 e5 bd b9 4b d4 3d
       0.19552392 -0.010430048 -0.112285815 0.103660055
0001f0 3a 57 65 3e e5 68 04 bd 06 8b f1 bd 44 30 0a 3d
       0.22396556 -0.032326598 -0.11794095 0.033737436
000200 3d ba 26 3e 73 21 4b bd 1a a0 c8 3c 9b 10 fc 3c
       0.16281982 -0.049592447 0.024490405 0.030769637
000210 06 88 64 3d 93 29 f9 bb af 06 d1 3d 3b 3f dd 3c
       0.055793785 -0.007603833 0.10206353 0.02700769
000220 f5 63 31 ba 09 ce ee 3c 44 75 4c be 8f 28 32 be
       -0.0006766909 0.02915098 -0.19966608 -0.17398284
000230 65 74 e5 bd 90 f5 ed bd 13 bd 5a be 87 49 a2 be
       -0.11203841 -0.11619103 -0.21361189 -0.31696722
000240 f3 17 9d bd fa fa 68 3e f7 cf 9d be cf 84 4c 3e
       -0.076705836 0.2275199 -0.30822727 0.19972537
000250 46 79 b1 3d 2e 95 0b be b1 30 e9 be 2d 5c bc 3d
       0.08665709 -0.13631126 -0.4554496 0.09197269
000260 de ac 70 bd 95 a3 83 be 6f 5d 2c 3d 77 12 ad bd
       -0.05875861 -0.2571074 0.042081293 -0.084507875
000270 b8 8a 45 3d 87 0f 02 bf 90 b0 a2 be aa 68 b4 be
       0.048227996 -0.5080494 -0.31775331 -0.35236102
000280 da 06 ad 3c cf b6 b3 bd 51 9c 53 be 44 0c f7 3c
       0.021121431 -0.08775102 -0.20665099 0.030157216
000290 0b 86 dd be 18 85 48 be 4b 35 e2 bd af ef 49 be
       -0.4326633 -0.19582021 -0.11045321 -0.19720338
0002a0 3f 9c 36 bd 72 eb 70 be 10 3d 9b be 9b 1b 04 be
       -0.0445826 -0.23527315 -0.30320024 -0.12901156
0002b0 da 1b 11 3e 65 7c fa bb c7 c1 25 bd dd 53 88 be
       0.14170781 -0.0076442235 -0.040468004 -0.26626483
0002c0 e2 57 94 3d e1 2d 85 be 91 79 89 be c5 2c 48 be
       0.07243325 -0.26011565 -0.2685056 -0.19548328
0002d0 36 12 16 be 69 00 fe bd a9 bb 37 be be 21 d6 3d
       -0.14655384 -0.12402422 -0.1794268 0.104556546
0002e0 70 8f 9a be 4e 32 d8 bd 23 2c 47 3e 4d a0 f5 bd
       -0.3018756 -0.1055647 0.1945043 -0.119934656
0002f0 fd 27 3e bd 33 56 fa 3c 0e 47 24 be 58 25 61 bc
       -0.046424855 0.030558681 -0.1604273 -0.013741814
000300 ff dd 5f bd c6 fa 24 be 7d 08 f4 bd 27 6d 9f 3d
       -0.05465507 -0.16111287 -0.119156815 0.07784491
000310 c5 ba c3 bd f8 82 44 be 4b 8b b9 be c0 c3 ad bc
       -0.09557108 -0.19190586 -0.36239085 -0.021211505
000320 f5 aa de be 3c 2f 9b be 18 99 f4 bd ae 6e c4 be
       -0.43489805 -0.30309474 -0.11943263 -0.38365692
000330 c4 b2 04 3e 2b 10 59 bc 9d 67 ea bd 65 c0 89 3e
       0.12958819 -0.013248484 -0.11445544 0.26904598
000340 e4 78 6c be a8 a3 c1 3d fa f9 22 bd aa ed e8 bd
       -0.23092991 0.09455043 -0.039789177 -0.11373456
000350 86 a9 36 be d6 5a 07 be d3 5a 97 3e d2 12 86 be
       -0.17838106 -0.13218245 0.2956148 -0.26186234
000360 fb 72 43 3e d5 6b af 3d a5 cb 90 bd 40 db 48 3c
       0.1908683 0.08565489 -0.07070092 0.0122593045
000370 58 fd 01 bc ee 13 d9 bd 46 ff f6 bd 4a c0 b3 ba
       -0.007933937 -0.105995044 -0.12060408 -0.0013713923
000380 13 3d 03 3d 7a b1 5c be fc 98 f1 be eb 5c 25 be
       0.032040667 -0.21552077 -0.4718703 -0.16148727
000390 69 c8 d7 3e c8 e3 21 be b8 12 d2 3e 8c 54 20 be
       0.42145088 -0.15809548 0.41029906 -0.15657252
0003a0 bc 2d fb bc 23 65 75 be 43 49 b4 bd c9 0c db 3d
       -0.030661456 -0.23964362 -0.08803036 0.10695798
0003b0 f3 01 b3 bd 8d c5 7b be 4c c4 b4 3d 10 ab a5 be
       -0.08740606 -0.24587078 0.08826503 -0.32357073
0003c0 f7 5f 13 be 88 dd 08 3e 88 55 e2 bc 4d fd 33 3e
       -0.14392076 0.13365757 -0.027628675 0.17577095
0003d0 42 62 07 3d 87 55 ae 3e 3c fd 4f 3b 1f 9b f5 bd
       0.03305269 0.34049627 0.0031736633 -0.119924776
0003e0 c3 72 fe 3e 4f f9 14 3e fa 59 d4 3d b8 07 16 3e
       0.4969693 0.14548229 0.10368724 0.14651382
0003f0 23 8f 81 3e 9b 13 8d be d0 40 b4 3d a0 70 51 3e
       0.25304517 -0.2755402 0.088014245 0.2045312

linear1.bias f4 [128]
000000 ba ef 56 3e dd 3a 04 bd 35 58 37 be 3a e4 5a be
       0.20989886 -0.0322827 -0.17904742 -0.21376124
000010 b9 45 8e be 40 41 23 3e 20 fc d0 bd aa fd 8f 3e
       -0.2778757 0.1594286 -0.10204339 0.28123218
000020 a4 96 92 3d 74 e7 0b 3e fe d0 a8 3e d6 78 da 3d
       0.07157639 0.13662511 0.32971948 0.10667579
000030 da f1 05 3f b1 47 90 3e 46 6a a5 be fc bb 8d 3e
       0.5232216 0.28179696 -0.32307643 0.27682483
000040 57 bd 1b 3f 9b f5 1c 3e ee 58 da be 05 21 0d bf
       0.60835785 0.15328066 -0.42645973 -0.5512851
000050 cf 9a fe 3e 76 ab 56 3e 82 ef d8 be 1f 3e 10 bf
       0.49727485 0.20963845 -0.4237023 -0.5634479
000060 be 80 ff bc 26 3c 81 3e 42 9f 46 bd 74 f9 c0 be
       -0.031189319 0.25241202 -0.048491724 -0.37690318
000070 db 10 fa be 5b bd cb be 90 17 a5 bd c4 13 59 3e
       -0.48840985 -0.39792904 -0.08061135 0.21198946
000080 55 68 91 be 15 90 65 bd da c8 06 bf 4a 6d 4d 3e
       -0.28399912 -0.05604561 -0.52650225 0.20061222
000090 ce d7 b9 bc 64 f4 08 3f d7 aa 3a 3e af a6 fb 3d
       -0.022685912 0.5349791 0.18229233 0.12287652
0000a0 43 fc 50 3c cd f0 c9 3e d8 e0 fe bc df 17 a2 3e
       0.012755456 0.3944153 -0.031113073 0.31658837
0000b0 86 48 0c be 81 21 51 3e 4f 17 38 3e 97 4f 0d bd
       -0.1369954 0.20422937 0.17977642 -0.03449973
0000c0 98 75 2e bf ba cb 62 be fa b8 07 be f6 74 91 3d
       -0.68148184 -0.22148028 -0.13254157 0.07102387
0000d0 ca cb a8 bd da eb ab 3b 13 2d 78 be 96 94 88 3e
       -0.08241995 0.0052466216 -0.24235944 0.26675862
0000e0 f8 37 70 be c4 66 07 3e aa 95 88 bd 1e f4 33 3e
       -0.2345885 0.13222796 -0.06669171 0.17573592
0000f0 56 14 e6 bd 4e 51 f7 3d 3f 45 90 3d fe 0d 0a 3f
       -0.112343475 0.120760545 0.07044458 0.539276
000100 f3 66 01 bf 21 6b 37 3e 99 bb e5 be 80 03 ef bd
       -0.50547713 0.1791196 -0.44869688 -0.116705894
000110 be 72 04 3f 09 39 e9 be 8f c7 a1 3d f4 73 81 bd
       0.5173758 -0.45551327 0.07899391 -0.063209444
000120 7e aa a3 3e f9 ca 85 3e 6c f6 cf be 1f 2f 54 be
       0.31966013 0.26131418 -0.40617692 -0.207211
000130 0e 63 5e be d5 af 2d 3d f6 6a b6 3c ae 57 06 3d
       -0.21717474 0.042404015 0.0222678 0.03279846
000140 32 12 bf 3d 4f 95 6e 3e 78 27 0f bc 70 7a 9d be
       0.09329642 0.23299144 -0.008737437 -0.30757475
000150 93 80 4d 3d c7 79 86 be 36 8b 54 be bc 01 36 be
       0.050171446 -0.26264784 -0.2075623 -0.17774099
000160 57 31 5e bd 65 18 4a 3e f5 c8 9e 3e 7c 36 2f bf
       -0.054246273 0.19735868 0.31012693 -0.6844251
000170 04 67 27 be f3 76 ab bd f4 69 f7 bd 2f 1d 61 3e
       -0.16347891 -0.08372297 -0.12080756 0.21983789
000180 e6 68 18 3d 2c 90 d2 3e 63 60 bc 3e 8c 87 6e be
       0.037209414 0.4112562 0.36792287 -0.23293895
000190 2b e2 0f 3e a8 97 1b 3e ab f1 c0 3e 4b 24 1d 3d
       0.1405112 0.15194571 0.37684378 0.03836469
0001a0 14 be 19 3d 13 63 ef bd 79 1c 23 be 5b fc 0f be
       0.03753479 -0.11688819 -0.1592883 -0.1406111
0001b0 bb 33 75 bd a8 c7 a4 be cd 39 14 bf 5c 96 b0 be
       -0.059863787 -0.32183576 -0.57900697 -0.34489715
0001c0 19 00 b7 be 4f ea 8f be 8f ff 0c 3f 2d 4a 83 3c
       -0.35742262 -0.2810845 0.5507745 0.01602658
0001d0 eb ba f9 bb 7f c3 a0 3e e4 7f 33 3e 2b f2 b2 3e
       -0.0076211593 0.31399152 0.17529255 0.34950384
0001e0 28 58 82 3e 6c 99 ac 3e 7b 2a 3c bd e2 c3 5b be
       0.25457883 0.33710802 -0.04593895 -0.21461442
0001f0 90 68 80 3e d0 fa 05 be 5b 57 a1 be ec ef cc bd
       0.25079775 -0.13083959 -0.3151196 -0.10006699

linear2.weight f4 [32, 128]
000000 d5 ed 85 bd 88 99 6e 3d 7f 10 07 bd ef e8 8c 3a
       -0.065395035 0.058251888 -0.032974716 0.0010750572
000010 35 b9 e7 3d 6f df 50 bd 02 6c 06 3d fb 9f 9b be
       0.11314622 -0.050994333 0.032817848 -0.30395493
000020 62 87 49 3d 5a 8f 39 be 73 76 a0 3e 09 a8 3d bd
       0.049201377 -0.1812109 0.3134037 -0.04630283
000030 25 fe ee bd 45 f9 71 3d 7e 0f 84 be 18 5d 88 3e
       -0.11669568 0.059075613 -0.2579307 0.26633525
000040 ea 1f 37 bd cc 01 db bd e7 11 75 3b 48 ff 74 3e
       -0.04470817 -0.10693702 0.0037394704 0.23925507
000050 e1 e5 e5 bd 39 e8 8e 3e fc 3b ce bd 24 8e 3c 3e
       -0.112254865 0.27911547 -0.10070035 0.18413597
000060 42 57 8b 3d 5e 18 9a 3b 06 8c d3 bc 9c 98 80 3e
       0.068037525 0.004702612 -0.025823604 0.25116432
000070 0a 01 94 be a8 d5 1d 3e 36 0c 85 be 42 73 ce 3b
       -0.28907043 0.15413535 -0.2598588 0.006300361
000080 0d a3 df bb 7f 72 0e 3e 43 c7 ab bd df 1f a5 bd
       -0.006824857 0.13910864 -0.083876155 -0.080627196
000090 79 f9 a0 3d 2d 44 67 be 6f 71 98 3d bb 30 4c be
       0.07860083 -0.22584601 0.07443511 -0.19940464
0000a0 e4 2e 17 3c 45 b9 40 be f5 96 b6 3c 87 fe 37 3d
       0.009227488 -0.18820675 0.022288779 0.04492047
0000b0 c0 ef 0e be 4b a9 08 3e 23 f3 5d 3e c8 fa 0e bd
       -0.13958645 0.1334583 0.2167478 -0.034907132
0000c0 94 8c 50 3e c1 6a dd bd f4 09 4d 3b 3d bb 43 3d
       0.20366126 -0.10811377 0.003128645 0.047785986
0000d0 1f 82 b4 3c 87 26 79 bd f0 2a 07 be 1d 60 c5 be
       0.022034703 -0.06082776 -0.13199973 -0.3854989
0000e0 b0 e9 ad 3d 4a 13 11 bc fc 3c 4f be 97 02 ac bd
       0.08491838 -0.0088546965 -0.20238107 -0.083989315
0000f0 d9 5b f7 3b f2 f7 96 bd 8d ab e6 bc c2 dc 03 3e
       0.007548791 -0.073715106 -0.028157974 0.12877181
000100 9c 06 15 3a ca c9 51 ba dd 01 76 3d 2c 21 55 3e
       0.0005684884 -0.0008002786 0.06006037 0.20813435
000110 58 6d d1 3d 4a 13 0b 3e ce a8 d7 bb 92 69 99 3d
       0.10225934 0.13581577 -0.0065814024 0.07490839
000120 b2 f9 85 be ea 04 94 3b f2 53 07 bd 50 37 be bc
       -0.26167065 0.0045171874 -0.03303904 -0.023219734
000130 b8 f5 7d 3c 21 4c 0c 3e d5 7d 0d 3d 4c a7 28 bd
       0.015500478 0.13700916 0.03454383 -0.04117517
000140 0c 5e 92 3c cb e9 99 be a7 1c e5 bc 00 0f 8b 3c
       0.01786711 -0.30061182 -0.027967764 0.016974926
000150 b2 b6 a3 bd b1 ee 79 be 9e 22 17 3d c0 d4 a2 bd
       -0.07993831 -0.2440746 0.036898248 -0.07950735
000160 4e 25 ed bd b8 1e d1 3c cb 78 cb 3d fe 23 05 3e
       -0.11579381 0.025527343 0.09935149 0.13002011
000170 39 a4 c1 3d fc ab e1 3d f1 c1 c6 3c eb c0 2a be
       0.09455151 0.110191315 0.0242624 -0.16675155
000180 02 29 50 be 36 93 2b 3e 2b 0e 72 3d 43 df c3 3d
       -0.20328143 0.16755375 0.059095543 0.09564068
000190 f3 b1 d4 bd 76 8e 53 be 43 56 af bd 4a b2 1e 3c
       -0.103855036 -0.20659813 -0.08561375 0.009686062
0001a0 be 76 81 be c4 76 58 3d 00 4f 10 3e 37 ac a1 bd
       -0.25285906 0.05284764 0.14092636 -0.078941755
0001b0 2b 81 18 bc b6 38 38 3e fe 8e de bd 5d 82 ae 3d
       -0.00930814 0.17990384 -0.10867117 0.085209586
0001c0 40 69 1b be 52 70 0f bd f7 71 01 3e 77 18 47 bc
       -0.15176868 -0.035019226 0.1264113 -0.012151829
0001d0 fb cf 6c bc 16 67 e2 bd c2 a0 8e 3d e2 04 3d 3d
       -0.014453883 -0.11054818 0.06964256 0.046147235
0001e0 a1 08 36 bd 72 78 ec bd 7b 4c 39 3e 19 a1 9a bc
       -0.044441823 -0.115464106 0.18095581 -0.018875645
0001f0 31 b9 84 bb 82 5c 0d bd 3b 09 b5 bc b2 f9 ae bc
       -0.004050397 -0.03451205 -0.022099128 -0.021359298
000200 9b 9b 80 3d fd ce e7 bc 24 47 73 bd e1 21 b4 3c
       0.062796794 -0.028296942 -0.059394017 0.021988811
000210 fd ac a2 3d 1c 16 54 be 4a ab fe 3c 18 24 72 3e
       0.07943151 -0.20711559 0.031087536 0.23646581
000220 15 18 d5 bc 6e f1 b3 be e5 38 da 3d e7 00 4a be
       -0.02601246 -0.35145134 0.10655383 -0.19726907
000230 ac 89 d1 bd 86 8e 59 bd 03 3b a9 bd e8 e5 13 3d
       -0.10231337 -0.053114437 -0.08263209 0.036107928
000240 e9 0b 08 bd c7 b5 ee bd 1b 94 ac 3e ed 5c 68 bd
       -0.033214483 -0.11655765 0.33706746 -0.056729246
000250 6d 1b c8 3d 83 65 6f bd 62 fb 47 3e 84 a8 41 be
       0.09770856 -0.05844642 0.19529489 -0.1891194
000260 bf 1c 12 3d 0b b5 7e bd b4 23 94 bd d0 38 66 be
       0.035671946 -0.062184375 -0.07233372 -0.2248261
000270 73 4f 29 3e 24 11 83 3d ce 92 b2 bd f7 f5 80 bd
       0.16534214 0.06399754 -0.08719407 -0.06296914
000280 5f ee 66 3d 5e 6c e1 bb 27 61 1b 3e a0 6e 5d 3d
       0.056379672 -0.0068793735 0.1517378 0.05406058
000290 13 41 a3 bd 55 bb 4f 3d 9f 2e 4c bd 1f a7 14 3d
       -0.07971396 0.050715763 -0.04984915 0.03629219
0002a0 58 a0 37 bd 08 f8 51 3e 0a 47 44 3d 0d 14 80 be
       -0.04483065 0.20504773 0.04791931 -0.25015298
0002b0 07 81 f6 bd 6d d9 37 bd c5 9d 65 3d b6 2a 4b bd
       -0.12036329 -0.044885088 0.056058664 -0.04960128
0002c0 7c 1d 44 3e 37 5b 9c 3b af 87 27 be 0c 66 bc bc
       0.19151872 0.004771616 -0.16360353 -0.022997878
0002d0 b3 53 3a bd 5c fc b6 3e c8 b5 14 39 b9 71 2d 3d
       -0.045489978 0.3573941 0.00014182099 0.042344783
0002e0 5e 6f b0 3b e1 ae 9b bd fc 64 cb bd 9d 5a cd 3e
       0.0053843698 -0.07601715 -0.099313706 0.40108195
0002f0 5c 32 08 bd c9 7b 83 bc 86 f0 e5 bc a7 31 4e be
       -0.03325115 -0.016050236 -0.028068792 -0.20136128
000300 e6 dc 2e bd c9 98 d9 bc 21 e0 6b 3d 02 ed 94 3b
       -0.042691134 -0.026562111 0.057586793 0.004544855
000310 60 a5 66 3c 8b 08 31 be 16 b6 44 3d b7 e4 7c 3d
       0.014077514 -0.17288415 0.048025213 0.061741557
000320 76 a4 92 bd 26 6e 08 bd bd 19 69 bd 6f 2f 1f 3d
       -0.07160275 -0.03330817 -0.05690931 0.038863596
000330 14 f3 ae bc f6 d8 a9 bd c1 79 68 3d 39 b7 81 3c
       -0.021356143 -0.08293335 0.05675674 0.015834438
000340 fb dc ef 3d d1 39 4b 3e 6f ba 57 bd d5 d3 b0 3d
       0.117120706 0.19846274 -0.05266803 0.08634154
000350 4d b3 49 bd 5d 05 71 bd 28 04 c5 bd d1 b0 63 bd
       -0.04924326 -0.058843005 -0.09619933 -0.055588547
000360 fc 82 24 bd e5 4e db bd ed 97 07 be 96 d8 84 be
       -0.04016398 -0.10708407 -0.13241549 -0.25946492
000370 54 2c ed bc 63 ab 82 bd 95 6f c6 3c 8c 64 3e be
       -0.028951801 -0.06380346 0.024223128 -0.18593043
000380 2f c9 6b be 03 54 8f be 27 28 ab bd c2 ed 8a 3d
       -0.23025964 -0.27993783 -0.08357268 0.0678363
000390 7a 17 2c 3c 9e 9e 8e bc cb 68 9a bd 89 45 00 be
       0.010503644 -0.017409619 -0.07539519 -0.12526526
0003a0 0f 79 73 3c 52 11 00 3c 9a 77 fa bd 35 31 98 3d
       0.014860406 0.0078166295 -0.122298434 0.074312605
0003b0 2e fb 6a 3d c1 16 80 3d 39 6b 08 be e6 03 92 3c
       0.05736845 0.0625434 -0.13322152 0.017824125
0003c0 42 62 9d 3d ed 40 b8 bc fb f0 73 3e 3b d0 2e 3e
       0.07684757 -0.022491897 0.23822396 0.17071621
0003d0 25 ad 94 3d 66 1f 44 bc 8d 8d 02 3e 6f d6 94 3c
       0.07259587 -0.011970377 0.1274931 0.018168656
0003e0 f6 00 66 be 14 aa f2 bd 98 a7 6e bd fd 3e 22 3d
       -0.22461304 -0.11848846 -0.0582653 0.03961085
0003f0 fb ec a6 bd 28 e6 21 bd 7e 25 4e bd 72 2a 72 b9
       -0.08150669 -0.039526135 -0.050328724 -0.0002309473

linear2.bias f4 [32]
000000 5a 9a f2 bd c9 08 ff bd 83 a0 2f 3e c2 18 f3 3e
       -0.118458465 -0.124528475 0.17151074 0.47479826
000010 22 53 0a 3f 41 75 d6 bd 76 e3 0f be b0 b9 e7 bd
       0.540331 -0.10471583 -0.14051613 -0.11314714
000020 67 5b f3 3d 8b 49 7f bd 80 be 4f 3e dd 1d 45 3e
       0.11882668 -0.062325995 0.20287514 0.19249673
000030 40 76 f3 be 91 d6 f3 3e bd 12 98 bd 7c 45 5d 3e
       -0.47551155 0.4762464 -0.07425449 0.21608537
000040 2c 5a 1c 3f 67 22 90 3e ca 44 85 3e 71 c6 9b bd
       0.6107509 0.28151247 0.26029044 -0.07606209
000050 93 b4 45 be d3 fe d5 bd d5 a1 b0 be 8f bd be be
       -0.19307165 -0.104489945 -0.34498468 -0.37253997
000060 29 33 89 3c 67 93 ae be ef 1f df 3d d9 a1 c6 3a
       0.016748028 -0.34096834 0.10894763 0.0015154436
000070 0c 3a 4e be 67 79 dd bd 47 8b a4 3e fd 58 0b 3e
       -0.2013933 -0.10814171 0.3213751 0.13608165

output.weight f4 [25, 32]
000000 fa af 52 3d 1d 98 44 3d 0c e6 13 be d8 0e 9d 3d
       0.051437356 0.04799663 -0.14443225 0.07668847
000010 5f 2c 35 3e 58 53 ec 3c 7a 76 f4 3c 7d 73 0f 3d
       0.17692707 0.028848335 0.02984165 0.035022248
000020 22 a2 d9 38 be a6 e8 bd ef 8a 71 3d 00 5a c4 3c
       0.00010377566 -0.113599285 0.058970388 0.023968697
000030 cf fb b2 bd 5c b7 a6 3c 64 b3 4d 3e 27 34 3c 3c
       -0.08739435 0.020351104 0.20087963 0.011487043
000040 3c 14 a2 bc 0d 42 96 3e 01 ae c9 ba 5c 64 1d 3d
       -0.01978504 0.29347268 -0.001538694 0.03842579
000050 ed 47 7d 3e fa a4 3e be c3 4c 47 bd 56 92 b9 bc
       0.24734469 -0.18617621 -0.04865719 -0.022652786
000060 57 08 30 3d 2e 50 1e be 3a 56 72 3e b0 b0 45 3d
       0.042976703 -0.15460274 0.23665705 0.048264205
000070 52 80 c9 3c 1a d7 72 bd 56 8a b6 bb 2f 35 33 be
       0.02459732 -0.059287168 -0.00557069 -0.17500757
000080 d9 96 7e 3e 9c 8e 2f be ec cc bd 3d ee b3 b3 bd
       0.24862231 -0.17144245 0.09267601 -0.08774553
000090 9f 47 29 be 17 40 89 3d 8f 7d 12 bc d8 b7 2b 3e
       -0.16531228 0.06701677 -0.008941068 0.1676935
0000a0 28 22 5d bc b9 33 24 3d d3 9c 43 be ce 6e 88 3d
       -0.013496913 0.04008839 -0.19102792 0.06661759
0000b0 79 27 81 bd c8 b4 8f bc 31 46 24 bd 99 8c ad 3c
       -0.06306357 -0.017542258 -0.040106002 0.021185206
0000c0 78 42 3b be 07 09 43 be a8 97 d2 bd 14 4f 1f 3d
       -0.18287075 -0.19046412 -0.102828324 0.038893774
0000d0 3e 4a 9b 3c 69 59 6e 3e 81 66 9c 3e bd 93 99 3d
       0.0189563 0.23276295 0.30546954 0.07498882
0000e0 40 8e b4 bc 5d 51 0c be 17 eb 91 3d 18 11 26 3b
       -0.022040486 -0.13702913 0.07124918 0.0025339779
0000f0 95 31 36 3e 96 77 09 3e 23 08 34 be 80 c2 26 be
       0.17792352 0.13424525 -0.17581229 -0.16285133
000100 2f ab 92 3d 90 26 e2 3d 16 dc 23 3e 4f d6 9f bc
       0.07161557 0.110425115 0.16001925 -0.01951137
000110 8a fb 3f 3d fb 9e 57 bc 7d 9a 00 3d 66 8c 6b 3d
       0.046870746 -0.0131604625 0.03139733 0.05750694
000120 1d 6a 6e be 8c f6 9a bd fe 76 89 3d d5 6d d3 bd
       -0.23282667 -0.07566556 0.06712149 -0.10323683
000130 09 08 42 3e da 1e dd bd f6 b3 00 be f4 9c 2c bd
       0.18948378 -0.107969 -0.1256865 -0.04214187
000140 86 e4 1a be 04 97 18 3d 22 25 8a be f3 ab f3 bd
       -0.15126237 0.037253395 -0.26981455 -0.11898031
000150 79 4d 08 bd b9 a2 dc 3d 77 b1 2c be b4 60 ee 3d
       -0.03327701 0.107732244 -0.16864572 0.116395384
000160 38 cc a9 3c a5 fd d5 bb d3 0c b9 bd 81 32 c4 bc
       0.020727262 -0.006530481 -0.09035649 -0.023949863
000170 d5 92 46 bc 64 cb e6 3d 72 65 cb 3c a4 ba f5 bd
       -0.012119968 0.112692624 0.024828646 -0.119984895
000180 a0 cb 67 bd b1 f1 27 bd 68 52 5a be 19 e0 fb 3d
       -0.056590676 -0.04100198 -0.21320498 0.122986026
000190 7c 56 fd 3d 42 66 b9 bc e0 50 87 3d 58 fe 2f 3e
       0.12370011 -0.022631768 0.066072226 0.17186868
0001a0 96 c6 ef 3d 02 10 02 3e 0c c2 ad 3d b8 a3 8b bd
       0.11707799 0.12701419 0.08484277 -0.06818336
0001b0 cf aa 0c bd 60 ff a1 bd a8 66 e9 bd 87 df 02 bc
       -0.034342583 -0.07910037 -0.11396533 -0.007987863
0001c0 03 4b 9e bd fd 72 48 3d 6d 06 04 be 02 4e 40 3e
       -0.07729151 0.048937786 -0.12893076 0.18779758
0001d0 27 de c6 3c f2 ef 47 3d 87 2e 6b bd be 16 4b be
       0.024275852 0.048812814 -0.05741742 -0.19832894
0001e0 ed e4 4b 3b e4 bd f3 3d 08 fa db bd 9c 4f 1b 3d
       0.0031111792 0.11901453 -0.10741049 0.03791772
0001f0 52 fc 48 3d 92 b7 2b 3e 5f 11 37 3e 6b 00 b8 3d
       0.049068756 0.16769245 0.1787772 0.08984455
000200 f0 00 b7 bd 50 2f 77 3c 02 3a b2 3d 9c c0 a4 3d
       -0.08935726 0.015086964 0.0870247 0.0804455
000210 72 00 b4 3d 53 4f 61 bd 03 fe df bd 85 1f 59 bb
       0.087891474 -0.05500729 -0.10937121 -0.003313036
000220 b6 d1 e7 bd ca 4f 84 bd 08 37 85 3d 3b 2e eb 3d
       -0.11319296 -0.06460531 0.06504637 0.11483427
000230 86 4b 53 3d 58 ab 80 3e fc c6 99 3e 9d 7a 27 3c
       0.051585697 0.25130725 0.30034626 0.010222104
000240 ae de fa 3c 51 d6 c6 3d c3 6c 16 3e 72 13 be 3d
       0.03062376 0.09708846 0.14689927 0.09281053
000250 ad 72 07 be ec ad 90 bd 91 a0 40 bc f2 eb 1a 3e
       -0.13227339 -0.07064423 -0.011757032 0.15129068
000260 6e ca ce 3d 79 3d 8c bd 57 20 83 3e 19 cb c8 3b
       0.10097204 -0.068476625 0.2561061 0.0061277268
000270 1b 43 be 3a 06 bf 82 3e 96 b2 e7 3c 4d 1e c2 3c
       0.0014515849 0.25536364 0.028283399 0.02369609
000280 a3 7f a5 3e 2f 2d 21 3e c6 2c 99 bd 1f 9a c5 3d
       0.32323942 0.15739892 -0.07479243 0.09648537
000290 53 c1 b7 bd 5a ff 82 be 71 d2 0b 3e 7a c0 91 bd
       -0.089724205 -0.25585443 0.13654496 -0.0711679
0002a0 cc 48 ac 3d 07 22 ca 3c cf 7a 84 3d 6d 46 ea 3c
       0.084123224 0.024674429 0.064687364 0.028598035
0002b0 86 ab e3 3d c9 db ae 3d 3c 19 35 3c 54 f9 2c bd
       0.111167 0.085380144 0.01105338 -0.042229965
0002c0 d7 63 c9 3e 5b 1f 5a be 9e 18 02 be 4b 33 6c bb
       0.39333984 -0.21301024 -0.12704703 -0.0036041315
0002d0 58 66 61 bd 8d aa a4 3c 24 87 14 bd 8d ec 59 be
       -0.055029243 0.020100856 -0.036261693 -0.21281643
0002e0 85 36 ca 3d 8b 02 a2 bd 40 4f a5 3d 84 84 2e 3d
       0.0987368 -0.07910641 0.08071756 0.042606845
0002f0 5e fc 9f be 99 64 8f bd 03 76 64 3e 41 13 74 3d
       -0.31247228 -0.07001609 0.22310643 0.059588674
000300 82 01 27 3d ce cb 52 be e2 dc 0f be 59 50 37 be
       0.040772922 -0.20585558 -0.14049104 -0.17901744
000310 14 47 87 be eb 21 dd bd 1a df f4 bd 6e 41 27 3e
       -0.26421416 -0.10797485 -0.11956616 0.16333553
000320 54 e8 05 be f3 bd b7 3e fe 79 1d 3d 65 1b a9 3d
       -0.13076907 0.35887107 0.03844642 0.08257178
000330 7b 85 6e 3a 5a 12 3a bd ad 93 47 be 5f b5 02 3d
       0.00090988696 -0.045427658 -0.19489928 0.03191125
000340 7f 19 93 3e 0d 6a 2b 3e 84 f8 40 3d c1 97 7a 3c
       0.2873039 0.16739674 0.047112003 0.01529497
000350 54 66 e9 3c 74 b7 85 3e 10 41 23 be de b8 38 3e
       0.028491177 0.26116526 -0.15942788 0.18039271
000360 9f 55 49 3d aa 61 0c 3e 53 27 d8 3d d7 fc a5 3c
       0.04915392 0.13709131 0.105543755 0.020262165
000370 40 67 35 be dd 16 46 bd af 9b 57 bd 1f 82 8f 3d
       -0.17715168 -0.048361648 -0.052638706 0.070072405
000380 0d b1 ae be ff 4d a4 bd c4 56 9e bc 59 69 d2 bc
       -0.34119454 -0.08022689 -0.019328482 -0.025685
000390 c4 04 d4 bd 3d 9e ad bd c0 c4 21 3d 3e 78 94 bc
       -0.103524715 -0.08477447 0.039494276 -0.018123742
0003a0 cc 24 0b 3c f0 ef da 3d ae 18 c5 bd e6 90 97 3d
       0.00849266 0.10690296 -0.09623848 0.07400684
0003b0 e8 e6 93 3b 0d e3 2c be 2a 9e 40 be bc 10 8e 3b
       0.00451361 -0.16883488 -0.18810335 0.004335491
0003c0 e6 32 26 3e 6d 40 bf be 73 4e 77 be 6b 8d 72 3e
       0.16230354 -0.3735384 -0.2415102 0.23686759
0003d0 fd d9 96 3c 8d f2 37 be 1c 84 62 bd 6f a2 72 3e
       0.018414492 -0.1796362 -0.05530177 0.23694776
0003e0 ee d0 74 3e f3 e4 de 3c d6 7e 21 3e a3 50 e0 bc
       0.23907825 0.02720878 0.1577104 -0.0273822
0003f0 6b a1 db bd 61 9a e5 bd 9c 2c d0 bd 91 1d ae bd
       -0.107241474 -0.11211086 -0.101647586 -0.08501733

output.bias f4 [25]
000000 81 f6 9f 3d ce 56 c3 be 51 62 69 3e 84 33 1d 3e
       0.07810689 -0.38152164 0.22791411 0.15351683
000010 b5 a0 a9 3e 04 f6 46 3e e8 95 17 be a5 31 85 be
       0.33130422 0.19429785 -0.14803278 -0.26014438
000020 a8 71 6c 3e 29 7a 43 3e 42 35 7d bb 33 d1 33 be
       0.23090231 0.19089569 -0.003863648 -0.17560272
000030 24 c3 24 ba c4 2e 7d bf 26 2e a9 3e 3a d5 60 bd
       -0.0006285182 -0.98899484 0.3304302 -0.05489085
000040 02 7a 77 3e 89 ea 3b be 7a c1 06 be 13 20 f5 3d
       0.24167636 -0.18351187 -0.13159743 0.11969008
000050 c6 c5 56 be 56 cf d9 be 37 71 da bd d3 08 cc 3e
       -0.20973882 -0.42540997 -0.10666125 0.39850482
000060 b2 a8 81 3e
       0.25324017
