code/development/models/best_model_004.pth (torch, 485621 bytes, 8 tensors)

conv1.weight f4 [1, 1, 5, 3]
00000000: 7dd8 58bb c12b 393e 35aa 113e 8869 47bb
00000010: 71c9 773e 1445 443e abaa d13d 1dbf 833a
00000020: 902c c3bd bf26 ee3e f4df 6c3e 47c6 623d
00000030: ad7d 633e c8b2 073c cf07 2ebe
-0.0033088021 0.18083097 0.14225085 -0.0030427892 0.24197938 0.19166976 0.102376305 0.0010051463
-0.09529984 0.46513936 0.23132306 0.055364873 0.2221591 0.008282371 -0.16995166

conv2.weight f4 [1, 1, 3, 3]
00000000: 833b a83e 2a0d 28bf 7cc4 5abe 64d9 f73c
00000010: 48fa b2bd 842e 72bd 25b3 b23e b4d4 cbbe
00000020: 2397 503f
0.32857904 -0.65645087 -0.21364015 0.030255027 -0.087391436 -0.059126392 0.349023 -0.39810717
0.81480616

linear1.weight f4 [128, 900]
00000000: 9a5f 4b3c 5986 fbbc 6bc7 ad3c b11d 683b
00000010: a9e9 073c f630 7a3b 451e 2abd 264d 93bb
00000020: 1a94 05bd 54c0 f93c 995c 923b 655a 253d
00000030: 1ab4 dabc 8788 b83a 8837 d7bc 3cc0 1cbd
00000040: c202 a9bb b3b0 eb3c 3c6b 1c3b a0d9 5e3c
00000050: b90e 20bd 1611 383b ef18 173d 7d88 3abc
00000060: 7e36 55bc c2e1 943c b66a 043c d6d4 a5bc
00000070: eb0b 55bc 7cfd 613d 0478 95bc 4931 443c
00000080: 856e cc3a e554 09bd 264d e93c b5b8 393c
00000090: f40d 7fbb 60ab 2b3d dc5f cb39 2927 843c
000000a0: 8ec7 d6bc 81e8 25bc f350 9bbc 0c77 5cbc
000000b0: 93aa a23b 377f c83a 80d6 a73c 3abe a83c
000000c0: 2bae 8c3c 8742 7cbc 1aae 31bc aedd 58bb
000000d0: 323e a93c 7a97 e13b 0ee9 4dbd 7f84 c83b
000000e0: 64d8 bf3b 2e45 2e3c ac2c a83b e969 d9bc
000000f0: 1f97 b63c bfe7 7fbc 200f 073d 2b78 893b
00000100: 4ada 9fbc fa05 3bbc 6536 dfbc 305b 493c
00000110: 76d7 9c3b adcc 59bc c121 2d3d 7fdb 143c
00000120: 22cd 0f3d 6f8f aebb d435 0a3d dd1a f43c
00000130: 13b0 10bc afe7 fcbc 2328 4d3c b686 f4bb
00000140: f897 463c 4b47 7e3c 0c4f 6dbb 5819 163d
00000150: b316 0cbc dbf6 0abd 7da0 20bc bdd0 743d
00000160: 8127 a03a 99e1 95bb 743b cb3c b96a 89bc
00000170: 6576 0bbc 89d9 b1bc d145 51bb 494e 313c
00000180: fddd abbc 6b95 b7b9 58ff b9bc 1072 4c3c
00000190: 1020 db3c 6cc6 773a 4662 853c 6d07 003c
000001a0: 5554 203b 6262 30bd d005 08bc a455 e13c
000001b0: 40d7 c0bb 8f78 e0bc 457e b3bc 8bd9 9abc
000001c0: 5e10 aebc 8bad c73b 088d 693c 2a74 1e3c
000001d0: 128e 2cbc 0f9a 67bc 5ec8 6239 23f6 2e3d
000001e0: 6cb0 1e3d 45e3 ddbb 2946 eabb b21d 9fbc
000001f0: 327c 993b b6c4 063d 9381 65bc 93bf 7fbc
00000200: ed53 be3c ad5a 5b3c eb84 93bc 320b cebc
00000210: a5b6 a4bb 9478 483d a76a 03bc bb7e b33c
00000220: 3ec4 3a3c bbfe c9bc 31e2 c33c 99c3 acbc
00000230: ab69 763d 2cf4 8eba 3710 ad3c 448b 97bc
00000240: dfba f03c dbd6 14bb 4978 9fbb bda9 a0bc
00000250: f768 833b c025 703c 5ce2 143d 8445 543c
00000260: 9b57 283c ba28 71bb 3a00 bdbb 0fb8 5b3c
00000270: cfee 333c e195 bbbb acb4 ffba 5845 88bc
00000280: e977 fd3c 5364 2cbb 6400 9c3c 2f7f e8bc
00000290: 1807 2d3d 115c fe3c d849 15bc a78e 8a3c
000002a0: 8a7e ac3c 2d11 9e3c f177 b93c 8e37 6b3d
000002b0: 2111 d1ba 38ba 4d3c dec3 01bd 5514 0fbd
000002c0: 2362 d53c 3591 923b 7aba 9b3c a1e4 963d
000002d0: a469 6bbc 4a1a 4fbc 28a9 5bba 3064 eebc
000002e0: 4e86 59bd 7351 96bc 16dd afbc 4001 b33c
000002f0: 7758 5abb f297 a43c d1e6 baba d2d2 473d
00000300: 59d8 c13c 5ad6 cb39 9cd7 4bbc 8886 e53c
00000310: 7ca7 20bd 309d 0bbd a530 a0bc 2935 cf3b
00000320: 5e5b 4439 9164 a0bc 54cb c63c 11c4 263c
00000330: e015 95bc c34c 8f3c e63b 3f39 4201 f03b
00000340: 6cb3 fcbc 81d6 e4bb 8b43 c1bc c840 453c
00000350: 114d 243d 0cfb a9bb b24b a5ba 90db cf3a
00000360: 46d2 5b3c 1c20 f23c dbd4 cfbc c138 733c
00000370: 8aff 0fba 0f74 29bd 6497 debc 689f 963c
00000380: 3afc d9bc 1b5b 03bd 6091 363c 892b ffbb
00000390: be00 f13b 70c4 08bd 37f9 37bc 0d09 393c
000003a0: 36ab be3c 054a 38bc 00d9 7fbc e552 043d
000003b0: 08b2 4bbc 3016 9c3c d5d8 f7ba c878 b53c
000003c0: bbac f63c 0265 80bc abfe 313b 2d90 d33c
000003d0: 14e0 843c 89b2 3f3c 9e7a 13bd afdc 993c
000003e0: 4146 88bb 9b64 c33c 946f 18bd 8f33 023d
000003f0: dfa8 74bc 2f6d 1cbb db4a d93a e1b3 58bc
0.01241293 -0.03070371 0.021213254 0.0035418088 0.008295455 0.0038176156 -0.041532774 -0.004495281
-0.032611944 0.030487217 0.004466605 0.04036941 -0.026697207 0.0014078774 -0.026271597 -0.038269266
-0.0051577995 0.02877078 0.0023867628 0.0136016905 -0.03907654 0.0028086356 0.036889013 -0.01138508
-0.01301348 0.018174056 0.0080820825 -0.02024309 -0.01300333 0.055173382 -0.018245704 0.011974641
0.0015596902 -0.033528227 0.02847917 0.0113355415 -0.0038918229 0.041911483 0.00038790598 0.016131954
-0.026218202 -0.010126234 -0.018959498 -0.013456117 0.0049641817 0.0015296702 0.020488024 0.02059852
0.017172894 -0.015396721 -0.010844732 -0.0033091116 0.02065954 0.0068845125 -0.050271086 0.0061193104
0.005854653 0.010636611 0.0051322784 -0.02653976 0.022288857 -0.015619217 0.03297341 0.0041952333
-0.019513268 -0.011414999 -0.027247617 0.012289807 0.004786427 -0.013293427 0.04226852 0.009085535
0.03510774 -0.005327157 0.03374274 0.029797966 -0.008831042 -0.030872194 0.012521776 -0.007462348
0.012121193 0.015519927 -0.0036210446 0.036645263 -0.008550334 -0.033926826 -0.009803888 0.05976938
0.0012218804 -0.0045740125 0.024808623 -0.016774522 -0.008512114 -0.021710174 -0.0031932483 0.010821887
-0.020979876 -0.00035015805 -0.022704765 0.0124783665 0.026748687 0.00094518694 0.016282212 0.00781427
0.0024464328 -0.043062575 -0.008302167 0.027506657 -0.005885035 -0.027401237 -0.021910796 -0.01890256
-0.021248039 0.006093686 0.014254816 0.00967125 -0.010531919 -0.0141358515 0.00021627682 0.042715203
0.038742468 -0.0067714774 -0.007149477 -0.01942334 0.0046839947 0.032902442 -0.014007944 -0.01560964
0.023233378 0.013388318 -0.018007716 -0.025151823 -0.0050266557 0.048943117 -0.008021033 0.021911016
0.011399327 -0.024657598 0.023911567 -0.021089362 0.060159367 -0.0010906509 0.021125896 -0.018499024
0.029385982 -0.0022711072 -0.004866634 -0.019612188 0.0040103155 0.014657438 0.036348686 0.012956027
0.010274793 -0.0036797957 -0.0057678493 0.013410582 0.010982229 -0.005724654 -0.00195088 -0.016634628
0.030940967 -0.0026304915 0.019043155 -0.028380958 0.042243093 0.03104976 -0.009111844 0.016913725
0.021056432 0.0192953 0.0226402 0.057426028 -0.0015950539 0.012556605 -0.031680934 -0.0349315
0.026047772 0.0044728764 0.019009817 0.07367826 -0.014368448 -0.012640545 -0.0008379393 -0.029100507
-0.0531066 -0.018349385 -0.021467727 0.021851182 -0.003331689 0.020091984 -0.0014259462 0.04878504
0.023662733 0.00038878882 -0.012441542 0.028018251 -0.039222226 -0.034085453 -0.019554446 0.006323476
0.00018726054 -0.019579204 0.024266876 0.010178582 -0.018198907 0.017492658 0.00018237493 0.0073243687
-0.030847274 -0.0069835787 -0.023591777 0.012039371 0.04011256 -0.005187398 -0.001261106 0.0015858281
0.013416832 0.029556327 -0.025370052 0.014845074 -0.00054930954 -0.041370448 -0.027171798 0.018386558
-0.026609529 -0.032069307 0.011143059 -0.007787172 0.007354825 -0.033390462 -0.011228851 0.011293662
0.023275 -0.011248116 -0.015615702 0.032305617 -0.012432583 0.019053549 -0.0018909225 0.02215232
0.030111661 -0.015673164 0.002715985 0.025825584 0.01622013 0.011700281 -0.03600561 0.018781988
-0.0041587655 0.023851683 -0.037215784 0.03178745 -0.01493284 -0.002386879 0.0016578095 -0.01322648

linear1.bias f4 [128]
00000000: 8209 ea3c d32b 12bc 01ff be3c ed88 ee3c
00000010: 72a3 0a3d ac76 1a3d d087 0c3b a23a 9f3c
00000020: bca3 eebc 4e7c 713c bd76 25bc 1bed c13d
00000030: e9b6 1ebd f820 d3bb 0871 6bbd 765b 82bd
00000040: 2067 033b 4fee 1e3b 7366 a9bc b8c3 5d3c
00000050: 9e95 0cbd d385 8e3d d18c 8f3d 4e1c 4e3d
00000060: 7452 76bd 8553 7dbc c16c 72bd 2e12 c3bc
00000070: b95b db3d b2ce b0bd 7052 b03c bcf6 643d
00000080: efc4 453c 350f 05bc 534a 033d 83d3 883d
00000090: ef61 213d 2724 3cbd a227 52bd 29ad 8d3a
000000a0: 9a67 e43c 90df f8bc 9367 693d 026b 87bd
000000b0: 8db9 d13a 2c87 78bd e050 c43c 9dd1 b93d
000000c0: d814 50bd 0fda d13c 04cc c9bd 40f2 aa3d
000000d0: 48f2 1b3d a1b1 403d 4945 43bd 61e1 21bd
000000e0: 657d a63d c35c 72bc 1566 dabc 730e 12bd
000000f0: 6752 c9bd 8e72 edbd 5fc0 b63c e909 5a3d
00000100: 2ad5 ad3d ce71 9b3c 0267 d3bd cc38 d9bc
00000110: 4db1 8c3b c346 27bc a407 4b3d b7b4 9cbc
00000120: 4ed8 35bd 4dd2 86bc 9807 a3bb b782 bc3c
00000130: 9f0f 17bd e5f0 1abd 8e7a ccbd 4aab 0ebd
00000140: 0312 54bc bb5d 60bd 6348 c5ba 52d6 05bd
00000150: 683d 903d d33d e13c cf30 ccbd 73a4 5fbd
00000160: ccc6 2d3d b413 96bd b8bb 2e3d 6529 92bd
00000170: b7b9 713d 7a29 99bb e817 4dbd ae96 0abc
00000180: f882 85bc 1778 d4bc e6b6 003d dc92 453b
00000190: 0d17 fbba 313a f9bc f14e 60bc 179f a03d
000001a0: 6937 ae3d 8b6f dbbc 7897 e03c 421a 403d
000001b0: b8cc e5bc 6201 fb3c 6d6a 6f3d 7cd9 20bd
000001c0: db0d d83c 2788 70bd 5480 60bd b2eb 1bbd
000001d0: 04a0 40bc 7438 8c3c 379c 2cbd cadb 52bc
000001e0: b9fb c53d f046 cc3c 85ec 1fbd 9a6b 293d
000001f0: a466 87bc 9416 ae3b b074 3fbc cb8d 303d
0.028568987 -0.008921581 0.023314955 0.029118026 0.03384728 0.03771083 0.0021443255 0.019437138
-0.029130809 0.014739109 -0.01009911 0.094690524 -0.038748655 -0.006443139 -0.057480842 -0.06365101
0.002005048 0.002425093 -0.020678734 0.0135354325 -0.034322374 0.06959119 0.070092805 0.050319962
-0.060137227 -0.015461807 -0.059185747 -0.02381238 0.10710854 -0.08633174 0.021523684 0.055899367
0.012070878 -0.008121301 0.032053303 0.06680968 0.039400037 -0.045932915 -0.051307328 0.0010809052
0.027881432 -0.03038004 0.05698354 -0.06612207 0.0016000733 -0.060675785 0.023964345 0.09073184
-0.05080113 0.025616674 -0.09853366 0.08346987 0.038072854 0.0470444 -0.047673497 -0.03952158
0.08129386 -0.014792624 -0.026660005 -0.03565831 -0.0983017 -0.11594115 0.022308527 0.053232107
0.084879234 0.018975165 -0.103223816 -0.02651634 0.004293597 -0.010209742 0.049567834 -0.01912914
-0.044395737 -0.016457701 -0.0049752705 0.023011548 -0.03688013 -0.03782739 -0.09984313 -0.034831323
-0.012943747 -0.05477689 -0.001505148 -0.032675095 0.07042962 0.0274953 -0.09970247 -0.05460019
0.042425916 -0.07327977 0.04265949 -0.07136802 0.059015002 -0.004674134 -0.050071627 -0.008458776
-0.016297802 -0.02593617 0.031424426 0.003014735 -0.001915665 -0.030423256 -0.013690696 0.07842844
0.085066624 -0.026786586 0.027415976 0.04690004 -0.02805172 0.030640308 0.058451105 -0.03926991
0.026373794 -0.058723595 -0.054809883 -0.038066573 -0.011756901 0.017116763 -0.042141166 -0.012869785
0.09667153 0.02493617 -0.039043922 0.041362382 -0.016528435 0.00531275 -0.011685535 0.043103974

linear2.weight f4 [32, 128]
00000000: 8173 dc3c a27e 813d 8a46 1ebd 4d5b 343d
00000010: 7d6e c9bc b5d6 3cbc 5f13 21bd fa04 473d
00000020: 931e febb 527c e2bc 73d3 673d f036 4abc
00000030: 3c3a 21bc 8975 d83d b938 84bc 956c 063d
00000040: ab05 a1bd 4e2b ca3d d077 323d 2cc5 9f3c
00000050: dc69 103d d281 a43d 4f79 ee3c 7e86 30bd
00000060: ebf9 8ebd 59fe 31bd a711 a4bd 7536 81bd
00000070: af0e e23d f70b 37bd c413 f4bc f2d3 1b3c
00000080: d678 423d a6d2 9ebd 659b 2e3b 887e f93b
00000090: ed06 ddbc 9061 4abd 4aef b4bc 5161 ff3c
000000a0: 31b2 35bd 9575 85bb 1cec ab3d 5e19 dd3b
000000b0: 8f22 ddbc 9f2d 5fbc ac1a ccbd 8f38 173c
000000c0: 0c59 be3c 4fc9 663d 3e31 613d 16bf 81bc
000000d0: 45b2 733d 92fa 1cbd 9fac bebd aaa7 833b
000000e0: a940 4abd 5119 f23c 1663 66bd 3362 18bd
000000f0: 69a0 4ebd 77b2 25bd 6627 443d 68d2 e63d
00000100: 6555 2f3d 3de9 893d 2619 9d3d d12d 603d
00000110: e847 063b f581 debd 68c7 ab3c 3cac a3bd
00000120: e5da 883d 3744 3cbd 1361 08bd ad03 673d
00000130: a188 bc3d 6ac4 903d 33df 1dbd 636e a1bb
00000140: 756d 903d c4cc 7e3d 1d1f 99bb 6a4f 4c3c
00000150: 0914 9cbb f683 e13d c577 02bd 5411 aabd
00000160: dbcc c73d 7b65 3a3b 910b c23d 9ed0 51bd
00000170: 2f89 9abd 8fb3 6f3d 67f8 843d 0599 bf3d
00000180: ae86 54bd a9ba 91bd 47e0 51bc 8654 b63d
00000190: 1e3c cb3c 12ab a3bd 82a8 93bd 2f09 1ebc
000001a0: 5e64 d93d 99ba a1bc 0492 493d c4c4 61bd
000001b0: 2b9d afbd dab0 7a3d ed82 ec3c 3e38 963d
000001c0: eaae b0bb 6424 aa3d bde1 0a3e 104d 4a3d
000001d0: 866d 9ebc cb46 e33d 3d2a 3e3d 172a 493c
000001e0: aec0 5ebc fb3a a6bc 0b5a 9f3d 6605 e1bc
000001f0: 25d0 a1bc fc18 413b ecd9 9f3c 7df1 f9bc
00000200: 1d9e adbd 74be b73d e7c8 e83a 9e50 c3bc
00000210: f57b 803d f274 123d d34e 0dbd b354 6ebd
00000220: 7339 ca3d 6f7e 233d 1e31 8abd 47f0 02b9
00000230: ef78 d1bd ad4f 863d 3ab7 dcbb 73ba eb3c
00000240: ba52 883d 2147 523d 5b47 403d f88e a43d
00000250: c6d7 6ebb 3618 903d a0e5 4cbd 7e1b b4bb
00000260: 3887 953d f7f5 033d 7241 e93c 2ead 8c3d
00000270: a0a9 d93c 52e6 1abc 395e 45bd 19c2 7c3d
00000280: 8526 1abd fd16 34bd c9e5 a53c b0b8 973d
00000290: cf2d a33d c095 413d e42d 81bd aeaf d03d
000002a0: c87f 1dbc 2e5a ba3d 2982 c0bd 9ed7 ebbc
000002b0: 21f8 773d 785e a03c bacf 81bd d523 293d
000002c0: 2381 cf3c 5a2d bd3d ca9f 703d 4dae 123c
000002d0: e306 013d e263 dfbb e90b 303d 4548 743d
000002e0: 6dbe 98bd 1fac 74bc 8f73 253d 5858 a13d
000002f0: 8af0 443d 7949 12bd 8824 343b 27e5 813d
00000300: 199f b8bd 79e2 9a3d 2673 d4bc 3bf6 963d
00000310: 1060 923d ce70 98bd 6a25 42bd 7f6b 6fbc
00000320: 5f3c e23c 5d19 fb3c 607f e23c 47cb 1dbd
00000330: 5146 26bc f626 603d 820b 9abd 0091 1bbd
00000340: ce4b 8b3d b9ac c1bd 8686 82bd cf93 b2bc
00000350: 224e 933d efb6 963d 296a 93bd 4511 0fbd
00000360: d7df 3d3d 5f57 ab3d 8334 77bd fe39 e1bc
00000370: 8db1 a7bd a96e 583d 8928 a43d ba68 603d
00000380: d059 cebb 52a6 8b3d 9fde 94bd b720 3b3d
00000390: 7bbe e6bc 2a6a 4bbc cf9c 0e3b 826b b2bd
000003a0: 4ef8 e7bd f060 a43d 4954 d83b df00 d7bc
000003b0: bf8d 22bc b51c dd3c f2e3 71bd e764 e6bc
000003c0: 5bce 6fbd 500d b2bd 1b14 0b3d 5e4d ef3b
000003d0: 2e08 993d 399d 773d 9a7f 93bd 47d7 b63d
000003e0: 0e6b 80bd 7c53 af3c a58b ad3d 9eec 78bd
000003f0: 3192 75bd d2d8 f63c d257 b6bd d7f0 183d
0.026910545 0.063229814 -0.03864149 0.044032384 -0.024588818 -0.0115257995 -0.039325114 0.04858873
-0.0077551096 -0.027647171 0.056598138 -0.0123422 -0.009840544 0.10569293 -0.016140329 0.032818396
-0.07862409 0.09871541 0.043571293 0.019503199 0.035257205 0.08032574 0.029110579 -0.04309701
-0.06981262 -0.043455455 -0.080111794 -0.06309215 0.11037957 -0.044689145 -0.029794581 0.009510981
0.04747852 -0.07755022 0.0026642915 0.0076139607 -0.026980842 -0.04940945 -0.022086758 0.031174334
-0.04435939 -0.0040728548 0.08394644 0.006747409 -0.026994018 -0.013621717 -0.09966025 0.009229793
0.02323582 0.056344327 0.0549786 -0.015838187 0.059496183 -0.0383249 -0.093102686 0.00401779
-0.04937807 0.029553087 -0.05624684 -0.037203025 -0.050445948 -0.0404534 0.047889136 0.112706006
0.042806048 0.0673394 0.07670812 0.054731194 0.0020489637 -0.10864631 0.020969108 -0.079918355
0.06682376 -0.045963492 -0.033295702 0.05639999 0.092057474 0.07068713 -0.038542937 -0.004926489
0.07052127 0.062207 -0.0046728984 0.012470106 -0.0047631306 0.11011498 -0.031852502 -0.08304086
0.0975587 0.0028441835 0.09474862 -0.051224343 -0.07545697 0.05852085 0.064926915 0.09355358
-0.051886253 -0.07115681 -0.01280982 0.0890284 0.02480894 -0.079916134 -0.07209875 -0.009645744
0.10614847 -0.019742297 0.049211517 -0.05511929 -0.08574899 0.061203815 0.028871024 0.07334946
-0.005391945 0.08307722 0.13562675 0.0493899 -0.019339334 0.11097487 0.046427 0.012278101
-0.013595743 -0.020291796 0.07780846 -0.027468394 -0.019752571 0.0029464355 0.019513093 -0.030510658
-0.08477423 0.08971873 0.0017760069 -0.023842152 0.06273643 0.03575606 -0.034499 -0.058186244
0.09874239 0.0399155 -0.067476496 -0.00012487276 -0.102281444 0.06558166 -0.0067357095 0.02877543
0.06656404 0.051337365 0.04694305 0.080350816 -0.003644453 0.07035868 -0.050023675 -0.0054964414
0.073011816 0.032216992 0.02847359 0.06868969 0.026570141 -0.009454327 -0.04818556 0.061708543
-0.03763439 -0.043967236 0.020251172 0.07408273 0.07967722 0.047261953 -0.06307581 0.10189758
-0.009612985 0.09099232 -0.09399826 -0.028789338 0.06053937 0.019576296 -0.06338449 0.041293938
0.025330132 0.09237166 0.058746137 0.008952689 0.03150071 -0.006817327 0.04298011 0.059639234
-0.07458196 -0.014933615 0.04039341 0.07878178 0.04808096 -0.0357146 0.0027487595 0.063425355
-0.090147205 0.075627275 -0.025933813 0.073711835 0.07147229 -0.07443391 -0.047398962 -0.014613031
0.027616678 0.030651743 0.027648628 -0.03852394 -0.010148601 0.054724656 -0.07521726 -0.03798008
0.06801568 -0.09456772 -0.063733146 -0.021798996 0.07192637 0.073591106 -0.07197983 -0.03492858
0.04635605 0.08366274 -0.060352813 -0.027493473 -0.08188162 0.05283991 0.08015544 0.054787375
-0.0062973276 0.068188325 -0.07269024 0.045685496 -0.028167 -0.012415448 0.0021760946 -0.08711912
-0.11326657 0.08026302 0.0066018444 -0.026245533 -0.00992149 0.026991228 -0.059055276 -0.028124286
-0.058546405 -0.086939454 0.03395472 0.007302924 0.07472263 0.060452674 -0.072020724 0.0892778
-0.06270419 0.021402113 0.08473901 -0.06077253 -0.059953872 0.030132685 -0.08903469 0.037339058

linear2.bias f4 [32]
00000000: 229a 973d 65d2 d33b 5fc9 b2bc a426 273e
00000010: 12e1 a3be 2984 7dbe 30c1 553d 351e 7d3e
00000020: 2613 5f3e b2de f9bc 24d5 80bc a7cc 75be
00000030: d4a6 83be 4e2e 0cbe c4a5 993e bb9a ac3c
00000040: 9b38 9cbe b8e0 3dbd 45f5 9cbd 77dc 99bd
00000050: a058 10be 4eec cd3d 6eb1 7bbe 3f83 3abd
00000060: d4bb 75bd 477c 1dbe b540 513e 42c3 bc3c
00000070: bc76 e4bd 7f08 1fbd 95ce c5be 5c8e 463e
0.074024454 0.00646429 -0.021824537 0.16323334 -0.32007653 -0.24757446 0.05218619 0.24718554
0.21784648 -0.030501697 -0.015726633 -0.2400385 -0.25713217 -0.13689539 0.30009282 0.021069875
-0.30511937 -0.046356887 -0.07663969 -0.075127535 -0.14096308 0.10054837 -0.24579403 -0.045535322
-0.05999358 -0.1537944 0.2043484 0.023042325 -0.11155459 -0.038826462 -0.38634172 0.19390243

output.weight f4 [25, 32]
00000000: 12de d5bd 91a7 e7bd 4eda a93c 014e 48be
00000010: f18f 6a3c ea9f 77bc 7fb3 053d 7897 2a3d
00000020: 0ada e33d bc55 9b3d e12b 21be 629e 4c3e
00000030: 662a ce3d 52be 88bb 2848 d03d d838 ea3d
00000040: fd24 293e 4c7e b13c ac77 f93b 980b a7bd
00000050: 490b b03c 7bd1 4dbd db61 153d 6e79 2abc
00000060: b494 ffbd dc21 f33d fb27 37be 8cd2 34be
00000070: e3a3 76bd 3367 e73d 4ed3 edbd 09ee 4a3d
00000080: 9bb7 053e 7d57 d73d 0db3 003d c32b 16be
00000090: 7171 f8bd dfa0 ec3d 17fe 083e 1b2b fdbd
000000a0: 66f0 b1bb a63b a63d 0fc8 da3c d213 2ebc
000000b0: a0c0 2abd 98c8 bf3d ce1b c43c 6662 0ebd
000000c0: 1167 0bbe 79a7 103e f20c 3d3d 0b1c 603d
000000d0: 2524 e1bc 436a 183e ec78 e2bc 20d8 a6bd
000000e0: 343b 113b 3acf b2bd ec15 3fbd d0c6 e4bd
000000f0: 1e4b f8bd 987b ba3d 751d 763d fa4f 44be
00000100: af3c 06be e0fb 483e 4c53 f4bd 485d 373e
00000110: 3f57 0ebe 0d70 18be 8f80 21bd 1f42 8dbd
00000120: 6200 1a3e fcaa 1cbe 7636 d63d 8abb 3f3c
00000130: b591 7cbc e098 19be a6cc 2f3e ade3 0f3e
00000140: 1028 eb3c 9eef 1b3e 0b9b 63bd 9945 b33d
00000150: f030 0bbe 960b a73d ecea 0bbe b7a8 99bd
00000160: b9f9 7a3d 9c75 08bd 0446 29bd 9036 d83d
00000170: 7733 9cbd 1a3e 773d e4d5 54be e90a 223e
00000180: 7077 38be d98d ffbc edeb 65bd ec6b 2d3c
00000190: 5512 cc3d e5af 1a3e 7836 89bd 6985 dcbd
000001a0: 232b 09bb 4483 143e 0f10 f3bd 481f 0a3d
000001b0: 0981 0a3c 088f 103d d6c5 9fbc d209 243e
000001c0: 3c73 393e 976b d1bd ac54 8dbd 76dd ce3d
000001d0: 088b 503d 2940 00bd 36fd 013e 17a0 0cbe
000001e0: 7497 333d 63c1 bfbd 357f c43d b0fa d7bd
000001f0: b40b cd3d 22cb 413c 60e6 a53d d26d 64bd
00000200: 2924 fcba 95db b23c aef7 bd3d 0639 9fbd
00000210: 08ff 1c3e aafc dbbd e527 b33d 9ca3 15bc
00000220: f89c 1e3c bbb8 4c3d 3989 55bd 8064 2bbe
00000230: 730f 5f3d f654 003e 18c1 a43d d7a6 cb3d
00000240: 6c4c f83d 4017 ddbc 5768 28be d1e0 f3bd
00000250: bc1e bcbc 071b cabd 63fb d9bd b091 513d
00000260: c2b1 f43d d2cb 83bd 5745 98bd cae9 383c
00000270: 3f88 5fbb 18b8 c73d 476f ca3c b138 dc3d
00000280: 7e31 b43c b886 45be 15cb c63d dd44 0cbd
00000290: 2bf9 e6bd 0191 08be fae4 b73d eda1 c83d
000002a0: 7ae1 2fbe 81ce 36be c2ca 5f3c e973 523d
000002b0: de3c 0f3d 5ae4 6e3e 36ab b6bc 63f7 223d
000002c0: 0f7f 70bd 2d15 3e3e 42d7 adbc 7f84 293d
000002d0: 8ba0 493d 41d3 fa3d 900e d4bd e66e e6bc
000002e0: aefc 573d 29ec 89bd 7948 0b3e 38fd babd
000002f0: 3aca 973d 805a 3e3d 666d 153e c15a d13d
00000300: c18e b0bd 0384 57be 2448 50bd bf2f e2bd
00000310: 8535 bebd edf0 a83d 1fb1 67be c146 f5bd
00000320: 75dc 343e ca1e 6dbb e080 213d 8e9a 9b3d
00000330: 8a48 a33d 7d41 1c3e c69c 3d3c ab80 023e
00000340: 24b9 47be 76bc 023b 4516 1ebe 647c 88bd
00000350: b141 7d3d 3513 2ebe 3913 263d 414b e33d
00000360: 4dea 8fbc ad0c 2abe 2e93 34be 8ae3 7e3e
00000370: 70c7 a03d c1bf d6bc ffaa 28be 419c 23bd
00000380: 407b 3ebe ac6c c03d c4bd d63d ee88 b9bd
00000390: f4f8 ff3d a6a8 d7bd 1597 6cbe 9c2f a4bd
000003a0: ce49 8d3d 7d5d a03d cf95 90bd 91be cf3c
000003b0: 015f 46bc e3bd b63d f13b 8cbd 6838 7d3c
000003c0: 84a3 3d3e cf5d 893d 0833 0dbe 3bc1 c9bc
000003d0: 9011 57bd 58f7 353e 33dd 013e bd33 af3d
000003e0: 52c0 28be a996 0ebc e617 18be 10af c0bd
000003f0: 5a3c c9bb fcd0 ae3c ea85 083e a832 d1bd
-0.10442747 -0.11311258 0.020733979 -0.19561006 0.014316545 -0.01511381 0.032641884 0.041648358
0.11125572 0.07584712 -0.15739395 0.19982293 0.100666806 -0.0041730786 0.10170013 0.11436623
0.16518016 0.021666668 0.007613143 -0.08156508 0.021489756 -0.050248604 0.036470275 -0.010404928
-0.12479535 0.118716925 -0.17886345 -0.17658442 -0.06021489 0.112989806 -0.11612569 0.049543414
0.13058321 0.10514734 0.031420756 -0.14665131 -0.12131012 0.11554121 0.13378178 -0.12361737
-0.005430269 0.08116846 0.026706723 -0.010624843 -0.041687608 0.09364432 0.02393904 -0.03476181
-0.13613535 0.14126386 0.046154924 0.054714244 -0.027483055 0.14884286 -0.02764555 -0.08146691
0.0022160532 -0.087309316 -0.046651766 -0.11170733 -0.121237025 0.09105605 0.060086686 -0.19171134
-0.13109086 0.19627333 -0.1192995 0.17906678 -0.13900469 -0.14886494 -0.039429244 -0.06897377
0.15039209 -0.152996 0.10459606 0.011702428 -0.015415599 -0.14999723 0.17167911 0.14051695
0.028705627 0.15228125 -0.055567782 0.08753509 -0.13592887 0.08156507 -0.13663834 -0.07502883
0.06127331 -0.033315286 -0.041326538 0.10557282 -0.07627004 0.06036196 -0.20784718 0.15824474
-0.18014312 -0.031195568 -0.0561332 0.010584813 0.09964434 0.15106161 -0.06699842 -0.107676335
-0.0020930253 0.14503199 -0.11868297 0.03372124 0.008453616 0.035292655 -0.019503515 0.16019371
0.18110365 -0.10225599 -0.069009155 0.10100834 0.05091384 -0.031311188 0.12694249 -0.13732944
0.04384561 -0.093630575 0.09594575 -0.10545862 0.10011998 0.011828216 0.08100581 -0.055768795
-0.0019236851 0.02183322 0.09275757 -0.07774548 0.15331662 -0.10741551 0.08747844 -0.009133246
0.009680979 0.04998086 -0.05213282 -0.16737556 0.054458093 0.1253241 0.08044642 0.099439315
0.12123951 -0.026988626 -0.16446052 -0.11908115 -0.022963874 -0.09868436 -0.10643651 0.05116433
0.11947967 -0.0643536 -0.074351005 0.011286208 -0.0034108309 0.0975191 0.024711264 0.107530005
0.021996256 -0.19289672 0.097067036 -0.03424536 -0.11277994 -0.13336565 0.08979221 0.0979651
-0.17175856 -0.17852212 0.013659181 0.05138007 0.034970157 0.23329297 -0.022298437 0.039786708
-0.058714923 0.18562765 -0.021220807 0.041386124 0.04922537 0.12247325 -0.1035434 -0.028129052
0.05273121 -0.06734497 0.13601865 -0.09130329 0.074116185 0.046473026 0.14592513 0.10222388
-0.08620978 -0.21046452 -0.05085005 -0.11044263 -0.09287552 0.08249078 -0.2262616 -0.11976386
0.17662223 -0.0036181682 0.039429545 0.07597838 0.0797282 0.15259357 0.011573022 0.12744395
-0.1950422 0.0019948757 -0.15438183 -0.06664351 0.061830226 -0.16999514 0.040545676 0.11098338
-0.017567778 -0.16606398 -0.1763427 0.24891487 0.0785054 -0.026214482 -0.1647148 -0.039943937
-0.18601704 0.093957275 0.10485414 -0.090593204 0.12498656 -0.10530214 -0.23104508 -0.08016893
0.06898843 0.078303315 -0.07059824 0.025359424 -0.012107612 0.08922937 -0.068473704 0.015455343
0.18519408 0.06707346 -0.13788998 -0.024628272 -0.052506983 0.17770135 0.12682037 0.0855479
-0.16479614 -0.008702912 -0.14852867 -0.094083905 -0.0061412277 0.021339886 0.13332334 -0.1021474

output.bias f4 [25]
00000000: 5547 6dbe c600 41be 1725 9b3e daf5 bebd
00000010: a108 043e d58e 31be 46ba 5b3e a03c 96be
00000020: a09f 80be 8453 b73e 5a67 283e 328b d13e
00000030: dfdd c2be c5bc 29be c2b8 67be ada1 b13d
00000040: a1d2 b2be 029b 78be 4d72 203d b018 f33d
00000050: d695 2b3e 0b36 97bd d6c8 b2be 4695 d63d
00000060: 7f7e 4f3e
-0.23171742 -0.18847951 0.30301735 -0.09324236 0.12893917 -0.17339642 0.21457776 -0.29343128
-0.25121784 0.35805905 0.16445675 0.4092651 -0.380599 -0.16575916 -0.22629073 0.08673415
-0.34926322 -0.24277881 0.039171506 0.11869943 0.16756377 -0.07383355 -0.3491885 0.104776904
0.20263098
