code/development/models/best_model_044.pth (torch, 480181 bytes, 8 tensors)

conv1.weight f4 [1, 1, 5, 3]
0.094047084 0.086183734 0.17256835 0.41676092 0.32259032 -0.15350458 0.104653075 -0.20644355
0.0626005 0.07644151 0.032894813 -0.23801067 -0.22163087 -0.23749134 -0.17985494
00000000: c29b c03d 1981 b03d c2b5 303e b061 d53e
00000010: 8f2a a53e 4e30 1dbe 5a54 d63d f065 53be
00000020: b134 803d 5e8d 9c3d b6bc 063d 12b9 73be
00000030: 34f3 62be ee30 73be e52b 38be

conv2.weight f4 [1, 1, 3, 3]
-0.3166801 0.17600568 0.25801823 -0.050678957 -0.15736517 0.1841571 -0.114790626 -0.13425134
0.07553106
00000000: e523 a2be d53a 343e f71a 843e bd94 4fbd
00000010: 5624 21be ae93 3c3e 5917 ebbd 2f79 09be
00000020: 07b0 9a3d

linear1.weight f4 [128, 870]
0.03466587 -0.035973143 0.028203972 -0.04207874 -0.046500593 -0.067994565 -0.01406748 -0.059957016
-0.05623953 0.05282212 -0.050228618 -0.03908953 0.0032533952 -0.112913996 -0.07492965 -0.06757789
-0.02011793 0.020730387 -0.049118675 0.01328335 -0.0047688955 -0.0772528 0.0061771185 -0.040408295
0.046891868 -0.10821709 -0.030377187 -0.07358336 -0.10851628 -0.02871831 -0.0023578866 -0.060787477
-0.023720916 -0.027608722 -0.013770736 0.0533074 0.11767564 0.0048684347 0.037831202 -0.14355716
0.029126948 -0.048433207 -0.032448128 -0.05389755 -0.08276136 0.04853444 -0.052754875 0.01579176
-0.103096515 -0.060121626 -0.10465895 0.005781458 -0.021629179 -0.06967295 0.041267466 -0.04937991
0.02376078 -0.02661025 0.012609523 0.0037569406 0.015945632 -0.043513827 0.030068507 0.16533102
0.08008894 0.045048326 -0.021382047 0.032180127 0.15064013 0.036065515 0.13673149 0.032838143
0.032454744 -0.017814206 -0.049976464 -0.010716892 -0.09357804 0.051414356 0.08409529 0.08175314
0.03362948 0.01249724 0.03344308 0.021474404 -0.028461982 0.2257357 0.1435936 0.14458515
0.013584274 0.03375001 0.11630232 0.05619599 -0.0014408134 0.0065085855 -0.022206588 0.0720734
0.16980857 -0.016251007 -0.030458633 0.015074157 0.08820818 0.0842159 -0.06258347 0.079201825
0.07585376 -0.11879645 -0.014904145 0.05029615 -0.018582715 -0.10005932 0.14743046 0.07112623
-0.07796307 0.058702957 0.11765444 -0.10487687 -0.07738276 -0.09599775 -0.07061859 -0.07453766
0.06188259 0.016916603 -0.008141467 0.20172717 0.105080284 -0.014165805 0.04075533 -0.0070401025
-0.0032657995 -0.0154408645 0.006689848 -0.020091688 -0.059516232 0.012538498 -0.056303024 0.035247695
-0.026505737 -0.062388357 0.13733247 -0.0076664183 0.052918114 -0.014887345 -0.009555258 -0.06066477
-0.014188678 0.032162625 0.10595116 0.08420266 0.16552584 0.1203286 0.009668109 -0.009200635
0.07361943 0.047571335 0.10021392 0.10685099 0.051886424 0.040633768 0.055290677 0.026041511
0.19139649 0.10195912 0.16766334 0.07168056 0.11183237 0.036302045 0.06037578 -0.097938426
0.029920401 -0.08396444 0.2053219 0.09548805 0.221121 0.057424083 -0.06641449 -0.1065778
0.13597237 -0.16371146 0.020526865 -0.0037769922 -0.0071276035 0.038036477 -0.09745747 0.12615679
-0.06574575 -0.012642373 -0.050912224 0.07632106 -0.021216264 0.092137925 0.0032453884 -0.12518193
0.10424258 -0.09970107 -0.119187586 -0.04060298 0.07262557 -0.042606723 -0.0332854 0.08095377
0.0033267548 0.037826322 -0.014685666 -0.059594966 -0.03639799 -0.06826068 -0.10606093 -0.061878897
-0.092141144 -0.06845892 -0.16529197 0.0789226 -0.05519791 -0.06582098 -0.037900575 0.06118283
0.02799558 0.0780612 -0.08594915 -0.10924298 -0.03259905 0.06433836 0.10285177 -0.09141681
-0.08714925 0.003592214 -0.055942357 -0.08707199 -0.1175356 -0.081208 -0.052052844 -0.12991731
-0.095233746 -0.040107988 0.05121071 -0.117961764 0.052744556 -0.0759294 0.08699902 -0.12030851
0.013510795 -0.15870112 0.05979305 -0.1526963 0.07279795 -0.0900034 -0.009561955 -0.020683892
-0.036156364 -0.09119418 -0.09705813 -0.053942617 -0.03172214 0.022641154 -0.056049794 0.039030835
00000000: cdfd 0d3d 9358 13bd 040c e73c c25a 2cbd
00000010: 6877 3ebd bc40 8bbd 4a7b 66bc 7d95 75bd
00000020: 6c5b 66bd 025c 583d 86bc 4dbd 581c 20bd
00000030: ea36 553b 743f e7bd b774 99bd 4766 8abd
00000040: 5bce a4bc c6d2 a93c aa30 49bd 68a2 593c
00000050: 6544 9cbb b736 9ebd 6d69 ca3b 2b83 25bd
00000060: b011 403d eca0 ddbd 94d9 f8bc dfb2 96bd
00000070: c93d debd a942 ebbc c686 1abb 4afc 78bd
00000080: 5e52 c2bc b02b e2bc a79e 61bc dc58 5a3d
00000090: edff f03d 6487 9f3b e4f4 1a3d a600 13be
000000a0: a39b ee3c e661 46bd 54e8 04bd adc3 5cbd
000000b0: ca7e a9bd 0dcc 463d 7f15 58bd b95d 813c
000000c0: 4424 d3bd 1842 76bd 6e57 d6bd 6372 bd3b
000000d0: ad2f b1bc b1b0 8ebd 1308 293d 9742 4abd
000000e0: f8a5 c23c bdfd d9bc 2c98 4e3c 0137 763b
000000f0: 6aa0 823c 8e3b 32bd 3b52 f63c 894c 293e
00000100: ac05 a43d 9884 383d 6729 afbc 4fcf 033d
00000110: 6841 1a3e 6fb9 133d 5703 0c3e 4a81 063d
00000120: 44ef 043d 19ef 91bc 1fb4 4cbd e795 2fbc
00000130: d8a5 bfbd dc97 523d 273a ac3d 316e a73d
00000140: 11bf 093d 39c1 4c3c 9cfb 083d 17eb af3c
00000150: 1a29 e9bc 4227 673e 330a 133e 210e 143e
00000160: 9390 5e3c 733d 0a3d e92f ee3d c42d 663d
00000170: add9 bcba f945 d53b 97ea b5bc 389b 933d
00000180: 4ce2 2d3e d520 85bc 6284 f9bc 99f9 763c
00000190: 7ea6 b43d 6379 ac3d c32b 80bd 9134 a23d
000001a0: 3759 9b3d 8e4b f3bd 8430 74bc 5603 4e3d
000001b0: c73a 98bc e7eb ccbd 03f8 163e a1aa 913d
000001c0: 1aab 9fbd 8372 703d d0f4 f03d afc9 d6bd
000001d0: da7a 9ebd 789a c4bd 7ba0 90bd 33a7 98bd
000001e0: 9978 7d3d b094 8a3c ca63 05bc 9191 4e3e
000001f0: 5534 d73d b117 68bc 10ef 263d a9b0 e6bb
00000200: 0607 56bb aefb 7cbc 8336 db3b 5397 a4bc
00000210: 4bc7 73bd 466e 4d3c 009e 66bd e35f 103d
00000220: 8f22 d9bc ef8a 7fbd e2a0 0c3e 9436 fbbb
00000230: aac0 583d 0dea 73bc a88d 1cbc 9f7b 78bd
00000240: a177 68bc f5bc 033d ecfc d83d 7272 ac3d
00000250: 9b7f 293e d76e f63d fd66 1e3c 43be 16bc
00000260: c9c5 963d 29da 423d f53c cd3d b1d4 da3d
00000270: dc86 543d 986f 263d 7a78 623d 0255 d53c
00000280: 71fd 433e f1cf d03d f0af 2b3e 42cd 923d
00000290: 5f08 e53d 74b1 143d 984c 773d f193 c8bd
000002a0: a11b f53c 8cf5 abbd e73f 523e 3d8f c33d
000002b0: 8b6d 623e 8435 6b3d 5204 88bd 7645 dabd
000002c0: 573c 0b3e faa3 27be f527 a83c 6a87 77bb
000002d0: ac8e e9bb 23cc 1b3d c897 c7bd 3f2f 013e
000002e0: b5a5 86bd f521 4fbc 5689 50bd 374e 9c3d
000002f0: bbcd adbc cfb2 bc3d 95b0 543b b12f 00be
00000300: 227d d53d 1330 ccbd 9f18 f4bd 4f4f 26bd
00000310: b7bc 943d 6384 2ebd 4656 08bd 17cb a53d
00000320: af05 5a3b c6ef 1a3d 269c 70bc da19 74bd
00000330: 0f16 15bd 41cc 8bbd 7936 d9bd ba74 7dbd
00000340: 7fb4 bcbd 3134 8cbd 4c42 29be 2ca2 a13d
00000350: 3417 62bd 26cd 86bd a23d 1bbd d99a 7a3d
00000360: fd56 e53c 8dde 9f3d 1c06 b0bd c9ba dfbd
00000370: 9586 05bd d5c3 833d f3a3 d23d bd38 bbbd
00000380: 4e7b b2bd 5a6b 6b3b d023 65bd cd52 b2bd
00000390: 81b6 f0bd 6150 a6bd 5d35 55bd 0b09 05be
000003a0: e909 c3bd 4648 24bd 52c2 513d f095 f1bd
000003b0: ad0a 583d e080 9bbd 8b2c b23d 4f64 f6bd
000003c0: 625c 5d3c 8c82 22be 8fe9 743d 6b5c 1cbe
000003d0: 1717 953d b453 b8bd bfa9 1cbc 4471 a9bc
000003e0: b218 14bd 04c4 babd 6ac6 c6bd eff2 5cbd
000003f0: 13ef 01bd f179 b93c 7894 65bd ccde 1f3d

linear1.bias f4 [128]
-0.12317721 0.16235873 0.37318835 -0.31554124 0.15534006 -0.26150706 0.40463713 -0.26798105
0.102119215 0.059107523 0.0068167844 -0.0065205996 0.20728058 -0.291577 0.45881173 -0.2076561
-0.080993205 0.06260476 0.20423587 -0.34017375 0.4915703 0.2517746 -0.08504016 0.34565076
0.0037655311 0.22780816 -0.4849708 0.27579904 -0.10020798 -0.060300075 0.12639971 -0.27689815
0.102712356 -0.23439664 0.09256748 0.19701421 0.3526988 0.08521771 -0.5564164 0.44049165
0.10872763 -0.07342348 -0.33439854 -0.116305016 -0.25335467 -0.072964884 0.18194756 0.45566437
0.02114074 -0.34775904 -0.32617858 0.25563708 -0.386751 0.12023354 0.3377451 0.28215143
0.05269615 0.19255966 -0.045444366 -0.19157414 -0.14378619 -0.11949969 0.4044529 -0.00029759068
0.091109514 -0.02841235 0.021428838 0.41233715 -0.07445872 0.23392062 0.2627024 0.011746803
-0.34457275 0.1715431 -0.0041133943 0.30755067 -0.23128776 0.30146146 0.30830467 -0.12606078
-0.4214673 -0.040820222 0.32325295 0.35692298 0.15333268 -0.31542456 0.09451556 -0.40691563
0.15539952 -0.1372349 -0.17726856 0.2573845 -0.27988058 -0.15239795 -0.39491796 -0.3043257
0.08133985 -0.3313932 -0.09124447 0.27696276 0.4175094 0.20986551 -0.10668936 -0.10842383
0.13867946 0.11572247 -0.35270697 0.25843602 -0.33240512 0.3442879 0.38989815 -0.09051649
-0.3729446 0.52527636 -0.05833704 -0.15614468 0.18405956 -0.15379827 -0.21273221 -0.4531369
-0.13401979 -0.16664864 0.36124998 0.2683939 -0.08202861 0.3833094 0.16513246 -0.15214433
00000000: 5544 fcbd 5e41 263e 8b12 bf3e 9f8e a1be
00000010: 7711 1f3e 41e4 85be 992c cf3e d034 89be
00000020: e123 d13d bb1a 723d 555f df3b c1aa d5bb
00000030: 5c41 543e 9549 95be 5fe9 ea3e cda3 54be
00000040: c4df a5bd ed36 803d 3523 513e 412b aebe
00000050: 1aaf fb3e 9ae8 803e 8929 aebd 23f9 b03e
00000060: 21c7 763b 8b46 693e 184e f8be 8835 8d3e
00000070: d739 cdbd 36fd 76bd ed6e 013e 98c5 8dbe
00000080: db5a d23d ac05 70be 0594 bd3d 18be 493e
00000090: f094 b43e 9f86 ae3d 4e71 0ebf 1f88 e13e
000000a0: 97ac de3d 0d5f 96bd 4936 abbe 5331 eebd
000000b0: b4b7 81be 9d6e 95bd 7650 3a3e d74c e93e
000000c0: 582f ad3c 790d b2be e100 a7be dde2 823e
000000d0: 3a04 c6be 013d f63d edec ac3e 2776 903e
000000e0: ebd7 573d 5c2e 453e df23 3abd 032c 44be
000000f0: b03c 13be 41bc f4bd 7314 cf3e f205 9cb9
00000100: a097 ba3d 04c1 e8bc 888b af3c db1d d33e
00000110: d07d 98bd e388 6f3e ee80 863e aa75 403c
00000120: d76b b0be ffa8 2f3e a7c9 86bb 4877 9d3e
00000130: b3d6 6cbe 2859 9a3e 1cda 9d3e 1416 01be
00000140: 90ca d7be 1b33 27bd 6981 a53e 9cbe b63e
00000150: 3e03 1d3e 547f a1be 6091 c13d 3f57 d0be
00000160: 0d21 1f3e 4e87 0cbe e485 35be e7c7 833e
00000170: 824c 8fbe 350e 1cbe b032 cabe 94d0 9bbe
00000180: 8295 a63d 5fac a9be 61de babd 10ce 8d3e
00000190: cbc3 d53e fce6 563e f47f dabd 500d debd
000001a0: fd01 0e3e e7ff ec3d 0296 b4be ba51 843e
000001b0: 0131 aabe 8146 b03e bba0 c73e b660 b9bd
000001c0: 98f2 bebe 8378 063f d2f2 6ebd 64e4 1fbe
000001d0: 1c7a 3c3e 4b7d 1dbe 79d6 59be 8f01 e8be
000001e0: 7c3c 09be f1a5 2abe c2f5 b83e ed6a 893e
000001f0: 9efe a7bd 2141 c43e 7c18 293e b9cb 1bbe

linear2.weight f4 [32, 128]
0.07281171 -0.11515598 0.013124608 -0.049506996 0.026339518 -0.024041515 0.076320335 0.07129229
-0.08921073 0.10225621 0.046805125 -0.007663096 0.058368422 0.049258705 0.12874499 0.05699393
0.14305349 -0.048113268 0.01861951 -0.04107895 0.051421538 -0.06501853 -0.068144485 -0.10231232
0.15481606 -0.0905432 0.14155379 -0.110925786 0.06549556 -0.047437325 0.05781153 -0.09040434
-0.08421745 0.04571594 0.056743156 0.04709373 -0.015940716 -0.013540613 0.034342077 0.052311897
-0.1531252 0.07818112 -0.061651245 0.08583809 0.012331198 -0.04306793 -0.13292313 0.15532517
0.012891759 -0.06622527 0.15572621 0.00451603 -0.13461138 -0.015945967 0.16281731 0.037203863
0.119050555 0.069163084 0.073940165 -0.09800753 -0.06871951 -0.1329084 -0.03567507 -0.0873294
0.04749053 -0.0837356 -0.12872308 0.086434424 -0.023708088 -0.10273674 0.06173174 0.10239198
0.0634938 -0.08286246 0.047185056 -0.03165761 -0.09665274 -0.049785163 0.03116315 -0.06312478
-0.13074873 0.105852306 -0.112178706 -0.01032494 -0.057078563 -0.05227436 0.07928014 0.0198926
-0.0829271 0.034456637 -0.13461038 -0.05986697 0.13932382 0.10781729 -0.08752888 0.006762652
-0.063806795 -0.13937996 0.05515975 0.061916176 0.057996225 0.0060426635 -0.117274724 -0.01902066
0.08508743 -0.08473852 0.048081584 -0.054742128 -0.19263996 -0.0024985785 0.115988836 -0.10616516
-0.009144368 0.08361926 -0.19475448 -0.08510903 0.0064044143 0.08389605 -0.041814942 -0.09439153
0.049665395 -0.12515502 0.038091607 0.05699179 -0.12260985 -0.0038205364 -0.07299302 -0.05514014
0.18628573 -0.07355053 0.091167234 -0.001821033 -0.08997763 0.034128718 0.15742218 -0.079841614
0.07410384 0.032654446 -0.015540625 -0.0150582595 0.16779016 0.05499171 0.041204367 0.088206835
-0.00064260984 0.0899486 -0.06970829 0.028943362 0.07024385 0.07872071 0.011961109 0.13385725
-0.05753834 0.1538266 -0.0957759 0.08077849 0.0097116 -0.05402948 -0.18209581 -0.09682487
0.059930164 0.057490174 0.0062003457 0.09926982 -0.12038648 0.02432482 -0.11545582 0.05933073
-0.028788386 -0.0007449502 0.071262054 0.071643755 -0.14458257 0.057087798 0.06615719 -0.055484828
-0.12859626 -0.10902266 -0.051806577 0.16537644 -0.11680397 -0.06533995 0.06367175 -0.0056140604
-0.088223204 0.08763414 0.06428282 0.0055223117 -0.0061317035 -0.09895465 0.053808037 -0.046816286
0.10779943 0.124197885 0.03335258 0.0744859 -0.10436688 -0.042328 0.0054012346 0.15306118
0.07761027 0.14633201 0.045854848 0.030127058 0.115513705 0.070591316 0.0701321 -0.018333936
0.067451194 -0.00012608891 -0.08058978 0.15257208 0.12744372 -0.035792787 0.007571394 0.018234849
-0.114630066 -0.059535205 -0.18219604 -0.13728696 0.11671903 0.023168974 0.104607955 0.02824812
0.12552932 0.06243735 -0.04266785 0.026379637 -0.013528524 0.023041727 -0.13088803 0.10203918
-0.043510623 0.017443256 -0.16150571 -0.14333984 -0.03844092 -0.15152675 -0.021686006 0.060689855
0.025990605 -0.074129395 -0.10864816 -0.06819387 -0.033731293 0.09690154 0.012013344 -0.10140231
0.13101485 -0.03396629 0.028952595 0.08988871 0.037783694 -0.1554028 -0.007860646 0.15937366
00000000: 4e1e 953d e6d6 ebbd 9908 573c d9c7 4abd
00000010: f9c5 d73c b6f2 c4bc d64d 9c3d b101 923d
00000020: 1db4 b6bd b46b d13d bbb6 3f3d b51a fbbb
00000030: ba13 6f3d 7fc3 493d bad5 033e 7872 693d
00000040: 9d7c 123e 6b12 45bd f187 983c 6742 28bd
00000050: 649f 523d 6f28 85bd 568f 8bbd 1f89 d1bd
00000060: 1a88 1e3e b76e b9bd 7af3 103e 0f2d e3bd
00000070: 8922 863d a44d 42bd c8cb 6c3d e925 b9bd
00000080: 337a acbd a340 3b3d 836b 683d 5be5 403d
00000090: 1b96 82bc 73d9 5dbc 47aa 0c3d 0045 563d
000000a0: dacc 1cbe 6c1d a03d 0486 7cbd e1cb af3d
000000b0: cb08 4a3c ff67 30bd 001d 08be 900d 1f3e
000000c0: f537 533c 1da1 87bd b176 1f3e 35fb 933b
000000d0: 91d7 09be 1ea1 82bc 95b9 263e 1463 183d
000000e0: c7d0 f33d 60a5 8d3d f16d 973d 2cb8 c8bd
000000f0: d1bc 8cbd 2419 08be 0620 12bd c2d9 b2bd
00000100: 6e85 423d 927d abbd fccf 03be 8804 b13d
00000110: 7737 c2bc a467 d2bd 6cda 7c3d e3b2 d13d
00000120: 0a09 823d cbb3 a9bd 1e45 413d 69ab 01bd
00000130: dff1 c5bd 87eb 4bbd dd49 ff3c 9147 81bd
00000140: ffe2 05be 18c9 d83d f3bd e5bd f029 29bc
00000150: 36cb 69bd a41d 56bd a05d a23d cef5 a23c
00000160: afd5 a9bd 6722 0d3d 4ed7 09be 1137 75bd
00000170: e7aa 0e3e 50cf dc3d 5742 b3bd 3d99 dd3b
00000180: 23ad 82bd 9fb9 0ebe 31ef 613d d19b 7d3d
00000190: 738d 6d3d 8901 c63b bb2d f0bd 37d1 9bbc
000001a0: 5242 ae3d 648b adbd 32f1 443d 4839 60bd
000001b0: 6943 45be 31bf 23bb 8e8b ed3d 1f6d d9bd
000001c0: 42d2 15bc 9340 ab3d b86d 47be a54d aebd
000001d0: 1fdc d13b b1d1 ab3d 2546 2bbd 5950 c1bd
000001e0: f16d 4b3d a328 00be f205 1c3d 3970 693d
000001f0: df1a fbbd f761 7abb 5d7d 95bd a1da 61bd
00000200: b0c1 3e3e a9a1 96bd e3b5 ba3d baaf eeba
00000210: 3146 b8bd 8eca 0b3d 4833 213e 0084 a3bd
00000220: c1c3 973d abc0 053d 1b9e 7ebc ebb6 76bc
00000230: 2fd1 2b3e fd3e 613d e9c5 283d c9a5 b43d
00000240: d174 28ba f936 b83d 38c3 8ebd a11a ed3c
00000250: 02dc 8f3d 5338 a13d 87f8 433c e011 093e
00000260: 53ad 6bbd b884 1d3e 2826 c4bd 316f a53d
00000270: 671d 1f3c 044e 5dbd 5377 3abe 1e4c c6bd
00000280: 5579 753d d17a 6b3d 452c cb3b fa4d cb3d
00000290: 308d f6bd d844 c73c 1a74 ecbd c804 733d
000002a0: 9fd5 ebbc c348 43ba d7f1 913d f6b9 923d
000002b0: 740d 14be e5d4 693d 6c7d 873d 0f44 63bd
000002c0: bdae 03be 4647 dfbd 2233 54bd 7158 293e
000002d0: eb36 efbd f4d0 85bd 5666 823d 27f6 b7bb
000002e0: 5eae b4bd 8779 b33d b6a6 833d 82f4 b43b
000002f0: 75ec c8bb bca8 cabd d165 5c3d 6fc2 3fbd
00000300: f3c5 dc3d 765b fe3d b79c 083d 108c 983d
00000310: 4ebe d5bd 2060 2dbd d7fc b03b 12bc 1c3e
00000320: 22f2 9e3d 0fd8 153e 4bd2 3b3d 05cd f63c
00000330: 7392 ec3d 2e92 903d 6ba1 8f3d 0d31 96bc
00000340: da23 8a3d bc36 04b9 410c a5bd db3b 1c3e
00000350: 9b80 023e 759b 12bd 7519 f83b 4061 953c
00000360: 2bc3 eabd 30db 73bd 9991 3abe f494 0cbe
00000370: 630a ef3d dccc bd3c b23c d63d 9a68 e73c
00000380: c28a 003e 4fbe 7f3d 7cc4 2ebd 1c1a d83c
00000390: bea6 5dbc 01c2 bc3c 8307 06be ebf9 d03d
000003a0: 3238 32bd 29e5 8e3c c161 25be aec7 12be
000003b0: 3a74 1dbd d429 1bbe daa6 b1bc ed95 783d
000003c0: 40ea d43c 27d1 97bd ed82 debd 3aa9 8bbd
000003d0: d329 0abd 5174 c63d 9ed3 443c 04ac cfbd
000003e0: c228 063e 3d20 0bbd fe2d ed3c 9217 b83d
000003f0: 13c3 1a3d e921 1fbe f0c9 00bc d932 233e

linear2.bias f4 [32]
0.14777341 0.17581464 -0.13163838 0.06791377 0.11619906 -0.18896611 0.32263038 -0.02698344
0.2346767 0.28759405 0.24443746 0.2571692 -0.04048944 0.28388655 -0.117130056 0.12234273
0.3796067 -0.031359207 0.22843772 -0.079461664 -0.15773106 -0.17387228 -0.37483588 -0.449876
-0.29751244 -0.3358019 -0.21433796 -0.24293682 0.26632133 -0.105234146 -0.14166224 0.0068412605
00000000: ea51 173e c108 343e 36cc 06be 6016 8b3d
00000010: c6f9 ed3d 5580 41be cf2f a53e 600c ddbc
00000020: 174f 703e 873f 933e d04d 7a3e aeab 833e
00000030: 41d8 25bd 9459 913e e2e1 efbd d38e fa3d
00000040: cf5b c23e 8372 00bd 94eb 693e ccbc a2bd
00000050: 4084 21be 930b 32be 7dea bfbe 2656 e6be
00000060: 8d53 98be 3aee abbe 697b 5bbe 6ec4 78be
00000070: 455b 883e 0085 d7bd e80f 11be a72c e03b

output.weight f4 [100, 32]
-0.05978399 0.03446544 -0.004287786 -0.0062571694 -0.21278046 0.014277803 -0.087952495 -0.069573246
-0.033478353 -0.0088493945 -0.10245452 -0.19379108 -0.040181227 0.05136528 0.13984336 0.06537893
0.12558275 -0.000872492 -0.16053003 0.0068052523 -0.106881 0.057256237 -0.22291993 -0.20061505
0.023965217 -0.09001312 -0.18770733 -0.07485638 0.09817621 -0.20227933 0.011888648 0.03247723
0.1441338 -0.04774972 -0.09378585 -0.082582876 -0.09337761 -0.30559108 0.26291654 0.042941738
-0.04730068 -0.19938493 0.022990642 0.17948748 -0.13217343 -0.20749551 0.056260698 -0.20333262
0.28850424 -0.08484894 0.12134874 0.11802748 0.25976232 -0.22739445 -0.19277498 -0.061716016
0.13718706 -0.08160307 0.18682988 -0.038279984 0.15928619 -0.02644571 0.31089312 -0.07788364
0.084852256 -0.17991672 0.26131073 0.07347843 -0.102025986 -0.28098637 0.054302208 -0.14038585
0.02400566 -0.33399937 0.37549594 -0.03171448 3.9331677e-05 0.15317844 -0.2341132 -0.15617308
0.23798971 -0.04009708 -0.023726497 0.34978345 0.15534772 -0.077334546 -0.2503934 -0.2702744
-0.008999758 -0.30204773 0.09772131 0.14755413 -0.29700077 0.17486854 -0.06588466 0.22480552
0.15195929 -0.08754491 0.057993602 -0.0010270956 -0.065514594 -0.018312061 -0.026838198 0.11239865
-0.029031774 -0.13113551 0.067462586 -0.0036593832 0.111578174 -0.14068514 -0.059220344 -0.05375281
-0.06992144 -0.07889336 -0.11382755 0.13652107 0.22499591 0.16502225 -0.13714005 -0.1555792
0.0014846511 -0.01791627 0.08104777 -0.19096653 -0.050465737 0.026646158 -0.07755963 -0.16337997
-0.10366232 0.018969554 -0.08171701 -0.16149215 0.073918685 0.010079446 -0.06300875 0.13758396
-0.20078652 0.10120844 0.08491255 0.12310352 -0.06696277 -0.11107132 -0.007163806 -0.10615404
-0.05057512 0.016326018 0.2284731 0.024606004 -0.09514172 -0.07030275 0.026350157 0.064808935
-0.08281166 0.19903752 -0.016548924 0.050753605 -0.10185849 0.10732707 -0.03350836 -0.11980634
-0.09797629 0.11424228 0.0023115447 0.047559794 -0.055047046 -0.124587804 0.064847484 -0.13875435
-0.10267638 -0.05553268 0.0010427315 0.10487344 -0.07468631 -0.043500703 0.09967046 0.048998803
0.056066968 -0.018871723 -0.031109506 -0.02370571 -0.06846028 0.07310004 -0.031369273 -0.007637175
0.064471 -0.007851841 0.022112748 0.14874786 0.016561318 -0.0051046535 -0.16242976 -0.08910371
-0.13260248 0.11177575 -0.022444686 0.06046071 -0.028631492 -0.01895498 -0.04593628 -0.047652926
-0.1144651 -0.03958883 0.06913055 0.037044622 -0.060487498 -0.13241656 0.0043646498 -0.185175
-0.057618544 0.095382534 0.0037353362 -0.056020975 0.019007824 0.084073864 -0.030599734 0.06346309
-0.113721244 -0.0125806285 0.06916299 -0.030756785 0.0051299413 0.03279203 -0.0816094 0.061380576
0.079203054 -0.0075818873 0.051858027 0.00722322 0.070779644 -0.110265225 -0.03368766 0.0008714958
-0.024817256 0.088735916 -0.17168324 0.16116703 -0.116846465 0.29594144 -0.041625064 0.06528903
-0.034379955 -0.147576 -0.1580202 0.07872837 -0.087064326 0.023367114 0.0135731455 0.03316066
0.02399219 0.22984353 -0.17578022 -0.022473304 0.09239188 -0.09823366 -0.017235642 0.09464278
00000000: 0fe0 74bd a22b 0d3d 8e80 8cbb f108 cdbb
00000010: 1fe3 59be 72ed 693c 7020 b4bd 6b7c 8ebd
00000020: 9920 09bd 0dfd 10bc add3 d1bd 2b71 46be
00000030: 1295 24bd 6664 523d 1933 0f3e 63e5 853d
00000040: c498 003e f2b7 64ba fc61 24be 98fe de3b
00000050: 6de4 dabd 8485 6a3d 1f45 64be 086e 4dbe
00000060: b452 c43c cc58 b8bd 5a36 40be 4d4e 99bd
00000070: 9c10 c93d 5022 4fbe 9bc8 423c d806 053d
00000080: d097 133e 3695 43bd cc12 c0bd 3621 a9bd
00000090: c33c bfbd 6f76 9cbe ff9c 863e ade3 2f3d
000000a0: 5cbe 41bd 902b 4cbe df56 bc3c 91cb 373e
000000b0: 7958 07be b479 54be 9e71 663d 6d36 50be
000000c0: d4b6 933e 48c5 adbd b085 f83d 64b8 f13d
000000d0: 91ff 843e 17da 68be ce66 45be efc9 7cbd
000000e0: c47a 0c3e 831f a7bd 5550 3f3e 79cb 1cbd
000000f0: eb1b 233e aca4 d8bc 622d 9f3e 7581 9fbd
00000100: 05c7 ad3d 173c 38be 85ca 853e dc7b 963d
00000110: 00f3 d0bd 72dd 8fbe fe6b 5e3d 4fc1 0fbe
00000120: 85a7 c43c f701 abbe 0141 c03e 0be7 01bd
00000130: 11f8 2438 cfda 1c3e 5fbb 6fbe d6eb 1fbe
00000140: 93b3 733e d63c 24bd 125e c2bc d116 b33e
00000150: 7913 1f3e 9361 9ebd 9033 80be 6861 8abe
00000160: b973 13bc 00a6 9abe 1c22 c83d 6e18 173e
00000170: 7c10 98be bd10 333e 89ee 86bd 6b33 663e
00000180: 379b 1b3e bf4a b3bd b38a 6d3d 9c9f 86ba
00000190: 842c 86bd 2d03 96bc c8db dbbc 4331 e63d
000001a0: 0bd4 edbc 6348 06be d329 8a3d 43d2 6fbb
000001b0: 1983 e43d c40f 10be 0891 72bd e82b 5cbd
000001c0: f932 8fbd d892 a1bd 6b1e e9bd 2ecc 0b3e
000001d0: 5465 663e 98fb 283e 716e 0cbe 2750 1fbe
000001e0: a098 c23a 24c5 92bc 60fc a53d bb8c 43be
000001f0: 29b5 4ebd 0b49 da3c 95d7 9ebd 144d 27be
00000200: e94c d4bd 0a66 9b3c 3f5b a7bd 335e 25be
00000210: ae62 973d 4324 253c bb0a 81bd cfe2 0c3e
00000220: fb9a 4dbe 5f46 cf3d a2e6 ad3d b31d fc3d
00000230: c723 89bd 5c79 e3bd 5cbe eabb 4a67 d9bd
00000240: db27 4fbd 24be 853c daf4 693e 8892 c93c
00000250: a9d9 c2bd e3fa 8fbd 49dc d73c 8cba 843d
00000260: 2999 a9bd 7ed0 4b3e 9c91 87bc 03e3 4f3d
00000270: 2f9b d0bd 4bce db3d 1040 09bd 075d f5bd
00000280: cba7 c8bd dbf7 e93d 497d 173b 0fce 423d
00000290: 0379 61bd e427 ffbd c2ce 843d 9f15 0ebe
000002a0: fe47 d2bd 3c76 63bd 43ac 883a e3c7 d63d
000002b0: 23f5 98bd cb2d 32bd 0720 cc3d f8b2 483d
000002c0: 7aa6 653d df98 9abc 5dd9 febc 7a32 c2bc
000002d0: e734 8cbd 79b5 953d 117d 00bd 4441 fabb
000002e0: 5f09 843d 02a5 00bc cb25 b53c 5c51 183e
000002f0: 9aab 873c f044 a7bb fd53 26be 027c b6bd
00000300: f2c8 07be afea e43d ebdd b7bc a6a5 773d
00000310: 978c eabc 7947 9bbc ae27 3cbd b72f 43bd
00000320: ae6c eabd e627 22bd 5194 8d3d 1abc 173d
00000330: bdc1 77bd 3598 07be 5605 8f3b 849e 3dbe
00000340: 6c01 6cbd eb57 c33d 8bcc 743b 4076 65bd
00000350: 4cb6 9b3c eb2e ac3d 4bac fabc f0f8 813d
00000360: afe6 e8bd fb1e 4ebc 53a5 8d3d a7f5 fbbc
00000370: 1119 a83b f050 063d d422 a7bd 336a 7b3d
00000380: 3635 a23d 7b71 f8bb 1569 543d c3b0 ec3b
00000390: ebf4 903d bcd2 e1bd 12fc 09bd 1875 643a
000003a0: 8f4d cbbc 2dbb b53d bbcd 2fbe f808 253e
000003b0: 334d efbd a385 973e 0b7f 2abd 41b6 853d
000003c0: ffd1 0cbd 2a1e 17be 0cd0 21be 573c a13d
000003d0: c84e b2bd 646c bf3c e661 5e3c 79d3 073d
000003e0: 458b c43c 1a5c 6b3e bbff 33be ef19 b8bc
000003f0: f437 bd3d bb2e c9bd c331 8dbc 13d4 c13d

output.bias f4 [100]
0.09462297 -0.16918126 -0.24517792 -0.15377207 0.17585309 0.04867923 -0.1965417 0.5034277
0.0045375605 0.16169956 0.4899406 -0.026427357 -0.37278557 0.27825594 0.19100475 0.36245328
-0.4487004 -0.10647216 0.16438694 0.19077395 -0.22336893 -0.0376059 0.1792929 0.39224985
-0.07887762 -0.60173404 0.3650835 0.5497106 0.29818448 0.08354319 0.109681286 0.081415266
0.5802166 -0.5756828 0.2350523 0.31884173 0.1359454 0.7005965 -0.8502573 -0.030230131
0.18985769 0.37150392 0.2981477 -0.81746864 0.42687222 -0.10510851 -0.22186176 0.3229464
-0.32306197 -0.22220638 0.26868537 0.015365088 -0.98428315 0.087852 0.051474046 0.36995995
-0.38632306 -0.090637304 -0.9674393 0.06833223 -0.13078843 0.0814139 0.22353701 -0.33587915
-0.42762676 -0.031619865 0.25675893 -0.039666623 -0.38715288 -0.2699935 -0.3143357 0.39996922
0.7618343 -0.71018666 0.27789903 0.252344 -0.26318654 -0.37347203 0.10250279 0.48026037
0.32024142 -0.3607036 -0.1093841 0.51165956 -0.19519885 0.36444956 0.275257 -0.8390449
-0.033286877 0.17180209 -0.03275911 -0.021009425 0.47419724 -0.047610044 -0.8876321 0.16210353
0.2583511 0.31435862 0.5182485 -0.73622954
00000000: b0c9 c13d da3d 2dbe ec0f 7bbe 6d76 1dbe
00000010: d512 343e df63 473d 3a42 49be a3e0 003f
00000020: d1af 943b 9294 253e 7fd9 fa3e 2f7e d8bc
00000030: c0dd bebe 9077 8e3e c096 433e 7a93 b93e
00000040: 0fbc e5be 130e dabd 0d55 283e 3f5a 433e
00000050: d3ba 64be a508 1abd 8f98 373e f9d4 c83e
00000060: 978a a1bd 3e0b 1abf 39ec ba3e d5b9 0c3f
00000070: a3ab 983e b118 ab3d 95a0 e03d 0cbd a63d
00000080: 1389 143f f35f 13bf 8db1 703e 393f a33e
00000090: 4535 0b3e 4b5a 333f 76aa 59bf 2ea5 f7bc
000000a0: 0e6a 423e c335 be3e d1a6 983e a045 51bf
000000b0: ff8e da3e 2143 d7bd bb2f 63be 3b59 a53e
000000c0: 6168 a5be 128a 63be 2191 893e dabd 7b3c
000000d0: fbf9 7bbf c0eb b33d 73d6 523d 646b bd3e
000000e0: 23cc c5be 0da0 b9bd 1aaa 77bf c5f1 8b3d
000000f0: 67ed 05be 55bc a63d e3e6 643e 5af8 abbe
00000100: e5f1 dabe d583 01bd e875 833e 7879 22bd
00000110: e738 c6be 973c 8abe 9cf0 a0be c4c8 cc3e
00000120: 9307 433f cbce 35bf c848 8e3e 3c33 813e
00000130: 63c0 86be ba37 bfbe fcec d13d b0e4 f53e
00000140: aff6 a33e 24ae b8be c504 e0bd 1ffc 023f
00000150: 35e2 47be 2299 ba3e 7cee 8c3e a6cb 56bf
00000160: d257 08bd e3ec 2f3e 6b2e 06bd f51b acbc
00000170: fbc9 f23e c002 43bd db3b 63bf 78fe 253e
00000180: 9846 843e 9df3 a03e efab 043f 8a79 3cbf
