code/development/models/best_model_005.pth (torch, 485621 bytes, 8 tensors)

conv1.weight f4 [1, 1, 5, 3]
0	0xbe3ff992	-0.18747547
1	0x3ef469b8	0.47736907
2	0x3e36ae3f	0.17839907
3	0xbe0b8abd	-0.13627143
4	0x3e1f25ba	0.15541735
5	0x3cfe2872	0.031025145
6	0x3daab618	0.08335513
7	0x3e9b386b	0.3031648
8	0x3eb26cfe	0.3484878
9	0xbe710c37	-0.23539816
10	0xbe6349a3	-0.22196059
11	0x3bd0e3ff	0.0063748355
12	0xbe6f64e9	-0.23378338
13	0xbe827d84	-0.25486386
14	0xbda37215	-0.07980744

conv2.weight f4 [1, 1, 3, 3]
0	0x3d612650	0.05496818
1	0xbee6df01	-0.45092013
2	0x3dd153ef	0.10221087
3	0xbb774f72	-0.0037736562
4	0xbe971faa	-0.29516345
5	0xbdb8ee77	-0.090298586
6	0x3f1548bd	0.58314115
7	0x3ed4ec7f	0.41586682
8	0xbe4fdb93	-0.20298605

linear1.weight f4 [128, 900]
0	0x3d30c595	0.04315718
1	0xbb914b43	-0.0044340207
2	0x3ae0a6a3	0.0017139505
3	0x3ccaa2d5	0.024735847
4	0xbd65ca79	-0.056101296
5	0xbd38f20e	-0.045152716
6	0x3cac05ae	0.020998802
7	0xbc268335	-0.010163118
8	0xbcb295d4	-0.02179996
9	0x3af18a01	0.0018427969
10	0xbd0f5479	-0.03499267
11	0x3ce19039	0.027534591
12	0x3ca936b0	0.02065596
13	0x3c882a4f	0.016621737
14	0x3d257f7e	0.04040479
15	0x3d058b01	0.032603268
16	0x3cce901c	0.025215201
17	0x3d74a2c7	0.05972555
18	0x3a99418e	0.001169251
19	0xbdc316ff	-0.095258705
20	0xb98efe3d	-0.00027273773
21	0xbc58c16c	-0.013229709
22	0x3b37379a	0.0027956725
23	0x3da2242d	0.07917056
24	0xbd02fdfc	-0.0319805
25	0xbcc4a736	-0.024005514
26	0x3d541368	0.05177632
27	0x3b04300e	0.0020170244
28	0xbd8484e8	-0.06470662
29	0xbd162f6d	-0.036666322
30	0x3d1529d1	0.036416832
31	0x3d3a6fdc	0.045516834
32	0xbc6dd090	-0.014515057
33	0xbc95163e	-0.018199082
34	0xbb7e48e6	-0.0038800775
35	0x3d4a5a49	0.04940251
36	0x3cd72ac9	0.026265519
37	0xba524b07	-0.0008022044
38	0x3d2c6df5	0.04209705
39	0x3d3d5994	0.046228006
40	0xbcb6d4a0	-0.022318184
41	0x3ccfb0d3	0.025352871
42	0xbd263472	-0.04057736
43	0x3ce7d1cd	0.028298283
44	0xbcc955df	-0.02457708
45	0x3ced0333	0.02893219
46	0x3d7031d3	0.058641266
47	0xbd50955c	-0.05092369
48	0x3ccd8cfe	0.025091644
49	0x3c0c9db2	0.008582519
50	0x3d1c3898	0.03813991
51	0x3ced1aee	0.028943505
52	0x3d3636eb	0.044485968
53	0x3c80a5b3	0.015704012
54	0xbca5a5c4	-0.020220645
55	0x3d6e96e9	0.058249388
56	0xbcc3607f	-0.023849724
57	0x3bbe29b6	0.005803312
58	0x3d393268	0.045214087
59	0x3bfdf8b6	0.007750596
60	0x3ad3050e	0.0016099529
61	0x3d5bb6bc	0.053641066
62	0xbb2b263c	-0.0026115319
63	0x3c2647a3	0.010148915
64	0x3b8414c1	0.0040307944
65	0xbbfab330	-0.0076507553
66	0x3d7bfc4e	0.061519913
67	0x3d6ee693	0.05832536
68	0x3d64ca81	0.055857185
69	0x3c9bd32a	0.01902159
70	0x3d1b0381	0.03784514
71	0x3d038b5b	0.03211532
72	0x3d88c5e0	0.06678367
73	0x3c0be606	0.008538729
74	0x3916cd92	0.00014381696
75	0x3bbf131f	0.005831137
76	0xbd2db4a1	-0.04240859
77	0x3d02e170	0.031953275
78	0x3c0f452d	0.00874452
79	0xbd33b268	-0.043871313
80	0x3d4a304e	0.049362473
81	0x3cd19540	0.025583863
82	0xbccba8a8	-0.024860695
83	0xbd04d6b6	-0.032431327
84	0xbba910d6	-0.0051594777
85	0xbd95bae0	-0.07311034
86	0x3d8485c0	0.06470823
87	0xbd0cb8aa	-0.034355797
88	0x3a92692b	0.0011170259
89	0x3cf765e2	0.030199949
90	0xbb944917	-0.0045253146
91	0xbd0790b8	-0.033097
92	0x3c572d77	0.013133398
93	0x3d659469	0.056049738
94	0xbd76de5c	-0.060270652
95	0x3cbc71c6	0.02300347
96	0xba1eb305	-0.00060538977
97	0x3d0ce0b9	0.034394
98	0x3ccb2688	0.024798647
99	0xbbb93f79	-0.0056533185
100	0x3a2e17fd	0.0006641148
101	0x3bf96893	0.007611343
102	0x3b8e61ff	0.004345178
103	0x3c8275e0	0.015925348
104	0x38f78029	0.000118017495
105	0x3cf17dd0	0.029478937
106	0xbc0a4ed2	-0.008441644
107	0x3d6eecb4	0.058331206
108	0x3cc55244	0.024087079
109	0x3d5ee10f	0.05441385
110	0xbd176153	-0.03695805
111	0xbae15e90	-0.001719432
112	0xbb8e5343	-0.0043434217
113	0xbca34ad6	-0.019933145
114	0x3c87fe05	0.016600618
115	0xbc6a88f2	-0.014314877
116	0x3cf617c3	0.030040627
117	0x3c401b3d	0.011725244
118	0xbb279b16	-0.0025574616
119	0x3d01d682	0.03169871
120	0xbc4c470e	-0.012468113
121	0x3b4c402f	0.0031166186
122	0xbd166084	-0.03671314
123	0x3c0513a7	0.008122361
124	0x3c24b7cc	0.010053586
125	0x3c0db4dc	0.008649077
126	0x3d333521	0.04375184
127	0x3c610182	0.01373327
128	0x393f6b4b	0.00018255149
129	0x3c2ecac3	0.010668459
130	0xbcaab8b7	-0.020840032
131	0xbc895357	-0.016763372
132	0x3c991cb0	0.018690437
133	0x3a46a5d8	0.0007577813
134	0x3d7104af	0.058842357
135	0x3c7caaef	0.015421613
136	0x3ca23e70	0.019805163
137	0xbce8bca7	-0.028410269
138	0xbcf1c9bd	-0.029515142
139	0xbdad4062	-0.08459546
140	0x3da8c75a	0.08241148
141	0x3cc9a53d	0.024614925
142	0x3c87e262	0.01658744
143	0x3b922790	0.0044602826
144	0x3d895b95	0.06706921
145	0x3d0db933	0.034600448
146	0x3a40c8ce	0.0007354141
147	0xbd2ea57e	-0.042638294
148	0xbc28216f	-0.010261877
149	0xbcab6bb0	-0.020925373
150	0xbccaf7fe	-0.024776455
151	0xbd0f56c0	-0.03499484
152	0x3c3fce98	0.011706971
153	0x3cddab86	0.027059328
154	0x3c1b95b2	0.009496139
155	0xbcd4ad29	-0.025961475
156	0xbb9db3f9	-0.004812714
157	0x3ce80c17	0.028326077
158	0xbb06332f	-0.0020477285
159	0xbda9b06f	-0.08285605
160	0xbcc3249f	-0.023821173
161	0x3d9af417	0.07566088
162	0x3d084fa9	0.033279095
163	0xbce929be	-0.028462287
164	0x3c34ed7d	0.01104295
165	0xba6b2f3a	-0.0008971576
166	0xbd3e81cc	-0.046510503
167	0x3d60b8c1	0.054863695
168	0xbd1c73ba	-0.038196303
169	0x3cdc8344	0.026918061
170	0xbd2728d1	-0.04081041
171	0xbd3512cd	-0.044207383
172	0xbcb497e6	-0.022045087
173	0xbd05e1a2	-0.032685883
174	0x3b2c955d	0.0026334145
175	0xbd179183	-0.037004005
176	0xbcf78523	-0.030214852
177	0x3cfd326a	0.030907828
178	0x3d115db8	0.035489768
179	0xbd080609	-0.03320888
180	0x3d3c8f70	0.04603523
181	0x3c8592b0	0.016305298
182	0x3c88bf8a	0.016692895
183	0xbb858dd3	-0.0040757447
184	0xbccecfbe	-0.025245544
185	0xbc3c456e	-0.011491163
186	0x3c90851b	0.017641595
187	0xbc0bbc08	-0.008528717
188	0xbca50002	-0.020141605
189	0xbced52ee	-0.028970208
190	0xbd809978	-0.06279272
191	0xbc8a7c3c	-0.016904943
192	0x3c8da5ea	0.017291028
193	0x3c23a544	0.009988133
194	0x3d7f8935	0.06238671
195	0xbbfc41f4	-0.007698292
196	0xbca872a9	-0.020562487
197	0x3b9a9ac2	0.0047181556
198	0x3d832aa8	0.064046204
199	0xbd028175	-0.03186174
200	0x3cb264b9	0.021776544
201	0xbcdae874	-0.02672217
202	0x3d0c4eb5	0.03425475
203	0x3d053bdc	0.03252779
204	0x3c26be20	0.010177165
205	0x3cfb3d4b	0.030668875
206	0x3ccf24b6	0.02528606
207	0xbb167a70	-0.0022961162
208	0xbb862300	-0.004093528
209	0x3d75de69	0.06002656
210	0xba17d326	-0.00057916564
211	0xbcc65f74	-0.024215437
212	0x3c0d646b	0.008629899
213	0xbd5bc764	-0.05365695
214	0x3d69a2fc	0.0570402
215	0xbcf451fa	-0.029824246
216	0x3cbf2c5a	0.023336578
217	0xbbec4816	-0.0072107418
218	0xbc5f57d2	-0.013631778
219	0xbc8f9f05	-0.017531881
220	0xbcfa418f	-0.030548839
221	0x3ab86189	0.0014067154
222	0x3d14b708	0.036307365
223	0x3d1cadfe	0.03825187
224	0xbc4c3b88	-0.012465365
225	0x3c1e963c	0.009679373
226	0xbc76f6ac	-0.01507346
227	0x3b10fa19	0.0022121726
228	0x3b8b1283	0.00424415
229	0x3d19d9ec	0.037561342
230	0xbcf5185b	-0.02991884
231	0x3d42dbb4	0.047572806
232	0x3c14ca47	0.00908143
233	0x3cde3831	0.027126404
234	0x3d2769e2	0.040872462
235	0xbceaeabb	-0.028676381
236	0x3c4d7774	0.012540687
237	0xbc522d4a	-0.012828181
238	0xbce66259	-0.028123068
239	0x3d694237	0.056947913
240	0x3afc4ef2	0.0019249602
241	0x3c8d7f71	0.017272683
242	0x3d10dc37	0.035366263
243	0x3d164015	0.036682207
244	0x3c61bd24	0.013778005
245	0x3c6d6eb6	0.014491728
246	0xbd0d685c	-0.034523353
247	0xbd9ddcb6	-0.07708113
248	0xbd3f939b	-0.046771627
249	0xbd52d571	-0.051473085
250	0xbc4c7662	-0.012479397
251	0xbc1246d4	-0.00892802
252	0xbce6d1f0	-0.028176278
253	0xbbbc7bd5	-0.0057520666
254	0xbc204a70	-0.009783372
255	0xbc207be8	-0.009795167

linear1.bias f4 [128]
0	0xbcfaee94	-0.030631341
1	0xbe1e409b	-0.15454333
2	0x3dabad8e	0.08382712
3	0xbe25056f	-0.16115354
4	0xb9922e10	-0.0002788161
5	0x3db2e516	0.08735101
6	0x3ca6571b	0.020305207
7	0x3db959bd	0.09050319
8	0x3c8fa446	0.017534386
9	0x3ca5e64e	0.02025142
10	0x3d0f867d	0.035040367
11	0xbe2ecaf9	-0.17069615
12	0x3d9cb558	0.07651776
13	0x3dc0cd55	0.09414164
14	0x3e99278e	0.2991299
15	0x3d5afde9	0.053464804
16	0x3d8fee6d	0.07027898
17	0xbd197605	-0.037466068
18	0x3dec161d	0.11527655
19	0xbe9cace0	-0.30600643
20	0xbd7f7b72	-0.062373586
21	0x3c7a4ccc	0.015277099
22	0xbd6143d0	-0.05499631
23	0x3d80ff8d	0.062987424
24	0xbe4a4f17	-0.19756733
25	0x3e810f0e	0.25206798
26	0xbe931531	-0.28727105
27	0x3db15dc7	0.08660465
28	0x3def29fe	0.11677931
29	0xbddd3444	-0.108009845
30	0x3d704385	0.05865814
31	0x3e22d6d9	0.1590227
32	0x3df1ca5a	0.118061736
33	0xbc040c33	-0.008059549
34	0x3dffa2e5	0.124822415
35	0xbe364833	-0.1780098
36	0x3e18b2ed	0.14912005
37	0xbd503346	-0.05083015
38	0xbd1c574c	-0.03816919
39	0xbd201a84	-0.039087787
40	0xbd92c438	-0.07166332
41	0xbe5a52ec	-0.21320695
42	0x3e87678a	0.26446182
43	0x3e19d6bb	0.1502332
44	0xbd3e229f	-0.046419736
45	0xbe34ca94	-0.17655402
46	0x3e130618	0.14357793
47	0xbdea9001	-0.11453248
48	0x3e2d4dfd	0.16924281
49	0xbd1d2f15	-0.03837498
50	0xbde88407	-0.11353307
51	0x3c78bd35	0.015181829
52	0x3dc415e6	0.09574489
53	0x3d23fb6a	0.04003469
54	0x3dc025f8	0.09382242
55	0xbe04ef45	-0.12981899
56	0x3dec6c48	0.115440905
57	0x3d04d1ac	0.03242652
58	0xbd4b8179	-0.04968402
59	0xbdefcd2e	-0.11709057
60	0x3c420545	0.011842077
61	0xbe3baa3c	-0.18326658
62	0xbddb8ab9	-0.107198186
63	0x3d588e44	0.05287005
64	0x3d907715	0.07053963
65	0x3d55096c	0.05201094
66	0x3caa0c8a	0.020757932
67	0x3d63d076	0.055618726
68	0x3bc12ed8	0.005895477
69	0x3e0a6153	0.13513689
70	0x3c8d6ffa	0.017265309
71	0x3d3a272a	0.045447506
72	0x3db74b26	0.0894988
73	0x3d36effd	0.044662464
74	0xbd9838bc	-0.07432696
75	0xbd6cdb1b	-0.057826143
76	0xbd3899ea	-0.04506866
77	0xbe3954d9	-0.18098773
78	0xbdf38ffd	-0.11892698
79	0x3e1da086	0.15393266
80	0xbdbd5839	-0.09245343
81	0xbcbb8a34	-0.022893049
82	0xbda5284f	-0.08064329
83	0x3d38dae4	0.045130625
84	0xbd47522d	-0.048662353
85	0xbdbe5a6d	-0.09294591
86	0xbdd800f0	-0.10547054
87	0xbbf30b32	-0.007417106
88	0xbe40510b	-0.18780915
89	0xbddc4938	-0.10756153
90	0xbd702a0a	-0.05863384
91	0x3c6a7532	0.014310168
92	0x3e27e6a6	0.16396579
93	0x3de796e8	0.1130808
94	0xbd792491	-0.060825888
95	0xbe190f4f	-0.14947246
96	0xbd283270	-0.041063726
97	0xbc6b464f	-0.014360025
98	0x3d51d0ca	0.051224507
99	0x3e2ee781	0.17080499
100	0xbda98358	-0.08277005
101	0xbd62ebf3	-0.0554008
102	0xbe697e74	-0.22802144
103	0xbd8941e6	-0.06702022
104	0x3c17782a	0.009244958
105	0xbd9fdb38	-0.078054845
106	0xbe40d73b	-0.18832104
107	0x3d2caf6a	0.042159475
108	0xbe26e7b1	-0.16299321
109	0xbd566b35	-0.052348334
110	0xbbe9bc17	-0.0071330178
111	0xbbe76cfc	-0.0070625525
112	0xbdfa062b	-0.12208208
113	0xbd030fd0	-0.0319975
114	0xbd3cab21	-0.04606164
115	0x3e6d8785	0.23196228
116	0x3d283ca5	0.04107346
117	0xbd75ba1e	-0.05999195
118	0xbc58e9b2	-0.013239311
119	0x3e13175b	0.14364378
120	0x3e0105c3	0.12599854
121	0xbc9fce91	-0.019507678
122	0xbe3b1335	-0.18269046
123	0xbd90c7dd	-0.07069371
124	0xbd9401d6	-0.07226913
125	0x3e221089	0.1582662
126	0x3c3a42cf	0.0113684675
127	0x3e2970ef	0.16546987

linear2.weight f4 [32, 128]
0	0x3da51480	0.08060551
1	0x3bf43f47	0.0074538323
2	0x3c263169	0.010143616
3	0x3dd712ce	0.105016336
4	0x3d8307e8	0.06397992
5	0xbca3bf03	-0.019988542
6	0x3d24f6d6	0.040274464
7	0x3c1305ff	0.008973598
8	0x3d03b7ad	0.03215759
9	0x3d71292a	0.058877148
10	0xbd1449f2	-0.036203332
11	0xbb58f830	-0.0033106916
12	0xbc8f4494	-0.017488755
13	0xbcb65c9b	-0.022260955
14	0x3d738442	0.059452303
15	0x3da1f3d2	0.07907833
16	0xbbbec89d	-0.005822255
17	0xbd159ecf	-0.036528405
18	0xbcf2525c	-0.029580288
19	0xbced8617	-0.028994603
20	0xbd07bac5	-0.0331371
21	0x3d95a69f	0.07307171
22	0xbd3c7cc4	-0.046017423
23	0xbc7ab9d3	-0.015303093
24	0xbd83712c	-0.0641807
25	0x3c76ff1c	0.015075471
26	0xbd6df347	-0.058093335
27	0x3d031454	0.03200181
28	0x3c890bc7	0.016729249
29	0xbd442218	-0.047884077
30	0xbc163184	-0.009167079
31	0x3d4669e6	0.048440836
32	0xbc57fa95	-0.013182302
33	0xbd174a7b	-0.036936264
34	0xbdba8531	-0.091074355
35	0x3bfe5227	0.007761258
36	0xbca8fc05	-0.020627985
37	0x3c078426	0.008271253
38	0x3d9b6c99	0.07589073
39	0xbdbf8441	-0.09351397
40	0xbd1ef7a2	-0.03881038
41	0x3c2687c0	0.010164201
42	0xbb70a2b0	-0.0036718063
43	0x3d0ec044	0.034851328
44	0x3d964ef4	0.07339278
45	0xbd9388ca	-0.07203825
46	0xbd82a6ce	-0.06379472
47	0xba190d3a	-0.0005838458
48	0xbd7974c9	-0.06090239
49	0x3d4ce158	0.050019592
50	0xbd74ad4f	-0.059735592
51	0x3dc6d30f	0.09708225
52	0x3dc33d4e	0.09533177
53	0xbd783305	-0.06059553
54	0xbb20684a	-0.0024476224
55	0xbd8cefed	-0.068817
56	0x3cecb785	0.028896103
57	0xbd99a200	-0.07501602
58	0x3dbdfa98	0.092763126
59	0xbdb7ec5e	-0.0898063
60	0x3cceec95	0.025259295
61	0xbb6cf5c9	-0.0036157242
62	0xbd840696	-0.06446569
63	0x3d2c7183	0.04210044
64	0x3da265d9	0.07929582
65	0x3cc46044	0.023971684
66	0x3d506238	0.05087492
67	0x3db645e8	0.08900052
68	0xbb03ca6a	-0.0020109662
69	0xbc874fb6	-0.016517501
70	0x3db58ee2	0.08865143
71	0xbd5f2538	-0.054478854
72	0x3c1cde29	0.0095744515
73	0xbda01406	-0.07816319
74	0x3cdbc3d8	0.026826784
75	0x3d249823	0.04018415
76	0x3d8b1784	0.067915946
77	0xbd89e4a4	-0.06733063
78	0x3ccad0fb	0.024757853
79	0xbbba954d	-0.0056940676
80	0xbda62ca4	-0.08113983
81	0xbca67fb4	-0.020324565
82	0xbd4cebff	-0.05002975
83	0xbcac28d7	-0.021015568
84	0x3ceac5a6	0.0286587
85	0xbc8a9792	-0.016917977
86	0xbcd42bdf	-0.025899826
87	0xbd1c9d32	-0.03823585
88	0xbcc1c46b	-0.02365323
89	0x3c0ac309	0.008469352
90	0xbd65cbc1	-0.056102518
91	0x3d092b86	0.033488773
92	0xbd4a55df	-0.0493983
93	0xbd4126f6	-0.047156297
94	0x3c9792e7	0.018502666
95	0xbda936f9	-0.08262438
96	0x3da8edda	0.082484916
97	0xbc4bc9db	-0.012438263
98	0xbd27ee32	-0.040998645
99	0xbd97f59c	-0.07419893
100	0xbd4c1e2c	-0.04983346
101	0xbc8c63bb	-0.017137399
102	0xbcbaaaff	-0.022786615
103	0xbd06df2b	-0.032927673
104	0xbcfef4a7	-0.031122519
105	0xbdc1bbb7	-0.09459632
106	0x3daf4046	0.08557181
107	0xbdb8b57f	-0.09018993
108	0x3dbc7341	0.092016704
109	0x3d179c0f	0.037014063
110	0xbd6d0019	-0.05786142
111	0x3c8c9c1d	0.017164284
112	0xb9e35947	-0.0004336333
113	0x3c389ebd	0.011268315
114	0xbd0eb13c	-0.034836993
115	0xbb38dcd8	-0.0028207805
116	0x3dafc503	0.08582499
117	0x3caacc3d	0.020849342
118	0xbb8b0952	-0.0042430544
119	0xbca0f14f	-0.019646315
120	0x3c63ca49	0.013903209
121	0x3d60b1b9	0.05485699
122	0x3ca9c43e	0.020723458
123	0x3cd03b10	0.025418788
124	0xbd8f9680	-0.070111275
125	0x3da72687	0.081616454
126	0x3d442904	0.047890678
127	0x3ca00fe4	0.019538827
128	0xbcb14244	-0.021638043
129	0xbca18a71	-0.019719334
130	0x3d94f2fa	0.072729066
131	0xbce5dfba	-0.028060783
132	0xbca910b4	-0.020637847
133	0x3d128d77	0.035779443
134	0x3d83af9c	0.06429979
135	0x3b0ec70c	0.0021786122
136	0x3d8ae006	0.0678101
137	0xbcede774	-0.02904103
138	0xbbcd7537	-0.0062700766
139	0x3d718d71	0.05897278
140	0xbcfe9b5c	-0.03107994
141	0xbd80e072	-0.062928095
142	0x3ce222ef	0.027604548
143	0x3d5f90b0	0.054581344
144	0x3c10a3d4	0.008828122
145	0x3ce73747	0.0282246
146	0x3d49d167	0.049271967
147	0xbcfff4ed	-0.03124472
148	0x3d25306c	0.04032938
149	0x3b679fa0	0.0035342947
150	0xbd5557ab	-0.05208556
151	0xbd4c5aab	-0.049891155
152	0xbaf57e6e	-0.0018729696
153	0x3d380bd4	0.044933155
154	0xbdb5e8d3	-0.08882298
155	0x3c44394c	0.011976551
156	0x3c98c8e4	0.01865048
157	0xbd555bd8	-0.052089542
158	0x3d23ca67	0.039987948
159	0xbc552df7	-0.013011447
160	0xbccf0db5	-0.02527509
161	0xbca02686	-0.01954962
162	0xbc8b1958	-0.016979858
163	0xbd195958	-0.03743872
164	0xbd53ff3b	-0.05175708
165	0xbd974b92	-0.07387461
166	0x3bf4091c	0.007447375
167	0x3daebc2d	0.085319854
168	0x3c8687ed	0.016422236
169	0xbd045171	-0.03230423
170	0x3cb71fee	0.022354092
171	0xbce9df3b	-0.028548827
172	0xbda3970d	-0.07987795
173	0x3d8b4ef7	0.06802171
174	0x3ce70e76	0.028205138
175	0xbda73ae7	-0.081655316
176	0xbc89ebba	-0.016836036
177	0x3da7199b	0.08159181
178	0xbcc6b2df	-0.024255214
179	0x3d6222cf	0.055208977
180	0xbd8daf21	-0.06918169
181	0xbcfba717	-0.030719323
182	0xbd050346	-0.032473825
183	0x3d56abce	0.05240994
184	0x3d963159	0.07333631
185	0xbcf56ed8	-0.029960081
186	0xbd0869cd	-0.033304024
187	0x3d2d0420	0.042240262
188	0xbb33b25e	-0.0027419548
189	0x3d4796a7	0.048727658
190	0xbd05fef8	-0.03271386
191	0x3d7c041a	0.06152735
192	0x3c2412a7	0.010014213
193	0xbc9045a6	-0.017611336
194	0x3ccb8529	0.02484377
195	0x3d9c072a	0.07618554
196	0x3d6f21cf	0.05838185
197	0xbc98d6ea	-0.018657167
198	0x3db149b5	0.086566366
199	0xbd84e16e	-0.0648831
200	0xbd59f4e5	-0.053212065
201	0x3dbc8994	0.092059284
202	0x3c6abe0b	0.014327536
203	0x3d30e6cb	0.04318885
204	0x3d53ec37	0.051738944
205	0x3d1d589d	0.038414586
206	0x3d4f45e9	0.05060378
207	0x3d29a47a	0.041416623
208	0x3d504d76	0.050855123
209	0xbd557d0d	-0.05212121
210	0x3ab7b9db	0.0014017181
211	0x3bc00270	0.0058596656
212	0x3d2a2197	0.04153594
213	0xbc610b0a	-0.013735542
214	0xbd8b418b	-0.06799611
215	0xbd96d29a	-0.07364388
216	0xbd6830bd	-0.056687105
217	0xbd3670fa	-0.044541337
218	0xbd5b1be3	-0.05349339
219	0x3db553d2	0.08853878
220	0xbc5c994b	-0.013464282
221	0x3da596d1	0.080854066
222	0x3c9246c3	0.017856007
223	0x3d8a2ed1	0.06747211
224	0x3cf1118f	0.029427318
225	0xbc71ee38	-0.014766268
226	0x3d94fc65	0.07274703
227	0x3d26c81c	0.040718183
228	0x3d514d5a	0.05109916
229	0xbb9d11af	-0.004793368
230	0x3cbfdc84	0.02342058
231	0x3d2d2e95	0.042280752
232	0xbd21a69b	-0.039465528
233	0xbbc374bd	-0.005964844
234	0xbd92cf01	-0.07168389
235	0x3c175b01	0.009238006
236	0x3a285534	0.00064213877
237	0x3d434194	0.047669962
238	0x3d0d2ab1	0.03446454
239	0xbcc4388b	-0.023952743
240	0x3cf867fa	0.030323017
241	0x3d5c0147	0.053712156
242	0xbd3fc435	-0.046817977
243	0x3cfffff7	0.031249983
244	0x3ce74be6	0.028234433
245	0xbcb33894	-0.021877564
246	0xbd15d496	-0.03657969
247	0x3d957d2e	0.07299267
248	0x3da663e9	0.08124525
249	0x3c190d3b	0.009341533
250	0xbd96073e	-0.073256
251	0xbb98286e	-0.0046434915
252	0xbd4c0b9a	-0.04981575
253	0x3c459f28	0.012061872
254	0x3bc10184	0.0058900733
255	0x3cfa6f48	0.030570641

linear2.bias f4 [32]
0	0x3ea23b73	0.3168598
1	0x3e9797ec	0.29608095
2	0x3f3bef24	0.73411775
3	0xbdeea3ca	-0.11652334
4	0x3f9a5100	1.2055969
5	0x3f0bbda5	0.5458625
6	0xbf1ddd8d	-0.61666185
7	0x3ee3b8b7	0.44476864
8	0xbe16c102	-0.14722064
9	0x3ea157e2	0.31512362
10	0x3f5a5fab	0.8530223
11	0x3ef2238d	0.47292748
12	0xbde3a307	-0.111150794
13	0x3eb8e85b	0.36114773
14	0xbe9f04f6	-0.31058472
15	0xbdf73092	-0.12069811
16	0xbe57a608	-0.2105943
17	0xbe35dfd7	-0.1776117
18	0xbf460e08	-0.7736516
19	0xbefda0ca	-0.49536735
20	0xbf3e336e	-0.74297225
21	0xbbeb90f6	-0.0071889115
22	0xbeaee5a8	-0.3415959
23	0xbdd3e020	-0.10345483
24	0xbf5d52ef	-0.8645467
25	0x3f344ee0	0.70432854
26	0x3e5a8579	0.21339978
27	0x3c688ae3	0.014193269
28	0x3e823dfc	0.25437915
29	0x3ee5f2b2	0.44911724
30	0x3f752ad3	0.9576847
31	0x3f2f33b7	0.68438286

output.weight f4 [25, 32]
0	0xbd1dfb4e	-0.03856974
1	0xbdfc047f	-0.12305545
2	0xbe1962c7	-0.14979087
3	0x3ddcf590	0.10789025
4	0xbe3ba9d1	-0.18326499
5	0xbe09d8e7	-0.13461648
6	0xbd90e74d	-0.07075367
7	0x3df52e95	0.119717754
8	0x3d90e2fe	0.07074545
9	0x3db76f47	0.08956771
10	0xbd4bdbd0	-0.049770176
11	0x3c5e9283	0.013584736
12	0x3d9659a5	0.07341317
13	0xbdaf66d8	-0.08564538
14	0x3cea440e	0.028596904
15	0x3daf22e5	0.085515775
16	0x3d01230e	0.03152757
17	0x3d8e3007	0.06942754
18	0xbc42f35b	-0.011898841
19	0x3e1f0fc6	0.15533361
20	0xbc09c5a9	-0.008408942
21	0x3d19a63e	0.037512057
22	0x3d797d8f	0.060910758
23	0xbd686702	-0.05673886
24	0x3c8f6c72	0.017507765
25	0xbe068c77	-0.1313952
26	0x3deb8ee8	0.115018666
27	0x3d2e9715	0.04262455
28	0xbe283860	-0.16427755
29	0xbe1323ba	-0.14369097
30	0xbd1d5fc5	-0.03842141
31	0xbe2b2cc1	-0.16716291
32	0x3e053de5	0.13011892
33	0xbd6d5e5a	-0.05795131
34	0x3ccd0998	0.025028989
35	0xbccf61d7	-0.025315208
36	0x3dfcc698	0.12342566
37	0x3dc2c162	0.09509541
38	0xbe317598	-0.17330015
39	0x3df59beb	0.119926296
40	0xbd6525e6	-0.055944346
41	0xbdca8d28	-0.09890205
42	0x3bbccdb1	0.005761825
43	0xbd3a151e	-0.045430295
44	0x3a82cb02	0.0009978714
45	0x3e042c26	0.12907466
46	0x3d94b490	0.07261002
47	0xbdf6e08d	-0.120545484
48	0xbdbef7fb	-0.09324642
49	0xbe32bff1	-0.17456032
50	0xbd7600db	-0.06005941
51	0xbcdca35a	-0.02693336
52	0x3d0754c1	0.033039812
53	0xbd51b5d7	-0.051198807
54	0x3cf2399a	0.029568482
55	0x3d311aad	0.04323833
56	0x3da737a1	0.08164907
57	0xbc06124a	-0.008183071
58	0x3da4f669	0.080548115
59	0x3e2d4418	0.16920507
60	0x3b38dec5	0.0028208953
61	0x3c7d557d	0.0154622765
62	0xbdc99dbe	-0.0984454
63	0x3d280eef	0.041029867
64	0x3d8a43e8	0.06751233
65	0x3d905dfa	0.070491746
66	0x3ce14658	0.027499363
67	0x3dba6120	0.091005564
68	0x3dc6ac48	0.09700829
69	0xbd67edb5	-0.05662318
70	0xbe501c21	-0.2032323
71	0x3d77b312	0.06047351
72	0xbde32b0a	-0.110921934
73	0xbd4f466c	-0.05060427
74	0x3d8541bb	0.06506678
75	0x3e192509	0.14955534
76	0xbd69f4e7	-0.057118323
77	0x3dc5cc63	0.09658124
78	0xbe184c7e	-0.1487293
79	0xbdbbfbbe	-0.091788754
80	0xbd8452ae	-0.064610824
81	0x3d8ec665	0.069714345
82	0xbdce434a	-0.10071428
83	0xbd3f8e18	-0.04676637
84	0xbd8ea426	-0.069649026
85	0x3ded716c	0.11593899
86	0x3caba1fa	0.02095126
87	0xbb8147a7	-0.003945309
88	0xbd826930	-0.06367719
89	0x3d30a205	0.043123264
90	0xbc40f89d	-0.011778024
91	0x3aec25ce	0.0018016638
92	0x3e3c001c	0.18359417
93	0x3e2ebd90	0.170645
94	0x3e8cc2a8	0.2749226
95	0x3ce24e99	0.027625369
96	0xbc4ee8e9	-0.012628772
97	0xbd39d8fc	-0.045372948
98	0xbe36aac5	-0.17838581
99	0x3dbca983	0.09212019
100	0xbead798e	-0.338818
101	0xbd3ed30e	-0.046587996
102	0x3d8af1fc	0.06784436
103	0xbe320dd7	-0.17388092
104	0x3e3af2d5	0.18256696
105	0x3b04fba2	0.0020291586
106	0xbe9e0a46	-0.30867213
107	0xbc26f1e7	-0.01018951
108	0xbd9b1e63	-0.07574155
109	0xbdd7455d	-0.10511277
110	0xbc39a080	-0.01132977
111	0x3de06677	0.109570436
112	0x3de7e3e1	0.11322761
113	0x3de2a58c	0.11066732
114	0x3e807314	0.25087798
115	0x3cb907b8	0.022586688
116	0x3e476ec1	0.19475843
117	0xbce4cddd	-0.027930195
118	0x3e423e00	0.18968964
119	0xbc945ce1	-0.018110694
120	0x3e7ae36c	0.24500817
121	0xbe27cd01	-0.16386797
122	0xbe15f54a	-0.14644352
123	0x3d0a343e	0.03374123
124	0xbd316d21	-0.043316964
125	0xbd845146	-0.06460814
126	0xbe95fa82	-0.29292685
127	0xbe280abd	-0.16410346
128	0xbde9c9a9	-0.11415417
129	0x3e11fe18	0.14257085
130	0x3de5d56f	0.1122235
131	0x3dbf4516	0.09339349
132	0x3e4e3f00	0.2014122
133	0x3de3ce5b	0.111233436
134	0xbddd7a78	-0.10814375
135	0x3d784584	0.06061317
136	0x3d203e81	0.03912211
137	0x3c5f4974	0.013628352
138	0xbd999d40	-0.07500696
139	0x3dadac84	0.0848017
140	0xbded7c9b	-0.11596032
141	0xbca39877	-0.019970162
142	0xbdb725a5	-0.08942727
143	0x3d5c9bbc	0.053859457
144	0xbd98b9b9	-0.07457299
145	0xbdbd2263	-0.09235074
146	0xbdc8bc65	-0.098015584
147	0xbdaadb12	-0.083425656
148	0x3b859294	0.0040763114
149	0xbd85cab1	-0.06532801
150	0xbdcc1af4	-0.099660784
151	0x3e1243e5	0.14283712
152	0xbe3d0cbe	-0.18461892
153	0x3db72990	0.08943474
154	0x3d3621a0	0.04446566
155	0x3d2b960c	0.041891143
156	0xba9a6229	-0.0011778522
157	0x3d62d52e	0.055379085
158	0x3ce66e67	0.028128816
159	0x3e08e9ca	0.13370433
160	0x3d7e1974	0.062035993
161	0x3da95f91	0.08270181
162	0x3c1413c5	0.009037917
163	0x3c43f5c6	0.011960452
164	0x3d04b3af	0.032397922
165	0x3e2711bc	0.16315359
166	0xbd08cd18	-0.033398718
167	0xbd8a9a2e	-0.06767689
168	0x3d1feb49	0.039042745
169	0xbd675de0	-0.05648601
170	0x3e116a13	0.1420062
171	0xbc86ed72	-0.016470645
172	0xbe1dcf32	-0.1541107
173	0xbe0001b2	-0.12500647
174	0x3de1dd92	0.11028589
175	0xbdd016f9	-0.10160632
176	0x3bcb3ad3	0.0062020808
177	0xbdb5a6dc	-0.088697165
178	0xbd6bd293	-0.057573866
179	0xbdcb8996	-0.09938352
180	0xbdafcff6	-0.08584587
181	0x3cb81124	0.02246911
182	0x3d0d8498	0.03455028
183	0x3cc47408	0.02398111
184	0xbe36a08f	-0.17834686
185	0x3d90ca4b	0.07069834
186	0x3e2b4735	0.16726382
187	0xbc0ab197	-0.008465192
188	0x3dbaeecd	0.09127579
189	0x3dd6c9ce	0.1048771
190	0xbd7a424a	-0.061098374
191	0x3d8abe4b	0.06774577
192	0xbd6abb51	-0.057307545
193	0x3ebc9c63	0.36838064
194	0xbe2e026c	-0.16993111
195	0xbdd44fce	-0.10366784
196	0x3d7779c9	0.060418878
197	0x3bf25ced	0.0073963315
198	0x3d8aeea1	0.06783796
199	0xbe1bc010	-0.15209985
200	0x3e042cc9	0.12907709
201	0x3dcd5d9c	0.1002762
202	0x3ddcbd8b	0.1077834
203	0xbdb2e6e6	-0.08735447
204	0xbc263cec	-0.010146361
205	0x3defeed0	0.11715472
206	0x3d4c9678	0.049948186
207	0x3da7a6da	0.08186121
208	0xbe6bfa95	-0.23044808
209	0x3e80799f	0.2509279
210	0x3e51260e	0.20424673
211	0xbae52ca9	-0.0017484623
212	0x3e38cce8	0.18046916
213	0x3d39ebc4	0.04539086
214	0xbe589b14	-0.21152908
215	0x3c952fd2	0.018211279
216	0xbe3272a4	-0.17426544
217	0x3c868326	0.016419958
218	0xbce99c15	-0.028516809
219	0x3cde70b3	0.027153349
220	0x3e22b125	0.15887888
221	0x3e142447	0.14466964
222	0xba87b481	-0.0010353477
223	0xbc85c63a	-0.016329873
224	0xbe2d2ef9	-0.1691245
225	0xbe42d852	-0.19027832
226	0xbd227493	-0.039661955
227	0x3d31f4d7	0.043446388
228	0xbe006efd	-0.12542339
229	0xbdd94b89	-0.1061011
230	0x3db8c364	0.09021643
231	0x3d3c3ff4	0.045959428
232	0xbc10aaa2	-0.0088297445
233	0xbcb2d45c	-0.021829776
234	0xbd816a37	-0.06319087
235	0xbdea62fb	-0.1144466
236	0xbce3ba3a	-0.02779876
237	0xbd52a079	-0.05142257
238	0xbc823bd4	-0.015897669
239	0x3dfcc231	0.123417266
240	0x3cfad22f	0.030617801
241	0xbca88c5d	-0.020574743
242	0x3d99cb45	0.07509474
243	0x3cd3357f	0.025782345
244	0xbb2093b0	-0.002450209
245	0x3d82995d	0.06376908
246	0xbb407032	-0.0029363749
247	0xbe08d24f	-0.13361476
248	0x3e24a865	0.16079862
249	0x3d06b3a7	0.032886174
250	0x3d20c175	0.039246995
251	0x3d111b9e	0.03542673
252	0xbe0f242a	-0.13978639
253	0x3cac7d78	0.021055922
254	0xbdd1ca65	-0.10243682
255	0x3d623a7b	0.055231553

output.bias f4 [25]
0	0xbe0efb00	-0.13962936
1	0xbf012501	-0.5044709
2	0x3f139dda	0.5766274
3	0xbf882399	-1.0635864
4	0x3ed7e27e	0.42164987
5	0x3de0204c	0.1094366
6	0xbda3d636	-0.07999842
7	0xbda437f7	-0.08018487
8	0xbeb3fdfe	-0.35154718
9	0x3ee105ac	0.4394964
10	0x3ee887a8	0.45415998
11	0x3f0d9153	0.5529987
12	0xbf458e98	-0.77170706
13	0xbef28cbe	-0.47373003
14	0xbc4047d6	-0.011735877
15	0x3deeab8f	0.11653816
16	0xbca74ee8	-0.020423368
17	0xbedcfac5	-0.43160072
18	0x3e667442	0.22505286
19	0x3e9d0b15	0.30672517
20	0x3f19a6af	0.60019964
21	0x3da495e4	0.08036402
22	0xbeb9a6af	-0.36259982
23	0x3d424acf	0.047434624
24	0x3edae2d0	0.4275117
