code/development/models/best_model_025.pth (torch, 483637 bytes, 8 tensors)

conv1.weight f4 [1, 1, 5, 3]
000000 57 c4 a1 bd 21 ae 47 bc 1d 30 02 bc 3d 11 67 3e
       -0.07898777 -0.012187512 -0.007946041 0.2256517
000010 a6 a4 d8 3d 82 ea 99 3e b3 90 72 3e 24 0a f9 bd
       0.10578279 0.30061728 0.23688011 -0.12160137
000020 a3 43 0f 3e c3 26 48 be 01 cb 29 be a2 9e 18 3d
       0.13990645 -0.19546036 -0.16581346 0.03726066
000030 80 91 9b 3c 8b 4c 36 be ce 98 11 be
       0.018990278 -0.17802636 -0.14218447

conv2.weight f4 [1, 1, 3, 3]
000000 a9 34 30 be 4c 84 04 3e 0f 90 e4 bc 45 f1 ff bc
       -0.17207588 0.12941092 -0.027900724 -0.031242976
000010 5b 84 33 bc 01 48 b0 3c 8c b9 16 3e e3 d8 78 3d
       -0.010956849 0.02151871 0.14719218 0.060753714
000020 94 55 11 be
       -0.14192802

linear1.weight f4 [128, 900]
000000 91 5d 92 bc c6 da 1b be fe b0 2d bd 75 7d 1e be
       -0.017866882 -0.15220174 -0.04240512 -0.15477546
000010 44 45 e0 3c b2 09 5f be ae 39 07 be eb 93 79 bd
       0.027376778 -0.21781042 -0.13205597 -0.06093208
000020 23 6f 11 3e 6e a4 35 bd b2 5d 33 3e 06 2d 02 3e
       0.14202552 -0.044346265 0.1751621 0.12712488
000030 aa 80 55 3c d1 d1 ea bc ad 31 6a be 08 bd 05 be
       0.013031164 -0.028664501 -0.22870512 -0.13060391
000040 db d5 3d be 15 0c 10 bd 29 1b 6e be f6 8f d5 3d
       -0.1853861 -0.035167772 -0.23252548 0.10427849
000050 20 af 58 bd 39 5f b2 3c 3e 66 b1 3d 77 fd 72 ba
       -0.052901387 0.021773921 0.08662079 -0.00092693366
000060 f6 b2 06 3e ce de f5 bd 86 97 09 3e 5c e2 dc bd
       0.13154206 -0.12005387 0.13436708 -0.10785362
000070 c9 91 14 3d 7e 85 d1 bd da ec 58 3d eb 42 a7 be
       0.036271844 -0.1023054 0.052960254 -0.32668242
000080 e5 0d c3 3c 6e 5a 6d be a5 5b c6 3c 31 75 62 3e
       0.023810336 -0.23179027 0.024213621 0.22115017
000090 90 56 4b 3b 7c 86 14 bd 30 6b 0b 3e 23 b6 8d 3d
       0.0031026937 -0.036261067 0.13615108 0.069195054
0000a0 27 98 7b 3d fb 32 cf bc dd 29 f5 bd 11 dc 82 3e
       0.0614244 -0.025292864 -0.119708754 0.25558522
0000b0 a0 ef 6e 3e b6 b5 7c bd 07 37 9f be 63 c0 5c 3d
       0.23333597 -0.06169673 -0.3109667 0.05389441
0000c0 a5 64 15 be 94 ed 5e bd 77 c7 0a be 49 ca 05 bd
       -0.14589174 -0.05442579 -0.13552652 -0.032663617
0000d0 70 62 97 bd 6b ab f7 bd 27 bb 8e 3d 9b 3c c5 3d
       -0.07391822 -0.12093242 0.0696929 0.096307
0000e0 0c 44 0d 3e 06 11 a1 bd 53 b0 d1 bd 93 3a c3 3c
       0.13795489 -0.07864575 -0.10238709 0.023831641
0000f0 00 66 d9 3d c4 3f 09 3c 54 b2 0f be 55 6e 12 3d
       0.10615158 0.008377019 -0.1403287 0.035749752
000100 b0 ba 75 3d fc fb 91 3d aa 24 04 3e 9a f2 1b be
       0.059992492 0.0712814 0.12904611 -0.15229264
000110 0f 34 4f be 23 f8 58 3e 94 23 f4 3d 06 da a2 bd
       -0.20234703 0.21188407 0.119208485 -0.07951741
000120 d3 50 45 ba ca 33 ec bd 6f bc 6a 3d 46 c9 55 bd
       -0.00075269974 -0.115333155 0.05730861 -0.052193902
000130 f6 42 22 3e 04 f3 fa 3d 0f c5 82 bd 61 d4 bc 3c
       0.15845856 0.12253383 -0.06385242 0.023050489
000140 bf 0c d8 bd ff 06 08 be 43 b6 32 bd de c1 bb 3d
       -0.10549306 -0.13283919 -0.04363085 0.091678366
000150 ff 0b 0e bd 90 82 1f 3d 4f dc 9a 3d 3f 02 50 3e
       -0.03467941 0.038942873 0.07561552 0.20313357
000160 08 45 d4 3d 0f 75 32 3e f3 af 04 3e f0 ce 6c 3a
       0.10364729 0.17427467 0.12957744 0.00090335216
000170 78 6b 71 3c da 46 86 3d 0b 6b 7f 3d 96 0b 46 3c
       0.014735095 0.065564826 0.062357944 0.012087723
000180 d1 61 25 3e 01 1c 97 3d 48 2b 28 bc 91 75 10 3c
       0.16150595 0.07378388 -0.010264225 0.0088170925
000190 74 83 ae bd cd 7a 90 3c c5 b2 a7 bd bb 88 60 3d
       -0.085211664 0.017636681 -0.081883945 0.054817896
0001a0 95 47 25 bb a6 48 3e bd fa a5 fd bd ae 3a 61 3d
       -0.0025219668 -0.046456 -0.12385173 0.054987602
0001b0 d1 0a 6a ba 7c 08 2d bd f9 49 82 bd 51 da 9b 3d
       -0.00089280034 -0.04224442 -0.063617654 0.0761
0001c0 30 1f 12 be 9a 4c 10 3e ac 1a ae 3d 39 7c 14 3e
       -0.1426971 0.14091721 0.08501181 0.14500512
0001d0 9c c5 26 bd 86 7e a8 3e a6 aa 2b bc 9c 0a 25 3d
       -0.0407158 0.3290903 -0.0104776975 0.04029332
0001e0 03 7f 71 3c b3 94 b2 bd 9b 40 94 3d 3c da 32 3e
       0.014739755 -0.087197684 0.07238885 0.17466062
0001f0 14 7e 3b bc a5 6f 16 3d b6 3b 4d be b5 05 da 3d
       -0.011443634 0.036727566 -0.20042309 0.1064562
000200 8f 97 ea 3a 28 3b c0 bd 37 b2 bb 3d e8 d2 d0 bb
       0.0017897951 -0.09386283 0.09164851 -0.0063727982
000210 66 e0 d0 3c 8b b9 03 3e 6c b1 97 bd 83 e2 a2 3e
       0.025497627 0.12863748 -0.074068874 0.3181344
000220 f7 64 fe 3c d8 33 ad bc 64 a8 ce 3d c1 aa 8d 3c
       0.031054003 -0.021142885 0.10090712 0.017293336
000230 9c 07 fc bd b7 9b f2 3d 0f ff d5 bb db e4 06 3e
       -0.12306139 0.118461065 -0.0065306495 0.13173239
000240 5d af a3 3d c4 e7 c4 3d 3a 8a 85 be 77 ef fd bc
       0.07992432 0.09614518 -0.2608202 -0.030997975
000250 20 5a 60 bd dd 17 11 be 99 6d 26 3e d7 1e cb bd
       -0.05477345 -0.1416926 0.16252746 -0.099179916
000260 a5 9b 1c be 66 c9 15 3d 17 8e ce bd 44 27 0c be
       -0.15293749 0.03656902 -0.10085695 -0.13686854
000270 8e b5 16 bd 2f aa a9 3c 9b 87 2b 3c 0a 48 1d bd
       -0.036794238 0.020711033 0.010469343 -0.03839878
000280 e4 b0 83 bd f6 2f 3d 3e 4c 3c 26 bc 6f 57 90 3b
       -0.064302236 0.18475327 -0.010146212 0.004404954
000290 99 f1 76 be 2c ea ab 3d f1 69 76 bd a3 7a e0 bc
       -0.241156 0.08394274 -0.060159627 -0.027402228
0002a0 45 a6 01 3a 72 d4 ae 3c cc a0 81 bc 4f 76 10 3d
       0.00049457356 0.021341536 -0.015823744 0.035269078
0002b0 a7 9e 45 be 70 7b 62 3d da 89 90 3d bc ca 05 be
       -0.19298802 0.0552935 0.07057543 -0.13065618
0002c0 61 c7 76 3d 42 93 06 3d c8 ff 93 bc b7 85 1e 3d
       0.060248736 0.03285528 -0.018066302 0.03870174
0002d0 80 61 45 bc c1 2d eb 3c 1f 3d 29 be 97 d5 59 be
       -0.012047172 0.02870834 -0.16527222 -0.21272884
0002e0 f6 fe 86 bd a2 b8 40 be 4b 19 81 bd 32 f7 c5 3d
       -0.06591599 -0.18820432 -0.063036524 0.096662894
0002f0 eb 52 1c bd 9f fc 84 bb 58 d7 47 be 1d ad c9 3d
       -0.038165014 -0.004058435 -0.19515741 0.09847472
000300 66 09 a4 3d c9 e7 95 bd 3a c5 86 3e 93 58 41 bc
       0.08009605 -0.073196 0.26322347 -0.011800903
000310 bd 6b 00 bd a3 d9 13 3d a7 fb 8d 3d f3 2b 6e be
       -0.031352747 0.036096226 0.069327645 -0.23258953
000320 86 22 ee 3d 2e cc 13 3e 85 30 2c bd bf 6f e4 bc
       0.116276786 0.14433357 -0.04203846 -0.027885316
000330 37 5a a7 3c f5 7e 58 3d 22 d1 19 3d d9 10 f5 3d
       0.02042876 0.05285545 0.03755296 0.11966104
000340 a1 8e 50 bd b1 77 49 bc 98 db f8 3b 73 b6 8d 3e
       -0.05091727 -0.012296603 0.007594537 0.2767826
000350 21 4c 60 3d ef 5f 0f 3d a8 a6 4a 3e 25 f7 99 bd
       0.054760102 0.0350036 0.19790137 -0.07517842
000360 52 7c ef 3c d5 13 72 3e 61 6d 96 be be d9 07 3e
       0.029234085 0.23640378 -0.29380324 0.13266656
000370 3a 2a 3b 3e 4a 93 9b 3d f4 b2 79 bd ec 1a 98 bd
       0.18277827 0.075964525 -0.06096168 -0.0742701
000380 a7 d4 72 3d 14 c2 2c 3e 5b 98 e0 3c 33 e8 96 3d
       0.059284832 0.1687091 0.027416399 0.07368507
000390 ae f0 bf 3e e9 2d 90 bd 4a 46 7c bd 17 e0 a0 3b
       0.37488312 -0.07040007 -0.06159047 0.004909526
0003a0 f7 59 4b bb 19 ad 1e be b6 11 05 bd 77 f7 a0 bd
       -0.0031028965 -0.15495719 -0.032487594 -0.078597
0003b0 96 c8 a3 3d 96 38 12 bd a3 77 86 be fe 43 91 3d
       0.07997243 -0.035698496 -0.2626315 0.070930466
0003c0 5a 8c 3f bd 9f 0a 04 3e 49 d3 44 be d7 14 31 bb
       -0.04676471 0.12894677 -0.19221224 -0.0027020478
0003d0 a6 20 bb 3d 85 cf c3 bd 70 88 ab 3d 3e 26 5e 3b
       0.091370866 -0.095610656 0.08375633 0.0033897306
0003e0 b0 6a ab 3d ba 5d 81 3d b4 75 1b be 46 79 87 3c
       0.083699584 0.06316705 -0.15181619 0.01653732
0003f0 26 1d 13 be d2 d3 4d be 0b a1 e9 3d 8c 30 d9 bd
       -0.14366588 -0.20100334 0.1140767 -0.10604963

linear1.bias f4 [128]
000000 48 46 d0 3e 76 41 8f be cb 11 a1 3e c1 d0 4d 3e
       0.4067862 -0.2797963 0.31458887 0.20099165
000010 ab 9d 48 3d 4c 27 a3 3d 51 54 ed 3e 03 56 81 bd
       0.04897849 0.0796648 0.4635339 -0.063152336
000020 62 26 9a be 31 97 73 3e f5 a6 39 3f 8a 05 95 bd
       -0.3010741 0.23788144 0.7252038 -0.07276447
000030 5d dc 11 bd 27 92 61 3c 84 10 84 be e9 b7 45 3e
       -0.035610545 0.013767756 -0.2579385 0.19308437
000040 e4 b7 b1 be 33 b0 2e bd 18 20 47 be 0e 63 a9 3e
       -0.3471061 -0.042648505 -0.19445837 0.33083385
000050 9d 0f 89 3d 4a a2 37 bf 51 15 1f bf 47 eb 24 3d
       0.06692431 -0.7173201 -0.621419 0.04026344
000060 f1 c4 19 3e aa 67 09 3f 6e 30 97 3e bc 21 6d be
       0.15016533 0.53673804 0.29529136 -0.231574
000070 0d 98 cd bd d7 71 cd be f4 f9 d4 be 6a 88 7a be
       -0.10038767 -0.40125915 -0.4159695 -0.244661
000080 04 30 91 bd 21 83 03 be 97 d7 bb 3c 68 96 d3 3e
       -0.070892364 -0.1284299 0.02292995 0.41325688
000090 25 83 ef bd 98 87 1f 3f a9 89 53 be 3e 01 13 bd
       -0.11694936 0.62316275 -0.20657982 -0.035889857
0000a0 9c 46 8f bd 11 12 67 3e b6 a9 1b 3e a2 ab fa bd
       -0.069958895 0.22565486 0.15201458 -0.122397676
0000b0 98 fa 14 bf 5c 8c 11 3f 82 0f d4 3e da b2 34 3d
       -0.58194876 0.56854796 0.41418082 0.04411588
0000c0 1f 30 43 3e 37 d0 64 3e c7 79 29 3e 0d 91 d5 37
       0.19061325 0.22345053 0.1655036 2.5459123e-05
0000d0 37 76 de bd 53 58 97 3e c6 47 cb be 6d 92 32 bf
       -0.108623914 0.29559574 -0.39703196 -0.6975468
0000e0 3e 7a 37 3d d3 90 91 3d a7 29 8b be 1d d2 8a be
       0.044794314 0.07107701 -0.27180216 -0.2711343
0000f0 39 96 35 bf 80 0e 0a bd fa 64 3c 3e 1c cc 57 bc
       -0.70932347 -0.033705235 0.18397895 -0.013171222
000100 e1 75 cf be b7 2f 2d 3e ab f6 5b 3e 6c 3f 4a 3e
       -0.40519622 0.16912733 0.21480815 0.19750756
000110 86 c3 7e bd 1a d9 b9 bd d6 09 90 3e ad bc 0a be
       -0.062198184 -0.09074612 0.28132504 -0.13548537
000120 67 f1 80 be 05 69 91 3e c0 5b b2 3d 19 c1 66 bd
       -0.25184175 0.28400436 0.08708906 -0.056336496
000130 4b f5 05 3e 9f 52 9f 3e 40 d6 70 be 89 86 79 3d
       0.13081853 0.31117722 -0.2351923 0.06091932
000140 ef 1d f1 3e cd d2 11 bf 8b d5 db ba cf 82 33 3e
       0.4709315 -0.5696228 -0.0016772015 0.17530368
000150 96 40 92 3e e9 07 2a 3e af 02 38 bf 57 28 2c 3d
       0.285649 0.1660458 -0.71879095 0.04203066
000160 be 22 6a 3f 73 ac 5a be 55 ea 99 bb 4f 11 bf bd
       0.9145926 -0.21354847 -0.004697124 -0.09329473
000170 76 81 c8 be ab c7 07 be fe 16 53 3e 10 14 2e bf
       -0.3916127 -0.13259761 0.2061424 -0.6799936
000180 fb 27 09 3d f3 63 89 bc f8 8f 30 3d 49 97 75 be
       0.033485394 -0.016771292 0.04310605 -0.23983492
000190 47 88 ab be 13 1d 4b 3e 57 0a f8 be d5 31 3f 3f
       -0.3350241 0.1983531 -0.4844539 0.7468541
0001a0 ce 0a eb 3d 08 60 5f 3d e8 fe 33 3f 60 1d dc 3e
       0.1147667 0.054534942 0.7031083 0.4299116
0001b0 62 f3 16 3f 98 6f a7 3b 6a c7 69 bb e3 ad 34 be
       0.5896512 0.0051097386 -0.0035671839 -0.17644458
0001c0 6f 84 b0 3d 53 41 63 be ed 7b af 3e 84 b8 2b bf
       0.0861901 -0.22192888 0.34274235 -0.67078424
0001d0 a9 2c 31 3f bc 91 2b 3f b5 af f6 bd 9b 27 f3 3e
       0.6920877 0.6701925 -0.12045232 0.47491154
0001e0 05 11 15 3e 90 11 e3 3d 87 4b 47 bf a1 7b 28 3d
       0.14557274 0.11087334 -0.7784962 0.041133527
0001f0 57 1d 06 bf 9b a2 f3 3e 60 43 f7 be 6d 00 03 3e
       -0.5238852 0.47584996 -0.4829359 0.12793131

linear2.weight f4 [32, 128]
000000 a8 0f cf bd 6a 69 0a ba b2 78 bd 3b 15 72 89 bd
       -0.10110408 -0.000527999 0.0057822103 -0.067112125
000010 f5 72 8d 3d 94 33 bd bc 55 9c 00 3c 7b 56 fc 3c
       0.06906692 -0.023095883 0.007849772 0.030802956
000020 a3 f3 a3 bc 2c e8 3f bd 1f 55 62 be 4f 78 dc 3c
       -0.020013636 -0.046852276 -0.22102784 0.026912836
000030 17 48 0c 3d 4e d0 07 3c 89 98 8a bc 59 99 15 be
       0.034248438 0.00828941 -0.016918438 -0.14609279
000040 37 89 03 be 8a 6d be 3b af fc 2a 3a 6b 9e 2a 3d
       -0.12845312 0.005811398 0.0006522638 0.041654985
000050 e1 2c fe 3c f1 da f9 bc c4 5c da 3d 48 f8 b4 3c
       0.03102726 -0.030499907 0.10662225 0.022091046
000060 50 49 85 3c 1c 83 52 bd 17 34 21 3d 90 ee 08 bb
       0.01627031 -0.051394567 0.039356317 -0.0020894147
000070 9a 62 6c bd ea 67 cb 3c 4c 2c de 3d 9e 1f ee bc
       -0.05771122 0.024829824 0.10848293 -0.02906781
000080 6f 16 c4 3b bc bb 99 3d f1 47 f1 bc 2b f9 2b 3e
       0.0059841196 0.075065106 -0.02945325 0.16794269
000090 b7 cb be 3b 60 df 84 3d 5c 82 30 3b 36 86 86 bb
       0.0058226245 0.06487918 0.002693317 -0.0041053547
0000a0 4a 91 85 3c a7 5f 8e bc f9 3f 95 3c 49 4d fa 3c
       0.01630463 -0.017379595 0.018218981 0.03055443
0000b0 f5 1e e2 3e 23 00 ad b8 cc 83 b0 be c8 4b e5 bb
       0.44164243 -8.249308e-05 -0.34475553 -0.006997559
0000c0 2e db 2d bb 0f 11 ab 3c 04 8b 26 bd af af 37 3d
       -0.0026528346 0.020882158 -0.04065992 0.04484528
0000d0 2b e6 cb bc b8 1f 96 bd 3c 59 c1 bb bc 5b 94 bc
       -0.024890026 -0.073302686 -0.00590053 -0.018110149
0000e0 96 f5 0e 3d cd 4a 14 be 91 37 27 3c c4 3b 6c 3d
       0.034902178 -0.14481659 0.010206119 0.057674184
0000f0 e9 e2 a5 be 36 84 0e 3d f6 4a ba bc 2c c8 d1 bc
       -0.3239968 0.034794055 -0.022740822 -0.025608145
000100 30 fc c2 3c a7 e7 2f bb f6 71 30 bd 82 71 f3 bc
       0.023801893 -0.0026840956 -0.04307743 -0.02971721
000110 cf ac af 3b e9 99 ab bd f3 9c 97 3e 41 15 6c bc
       0.0053611766 -0.083789654 0.2961193 -0.014409364
000120 1d e0 17 3e 1b 51 af 3b 83 67 1b bc 0f a8 97 3c
       0.14831586 0.0053502447 -0.009485128 0.018512754
000130 cc 2c cb bc 8d c9 dd bc 7e 7d 0d bc 36 07 11 be
       -0.024801634 -0.027073646 -0.008635877 -0.14162907
000140 af 83 fd bd 16 84 ae 3c f9 fc 96 bc 7a 9b c7 bb
       -0.12378632 0.021303218 -0.018431174 -0.0060915323
000150 6a 5d 9c be c1 cc 84 3c 36 6b 43 3d 15 3f 12 bc
       -0.3054002 0.016210916 0.047709666 -0.008926173
000160 41 05 bb bb 63 50 8e bb 9d 83 53 3d 51 49 20 bd
       -0.0057074134 -0.004343079 0.051639188 -0.03913242
000170 91 d0 89 bc 32 a0 39 bd c9 6f f4 bc ab 87 18 3b
       -0.016823085 -0.04531879 -0.02983846 0.0023274224
000180 d1 a9 15 bd 49 83 58 3d 3d 6e 89 bd 56 e8 0d 3d
       -0.036538903 0.05285958 -0.067104794 0.0346454
000190 06 0f 57 bd 16 4c 8d 3c 02 2b 59 3c 44 c6 26 be
       -0.05250456 0.017248195 0.013254883 -0.1628657
0001a0 24 16 ca bc aa 01 03 3c e7 3d 81 bd 19 7a 62 bd
       -0.02466876 0.007996002 -0.06310635 -0.055292223
0001b0 70 56 bf b9 26 38 f2 3d ba 39 e4 3a 8d 96 eb bb
       -0.0003649476 0.11827116 0.0017412223 -0.007189578
0001c0 39 43 64 bd 9d 9a be 3e 83 42 9f 3d 6e 28 5f 3e
       -0.05572817 0.37227336 0.07776358 0.21792766
0001d0 cd 4f 20 3d c6 4a 38 3d 2a f2 43 3d f8 cc 18 be
       0.039138604 0.044993185 0.047838368 -0.1492194
0001e0 98 71 31 3e 56 fc cd 3c 57 71 71 3e 64 3a a4 bc
       0.17328489 0.025144737 0.23578392 -0.020047374
0001f0 57 0f ba 3c 22 87 ba 3d bd f3 e1 3d db 7d 28 bd
       0.022712393 0.09107806 0.110328175 -0.04113565
000200 87 f2 59 bc eb 49 b6 b9 86 f5 16 bd 48 77 13 bd
       -0.013302452 -0.00034768818 -0.036855243 -0.036002427
000210 43 1b d8 3b 2b 1f 7c 3a c8 92 d8 bb 5b 92 0f bc
       0.0065950467 0.00096176815 -0.0066092946 -0.008762921
000220 7b fa e7 ba ba e2 e2 3b d0 e4 ab bc 74 07 d4 bb
       -0.001769855 0.0069240006 -0.02098313 -0.006470615
000230 e6 75 c9 3b a9 74 9c ba c1 33 5f bb c2 5b 1b bc
       0.006148088 -0.0011936623 -0.0034057947 -0.009482326
000240 b4 26 43 3c b7 67 b0 bb 61 66 a1 3c a9 d4 58 3b
       0.011911083 -0.0053834575 0.019702138 0.003308574
000250 a1 3a 93 3a 94 e0 b7 bc 5a 1e dc bc 53 c8 77 3b
       0.0011232683 -0.022445954 -0.026869942 0.0037808612
000260 59 45 f2 bb 42 fc 27 bc a4 58 8f 3c e0 d6 1d bc
       -0.007393521 -0.010253014 0.017498322 -0.00963375
000270 b0 02 62 3c e4 97 1e bc a8 25 a5 bc ea d1 a3 3b
       0.013794586 -0.009679768 -0.020159557 0.004999389
000280 c7 fd 41 3c e2 9e 8e bb c6 2d 28 3b b7 2f 91 3c
       0.01184029 -0.0043524364 0.0025662049 0.017722948
000290 73 d3 fe bb f3 be 33 3d ef 8a 80 bc 22 fa d7 bb
       -0.0077766716 0.043883275 -0.015691249 -0.0065910975
0002a0 70 8e fe 3b cc 87 d9 39 d1 ff 0f bc 6d 33 06 3c
       0.0077684447 0.00041490642 -0.008789019 0.008190972
0002b0 14 e9 a3 bc 4b 53 09 bd d1 08 14 3d 5a bf 89 3b
       -0.020008601 -0.0335267 0.03614122 0.004203719
0002c0 5b 1f 60 3a af aa 92 3b c7 6d 82 3c 74 c0 44 bc
       0.0008549594 0.0044759135 0.015921487 -0.012008775
0002d0 a2 32 8a ba e6 5d a4 bb 57 3e 07 bc 1e 5a a3 3c
       -0.0010543654 -0.0050160764 -0.008254609 0.019940432
0002e0 e4 1c cc bc 8a 80 d9 bb 29 d7 c0 3b d6 2a 87 3b
       -0.02491612 -0.0066376375 0.005885024 0.0041249795
0002f0 f7 79 84 3b 1e 83 19 bc 2e ab b8 bc 7a d3 06 3a
       0.0040428597 -0.00936964 -0.022542562 0.0005143207
000300 90 78 9e 3c c9 9f 00 3a a0 7e f8 3c 2e ee 18 bb
       0.019344598 0.00049066223 0.030333817 -0.0023335326
000310 7e 30 84 bb d8 77 a1 3c f7 99 db 3c fb c9 14 39
       -0.004034101 0.019710466 0.026806815 0.00014189623
000320 aa 04 f5 3a f7 fd 31 3c 11 aa 0b 3b 2b a7 be b9
       0.0018693407 0.010863773 0.0021311084 -0.00036364174
000330 3e 9c 83 3c 8b 5e e8 bc 9e 36 e6 3c 43 4f da bc
       0.016065713 -0.028365394 0.028102215 -0.026649123
000340 b1 1b 50 bc ea bf 15 bc 29 3c 5e 3c c3 b5 a4 ba
       -0.012701915 -0.009139994 0.013564148 -0.0012566376
000350 2f cf 15 bd 48 9f 31 bc e8 3d 28 3c af e1 17 3c
       -0.03657454 -0.010841198 0.010268666 0.009270116
000360 cf 17 14 bb 64 dd 75 3c b4 71 e8 b9 28 36 b7 bb
       -0.00225972 0.015006397 -0.00044335204 -0.0055911727
000370 e7 88 11 bc 09 ad f4 bb 28 db 1c bb 75 0f 56 bc
       -0.008882738 -0.0074669165 -0.0023934338 -0.013065209
000380 78 48 16 bc b6 2c c2 3b 22 8d a6 3c 09 fe c3 3b
       -0.009172551 0.00592574 0.02033097 0.005981211
000390 f5 f0 17 3b b0 c5 d8 bb 7b 19 9a bc fd da 41 3c
       0.0023184393 -0.006615363 -0.018810978 0.011831996
0003a0 ed a1 0d bc 13 aa 30 3b a4 41 cf 3c 2f 9a 7f bc
       -0.008644563 0.002695684 0.025299855 -0.015600725
0003b0 da 58 45 3c 2d 47 35 3c a6 0b 17 bc ef c8 07 bb
       0.01204511 0.011064333 -0.009219086 -0.002071913
0003c0 6b 27 47 3d 29 87 c2 3c 3e 8e f2 ba 0b c4 c2 bc
       0.048621576 0.02374609 -0.0018505526 -0.023775121
0003d0 d3 db 1b bd 6c 23 cf bc 52 2f 35 bb d2 00 57 3d
       -0.038051438 -0.025285445 -0.0027646613 0.052491017
0003e0 fe c6 1e bd c2 d0 82 bb 0b 98 09 3d cb d2 87 bc
       -0.038763992 -0.003992171 0.033592265 -0.016580006
0003f0 9a 16 24 bd f9 6a c4 bc 18 25 7d bb 84 cd a1 ba
       -0.040060617 -0.02397679 -0.0038626846 -0.0012344574

linear2.bias f4 [32]
000000 ac 7c cc be cd ce b4 bc 29 72 72 be ef 10 86 be
       -0.39938867 -0.022071267 -0.23676361 -0.26184794
000010 f3 46 2c bf 09 ca c1 3e e1 44 86 3e b0 47 82 be
       -0.6729576 0.37849453 0.26224425 -0.25445318
000020 b2 86 c0 be 85 5e 57 be 97 43 6e be 36 8e 2b be
       -0.37602764 -0.2103215 -0.23267971 -0.16753468
000030 da 3c bd be 2f 39 87 3d 3e 8c 61 3e 90 f8 4a 3f
       -0.3696049 0.06602704 0.22026154 0.79285526
000040 7d b7 6f 3e fc 9d 88 be b7 83 33 be c2 07 31 bf
       0.23409839 -0.26683033 -0.17530714 -0.6915246
000050 77 06 1c 3e f0 95 28 3e 1f 87 0d 3d 20 d8 43 3f
       0.15236841 0.16463447 0.03455269 0.76501656
000060 1a 7f 88 3c 9d 52 c0 3e 12 cb 4f 3d f5 7a dd bc
       0.01666217 0.3756303 0.050730772 -0.02703617
000070 a8 43 7b 3d bd 94 46 bf d5 46 11 3e 5e 65 9d 3d
       0.06134382 -0.77570707 0.14187177 0.0768535

output.weight f4 [10, 32]
000000 ea 93 61 bd b7 bf 35 bd 31 33 c2 bd b6 66 2d 3d
       -0.055072702 -0.044372287 -0.0948242 0.04233428
000010 43 73 bd bd b6 fd 02 3e 8f 52 10 bd 35 11 f8 bd
       -0.092505 0.12792096 -0.035234984 -0.12112657
000020 cc 7f 33 3e e3 8e 0c bd 98 10 9c bd ce 79 72 3d
       0.1752922 -0.034315955 -0.076203525 0.059198193
000030 8f 8c a3 bd 5a 2b 18 3e 1f 4e 25 3e 15 af 43 bd
       -0.07985794 0.14860287 0.16143082 -0.047774393
000040 2c 24 9c 3d 3d 94 c8 3c 44 b6 e4 3d a2 9c 54 3d
       0.07624087 0.024484748 0.11167577 0.05190719
000050 47 9d 1c 3d 4e 6c 03 bc c8 c4 52 bb 32 09 56 3e
       0.03823593 -0.008021427 -0.0032160748 0.20901945
000060 42 84 19 bd 37 31 9b be e7 c2 24 bc 9f 18 14 3d
       -0.037479647 -0.30310985 -0.010056234 0.036156293
000070 b0 80 37 3c e3 3b 0a be bc d2 9d bd 25 60 01 3e
       0.011200115 -0.13499407 -0.0770621 0.12634332
000080 0c d8 a5 3d ee b5 35 bd b3 00 f2 bd 1b 58 f3 3c
       0.08097848 -0.044362955 -0.118165396 0.029705098
000090 eb 93 14 be 15 17 09 be 1f 23 cf bc 10 5a ca bd
       -0.14509551 -0.13387711 -0.025285302 -0.09880459
0000a0 00 80 7a bd ec d6 d7 bc e4 d8 ae bd 38 92 72 3d
       -0.061157227 -0.0263476 -0.08537462 0.059221476
0000b0 9e a4 48 be b2 24 a1 bd 96 77 ff 3c a7 da 53 3d
       -0.19594046 -0.07868327 0.031184953 0.051722195
0000c0 94 bf a0 3d e2 92 b8 bd 4a fc 95 3d 9b ad b8 3c
       0.07849041 -0.09012391 0.07323511 0.022543719
0000d0 83 83 7d 3d 45 3a 36 bc a7 8c 90 bb e1 92 d7 bd
       0.061892997 -0.011122291 -0.0044112983 -0.10526062
0000e0 94 fd dc bd e0 38 4a 3d 5b 42 50 bc 70 1b 17 3d
       -0.10790554 0.049370646 -0.012711133 0.0368914
0000f0 3c 05 0a 3e 36 27 45 be 62 3e 3a 3b 12 29 11 be
       0.1347856 -0.19253239 0.002841853 -0.14175823
000100 e9 15 ad 3d 97 78 38 bd 08 93 d5 bd c1 43 08 be
       0.08451445 -0.04503688 -0.104284346 -0.13307096
000110 bc bf 7f 3e 6c 6e 66 3e 83 da 86 3c 05 21 21 be
       0.24975485 0.2250306 0.016461616 -0.15735252
000120 8b 62 a1 bd 9f 42 30 bd a2 02 50 3e ca 6c 7e 3d
       -0.07880124 -0.043032285 0.20313504 0.062115468
000130 5b 21 c5 3d 0a 31 09 3e 58 ec e7 bd 2f 71 66 bd
       0.09625503 0.13397613 -0.11324376 -0.056260284
000140 12 7b 0f 3c ee 0d 7e bd c6 ef c0 3b 7b 0a 10 be
       0.00875737 -0.062025003 0.005887958 -0.14066498
000150 eb c4 fe bd 60 98 ab bb a0 91 72 bb d5 24 97 3c
       -0.12439903 -0.0052366704 -0.0037013069 0.01845018
000160 4e 99 12 3d d7 7a b8 3d a6 30 1a bc 51 65 0e 3d
       0.035790734 0.09007805 -0.009411013 0.03476459
000170 c8 b1 91 3d bd a7 20 be d5 92 60 3e f2 c1 af 3c
       0.07113987 -0.15688987 0.21931012 0.021454785
000180 0d 27 a9 bd 75 b0 35 bd 95 60 7c 3d 15 6e 9a bd
       -0.082594015 -0.044357736 0.061615545 -0.07540528
000190 4f f2 79 bd ae 91 83 be ac 6e ce bc fa 16 12 3d
       -0.0610221 -0.25697082 -0.025199257 0.035666443
0001a0 f6 81 19 3e 02 07 48 bd d8 0c c1 3c a2 e4 76 3d
       0.14990982 -0.04883481 0.023565695 0.060276635
0001b0 1e 00 d9 bb b3 57 15 bc a9 e9 ba bd e7 24 3f 3d
       -0.0066223284 -0.009115147 -0.091265984 0.046666052
0001c0 37 66 bf bd b6 50 c4 3b db 94 a3 37 35 25 c9 bd
       -0.09345668 0.005991067 1.950043e-05 -0.0982155
0001d0 e9 ca 5e be 25 74 1f bc 27 7c 7b bb 45 d8 e8 bd
       -0.21757092 -0.009732281 -0.003837356 -0.11369375
0001e0 c2 89 df 3d 7d 56 7c bc 6c 77 57 bc d2 e7 18 3d
       0.10914947 -0.01540148 -0.013151031 0.037330456
0001f0 58 a6 2e be 12 00 01 bd 8d 84 aa bc c5 5f cc 3d
       -0.17055643 -0.031494208 -0.020815158 0.09979204
000200 cb c4 f4 bd df 69 38 bd 58 cc 0e 3e 28 34 13 3d
       -0.11951598 -0.04502284 0.13945138 0.035938412
000210 bf ce df 3c 92 3d c3 bd bf 6d e8 ba 45 17 10 be
       0.027320264 -0.09533228 -0.0017732902 -0.14071377
000220 eb 0c f4 bd f5 97 7a bd 49 28 28 bc 3d 4e 71 3d
       -0.119165264 -0.061180074 -0.010263511 0.058912504
000230 e8 60 80 bd f4 ee 9d bd 88 8f bc bd 97 87 5d 3e
       -0.062684834 -0.07711592 -0.09207064 0.21633755
000240 fb 5e 53 bd 61 cd d8 3c fc 7e ae 3d fa 98 28 bd
       -0.051604252 0.02646512 0.08520314 -0.041161515
000250 ee f4 e6 3d 89 0b a5 bb fe 57 82 bb af 84 51 3e
       0.112771854 -0.0050367755 -0.0039777746 0.20460771
000260 b3 b5 dd 3d 5b 26 b7 3d 6a 31 21 bc 6a 14 11 3d
       0.10825672 0.089428626 -0.009838441 0.03541986
000270 3e fe 47 39 10 d4 2c 3e 02 ce 33 bd 83 75 3a 3d
       0.00019072831 0.1687777 -0.043897636 0.045522224
000280 73 aa 88 3e 0f 6f 38 bd 22 70 27 3e 30 13 85 3d
       0.26692542 -0.04502779 0.16351369 0.064978
000290 99 3d da 3e 4a 84 7a be 41 0e 74 3b df e7 9a 3b
       0.4262512 -0.24464527 0.0037239941 0.004727348
0002a0 c2 e7 b8 3c 68 2e 56 bc 80 07 13 3d d0 57 7f 3d
       0.022571448 -0.013072588 0.035895824 0.062339604
0002b0 cf fe 30 3e 8f b7 e3 bd b8 49 47 bd 7f c0 e6 be
       0.17284702 -0.111189954 -0.048654288 -0.45068738
0002c0 09 bb d3 3c 75 5a 81 3d 1e f4 ec 3d fc e0 de 3e
       0.025846021 0.063160814 0.11569999 0.43531024
0002d0 ac 4a e5 bc ac 51 35 bc e1 1e 2e bb cd 3e a1 be
       -0.027989708 -0.011066835 -0.0026568698 -0.31493226
0002e0 cf 9f dd bc 3a 90 a5 be ea 31 13 bc 0c 71 14 3d
       -0.027053742 -0.323366 -0.008984068 0.036240622
0002f0 c1 ab b8 bc 3a 12 b8 3e 18 2e 0f bd b8 20 86 3d
       -0.022542836 0.35951406 -0.034956068 0.06549209
000300 dd 1e 4d bd 78 8e 30 bd d6 9d d8 bd 82 83 7f 3e
       -0.05007826 -0.04310462 -0.1057698 0.2495251
000310 a6 da dd 3b 9a 1f 24 bd 9b 72 5b bc a5 2a 8d 3e
       0.0067704497 -0.0400692 -0.013394023 0.27571598
000320 03 cb 55 3e 63 27 8a bc 40 7b 92 3d 44 cd 76 3d
       0.20878224 -0.016864484 0.07152414 0.06025435
000330 f7 15 3a 3e 6c 76 85 3d 47 6b 4c 3d 0b 58 24 3e
       0.18172441 0.06516728 0.049906995 0.1604921
000340 fa ae 93 bc 8f b2 f0 bc 2a ce 10 bd cf 38 0d be
       -0.018027771 -0.029382018 -0.035352863 -0.13791202
000350 79 3f 1d 3c 69 ef f9 bb 19 4b 84 bb 7e cc 40 bd
       0.009597653 -0.007627417 -0.0040372727 -0.04707002
000360 33 90 a4 bc 3c e9 bb 3d 29 be 45 bc 10 8c 17 3d
       -0.02008829 0.09175345 -0.0120692635 0.03699881
000370 6c 75 1d 3e 73 11 24 3e 2e 91 c5 bd c7 d9 36 3d
       0.15376824 0.16022281 -0.096468315 0.044641282
000380 21 48 a0 bd 01 18 36 bd 8b ed 56 bd 24 ed 31 bd
       -0.078262575 -0.044456486 -0.052472632 -0.043439046
000390 6c 94 34 be b8 1c 37 3e 18 77 a3 bd a2 4b 98 bd
       -0.17634743 0.17882049 -0.079817 -0.07436301
0003a0 4f e9 e1 3d fa 95 21 bd 74 84 a1 bd 03 c6 73 3d
       0.11030828 -0.03944967 -0.078865916 0.05951501
0003b0 40 e9 ae bd 74 fe 8a bd fd a6 09 be 73 b3 47 be
       -0.08540583 -0.06786814 -0.13442607 -0.19502048
0003c0 34 dc 97 bd 8c df 4e 3d 75 c2 6c bd 32 24 a7 3d
       -0.07415047 0.05050616 -0.057802636 0.081612006
0003d0 ee 4b 35 3e ee 48 f6 bb 8e e3 52 bb a3 a8 ba bd
       0.17704746 -0.007516018 -0.003217909 -0.09114196
0003e0 b5 20 1a bd ad 5b 27 3e 1d fc ff bb 9f 08 19 3d
       -0.037628848 0.16343565 -0.0078120367 0.037361737
0003f0 de 1c ec bd 27 24 0d 3e 7f a3 59 3d 8c 13 21 be
       -0.115289435 0.13783322 0.053134438 -0.15730113

output.bias f4 [10]
000000 07 d2 9f 3e 19 45 2a 3e 81 47 15 3c 9b 3d 15 3e
       0.31214926 0.16627921 0.009111286 0.14574282
000010 05 bc c9 3e 65 67 bb bf da cc d5 bd a7 7e 94 be
       0.3940126 -1.4640929 -0.10439463 -0.29002878
000020 1c 4d bd 3d 96 b4 4d 3e
       0.09243223 0.2008842
