code/development/models/best_model_049.pth (torch, 473589 bytes, 8 tensors)

conv1.weight f4 [1, 1, 5, 3]
000000 16 ae d6 3d 16 82 bc 3d 45 84 86 3e 9a 10 d9 3e
       0.10482423 0.092044994 0.2627279 0.42395478
000010 ca 7b 84 3e a2 07 94 be b5 20 af 3e c0 b4 a0 be
       0.25875694 -0.28912073 0.3420464 -0.313879
000020 87 cf d8 bc c3 77 45 3e 11 f0 c3 bc 32 c4 84 be
       -0.026466144 0.19283967 -0.023918184 -0.25930935
000030 2e 1d f2 bd e1 b3 bd be 4c 0f 8c be
       -0.11821972 -0.370513 -0.2735542

conv2.weight f4 [1, 1, 3, 3]
000000 eb d2 da be 87 02 62 3e 1c 68 b0 3e ed bd 39 3e
       -0.42739043 0.22071277 0.3445443 0.18138857
000010 1b b3 73 be ba 98 5d 3e 1b 1d a4 be e7 2e 9c be
       -0.23798792 0.21640292 -0.32053456 -0.30504534
000020 ed c1 de 3d
       0.10876832

linear1.weight f4 [128, 870]
000000 3a ed bb bd e4 26 b3 bc ed b5 b3 bd 5f 2b 8c bd
       -0.09176107 -0.02186913 -0.08774934 -0.0684421
000010 03 4f 42 bd 3d 78 37 3c 09 b3 cd bd fa 8d 19 3d
       -0.047438633 0.011198101 -0.10043914 0.037488915
000020 97 45 07 bd 17 1d 29 bd 50 b6 04 3d 19 bf 19 bc
       -0.03302535 -0.041287508 0.03240043 -0.00938394
000030 e5 ab 0f be 86 d7 7d bd 25 f9 05 3c 63 d7 89 bd
       -0.14030416 -0.061973117 0.0081770765 -0.06730535
000040 b7 1b cb bc 27 1d 80 bd c1 ea 5a 3d 81 0b 8a bb
       -0.024793489 -0.0625556 0.053446535 -0.004212797
000050 18 d9 51 bc 30 a8 ab bd 70 da 58 3d a0 e6 80 bc
       -0.012808107 -0.083816886 0.052942693 -0.01573497
000060 81 7c ea 3a 2f c9 cf 3c 24 2c f0 bc 7a 76 d0 bd
       0.0017889888 0.025364487 -0.029317923 -0.101788476
000070 74 4b 37 bd 02 f2 37 bd b7 a2 9a 3b 4a aa 1e 3d
       -0.044749692 -0.04490853 0.004719104 0.03873662
000080 50 16 5e bd 8c 26 f6 3d 64 cc 03 3e f4 a4 0a 3e
       -0.054220498 0.12019071 0.12870938 0.13539487
000090 57 dc 82 3d d2 2a 82 3d 89 5a 2e bb c7 f7 ad 3c
       0.06389683 0.063558236 -0.0026604256 0.021236314
0000a0 cb c7 97 bc cb 3f f2 bb 38 92 a4 bb 78 25 93 3d
       -0.018527886 -0.0073928586 -0.0050223134 0.07184881
0000b0 6a ef 8b 3d 41 12 d9 bc fd 0d 11 bc 59 a6 1e 3d
       0.06832774 -0.026497962 -0.008853433 0.03873286
0000c0 88 a1 a5 bd 20 de 31 3d 9c b6 3c bd 4f 55 35 bd
       -0.0808745 0.043424726 -0.046072587 -0.04427081
0000d0 0a 54 69 3c c6 98 b1 bc a7 65 7c bc fe be 1d 3d
       0.014241228 -0.021679293 -0.015405095 0.038512222
0000e0 45 83 20 3d 81 4d be 3d 06 9b 6f 3d 65 94 e3 3d
       0.03918769 0.092921264 0.05849745 0.111122884
0000f0 18 52 ac 3c 60 11 78 bd 7f 68 53 bd 32 8e a1 bd
       0.02103524 -0.060563445 -0.051613327 -0.0788845
000100 3b 0b e4 3c c5 f8 d5 bb 95 c6 5c bc 25 55 5f 3d
       0.027837386 -0.0065299 -0.01347508 0.05452456
000110 ef 0e 52 3d df ad ad bc 67 9b 6d 3d 1f ff f0 3a
       0.051283773 -0.021201072 0.05800953 0.0018386579
000120 c5 08 c5 3d 49 fb cd 3d a3 f6 3b 3d a9 6a 91 3d
       0.09620813 0.100576945 0.045889508 0.07100422
000130 25 44 44 3d 8c 90 b9 3c 1f a7 ed 3b 4e b3 3d 3c
       0.04791655 0.022651933 0.0072525884 0.011578394
000140 c7 fd 7c 3d d1 0c ec 3c 16 bf 4d 3d fb ad 8d bd
       0.06176546 0.028814705 0.050231062 -0.0691795
000150 07 d5 5a bd 42 26 7c 3a de fb b3 3c 19 8d b8 bc
       -0.053425815 0.0009618738 0.021970686 -0.022528218
000160 6a 08 04 bd f2 df 0a bd 9c 0b 68 bd d4 a3 e8 3c
       -0.032234587 -0.033904977 -0.056651697 0.028398432
000170 a4 47 a2 3c 63 c2 dc bd 27 ee b7 bd d8 fa b0 3c
       0.019809552 -0.10779264 -0.08980971 0.021603987
000180 72 c1 41 bd 16 e1 b4 bd 6d 27 17 3c a2 ae c5 3b
       -0.047303624 -0.08831994 0.009225708 0.0060327807
000190 c8 d0 0f be e6 e8 09 bc 7e 1a 1d bd f4 58 c1 bd
       -0.14044487 -0.008417344 -0.038355343 -0.094407946
0001a0 bf 68 3c bd 2a 51 8a bb 4a f7 1e 3c c2 bd 00 bd
       -0.04599833 -0.0042211013 0.009702513 -0.031430967
0001b0 b2 bf 64 bb f9 f4 58 3d ee e6 03 3d 20 cc 1b bc
       -0.0034904298 0.052968 0.032202654 -0.009509116
0001c0 74 74 db bd cc 8c ba bc 0b 15 a3 bd 74 b9 84 bc
       -0.10715571 -0.022772215 -0.07962998 -0.016201712
0001d0 3a 15 af 3d d9 4f 90 3c cb d0 0f 3c d0 d8 08 3d
       0.085489705 0.0176162 0.0087778075 0.033409894
0001e0 25 90 02 bc 15 ca d6 3c ab b3 4d 3d ef 38 7d bd
       -0.007968937 0.026219407 0.050220173 -0.061821874
0001f0 9c 61 1c 3c 24 87 a9 bc d6 df 99 3d 29 36 50 3d
       0.009544756 -0.020694323 0.075133964 0.0508329
000200 63 6b 8a 3a c6 a3 b4 bc 9b 3b a0 3c e6 0d 69 3d
       0.0010560568 -0.02205075 0.019559672 0.05689802
000210 4f fd 72 bc 47 89 34 3d 36 89 fe bc 91 37 ce bc
       -0.014830901 0.04407623 -0.031071287 -0.02517298
000220 e1 0f 29 3c d9 8e e3 bc e2 c6 55 bd 17 f6 13 bc
       0.010318727 -0.027778076 -0.052191623 -0.00903084
000230 a7 0e 2e bc a2 c7 80 3b 69 b9 b4 3d 79 43 63 bc
       -0.010623611 0.003930048 0.08824427 -0.013871067
000240 f0 ed 7e 38 eb 28 80 bc f8 e2 88 bd 08 d1 95 3c
       6.0779916e-05 -0.015644511 -0.06683916 0.01828815
000250 0f a2 bc 3d ff 0d f4 3c a2 74 81 bd 76 dc b2 3c
       0.09210598 0.02979183 -0.06321074 0.02183364
000260 5a e9 79 3d 6c 77 b9 3c a1 68 8a bd 5a 65 16 bb
       0.061013557 0.022639953 -0.06758238 -0.0022948594
000270 0e d0 f3 bc 8a d4 f8 3c 16 9d 2b 3b 5a 97 c3 3c
       -0.029762294 0.030374784 0.002618616 0.023875881
000280 5f 92 de 3d a0 e9 42 bc c4 e4 11 3d 44 70 65 bc
       0.10867762 -0.011896521 0.03561856 -0.014003817
000290 e1 1e fc bc 8d ff 9b 3c db ec 8d 3d e3 60 c4 3b
       -0.030776443 0.019042755 0.06929942 0.005992995
0002a0 81 57 7c 3c 9e 26 70 bd fa 5e 7d 3d 06 19 e9 3c
       0.015401722 -0.05863058 0.061858155 0.028454315
0002b0 ea 57 d8 3c f6 05 6b bd 2f 19 c4 bc 47 1f f3 3d
       0.026409108 -0.05737873 -0.02393779 0.118712
0002c0 77 62 93 3d 83 b5 b2 ba ec c3 4d bd 0a ab 1d 3c
       0.07196515 -0.0013634417 -0.050235674 0.009623298
0002d0 03 b5 a4 bb c4 de 6a 3d 29 56 96 3d d5 45 16 bc
       -0.005026461 0.057341352 0.073406525 -0.009171923
0002e0 e0 68 f8 3c d8 fa 39 bd 94 1a fb 3c bc e7 2c 3d
       0.030323446 -0.04540524 0.030652322 0.042213187
0002f0 63 ac 5d 3d 44 c0 0b bc cd 28 58 bd b5 c1 a6 bc
       0.05411948 -0.008529726 -0.052773286 -0.020356039
000300 93 f6 13 bd e0 7b e3 3c 7d 4f 72 3d c4 df 2c 3d
       -0.036123823 0.02776903 0.059157837 0.042205587
000310 57 22 fc 3c b3 57 e9 3b 97 02 3a 3c b3 d2 ce 3c
       0.030778093 0.0071210503 0.0113531565 0.025246954
000320 75 8c 87 3c 4d f6 7a 3d 3e ad 96 3b 27 3c 25 bd
       0.016546467 0.061270047 0.004598289 -0.04034057
000330 a1 ff fe bc 5d 0b b2 3d f0 0c bd 3c d3 64 0a 3d
       -0.031127753 0.086935736 0.023077458 0.03378756
000340 bc 6e 06 3d 2d 9b a3 bd 7d cc 21 3c 61 09 67 3d
       0.03282045 -0.07988582 0.009875414 0.05640543
000350 48 d5 90 bb 2e e2 bb 3c 69 e9 f6 bc 82 8a 7b bc
       -0.0044199564 0.022935 -0.030140596 -0.015352847
000360 89 f0 a7 bd 7d 75 06 3d 2a af 8e 3c 87 b6 6b 3d
       -0.08200175 0.03282689 0.01741751 0.05754712
000370 6b 20 30 3d e3 34 2c 3d c9 ba ce 3c dc c9 bb 3c
       0.042999666 0.042042624 0.02523555 0.022923402
000380 48 27 cc bc 0f e7 8d 3d 50 13 58 3d fa 7f 87 3c
       -0.024921075 0.069288366 0.052752793 0.016540516
000390 52 05 85 bc 76 4a 3d 3d 53 94 c8 3b 33 3f fc bc
       -0.016237888 0.04621359 0.0061211972 -0.030791854
0003a0 33 07 2d bd bf d5 bc 3d 74 70 32 3d 97 8d de 3c
       -0.042243194 0.09220456 0.043564275 0.027167125
0003b0 47 30 2a 3d c8 f2 98 3d d1 10 16 bd dc 2d 94 3c
       0.041549947 0.07468182 -0.03663713 0.018088274
0003c0 eb 9b 1c 3d 7a 79 b8 bb 79 79 9b 3d c9 cd 3e bc
       0.038234632 -0.0056297155 0.075915284 -0.011645743
0003d0 90 7f 0f 3d af 92 be 3d 70 b4 0c 3d 5c 97 a9 3c
       0.035033762 0.093053214 0.034351766 0.020702057
0003e0 9d f2 6b bc 11 02 b5 bc bd 68 a2 3c 2e 49 01 bd
       -0.014401105 -0.022095712 0.019825334 -0.03156393
0003f0 32 4a 4d 3d 41 c1 cf bd 8e 3f 0b 3b 6d 39 cb bc
       0.050119586 -0.10144282 0.0021247598 -0.024807656

linear1.bias f4 [128]
000000 75 1f 8c 3e 15 aa 16 3d 74 c2 2d be 7a 38 45 be
       0.2736775 0.036783297 -0.16968709 -0.19259825
000010 70 8f 88 3e c7 ca b2 3d e5 42 19 3e 4e 93 f8 3d
       0.26671934 0.08730083 0.14966924 0.12137471
000020 be 88 ad bd 1f 30 9e 3c a5 55 0f be d9 58 86 3e
       -0.08473347 0.019310055 -0.13997515 0.2623966
000030 d0 2d 4f 3d 7a df 97 3d 83 0e 84 3e 9c 69 bd 3d
       0.0505808 0.07415672 0.25792322 0.09248659
000040 d1 5c bf 3d 88 03 da b9 3b b2 79 bd 8b 6c 45 3d
       0.09343875 -0.0004158283 -0.06096099 0.048199218
000050 7d 02 82 3e 7f 27 39 be ed 81 97 3e 4e a5 8b be
       0.25392523 -0.18081473 0.29591313 -0.27274555
000060 fb 59 a1 3d d1 56 00 be 10 95 7c be e1 71 af bd
       0.078784905 -0.12533118 -0.24666238 -0.085666426
000070 39 41 56 3e d5 88 6c 3e 40 32 12 3e fb 60 84 be
       0.20923318 0.23099072 0.14276981 -0.2585524
000080 a5 ab 4d 3e fd 8b 70 3e 4d 1c 1c be 58 f3 7a bc
       0.20085008 0.23490901 -0.15245171 -0.015316807
000090 c3 3d 39 bd 38 dc 12 3d 25 ba 3d 3d e7 79 37 3e
       -0.045224916 0.03585455 0.0463201 0.17917596
0000a0 d1 42 09 bb 4b a7 96 be 51 7f 50 be 2e 4b ed 3d
       -0.0020944367 -0.2942451 -0.20361067 0.11586605
0000b0 b1 be 92 be a5 b6 42 be a4 b5 32 3c 2b 1c 9a bd
       -0.2866111 -0.19014986 0.010907564 -0.07524904
0000c0 5b e9 41 be a4 e1 b7 bd 69 f6 2b 3e 11 de ed bd
       -0.18936674 -0.089785844 0.16793217 -0.116146214
0000d0 1a 86 0e bd 53 b3 6b 3e 60 61 71 be a1 17 e4 bb
       -0.034795858 0.23017626 -0.23572302 -0.0069608246
0000e0 55 0a 05 3e 29 30 30 3d da 4e 02 3e a5 ac 39 be
       0.12992223 0.04301468 0.12725392 -0.18132265
0000f0 08 f0 28 3e 74 fd 57 be dc 6d d9 3c 19 50 5b bd
       0.16497815 -0.21092778 0.026541643 -0.053543184
000100 61 e9 3d be ce 84 23 be 97 92 10 be 35 a0 83 3e
       -0.18546058 -0.1596863 -0.1411842 0.25708166
000110 90 5e 90 3d d2 9d 31 be 3b e3 1b be e0 25 a7 3e
       0.07049286 -0.1734536 -0.152234 0.32646084
000120 04 f5 93 3d c4 b8 a7 bd 92 60 6d bd a2 f5 5e be
       0.072244674 -0.08189538 -0.057953425 -0.21773389
000130 15 85 39 3e 08 82 2a 3e 36 d8 33 3e 73 67 bd 3d
       0.18117173 0.16651165 0.17562947 0.09248247
000140 70 38 f9 3d 62 f9 e0 ba 97 5a 02 3e 8d 60 5e 3e
       0.12168968 -0.0017164166 0.1272987 0.21716519
000150 59 d6 33 bd c5 df 7b be 9d 83 7d 3d d5 0a 5e be
       -0.04390559 -0.2459708 0.061893094 -0.2168382
000160 bc 84 8e bd 09 d0 a5 bc 4e 96 21 3d 34 52 ee 3d
       -0.06958911 -0.0202408 0.039449982 0.11636773
000170 01 a5 54 bd 20 f4 96 3d 0a 81 ac bd ca 1c 91 3d
       -0.051915172 0.07370782 -0.0842305 0.07085569
000180 de b3 23 be be 2c d4 bc b7 19 6c be 76 98 d1 bd
       -0.15986583 -0.025900241 -0.23056684 -0.10234158
000190 ca 80 cc bd 71 a0 09 bd 35 5c 8b bc e3 63 03 be
       -0.09985502 -0.033600274 -0.017011741 -0.12831073
0001a0 b7 23 1a 3e 8c da 9e 3d 42 53 65 3e 6a 1c 3a be
       0.15052687 0.07756528 0.22395042 -0.18174902
0001b0 3b 4c 48 bd 45 1e ba 3c 40 25 16 3e c7 e1 99 be
       -0.048900824 0.022719512 0.14662647 -0.30055067
0001c0 43 e5 a2 be 0d c5 41 3e eb 22 52 be d5 e8 08 be
       -0.31815538 0.18922825 -0.20521133 -0.13370068
0001d0 d2 b9 0e 3e e5 4e 7c 3e be ae 13 3e 0e 44 ec bd
       0.13938072 0.24639471 0.14422128 -0.11536418
0001e0 fe f6 a5 3e 4b d3 34 3e 85 43 8c 3e ee ae 20 be
       0.32415003 0.17658727 0.27395263 -0.1569173
0001f0 03 be 69 3d f3 f9 21 be 29 c1 93 3e 58 4a 37 be
       0.057065975 -0.15818004 0.28858307 -0.17899454

linear2.weight f4 [32, 128]
000000 26 06 e4 3d ca ec bb bd 5a 3c 9f 3d 26 28 04 3d
       0.11133985 -0.09176023 0.07775183 0.03226485
000010 a6 98 77 3d 0a 3b 7c bc 41 5e 37 3d 12 68 f3 3d
       0.06044831 -0.015394935 0.044767622 0.11885084
000020 96 64 ab bd f1 d1 6f 3d 19 e7 80 3c 02 8a ae bd
       -0.083687946 0.058549825 0.015735196 -0.08522417
000030 cf 3c ac bc e2 24 7b 3d 0b 97 fa 3d 02 7e 73 3b
       -0.02102509 0.06131447 0.122358404 0.0037153964
000040 07 ef 19 3e b2 8c 07 be a2 30 cc 3c 23 ad 61 bd
       0.15032588 -0.13237265 0.024925534 -0.055096757
000050 f3 0b 60 bd 5c 04 7b 3c 50 44 bd bd 64 59 a7 bd
       -0.054698896 0.015320864 -0.09241545 -0.08171347
000060 ac bd 07 3e 87 a0 21 be a3 c2 01 3e 6b 8a 25 be
       0.13255948 -0.15783893 0.12671904 -0.16166084
000070 28 a1 e1 3d ff 06 79 bd 39 3d d5 3d 5b 1c fe bc
       0.11017066 -0.060797688 0.10412068 -0.03101938
000080 ec b1 8e bc 83 0c 6c 3d 8a fd 03 3d be 1f 38 3c
       -0.017418824 0.05762912 0.032224216 0.011238037
000090 9c d2 29 3c bf f1 07 bd 82 c7 e4 3c 8a 4a 8e 3c
       0.010365155 -0.03318953 0.027927164 0.017369527
0000a0 cd e6 94 bd a3 1c 10 3e 7a a8 bc bd aa fe 96 3d
       -0.07270584 0.14073424 -0.09211822 0.07372792
0000b0 db 80 a6 3a 33 05 89 bd f3 f8 03 be a9 87 2b 3e
       0.0012703197 -0.06690445 -0.12887935 0.16750969
0000c0 16 a3 3f bd 83 65 3c bd 3c 90 08 3e e1 82 9f bd
       -0.04678639 -0.045995247 0.13336271 -0.07788635
0000d0 47 aa f6 bd 97 97 cb 3c 97 b8 fe 3d 62 fe 96 3d
       -0.120441966 0.024852557 0.124375515 0.073727384
0000e0 67 66 db 3d a8 0c ef 3d 65 a8 0d 3d e1 92 aa bd
       0.10712891 0.11672336 0.03458442 -0.08328796
0000f0 52 c6 a4 bd 07 ca ff bd 13 c6 8f bd bc 6d 85 bd
       -0.08045639 -0.124897055 -0.070202015 -0.06515071
000100 c8 b8 ee bb 31 ed 53 bd cc f1 9a bd b8 5e fe 3d
       -0.0072852112 -0.051739875 -0.0756565 0.1242041
000110 06 66 ec bc 91 28 db bd 75 7d 46 bc d3 05 d8 3c
       -0.028857242 -0.10701097 -0.012114872 0.026369965
000120 77 60 55 3d ff 97 00 be 45 93 82 3d f8 30 e2 bd
       0.05209395 -0.12557982 0.06375746 -0.11044496
000130 ca 0f 3d bd 18 97 98 bd 2d 80 3d 3c 35 04 6e bc
       -0.046157636 -0.07450694 0.011566204 -0.01452737
000140 84 b5 14 be 3a 73 d3 3d 0e 12 0a be 43 e0 8f bc
       -0.14522368 0.10324712 -0.1348345 -0.017562991
000150 0d 2d c5 bc 3a 66 cd bd 2e 1b d9 3d e1 e0 96 3c
       -0.024069333 -0.10029264 0.10600887 0.018417777
000160 91 ba 78 bd d0 bc 9e 3d f1 48 ec bd 10 9a 91 bb
       -0.0607248 0.07750857 -0.1153735 -0.0044434145
000170 41 19 df 3d b7 45 b7 3d a5 28 05 bd a2 44 fb 3c
       0.10893489 0.08948844 -0.032509465 0.030672375
000180 70 20 84 bb e0 13 f6 bd 59 30 d5 3c ad 1d ea 3d
       -0.004032187 -0.120155096 0.02602403 0.114314415
000190 91 34 ed 3d 23 83 06 3d fa a4 72 bd ca 31 98 bd
       0.11582292 0.032839905 -0.059239365 -0.074313715
0001a0 0e b5 f7 3c e7 b7 2e bc aa c8 75 3d 4d 77 99 bd
       0.0302377 -0.010663963 0.06000582 -0.07493458
0001b0 2c 1b e3 bd b1 14 98 bd 58 a4 11 3e 0c c5 9a bd
       -0.11089167 -0.074258216 0.14222848 -0.07557115
0001c0 60 e3 1c 3d ea 7e f6 3d ce 2a 2a be 05 90 9d bd
       0.03830278 0.12035926 -0.16617891 -0.07693485
0001d0 47 62 86 bd 9f ba 29 3d 97 1d 7c bc 63 d9 06 be
       -0.06561714 0.04143774 -0.015387914 -0.13168864
0001e0 c0 12 86 3d 47 cb 0a be 80 30 29 3d 4a 08 a3 3d
       0.06546545 -0.13554107 0.04130602 0.079605654
0001f0 3e d7 11 be a3 bd 62 3c 15 c4 86 bd 42 e7 42 3c
       -0.14242265 0.013839158 -0.065803684 0.0118959565
000200 92 77 2c 3e b6 d8 91 bd ed 53 5b 3d f6 61 0e bd
       0.16842487 -0.071214125 0.053546835 -0.03476139
000210 9e 0a ec bc 27 0f 54 3c a9 c0 4b 3d 91 35 93 bd
       -0.028813656 0.012943066 0.049744282 -0.07187951
000220 3c d7 6c 3d 37 54 d0 3d 72 d4 b4 bc 83 94 53 3d
       0.05782245 0.10172313 -0.022073958 0.051655304
000230 49 0b 09 3e c8 f7 36 3d 5b 41 6c 3d e7 db 9d 3c
       0.13383211 0.044669896 0.057679515 0.019269897
000240 42 ad c1 3d 8f b6 ca 3d 7c 33 ad bd b3 1b 51 3d
       0.094568744 0.098981015 -0.084570855 0.051051807
000250 ac 8e 9c 3d cc d4 fd 3d 5e 6c 0e 3d 37 55 09 3e
       0.076444 0.123941034 0.034771316 0.13411413
000260 cb 8e 05 bb 4f 5a 1e 3e ed 0c 89 bd eb 54 88 3d
       -0.00203793 0.15464137 -0.066919185 0.06656822
000270 1f f4 17 3c 9b fa ba bc 6b 2c 49 be aa e2 25 bd
       0.009274512 -0.022824576 -0.1964585 -0.040499367
000280 bc da cb 3c 32 78 13 3d 68 94 f9 3c 41 42 fc 3d
       0.024884574 0.0360033 0.030466273 0.123173244
000290 b5 e8 05 be 85 d2 64 3d f8 43 a8 bd d3 15 b2 3d
       -0.13077052 0.05586483 -0.08216089 0.08695569
0002a0 73 87 c0 bc a8 df f9 ba f0 fb d1 3d 46 bb d6 3d
       -0.023502087 -0.0019063847 0.102531314 0.10484938
0002b0 f3 51 05 be 24 bc e8 3b fd 23 9a 3d eb 06 5e bd
       -0.13019542 0.0071025062 0.075263955 -0.054205816
0002c0 7e f7 1b be 30 ce ee bd 3c 66 8c bd ed 4e 1e 3e
       -0.1523113 -0.11660421 -0.06855437 0.15459795
0002d0 9a c5 23 be 30 31 bc bd f2 ee 28 3d 90 4e c4 3b
       -0.15993348 -0.09189069 0.0412435 0.0059908107
0002e0 c9 3a fb bd 22 b0 c0 3c bb ef 50 3d 58 22 c7 bc
       -0.12267072 0.023521487 0.051009875 -0.024308369
0002f0 8d ef 35 bd 66 cb c4 bd 0d 31 a3 3c 9f ba 2b bd
       -0.044417907 -0.09609108 0.01992085 -0.041926023
000300 6e 75 19 3e b2 a6 d3 3d 39 0e 20 3c 8a e8 11 3d
       0.14986202 0.10334529 0.009769016 0.035622157
000310 fd f0 12 be 5e db d2 bd 69 b0 cd 3b 2f 92 2b 3e
       -0.14349742 -0.10295747 0.0062771332 0.16754983
000320 75 7c 0d 3e a3 8b 14 3e 72 3a 81 3d 33 54 dd bc
       0.13817008 0.14506392 0.06309976 -0.027017688
000330 5d 4b 6f 3d 26 7d 66 3c 11 28 1a 3d b1 0c e6 3c
       0.05842148 0.014067924 0.037635867 0.028082224
000340 49 34 79 3d 60 f1 35 3c db 61 0a be ad 83 8f 3d
       0.06084088 0.011104912 -0.13513891 0.07007537
000350 96 15 b9 3d 55 c2 57 3b 8d 24 8d bd 0e 58 bf 3d
       0.0903732 0.0032922227 -0.06891737 0.09342967
000360 8c 39 26 be a6 fb c9 bd 5f 4b ef bd 8d 9e 15 be
       -0.1623289 -0.09862451 -0.11684298 -0.14611264
000370 2f 5a 37 3d 46 6f db 3b 4d df cf 3d fd c3 2f 3d
       0.04476374 0.0066966144 0.10150013 0.04291152
000380 c6 9e cb 3d 3f 1a 51 3d f1 e2 6e bd 10 11 00 bd
       0.09942393 0.05105042 -0.058321897 -0.031266272
000390 71 49 37 bc bc d9 1a 3c 37 2d fc bd e8 19 a8 3d
       -0.011186943 0.009451326 -0.123133115 0.08208066
0003a0 1f f0 4f bd f2 4b 9e 3d 2f 02 b8 bd 35 aa 0a be
       -0.050766107 0.07729329 -0.089847915 -0.13541491
0003b0 e4 96 d5 39 1a 88 01 be 68 e9 2a 3b ef 11 d4 3d
       0.00040738948 -0.12649575 0.0026079062 0.10354983
0003c0 8b be 84 bd 9d a2 eb bd 5b 07 b9 bd e7 cf 46 bd
       -0.06481656 -0.115056254 -0.09034606 -0.048538115
0003d0 70 ca 90 bc 86 ac 01 3e e2 10 07 3d ae 4b 33 bd
       -0.017674655 0.12663469 0.032975085 -0.043773346
0003e0 23 49 24 3d 74 a5 22 bd bd e0 b9 3d 89 b3 89 bc
       0.04010881 -0.03970857 0.090760686 -0.016809242
0003f0 38 5e 19 3d 4f cc 10 be cb 1a 7f bd 55 a2 af 3d
       0.03744337 -0.14140438 -0.06228141 0.08575884

linear2.bias f4 [32]
000000 77 21 da 3d ca e6 6b 3d db 4c f2 bd 6e 37 01 be
       0.10650914 0.057593144 -0.11831065 -0.12618801
000010 95 96 19 3e 1a c7 6a 3e cd a0 2a be 43 55 b7 be
       0.14998849 0.22927514 -0.16662903 -0.35807237
000020 9c 1d fe bd 62 7a 1c 3e 6a a3 f3 3c 8d 50 ea bd
       -0.12407991 0.1528106 0.029741008 -0.11441145
000030 fe b8 2a be 7c 0d 86 bc 11 2c 36 3e 7a e3 f7 3d
       -0.16672131 -0.016363852 0.17790247 0.121039346
000040 5a 50 1d 3e 8b 91 44 be d9 18 84 be 08 76 f5 bc
       0.15362683 -0.19196145 -0.25800207 -0.029963508
000050 d2 65 56 3d 47 89 d4 bd 8f 65 b6 3c 11 e9 18 3e
       0.052343197 -0.10377746 0.022265224 0.14932658
000060 23 d1 e2 3a e4 b6 8c be cd 26 ca bd f9 dc f2 bd
       0.0017304759 -0.27483284 -0.09870682 -0.118585534
000070 d4 a4 06 3d a2 01 95 3a 88 3e 10 3e ca 7e 13 be
       0.032872036 0.0011368284 0.14086354 -0.14403835

output.weight f4 [50, 32]
000000 1e da 99 bb 95 44 f4 bd f3 82 f4 3d 4d 58 10 bd
       -0.004695191 -0.119271435 0.11939039 -0.03524046
000010 2e d0 0f b9 56 02 90 bc 3c 08 25 be ec 77 b8 bd
       -0.00013715096 -0.017579239 -0.16116422 -0.09007248
000020 4f 0f 96 3d 54 35 69 be 1b 96 46 be 53 69 15 be
       0.07327139 -0.2277425 -0.19393198 -0.14590959
000030 94 0f f2 3c 9c 80 c9 3c 86 a1 0c 3e 93 9f 8f 3d
       0.029548444 0.024597459 0.13733491 0.07012858
000040 57 8a b0 bd 7c a0 23 3e 5e 2f 42 be bd 07 95 bd
       -0.08620136 0.15979189 -0.18963382 -0.072768666
000050 54 44 3e 3e 78 a6 0a bc b1 13 29 be 46 39 58 be
       0.18580753 -0.008462541 -0.16511418 -0.21115598
000060 32 bf 00 3e 2d 0b 30 be 91 3f 25 be a7 37 11 3b
       0.12572935 -0.17191763 -0.1613753 0.0022158416
000070 7b cb f5 3d 71 60 e5 bd c3 fe 33 3e ed a1 7c 3e
       0.120017014 -0.11200035 0.17577653 0.24671145
000080 32 50 43 3d a9 5a 72 bd 56 b5 1e 3d 53 f5 97 be
       0.047683902 -0.05916849 0.038747154 -0.29679355
000090 ff c3 2f 3d b2 3e 98 bd 31 bb 1e 3e 34 1f 01 3e
       0.042911526 -0.07433833 0.15501095 0.1260956
0000a0 91 9b 7f be af b9 85 be 2f c1 a3 3d f6 59 20 3e
       -0.24961688 -0.26118228 0.07995831 0.15659317
0000b0 7c 29 df 3c c8 c4 42 be 82 86 54 3e db de 07 bd
       0.027241461 -0.19020379 0.20754436 -0.033171516
0000c0 56 56 4b bc 01 76 a1 3e 92 02 2b be 4b 9b aa bd
       -0.012410721 0.31535342 -0.16700199 -0.08330401
0000d0 e0 03 4a 3e 21 94 74 bd 27 8d 48 bd ba 96 29 3e
       0.1972804 -0.05971158 -0.04896274 0.16561404
0000e0 f7 16 ed bd 2f cd 4d be a0 48 c8 3d 7c f3 69 be
       -0.11576646 -0.20097803 0.09779477 -0.22846788
0000f0 8b 15 a9 3d 03 07 6f bd f0 4d 9d 3e fc 36 0c be
       0.08256062 -0.058356296 0.30723524 -0.1369285
000100 ff 02 50 3d 57 d3 bf 3d 8f 17 d8 3d 55 6b 52 3e
       0.050784107 0.09366482 0.105513684 0.20548756
000110 79 b9 ba bc 87 d2 50 3c ef 91 0d bd 10 64 b6 bd
       -0.022793518 0.012745506 -0.034563 -0.08905804
000120 0a fa 6b bd b4 23 8b bd 42 55 26 3e f7 35 24 3d
       -0.057611503 -0.06793919 0.16243461 0.040090527
000130 60 be 4a 3e 20 dc ec bd 5c 60 23 be f0 0e eb 3c
       0.19799185 -0.11565423 -0.15954727 0.028693646
000140 69 7f c4 bd fa 5e 37 3d 90 3f 02 be 56 e0 31 bb
       -0.09594614 0.04476831 -0.1271956 -0.0027141771
000150 30 85 09 3e 30 3b 31 3e 73 18 18 be ed a5 9d bc
       0.13429713 0.17307734 -0.14853077 -0.019244159
000160 ad 37 ee bd 77 ab 10 be 62 19 df 3d e3 f0 2c 3e
       -0.11631713 -0.14127909 0.10893513 0.16888766
000170 2f 63 27 be 6d 3d 09 3e ad 61 da bc d4 78 70 3d
       -0.1634643 0.13402338 -0.026657904 0.05870898
000180 99 e7 32 3d 77 ac 3d be 01 4e fd 3c 0a 6e 7c 3d
       0.0436779 -0.18522821 0.030920984 0.06162838
000190 27 63 09 be 13 d4 d3 bd 12 dc 06 be c1 c5 40 3e
       -0.1341673 -0.10343184 -0.13169888 0.18825437
0001a0 76 a4 5e 3b 2e 37 3d be 25 1e 6e 3b fa c3 54 bd
       0.0033972538 -0.1847808 0.0036333886 -0.05194471
0001b0 b9 d0 4d 3d 39 f8 c3 3c 54 59 a4 bd e7 91 16 be
       0.05024788 0.023922073 -0.080248505 -0.14704095
0001c0 70 35 ca bd 99 37 3e be f8 48 2f bd 60 66 2d 3e
       -0.09873474 -0.18575896 -0.042794198 0.16933584
0001d0 4f 72 36 3e b6 17 b6 3c f0 bf 52 bd e4 07 49 be
       0.17817043 0.022228103 -0.051452577 -0.19631916
0001e0 ce 6a cb 3d 44 32 6b 3e 9e f4 e1 bd 05 cb df bd
       0.09932481 0.22968394 -0.11032985 -0.10927395
0001f0 9d 4d 96 bd 25 09 9a 3d d7 2b 1f 3b 21 fa fd bd
       -0.07339022 0.075212754 0.0024287605 -0.12401224
000200 04 d3 27 bd 54 ff ef bd 7a b2 ce bd c6 43 65 3d
       -0.040972725 -0.11718622 -0.100926355 0.055972837
000210 ad 2e 35 bd ae 24 64 3d fd aa c3 bd 48 a2 18 3e
       -0.044233967 0.055699043 -0.09554098 0.14905655
000220 30 22 1e be 90 bb 27 3e 33 f3 a8 bd 65 23 03 3e
       -0.15442729 0.16380143 -0.082495116 0.1280647
000230 6b 10 c4 3d 01 f8 d5 bd 8e a3 b8 3d 30 d1 0a bd
       0.09573444 -0.104476936 0.090155706 -0.033890903
000240 a6 f0 0a bd 12 a8 78 bd c9 67 5c 3d 0b d9 b1 bd
       -0.033920906 -0.06070716 0.053809915 -0.08683976
000250 7d c7 ce bc b0 45 c6 bd 30 cb db bc d2 c3 42 3c
       -0.025241608 -0.096812606 -0.026830286 0.0118875075
000260 a2 c4 73 bd 74 b4 be 3d 3a af 79 bd e5 43 4c 3e
       -0.059513696 0.093117625 -0.060958125 0.19947775
000270 51 5e ae bd 4b fe 98 3c d9 ee 9d 3d db 71 2f be
       -0.08514083 0.018675944 0.07711572 -0.17133276
000280 6b 95 35 3e 9b f4 17 3e 70 f2 c6 3d 18 a4 45 3e
       0.1773278 0.14839403 0.0971421 0.19300878
000290 8a 31 94 bd 9f 4d f7 bc af 7c 36 3e 8e 9c 1a bd
       -0.07236011 -0.03018838 0.17821 -0.03774696
0002a0 6d 3d 24 be e9 9b a9 bb 38 a4 82 bd de b2 d1 bb
       -0.16039057 -0.0051760566 -0.063789785 -0.0063994965
0002b0 fa 7a 7b be a0 ec ea 3c ed 2b 35 3d 28 c7 97 3d
       -0.2455863 0.028677285 0.044231344 0.07411033
0002c0 aa e9 1c be 7f 64 ee bd 8d 72 3d be bf 79 f6 3d
       -0.15323511 -0.11640262 -0.18500729 0.1203494
0002d0 e5 59 4d bd d2 cc c0 bc b1 30 3c 3e 7d e4 5d bc
       -0.05013456 -0.023535166 0.1837795 -0.013543245
0002e0 45 e7 47 3e 65 0f d5 bd 4d d5 0b 3d fc 5f 2d 3e
       0.19521816 -0.10403327 0.034138966 0.16931146
0002f0 65 f5 0d be ec a5 96 bd f7 d1 30 be 02 98 ab bd
       -0.13863142 -0.07355866 -0.17267595 -0.083786026
000300 3b 5b fc bd 6e 07 5e 3e bc 28 8f bc b8 53 69 3e
       -0.12322088 0.21682522 -0.017475478 0.22785842
000310 3f dd 30 bc 47 5f 7d be 5b 1f 6d ba 54 f0 00 be
       -0.010794937 -0.24743377 -0.0009045505 -0.12591678
000320 56 1c c3 3d e4 06 f3 bd 64 6f 45 3e a9 b9 22 3d
       0.09526889 -0.11866549 0.19280773 0.03972784
000330 18 71 2b be 7e 49 9a bd 31 13 1f 3e 3d 9b 48 be
       -0.1674236 -0.07533549 0.15534665 -0.19590469
000340 98 31 3e 3e 1e 1b 90 bd d0 61 51 3d 44 34 b5 bd
       0.18573606 -0.07036422 0.051118672 -0.088478595
000350 ba bc f1 3d 8a d6 5b 3e ec f7 3b bd 18 19 7c bd
       0.11803575 0.21468559 -0.045890734 -0.06154737
000360 49 a1 4f 3e de 3b c2 bd fe 2f 13 be 6d 22 11 be
       0.20276369 -0.09484075 -0.14373776 -0.14173289
000370 a0 c7 39 3d aa 55 d9 3d 19 37 00 be e9 b9 be 3d
       0.045356393 0.10612042 -0.12521018 0.09312803
000380 bc 4a 7c 3d dd 14 2c 3e 05 73 f9 3d 51 90 da 3d
       0.06159471 0.16804834 0.12180141 0.106720574
000390 9b 4a 87 3d 17 67 2a be 40 5e 14 3d 80 0e 3d 3d
       0.06606027 -0.16640888 0.036222696 0.046156406
0003a0 d8 37 da 3d 21 d3 06 3e 2b cf 82 bd 08 a9 8a 3e
       0.106551826 0.13166477 -0.063871704 0.27082086
0003b0 42 60 23 bd f5 63 c9 3d 89 4f 62 bd b4 3a e6 3c
       -0.03988672 0.098335184 -0.055251632 0.028104164
0003c0 59 5b 3b be 8e 08 87 3d f1 76 46 bd f7 4c ad bc
       -0.18296565 0.065934286 -0.048453275 -0.021154864
0003d0 90 64 73 be 60 f4 b8 bb 84 d6 0c 3b d5 a8 23 3e
       -0.2376883 -0.005644366 0.0021490166 0.15982373
0003e0 30 36 d6 3c 8b 56 59 3e e4 de 50 be 14 b4 c5 bd
       0.026148885 0.2122442 -0.20397526 -0.09653488
0003f0 c1 b5 fd bd ef d4 41 be 3d b5 a3 3d b4 bf 5a 3e
       -0.123881824 -0.18928884 0.07993553 0.21362191

output.bias f4 [50]
000000 ce 4c 80 bd 03 51 31 3e e3 6b 75 bd 06 40 5b be
       -0.06264649 0.1731606 -0.059917342 -0.21411142
000010 cd 90 5d be d5 c6 fe bd f9 4e 7b 3d ef 48 81 be
       -0.21637268 -0.12440268 0.06135461 -0.25250956
000020 a3 5d f0 bd ae e2 ad 3e 27 f7 ca bd da ef ba bd
       -0.1173661 0.33962005 -0.09910422 -0.09127779
000030 7f 57 b4 3d 70 32 0d be 08 3b d9 3d 7b 56 a8 3c
       0.08805751 -0.13788772 0.106069624 0.02054905
000040 68 82 f6 3d 89 bc 6e bc a6 39 b5 3e 73 27 9e 3d
       0.12036592 -0.0145713175 0.35395545 0.07722368
000050 f1 d9 55 3d e1 b7 9a be fe 4b 0c bd 54 ee a7 3d
       0.0522098 -0.30218413 -0.03425216 0.08199754
000060 fe c6 ac be 18 70 89 3d b8 e0 28 be 06 e8 be 3c
       -0.3374557 0.06710833 -0.16491973 0.023303997
000070 a5 86 aa be cd 85 94 bd fe fa d0 be c6 69 8e bc
       -0.3330585 -0.07252083 -0.40816492 -0.017384421
000080 7f 36 36 3d 1e 09 f1 3c da c3 58 3e a8 10 12 be
       0.044485565 0.029423293 0.21168461 -0.14264166
000090 e7 3c f2 3d ed 8c bd bc 41 e9 db bb cd 1d 01 3e
       0.118280225 -0.023138488 -0.0067111556 0.12609024
0000a0 74 d8 b0 3d 6b 8b 6a 3e 67 39 d2 3e 2b 8c a9 3d
       0.08635035 0.22904746 0.4105942 0.08278688
0000b0 38 ae 02 bd 0a 3c 9f 3c 69 0b 2f 3e e0 28 74 3e
       -0.03190443 0.019437809 0.17094196 0.23843718
0000c0 b0 7a 98 3e 51 22 14 be
       0.29781103 -0.14466216
