datasets/code/development/models/best_model_055.pth (torch, 596469 bytes, 8 tensors)

conv1.weight f4 [1, 1, 5, 3]
000000 58 4f 15 3e 11 89 cc 3d 78 58 94 3e bc 63 1b 3f
       0.14581048 0.09987081 0.28973746 0.6069906
000010 bc 15 cb 3e cd 88 b4 be f5 45 01 3f ce 9b b6 be
       0.3966502 -0.3526062 0.5049737 -0.35665745
000020 88 49 c1 bc 24 fc 70 3e 33 75 53 bd 3f cc a1 be
       -0.023594633 0.23533684 -0.05162544 -0.3160114
000030 4f d5 55 be f9 31 ee be 8d 0c b6 be
       -0.20882152 -0.465225 -0.3555645

conv2.weight f4 [1, 1, 3, 3]
000000 d4 4e 26 bf f7 48 83 3e c2 8c f7 3e 80 38 7f 3e
       -0.6496403 0.25641605 0.48349577 0.24923897
000010 34 e7 d4 be 9f a1 77 3e 46 ac b9 be a9 f0 b7 be
       -0.41582644 0.24182747 -0.36264247 -0.35925797
000020 b9 ea bc 3d
       0.09224457

linear1.weight f4 [128, 1110]
000000 24 ff f6 3d 43 9e 59 bd cb 44 a1 3c 0c 02 97 3d
       0.12060383 -0.053129446 0.019686123 0.07373437
000010 33 1a 3e ba 53 30 30 bd 89 cc d6 3d 54 66 a2 3d
       -0.0007251829 -0.043014836 0.10488231 0.07929674
000020 e9 05 b5 3c 00 51 c3 3d cf aa c2 3d cd 69 a1 3d
       0.022097545 0.09536934 0.095052354 0.07881508
000030 db 31 57 3d 89 64 8e 3d 20 e8 60 bc 03 4a 20 3c
       0.05253778 0.06952769 -0.013727218 0.009783271
000040 7b 06 47 3d 1b a6 ab bd 7b 01 29 3d 7c 78 24 bd
       0.048590165 -0.083812915 0.041261178 -0.040153965
000050 64 00 50 bd 3c bc 72 bd 0c 35 a3 bc 23 b1 34 3d
       -0.050781623 -0.059261546 -0.019922756 0.044114243
000060 9f 8a b6 39 4f 2d 36 3d 33 9d 60 3d 96 6b 89 3c
       0.00034817026 0.044476803 0.054837417 0.016774934
000070 70 43 aa 3d 19 45 a0 3d e6 dc a1 bc e0 ee b1 3d
       0.08313644 0.07825679 -0.019758653 0.0868814
000080 49 d0 da 3d 0a bb 71 3c 00 bf ab bc 5b 71 e8 3d
       0.106842585 0.014754066 -0.0209651 0.11349746
000090 31 e6 50 3d a0 df d1 bd 5d 49 cb 3d 5a d4 ce bc
       0.051000778 -0.10247731 0.09926102 -0.025247741
0000a0 4d f7 32 3c 5f 2d ef bd 7a 60 46 bd af f8 d2 bc
       0.010923219 -0.11678576 -0.04843185 -0.025753347
0000b0 71 74 80 3c 20 56 7f bd 4a c2 8b bd 25 5b 22 3d
       0.015680524 -0.062337995 -0.06824167 0.039637703
0000c0 aa 9b c2 bd 0f d3 5c 3c 84 e1 c6 bc df c5 b6 3d
       -0.09502347 0.013478055 -0.024277456 0.0892446
0000d0 93 3c a5 bd 3a 92 06 3e 0e d7 1f 3d 23 a8 56 bd
       -0.08068194 0.13141719 0.03902345 -0.05240644
0000e0 44 a3 fb 3a ca 59 7b 3d e6 84 a0 3d e4 a7 56 ba
       0.0019198437 0.061364926 0.07837848 -0.000818847
0000f0 2f f9 82 bd f1 f5 c7 bc 01 a8 9a bd 2a bd 53 be
       -0.06395184 -0.024409266 -0.075515755 -0.20677629
000100 cc 5e 65 3c 2f 54 cc bd 75 cf 4e bb d2 b8 85 3c
       0.013999652 -0.09976994 -0.003155676 0.01632348
000110 8e 39 c7 bd a3 a8 58 bd cb 1c b4 bb df 4c f4 3c
       -0.097277746 -0.0528952 -0.0054965965 0.029821811
000120 74 84 da 3d 6d 57 10 bd 48 e2 33 3e aa 60 b7 3d
       0.10669795 -0.035239626 0.17566788 0.08953984
000130 91 96 90 bd cf 05 5e 3e 6c ab 2d 3e 16 db f1 bd
       -0.07059968 0.21681903 0.16959924 -0.118093655
000140 b9 8e 21 3e 31 17 8e bd e3 29 03 3c f9 20 90 3d
       0.157771 -0.06938017 0.008005592 0.07037539
000150 0a ae 81 bd 0b 70 aa 3d b6 b4 35 3d 5d be 59 bd
       -0.063320234 0.08322152 0.044361793 -0.05316006
000160 f4 ff 4c 3d 43 a2 6d 3c f5 00 0d bc 8b 41 51 3e
       0.050048783 0.014504018 -0.008606185 0.20435159
000170 b6 94 ad bd 39 00 18 bd 3a e5 0c bd e5 a6 9b bd
       -0.0847563 -0.037109587 -0.034398295 -0.07600192
000180 7a 94 0b 3c c6 70 91 3d 30 4d 0a 3d 2f ce 2e bc
       0.008519286 0.07101588 0.033765018 -0.010669275
000190 04 5e 63 3e c4 d7 df bd f3 a2 80 3d ec b0 7f 3d
       0.22203833 -0.10929826 0.0628108 0.062424585
0001a0 a6 ad bf bd 5c 5e c9 bc 35 58 4a 3e a3 57 65 3c
       -0.09359293 -0.024581127 0.19760211 0.013997945
0001b0 d0 07 da bd d4 13 3a 3d 4e 18 ab 3c 5d e5 58 bd
       -0.10646021 0.045429066 0.020885613 -0.052953113
0001c0 18 aa e1 bb 74 00 93 3d be a4 41 3e 91 79 50 3d
       -0.006886732 0.07177821 0.189105 0.050897185
0001d0 d5 0c 97 3e 5f e4 99 bd ab a8 fb bc 9a 96 e6 3d
       0.29501978 -0.075142615 -0.030720076 0.11259194
0001e0 7a 97 68 3e 1b 77 3f be 75 79 55 3b 70 e4 23 bd
       0.22714034 -0.18697779 0.0032573615 -0.040012777
0001f0 fc 7b a7 3d e2 a9 53 3c 5c 98 48 be 32 2b 52 3c
       0.08177945 0.012918921 -0.1958937 0.012827681
000200 e0 7e 2a 3e 04 a5 8a 3e d8 63 42 3c f3 0a c0 3d
       0.16649961 0.27079022 0.011864625 0.093770884
000210 a3 06 0c 3e 50 6b 03 be a0 ed 33 be f1 0b 3d 3d
       0.13674407 -0.12833905 -0.17571115 0.046153966
000220 f7 84 09 be 36 9d 71 3c 9a e0 34 bd 59 5f a1 bb
       -0.13429628 0.014746955 -0.04415951 -0.0049246964
000230 dc f2 85 3e 05 56 21 3e 41 53 1b 3e 93 9a 81 3d
       0.2616185 0.1575547 0.15168478 0.06328311
000240 1e 1e fb bd 1d 95 f1 3d 30 63 25 ba 48 c6 03 bc
       -0.12261604 0.11796019 -0.00063090306 -0.008042879
000250 b3 7a 0a be f7 fd 8c bc 10 13 b1 bc 43 c1 14 be
       -0.13523369 -0.017210944 -0.021615535 -0.14526848
000260 fc 67 34 3e 32 48 98 3b e1 17 4f 3d a6 af da 3d
       0.17617792 0.004647278 0.050559882 0.106780335
000270 29 d9 30 be 36 0b 3c 3e a8 4a 08 3e 23 bf 13 be
       -0.1727034 0.18363652 0.13309729 -0.14428382
000280 1c 4a 33 bd cd 26 a1 3d ad 84 5b 3e e3 24 3f 3e
       -0.043771848 0.07868729 0.2143733 0.18666415
000290 94 ae af 3d 02 cc 86 bd fe 10 67 be e8 4e b2 bd
       0.0857822 -0.0658188 -0.22565076 -0.087064564
0002a0 74 a0 6c bd 11 f4 a6 bd 5a 42 17 be c5 54 07 bd
       -0.057770208 -0.08152021 -0.14771405 -0.033039827
0002b0 e3 a6 13 be 18 68 2a 3e 83 3b a2 3d a0 98 f6 3d
       -0.14419131 0.16641271 0.07921507 0.1204083
0002c0 6c 6c 52 be 1a e2 c7 3d ab 9a 93 3c 47 11 dd 3d
       -0.20549172 0.09759922 0.018018087 0.10794311
0002d0 b1 e9 ef bd 4f 50 39 be 19 18 3b 3d bc bb 9d bd
       -0.11714495 -0.18097042 0.04567728 -0.07701823
0002e0 a3 a0 2a bd 94 4e 01 be 5b ce 47 3d b6 ec 26 bc
       -0.0416571 -0.12627631 0.04878078 -0.010188272
0002f0 73 64 86 3d fa bc b6 be 17 1e 3f be 93 8c 0e 3e
       0.06562128 -0.35691053 -0.18663822 0.13920812
000300 0d 2d c5 3d 5e c8 af 3d 1f 75 34 bd 17 47 d2 3d
       0.096277334 0.08583139 -0.044057008 0.102674656
000310 fa a4 c1 bd e2 8a 4d 3e e3 d1 30 bd 65 eb dd bd
       -0.09455295 0.20072511 -0.043168914 -0.108359136
000320 bf 5f 28 be 49 93 3b be 66 75 0c 3e ce af 40 3d
       -0.16442774 -0.18317904 0.13716659 0.04704266
000330 1a e8 d1 3d 3f 5b 51 3e b5 f5 9c 3c bd 91 47 3e
       0.10249348 0.20444964 0.019160131 0.19489188
000340 91 d2 32 bd 7e d9 7e 3e 2a eb 20 3d 29 84 db 3d
       -0.043657843 0.24887654 0.03928677 0.10718567
000350 7c 9b 86 be 38 a5 bd bd 21 26 de bd 6e 80 5a 3d
       -0.262905 -0.092600286 -0.10847116 0.053345136
000360 91 13 d8 3c b8 4c db bd 75 9b 80 3e 8c 7d 58 3d
       0.026376517 -0.10707992 0.25118604 0.052854106
000370 4b 62 66 3e 74 8d 29 be e3 b1 ff 3d 13 af 7d 3d
       0.22498433 -0.16557866 0.12485101 0.061934542
000380 0b bd 08 bd 06 97 a8 bd 9e d1 30 be 18 90 9e 3c
       -0.03338341 -0.082319304 -0.17267463 0.019355819
000390 4f 7b 46 be 40 33 c1 bd 5e ed 78 3e 44 24 05 be
       -0.19382976 -0.09433603 0.24309298 -0.13002115
0003a0 6b 74 f6 bc fc 93 64 3e 29 4b 9d be 14 51 f7 3d
       -0.03008481 0.22322077 -0.30721405 0.12076011
0003b0 38 6f c3 bb 01 76 87 bc e0 3c 79 3e d0 8a 61 bd
       -0.005964186 -0.01653576 0.24339628 -0.055064023
0003c0 f7 b2 fe ba b6 5b 64 bc 0e 77 0f 3e 51 d5 f7 bd
       -0.0019431998 -0.013937881 0.1401026 -0.12101234
0003d0 74 02 20 bd 66 2e 1a 3e 32 2a 59 3e d0 41 a9 bd
       -0.03906484 0.15056762 0.21207502 -0.08264506
0003e0 13 7c 50 3d ae 18 07 be 90 eb 93 3e 7f 41 99 be
       0.050899576 -0.13193008 0.28890657 -0.29932782
0003f0 67 12 8e be 1a 2b eb 3d e6 7c 41 3e 97 6a 50 3e
       -0.27748415 0.1148283 0.18895301 0.20353161

linear1.bias f4 [128]
000000 9e 8a 14 be 59 d8 02 bf b3 dc 02 be 16 58 f8 3e
       -0.14506003 -0.5111137 -0.12779503 0.48504704
000010 51 c1 93 3e 62 c4 f1 3e 28 0f ce 3d be 03 78 3e
       0.28858426 0.4722014 0.100614846 0.24220178
000020 48 16 cb 3d b6 1c dc bc 5d e7 84 bc 6b 38 f5 be
       0.09916359 -0.02686916 -0.016223604 -0.47894606
000030 b9 67 6c bb 89 0e 37 be 02 49 4a 3e 69 85 c2 bd
       -0.0036072566 -0.17876638 0.19754413 -0.09498102
000040 f8 b6 aa bd c8 b3 a2 bd 3f 24 48 3e 69 08 13 3e
       -0.0833568 -0.07944447 0.19545077 0.14358677
000050 34 bf 3a be 31 da 7e 3e b3 aa d0 be a0 8c 06 be
       -0.18237 0.24887921 -0.40755233 -0.13139582
000060 fe d9 6a be 88 c7 83 3e 15 89 9e 3b 57 fe 8a 3e
       -0.2293472 0.25738168 0.004838119 0.2714717
000070 72 15 04 3f 99 ed c5 3e 3c e3 85 3e ff fd 96 be
       0.5159522 0.38657835 0.2614993 -0.2949066
000080 6b 28 1b 3f 51 2c 89 3c 4b a9 b3 3e e6 c3 16 3d
       0.6060855 0.016744765 0.35090098 0.036807917
000090 e3 48 5f 3e 97 a4 89 3d 75 07 f1 be eb 91 e9 be
       0.21805148 0.06720846 -0.47076002 -0.4561914
0000a0 37 0e 43 3e cc d8 77 be 0e 4c 94 3e 1a 83 98 bd
       0.19048391 -0.24203795 0.28964275 -0.07446881
0000b0 21 52 09 3f 05 10 dc 3d d7 2c 94 3d 05 8c 65 3e
       0.53640944 0.10745243 0.07235115 0.22416694
0000c0 3c 83 19 3e 34 29 f9 bc 4c 42 3e 3d e4 37 24 bf
       0.14991468 -0.030415155 0.046449944 -0.6414778
0000d0 48 7d f7 3d 62 dc b2 be 65 b7 ce 3e bf cb 89 3e
       0.120844424 -0.34933764 0.40374294 0.26913258
0000e0 94 a1 40 be c6 6c a1 3e f5 a4 14 3d 28 12 3e 3e
       -0.18811637 0.315283 0.036290128 0.18561614
0000f0 5e 0d 4d 3e f8 a5 f6 3d cd 5e b1 3e c1 82 e1 3e
       0.2002463 0.12043375 0.3464264 0.4404507
000100 16 bb 2b bf 52 8a a6 3d 69 9f 9c be 07 ba 1d 3f
       -0.67082345 0.08131851 -0.3059037 0.6161198
000110 e1 ab de 3d 5c 24 ad 3e 1e 8b 44 be c8 00 32 3e
       0.10872627 0.33816803 -0.19193694 0.1738311
000120 6d 8d 31 3e 33 58 9c 3e a5 6a 8b be 7c 35 85 be
       0.17339106 0.3053604 -0.272298 -0.26017368
000130 c2 67 99 3e 7b 73 f2 bd 66 4d f8 bd 14 47 0e 3e
       0.29961973 -0.118384324 -0.121241376 0.13894302
000140 e3 3a 95 3d 9b 00 a3 be 9e a6 23 3e 03 72 55 be
       0.072866224 -0.318364 0.15981528 -0.20844273
000150 4c b6 e6 3d 28 d5 98 3e 7e b1 6d be 7e c0 b7 3e
       0.11265239 0.29850125 -0.23212239 0.35889047
000160 5b 93 93 3e 52 01 75 bd 1d 21 f1 be 58 35 80 3e
       0.2882336 -0.059815712 -0.47095576 0.25040698
000170 dc 7e 59 3e 53 2d 91 be 9b 3e cf 3b 7f 2a d1 be
       0.212398 -0.28354892 0.006324602 -0.40852734
000180 f1 00 a4 be 2a 31 a2 3e 3d 67 19 bf 5e 79 0a be
       -0.32031968 0.31678134 -0.59923154 -0.1352286
000190 67 b4 91 3e 57 a9 2a be c9 78 62 be 21 5b a3 be
       0.2845795 -0.1666616 -0.22116388 -0.31905463
0001a0 86 84 91 be b1 be ea be d3 ce 83 bd 12 a1 e0 3e
       -0.2842142 -0.4584861 -0.06435933 0.43872887
0001b0 3b 59 05 3e f4 2c ae be b2 ad 21 3e a0 fe 0f 3e
       0.1302232 -0.34018672 0.15788916 0.14061975
0001c0 84 02 b9 3d 6d bc 19 3e 7a 33 e3 3d fd 2d 9c bd
       0.09033683 0.15013285 0.11093803 -0.07625959
0001d0 cb ba 5c be 57 85 f9 bc 58 36 bb 3e e2 dc 68 bd
       -0.21555631 -0.03045909 0.36564898 -0.056851275
0001e0 6a 27 a0 bc 13 99 07 3f 29 76 e2 be 05 9f c0 3c
       -0.019550044 0.5296795 -0.44230774 0.023513326
0001f0 6c 93 16 3c 72 88 dc be d3 88 11 3e dc 16 9f 3e
       0.009190422 -0.4307285 0.1421235 0.31072128

linear2.weight f4 [32, 128]
000000 7c d3 4e 3e 84 d3 fa bc 53 5f 94 be b4 4c ee b9
       0.20197862 -0.030618437 -0.28978977 -0.00045452046
000010 c8 62 d0 3c 68 ff 0a be 25 aa ea 3d 2e 32 e1 3d
       0.025437728 -0.13573992 0.11458234 0.10995899
000020 61 c1 6b 3e e7 46 89 bd 4f a2 fd bd c4 16 42 3e
       0.23022987 -0.06702977 -0.123844735 0.18953997
000030 12 5d 2f 3e 2e 02 14 3d 64 f7 87 3d e8 5b 1e 3e
       0.17125347 0.03613489 0.06638983 0.15464747
000040 62 93 7c 3e 42 33 c5 bd 46 ad 5d be ea 10 03 3e
       0.24665597 -0.09628917 -0.2164813 0.12799421
000050 9b 8a eb 3d 13 fd c4 bd 64 4b 5a be 21 fd d4 3d
       0.11501046 -0.096185826 -0.21317822 0.10399843
000060 bb 0c a3 bd c9 5d 07 3e cf bf 17 be f8 c0 74 3c
       -0.079614125 0.1321937 -0.14819263 0.014938585
000070 c9 13 40 3e be c7 b0 bd 13 55 6a be da df da bd
       0.18757547 -0.08631848 -0.22884016 -0.106872275
000080 6a 86 c8 3c 2a 32 ab 3d e4 c5 ea bd 07 2b 40 3e
       0.024478156 0.083591774 -0.11463526 0.18766414
000090 31 ad c3 3c 25 2d ea 3d 3b d2 1c 3e 60 8c 18 3e
       0.023886295 0.11434392 0.15314572 0.14897299
0000a0 2c 71 58 3d c2 4e e8 3d 1e 8b 1b be b3 af 3d be
       0.052842304 0.11343147 -0.15189788 -0.18524055
0000b0 d7 ea 00 be 9e 3c 75 3e fa 28 4c 3e ea ea f6 bb
       -0.12589584 0.23948905 0.19937506 -0.007535328
0000c0 72 e9 09 be 44 ca d1 3d 83 55 f5 bc ae 5c 9a 3d
       -0.13467959 0.10243657 -0.029948002 0.075372085
0000d0 d9 0b 31 be 85 8c 07 3d 1d f5 1b be 2f 34 1e 3e
       -0.17289676 0.033092994 -0.15230222 0.15449594
0000e0 0d 8a 14 3b e2 5e b2 bd 77 62 89 3b ee 50 0b be
       0.0022665292 -0.08709504 0.004192646 -0.13605091
0000f0 36 0e 97 bc ee ef 73 3e b5 2f 53 3d a2 0f 65 3d
       -0.018439393 0.23821995 0.05155917 0.05592311
000100 36 ed af bc 3a 40 56 bd 0b b8 95 3d 1d ac 03 be
       -0.021475416 -0.052307345 0.07310494 -0.12858625
000110 09 7c 1f bd 79 2d 8d be 44 3c 55 3e bd 78 6c bb
       -0.03893665 -0.27573755 0.20823771 -0.0036082708
000120 38 e7 34 3e 13 99 d0 3d e5 5f 4b ba d0 71 3f bc
       0.17666328 0.101854466 -0.0007758125 -0.01168485
000130 67 07 30 be 47 db 74 3e 08 66 92 3d e3 06 79 bd
       -0.17190324 0.23911773 0.07148367 -0.060797583
000140 30 1d 64 3e 7e b7 99 ba 8a bb c3 3e 42 a5 6b 3d
       0.22276759 -0.0011727659 0.38229018 0.05753065
000150 47 4c 22 be be 9f e5 3d 27 c3 b7 3d 1a d1 e5 bb
       -0.1584941 0.11212109 0.08972769 -0.0070134522
000160 b0 8b c0 bd c6 be ac 3d 7e 64 5b 3d 07 00 b9 bd
       -0.09401643 0.08434825 0.053562634 -0.09033208
000170 5c e6 c9 3c 12 fd 36 3e d1 de 26 be 4b e9 1f bd
       0.024645977 0.17869976 -0.16295935 -0.039040845
000180 90 b4 d2 3d 1b 87 35 3d ff 1e b6 3d 9b 93 0e be
       0.10288346 0.0443183 0.08892631 -0.13923495
000190 49 b2 ce 3c d3 49 4b bc 5c 4b 10 be 75 82 90 be
       0.025231497 -0.012407738 -0.14091247 -0.2822453
0001a0 9f 79 e1 3d 99 a6 fb 3d 59 e6 63 be 1f b9 23 bd
       0.110095255 0.12287635 -0.2225584 -0.039971467
0001b0 f7 c0 78 3d 33 6f c1 3d b0 53 08 be 56 05 64 bc
       0.0607309 0.09445038 -0.13313174 -0.013917288
0001c0 b3 8a 16 3d 64 c0 4e bd f0 31 4b bb cf 1c 59 be
       0.036753368 -0.050476447 -0.0031005107 -0.21202396
0001d0 1e 20 09 be 02 74 1b 3e a3 87 71 bd 7c 75 47 3d
       -0.13391158 0.15180972 -0.058967244 0.048696026
0001e0 d5 1b da 3d 47 f6 11 be 98 a1 24 3e 68 b9 94 bc
       0.1064984 -0.14254104 0.16077268 -0.018154815
0001f0 92 7b 17 3d e5 c3 27 3e df 9a 22 3e 99 9f 1a 3e
       0.03698308 0.16383322 0.15879391 0.15099944
000200 ad 21 83 bd 35 ee 40 bd 83 e4 41 3d a9 9c b6 3d
       -0.064029075 -0.047102172 0.047337066 0.08916599
000210 3c a6 2e be 1c 4b 90 3d 6c e2 9e 3d 26 f3 1d bc
       -0.17055601 0.07045576 0.0775803 -0.009640491
000220 91 f8 31 be 6d 74 70 3d 7f b8 d9 3d 16 f3 e0 bb
       -0.17379977 0.058704782 0.10630893 -0.0068649156
000230 1f 6e 9c 3d 16 05 d4 3d 87 37 2f be 56 5a 14 be
       0.076381914 0.103525326 -0.17111026 -0.14487585
000240 e2 a6 66 3e f9 fe e0 3d f4 d2 02 be fd cb ac 3d
       0.22524598 0.10986132 -0.12775785 0.08437345
000250 7f 7a 9a bd 67 a5 0f be a7 32 55 3e 86 d3 4c bd
       -0.075428955 -0.1402794 0.20820104 -0.050006412
000260 86 bc ac bd 28 74 56 be eb 25 0f 3e c5 10 8d 3d
       -0.084343955 -0.20942748 0.13979308 0.06887964
000270 2f d8 36 3e da 4d 45 3e 56 60 08 3e 2f bb 2c be
       0.17855905 0.1926798 0.13317999 -0.1686828
000280 cc 6d 96 bd 5f 3c 19 be a0 0b 6f bd 7f b3 41 3e
       -0.07345161 -0.14964436 -0.058360696 0.18916129
000290 5e 14 36 3e 8f 83 1d bd 5c 87 92 bc 0d be 3e 3d
       0.17781207 -0.038455542 -0.01788681 0.046567965
0002a0 8c 02 27 be fd 3d 6d 3d f3 6f fd 3c 5a 0b 87 3d
       -0.16309565 0.057920445 0.03093717 0.06593962
0002b0 a2 66 e0 bd 96 d9 50 3d 70 3a 1e 3e a7 c0 0e bd
       -0.10957076 0.050988756 0.1545198 -0.034851696
0002c0 e7 03 33 bd f6 13 74 bc 3c 00 33 be b6 de 01 3e
       -0.043704893 -0.014897337 -0.17480558 0.12682614
0002d0 a2 0a d2 3d 40 ed 0a 3d 41 be 03 bd d9 25 af 3d
       0.10255934 0.033917665 -0.032163862 0.08552141
0002e0 4a 40 dd bd b2 e3 30 be 0b f9 6d 3b 86 19 26 bc
       -0.10803278 -0.17274359 0.0036311771 -0.010137921
0002f0 d3 45 cd bc 95 62 47 3d e2 f9 4b be a5 54 9b 3d
       -0.025057709 0.048678 -0.19919541 0.07584504
000300 5d a8 68 bd 7c 1b 99 bd 3b 33 0b 3d 33 10 19 3e
       -0.05680119 -0.07475945 0.033984404 0.14947586
000310 f5 41 94 3d 4f 94 4b be c7 fe e1 3d 2c 7c 1e 3e
       0.07239143 -0.19880794 0.11034923 0.15477055
000320 07 75 19 be 8f 41 70 3c 53 a6 95 3d 83 64 4b 3e
       -0.14986049 0.014664068 0.073071145 0.19862561
000330 f0 2a 29 3a 4f 02 09 3e 6e 7a c2 39 f1 8f 0a 3d
       0.00064532366 0.13379787 0.0003709378 0.03382868
000340 d1 99 98 bd 19 a1 8f be 02 bc dd bd 13 be 2c 3e
       -0.07451213 -0.28052595 -0.10826875 0.16869383
000350 79 0c 2c 3e 7a de df 3d 84 b4 8c 3d bd 34 3e be
       0.16801633 0.10931106 0.06870368 -0.18574806
000360 d2 d9 9c ba 11 39 26 be 30 db f9 3c 33 74 50 bc
       -0.0011966771 -0.16232707 0.030500025 -0.012723017
000370 c8 27 9c bd ac 61 41 3e 0f dc 79 be 55 71 84 be
       -0.07624775 0.18884915 -0.24400352 -0.25867715
000380 ba d5 ac bc 6e 62 df bd 39 69 42 be 9c 1a e1 bd
       -0.021098007 -0.10907446 -0.18985452 -0.109914035
000390 f6 c8 d4 bd 9f fc 41 3e 9c 02 0f be ca 02 50 3d
       -0.10389893 0.18944024 -0.13965839 0.05078391
0003a0 81 e1 6b bd c7 ad c5 bd 9b 62 0d 3e 57 50 31 bd
       -0.057588104 -0.09652286 0.13807146 -0.04328951
0003b0 d2 a1 08 be 21 45 7a be bf 65 cd bd 08 56 04 3e
       -0.1334298 -0.24440433 -0.10029172 0.12923443
0003c0 a2 45 ad bc bb a7 26 3e c7 e1 00 3d db 32 1d 3e
       -0.021151368 0.16274922 0.031465318 0.15351431
0003d0 39 3f 20 be 10 de 92 bd 64 a0 03 bc e7 05 8a bd
       -0.15649118 -0.07171261 -0.008033846 -0.06739407
0003e0 eb 54 16 be ca b4 24 3d 51 d3 50 bb 34 0c 2f be
       -0.14680831 0.040211476 -0.0031864236 -0.17094499
0003f0 b1 b2 84 be 96 7a 19 be 89 52 94 bd 69 af 26 3e
       -0.2591758 -0.14988169 -0.07242305 0.16277851

linear2.bias f4 [32]
000000 81 48 93 be ab 6a 6d 3e c7 4c e2 3e 2c c3 2b 3e
       -0.28766254 0.23185222 0.441992 0.16773671
000010 a6 d4 a8 bc e0 a8 25 be c8 cf 59 be 09 64 86 3d
       -0.020609211 -0.16177702 -0.21270669 0.06562049
000020 9f af e2 3d 1d b7 23 3e 96 ce a2 3e ab 15 7b 3e
       0.11068653 0.15987821 0.31798238 0.24519984
000030 c9 9e 5e be a8 ed e5 3e c3 5a a7 be 95 7a 45 3e
       -0.21740259 0.4490788 -0.32686433 0.19285043
000040 79 e8 db be 80 08 bc 3d 26 99 b9 3b d0 52 12 3e
       -0.429508 0.09181309 0.0056640087 0.14289403
000050 01 c4 64 be 74 0c a5 3e 19 5e 6a 3d ca 09 a5 3e
       -0.22340395 0.32236063 0.057218645 0.3223403
000060 71 13 7a 3b e6 86 89 3e 86 da a5 be ed f9 5f be
       0.003815856 0.26860732 -0.32393283 -0.21872683
000070 c5 82 7b be 02 72 c2 be a6 15 6c 3e 8a 5a 85 be
       -0.24561603 -0.37977606 0.23055133 -0.26045638

output.weight f4 [50, 32]
000000 b5 12 60 be e2 81 d9 bd a5 7b b9 3d b9 52 34 be
       -0.21882136 -0.10620476 0.090567864 -0.17609681
000010 9e 1e 60 3d 85 fb 91 3c c0 5e 32 be 4f 09 d9 bd
       0.0547167 0.01782013 -0.17418957 -0.105974786
000020 5d 7d cb 3d bc 70 34 be 25 4d 35 3e f9 7b 05 be
       0.099360205 -0.1762113 0.1770521 -0.13035573
000030 62 33 1c 3e be e0 11 3d fe 95 39 bd 91 2c da 3d
       0.15253976 0.03561472 -0.04530906 0.106530316
000040 f7 16 c6 bc 2e 77 15 3e c6 9d 9f 3d 43 3d 80 be
       -0.024180872 0.14596245 0.07793765 -0.2504674
000050 57 f7 48 3e 05 85 18 3d 49 c1 7e 3e 05 11 29 3d
       0.19625603 0.037236232 0.2487842 0.041275997
000060 0f 2f ac 3d 48 85 9d bd 51 ae 83 3d 54 09 85 bc
       0.08407413 -0.07691437 0.064297326 -0.0162398
000070 1a 39 06 bc ce e1 81 bd 7f dc 48 be 6e 8e 4d be
       -0.008192325 -0.06341897 -0.19615363 -0.20073864
000080 9c e7 7e bd c4 a9 b7 3d b7 89 31 be a9 11 c4 3e
       -0.0622326 0.08967927 -0.1733769 0.38294724
000090 04 e3 2d 3d a5 62 a2 be 08 a0 69 be 3d b3 3d be
       0.042452827 -0.31715885 -0.22814953 -0.18525405
0000a0 32 5c e5 3d 2e a1 6f 3e 96 85 7b 3d 90 eb 03 3e
       0.111992255 0.23401329 0.061406694 0.12882829
0000b0 1d 5f aa 3d e9 fe 2a 3e b3 fa 28 be 3b e1 bb 3e
       0.08318923 0.16698803 -0.16501884 0.36695275
0000c0 e9 b8 d9 bd 7a a5 c6 3d 7e 3b a6 be d8 cf 94 be
       -0.10630972 0.09699531 -0.32467264 -0.29064822
0000d0 41 51 a4 bc 76 ba 0f bd b2 95 f2 3e 4b bb 29 3e
       -0.020058276 -0.035089932 0.47379833 0.16575353
0000e0 89 ef ed bd 37 d1 96 bd ee 4b 16 3e 5e 2f 97 3e
       -0.11617953 -0.07364123 0.14677402 0.29528326
0000f0 2a 66 eb bb c7 ab bb bc 2d de ab be 8e 4e f8 3e
       -0.0071838098 -0.022909058 -0.33567944 0.48497432
000100 9d f2 1d bc cd ad f7 bd 4e 65 da bd 86 2b 0e 3d
       -0.009640363 -0.12093697 -0.106638536 0.034709476
000110 ff 6d 13 bd fb 5f d2 bd 76 91 7e 3c b7 1d 49 3d
       -0.035993572 -0.10272213 0.01553761 0.049100604
000120 0e 85 06 3c ab 50 32 be b6 31 8a 3d 4d b4 28 3e
       0.008210434 -0.17413585 0.06747763 0.1647503
000130 e9 93 bf 3d 47 2e 15 3e 00 88 99 3d 71 9a 02 be
       0.093543835 0.14568435 0.07496643 -0.12754227
000140 e0 ff 0b be 5a d1 82 3c 10 02 be bd 8a 12 dd bd
       -0.13671827 0.015968967 -0.09277737 -0.10794552
000150 68 a2 e4 bd 78 3a 27 3e eb ce 67 3e db 3d 91 3d
       -0.11163789 0.16330898 0.22637527 0.07091876
000160 49 9c 6c 3d 5e 66 57 3c c0 25 8a 3e 9d e6 3b be
       0.057766233 0.013146965 0.26981926 -0.1834969
000170 56 3b 3f be 4c 89 2f be 23 6c 4b bd 07 67 48 be
       -0.18674979 -0.17142218 -0.049663674 -0.19570552
000180 b5 08 9b bd 47 de 10 bc cd 98 da 3d 0d 66 20 be
       -0.0757002 -0.008842058 0.10673676 -0.1566393
000190 4a d4 2a 3e 20 22 79 3e 86 47 8a bd 3e 18 d9 3d
       0.16682544 0.24329424 -0.06751923 0.10600327
0001a0 45 5e b3 3d 94 4f 0e 3e de 2a a9 3d fb 1e d3 bd
       0.08758215 0.13897544 0.082601294 -0.103086434
0001b0 38 d1 0a 3e 5d 6f 67 be 6c 3a a1 3d 09 43 94 3d
       0.13556373 -0.22601075 0.07872471 0.072393484
0001c0 e6 e7 be bd 09 cf 92 bc 7e 7c fe bd e2 88 07 3e
       -0.09321575 -0.017920988 -0.12426089 0.1323581
0001d0 70 80 db 3d cf d1 36 be 2e 2a b4 bd 46 12 f5 3d
       0.10717857 -0.17853473 -0.08797108 0.11966376
0001e0 10 5f fb 3d a4 fc f7 bd c8 aa 86 bd 50 23 32 3d
       0.12273991 -0.12108734 -0.06575543 0.043490708
0001f0 2f 2d 16 bd a0 2b e5 bd 1a 57 05 be 32 f5 69 bd
       -0.036664184 -0.111899614 -0.13021508 -0.057118602
000200 94 46 ce bc 96 69 a7 bc cf 7f 5b bd 56 fa 19 be
       -0.025180139 -0.02043609 -0.053588685 -0.15036902
000210 dd 8f ab 3d a4 b8 86 3d 7d b8 89 bd 33 81 5b 3d
       0.08377049 0.06578186 -0.067246415 0.05359001
000220 79 a9 e6 3c a8 da 13 3e 2e 2b b2 bd 77 05 d2 3d
       0.028156983 0.1443888 -0.08699642 0.102549486
000230 96 c0 b9 3d fc 62 40 bc 78 2d 87 3d f7 37 73 3e
       0.09069936 -0.01174235 0.06600469 0.23751818
000240 07 76 fe 3d 1d 55 33 3e bd b9 68 3e 96 fc b7 bd
       0.12424856 0.17512937 0.22727104 -0.08983724
000250 c6 2f 0c 3e 7c 71 47 be 6b 59 50 bd 52 95 06 be
       0.13690099 -0.19476885 -0.050866526 -0.13142899
000260 24 79 0a 3e 31 ba 06 3e b6 51 8b 3c 02 39 19 be
       0.13522774 0.13156964 0.017006736 -0.14963153
000270 bf 4e d3 bd 96 bc 85 be d2 ed af bc 61 c3 58 3d
       -0.10317754 -0.26120442 -0.021475706 0.052920703
000280 d9 8e b5 3d 7f b3 82 be 14 e9 24 b8 64 9b 96 3d
       0.08865137 -0.2552757 -3.9317718e-05 0.07353857
000290 7b f1 30 3e aa 8c f5 3d 8c ca 53 bd a3 c7 8b 3c
       0.17279617 0.1198972 -0.051706836 0.017062968
0002a0 06 78 15 3e 10 5b 9f bd 8b d7 5b be c4 d9 0e 3d
       0.14596567 -0.07781041 -0.21468942 0.034875646
0002b0 7f ef 01 3d 9d 5a 1f 3e 46 bc 2f 3e c6 2c 1a 3c
       0.031722542 0.1556191 0.17161664 0.009410089
0002c0 f0 a5 f8 3d b8 dd a4 3d a5 41 bd bc 57 81 47 3e
       0.12141025 0.08050102 -0.02310259 0.19482933
0002d0 dc 27 36 3e 87 be a1 3d 49 41 f0 bd 36 32 e4 3b
       0.17788643 0.07897668 -0.11731202 0.0069639934
0002e0 55 3f 8b bd 5f 5f 94 3e f2 3c cb 3c 23 43 7b 3e
       -0.06799189 0.28979012 0.024809334 0.2453733
0002f0 ce b5 8b be 62 05 83 be d4 5f 34 3e 82 83 a7 bc
       -0.27287143 -0.25590044 0.1761468 -0.02044845
000300 97 af 04 3e 1e 65 95 bd f4 fb 51 3e aa 42 92 bd
       0.12957607 -0.07294677 0.20506269 -0.071416214
000310 4e 26 49 be 45 33 d3 3c 7f e9 78 bd 27 fa 80 3b
       -0.19643518 0.025781283 -0.060769554 0.0039360705
000320 76 5e 2d be 37 d1 6a 3d 47 0f 16 be 84 3d ac bc
       -0.16930565 0.05732843 -0.14654265 -0.021025427
000330 b7 74 91 bd 9c 64 10 be 27 c3 57 be 4c b7 04 be
       -0.0710234 -0.1410088 -0.21070538 -0.12960547
000340 80 ad 0e 3e b8 3a 53 bd a5 65 13 3e 59 b0 b4 3c
       0.13933372 -0.05156967 0.14394243 0.022056745
000350 04 2f c4 bd 8b bb 05 be 5b de 7d 3d c4 66 4a 3d
       -0.0957928 -0.13059823 0.061979633 0.04941441
000360 90 a7 ab bd 52 03 ed bd 10 56 fc 3d d5 0b 00 be
       -0.083815694 -0.11572899 0.123211026 -0.12504514
000370 7c e2 f0 bd 33 b4 52 be 6e 1a 37 3e 82 c0 fc bd
       -0.117619485 -0.20576553 0.17881176 -0.123414055
000380 f8 ea 01 3e 0e 23 be 3d 92 46 c8 bd 85 91 4c be
       0.1268729 0.0928403 -0.09779085 -0.19977386
000390 18 a9 4f be db 4b 20 be 39 d8 d2 3d d3 93 9f 3d
       -0.20279348 -0.15653937 0.102951474 0.07791867
0003a0 6f 62 fe 3d 38 a6 42 be 9c da 6b bd 7a c2 67 3c
       0.124211185 -0.1900872 -0.05758153 0.014145488
0003b0 39 91 8f bd c6 d4 94 be 94 96 4e 3e a7 f1 88 3c
       -0.07010121 -0.29068583 0.20174628 0.016716791
0003c0 b2 db 05 3e 8a 8b 0a 3d c2 87 ac bd 2d 01 00 bd
       0.13072088 0.03382448 -0.08424331 -0.03125112
0003d0 87 d8 89 3e fe 53 56 3e ec 95 1c be de da b9 bc
       0.2692301 0.20930478 -0.15291566 -0.022687372
0003e0 01 05 b8 bd d0 f2 17 3d ef 1f 60 bd 74 1d 95 3e
       -0.089853294 0.0370968 -0.054717954 0.29124033
0003f0 01 86 28 3e ed 09 37 3e 5f e2 b1 3d b3 87 ac 3e
       0.16457368 0.1787488 0.08685755 0.3369728

output.bias f4 [50]
000000 d3 04 cb 3e cb 45 0a bf 42 f9 82 bc 06 89 3d be
       0.39652118 -0.54012746 -0.015987996 -0.18509302
000010 9c a1 2d 3e 95 3c cc be 9f b0 a6 3e 02 0d 34 bf
       0.1695618 -0.3988997 0.32556626 -0.7033235
000020 19 d6 9a 3e 1a ce 55 3e b7 82 83 be 67 63 86 3f
       0.3024147 0.20879403 -0.25685665 1.0499085
000030 3c f9 ff bc 81 8b b1 bc 3d 1d 10 bf 1c 92 5c 3f
       -0.031246774 -0.021672966 -0.56294614 0.86160445
000040 84 96 b9 bc e2 64 4c be ee 30 fc 3e 1a 97 3b 3f
       -0.02265478 -0.19960359 0.4925608 0.7327744
000050 7e 49 1e bd c4 b0 88 3e 16 2f 51 be 3b de a7 3e
       -0.038644306 0.2669736 -0.20428118 0.32786736
000060 76 8c 7a bf 27 0d 17 be 7c b5 c5 3e a7 51 d4 3e
       -0.97870576 -0.14751111 0.38615024 0.41468546
000070 d7 0c 95 bf 4b a2 46 3d 3b 88 83 bf 09 65 3f bf
       -1.1644543 0.04849462 -1.0275949 -0.7476354
000080 1e 0b 84 3d c5 18 a6 be d6 3c 40 be 8b c4 dd be
       0.06447433 -0.32440773 -0.18773207 -0.43314013
000090 3f cf 1a 3e 46 3e 78 be 1f 36 56 3e 19 64 06 bd
       0.1511812 -0.24242505 0.20919083 -0.032810304
0000a0 f0 e1 a6 bd fb ef d9 bd ae 98 23 3f 72 f2 a6 3e
       -0.08148563 -0.10641476 0.63904846 0.32606846
0000b0 7f 43 29 3f 62 6d e4 3e 81 87 da 3e 36 6a 47 3f
       0.66118616 0.44614702 0.42681506 0.7789644
0000c0 e6 06 99 3d a3 93 2d bf
       0.07472019 -0.678034
