datasets/code/development/models/best_model_052.pth (torch, 473589 bytes, 8 tensors)

conv1.weight f4 [1, 1, 5, 3]
000000 4a 69 f0 3d 4f 9e 08 3d 33 df 92 3e ab 61 b3 3e
       0.11738832 0.0333541 0.28685912 0.35035452
000010 06 08 7f 3e 17 c0 7b be cd 01 66 3e 21 d8 94 be
       0.24905404 -0.24584995 0.22461624 -0.29071143
000020 79 c5 21 3d 10 eb 1e 3e 02 1e 91 3d 80 5b 5b be
       0.039494965 0.15519357 0.07085802 -0.21421623
000030 ec a2 1e be aa d7 9d be 2a bd 9e be
       -0.15491837 -0.308286 -0.31003696

conv2.weight f4 [1, 1, 3, 3]
000000 a7 b4 d6 be 8a 46 27 3e 5e 9e 89 3e f1 7e b5 3d
       -0.41934702 0.16335502 0.26878637 0.08862103
000010 ba 9f 2d be 56 3e 31 3e cb dd 57 be 96 fc 23 be
       -0.16955462 0.17308936 -0.21080701 -0.16014323
000020 6a 50 68 bc
       -0.014179328

linear1.weight f4 [128, 870]
000000 a8 21 39 be 81 e0 b5 bd c4 03 cf be 27 4a e4 3d
       -0.18079245 -0.08880711 -0.4043256 0.11146956
000010 b3 a1 c4 bd f3 22 37 be 53 87 b7 be 70 26 bb 3d
       -0.09601154 -0.17884426 -0.35845432 0.09138191
000020 fa ec 8e 3d f2 cf 6d bd 1d c9 14 3d ea 3c 0e be
       0.069787934 -0.05805964 0.03632461 -0.13890424
000030 db 60 a0 be 3a f3 11 be 96 31 a9 3d 86 76 8c bb
       -0.31323895 -0.1425294 0.08261411 -0.00428659
000040 45 d0 12 bd df 3d 24 be 6d f0 56 bd 0c 5d cc bb
       -0.035843153 -0.16039227 -0.05247538 -0.006236678
000050 55 51 44 be a2 d1 21 be 9f b5 00 3e d6 a4 8d 3d
       -0.1917165 -0.15802625 0.12569283 0.069162056
000060 65 82 89 3d 32 2e 62 bc f4 ab 3a be 86 a3 4b be
       0.06714324 -0.013804959 -0.18229657 -0.19886598
000070 b1 74 b7 bd 93 da 49 be 5f bc 77 3d b8 49 d3 3e
       -0.08957804 -0.19712286 0.06048238 0.4126718
000080 83 2b 8f bd 28 b9 1f 3e cd c9 bc 3e 1e aa 36 3e
       -0.06990721 0.15597975 0.36872712 0.17838332
000090 b5 77 46 3e b0 75 5b 3d d1 b0 03 bc de 18 3c bd
       0.19381602 0.053579032 -0.008037762 -0.045922153
0000a0 83 15 91 be 31 a0 e6 3d 83 fa ef 3d ba 04 3c 3e
       -0.28336725 0.11261023 0.11717703 0.18361178
0000b0 2e 03 08 bd f2 dc 41 be 3b 0f c9 bd db 9a fa 3c
       -0.033206157 -0.1893194 -0.09817358 0.030591419
0000c0 d2 de 20 be 2a f2 09 3e 21 fe 53 3e 77 60 92 3d
       -0.15709999 0.13471285 0.20702411 0.071473055
0000d0 32 ca 3c 3e 32 1b 34 be 39 de eb bd f8 20 98 3d
       0.18436506 -0.17588499 -0.11516995 0.07428163
0000e0 b6 4c f7 3d ce ca 0c bd 8d 14 a1 3d 6b 31 28 3e
       0.12075178 -0.034373097 0.07865248 0.16425101
0000f0 6e 1a c8 3d 41 bf 96 be 41 90 0a be 5c ec 88 be
       0.09770666 -0.2944279 -0.13531591 -0.26742828
000100 b4 fd a6 3e 5d b6 1b be 30 56 44 bd a0 2c 9d 3e
       0.32615435 -0.15206285 -0.047933757 0.3069811
000110 c0 8b 3f 3e 03 6f 90 3e 3b da 91 3c ab ff c1 3e
       0.18705654 0.28209695 0.017804256 0.37890372
000120 55 98 94 3c 3d 3c 33 3e 6a 34 da 3e b7 f6 62 3e
       0.018139044 0.17503448 0.42618114 0.22164427
000130 d7 aa aa 3d 61 19 86 3d 94 d8 42 bc 1b 57 12 be
       0.08333366 0.065478094 -0.011892457 -0.1429104
000140 82 33 ea 3c 7e a3 00 3e 5b f5 a8 bd 69 f0 07 3d
       0.028589014 0.12562367 -0.08249923 0.033188257
000150 25 04 63 be e1 3f 53 be 7c fa 44 3d 9c 65 a2 bd
       -0.2216955 -0.20629837 0.048090443 -0.07929537
000160 1b 48 18 bc 54 a0 00 3d 71 bd e4 3c 7d 04 cb 3d
       -0.009294535 0.0314029 0.027922364 0.099129654
000170 c7 b0 9b 3e 83 f8 fb be fa bc 60 be bf 9a 41 3e
       0.30408308 -0.49213037 -0.21947089 0.18906687
000180 f4 e4 99 be 74 23 7f 3d a8 52 8f 3e d0 33 8f 3d
       -0.3005749 0.06228967 0.2799275 0.06992304
000190 4d b2 ca be 66 ad b7 3e e5 ac 13 be eb 21 99 be
       -0.39589158 0.3587448 -0.14421423 -0.2990869
0001a0 8e 1a c5 be dd ed a9 bd c1 ab 06 3d f8 b8 d5 3e
       -0.38496822 -0.08297322 0.03287864 0.41742682
0001b0 72 c5 08 3d 1e a0 b0 3d 43 84 ed bd 19 d4 84 bd
       0.033391424 0.0862429 -0.115974925 -0.06485767
0001c0 97 23 df be ca 76 2e 3e 39 80 3c bd 60 e1 aa 3d
       -0.4358184 0.17037502 -0.04602072 0.08343768
0001d0 ff a3 2b 3d e1 c4 94 3e 0f 2f 06 bd a7 88 5b bd
       0.041904446 0.29056457 -0.032759722 -0.05359712
0001e0 c0 bb 83 3c d0 a6 30 bd 77 19 36 3e 2c 83 c1 be
       0.016080737 -0.043127835 0.17783152 -0.3779539
0001f0 12 f2 b1 3d 11 d0 89 3d 0d e3 05 3e e1 d9 a8 bd
       0.086887494 0.06729139 0.13074894 -0.08244682
000200 b8 f8 51 3e 40 e8 01 be c1 83 28 bd a3 d0 7d 3e
       0.20505035 -0.12686253 -0.041141275 0.2478662
000210 40 c8 31 bd 1b 65 19 3e 2d 06 71 be fc 6e 6b 3c
       -0.043403864 0.14979975 -0.23537512 0.014369722
000220 7c 4e 6c 3c 12 f6 a6 bd be be 5d be 43 03 e3 3c
       0.014423009 -0.08152403 -0.21654794 0.027711516
000230 03 c9 93 3e 7d af 9a 3c 18 1d c6 3d d9 2a 2c be
       0.28864297 0.018882507 0.09673518 -0.1681322
000240 cc 16 2f 3e c3 df 0d 3c 8e 3b 64 be ce d9 16 bd
       0.1709854 0.008659306 -0.22288343 -0.03682881
000250 0c cd 2b 3e 75 84 61 3e 3c 4a bd bd 17 af 54 bd
       0.16777438 0.22023185 -0.09242675 -0.05192479
000260 f7 f5 42 3e 6f 84 d9 3d c5 db 49 bd cc 9f ef 3b
       0.1903914 0.10620963 -0.049281854 0.0073127504
000270 32 09 fe 3d 1d d5 04 bd 05 f2 a2 bd fb 8d 9f bd
       0.124040976 -0.032429803 -0.07956318 -0.077907525
000280 6f 65 54 3e f7 bd 11 be 77 30 c5 3d 6b d7 86 bc
       0.20741819 -0.14232622 0.096283846 -0.016460141
000290 94 99 9b be 7f 23 98 3c 02 43 a3 3e d7 22 e8 3c
       -0.30390608 0.018571613 0.3188706 0.028336925
0002a0 5f 2b d1 3d 87 b7 c0 be 1d 41 53 3c 4c 91 8f 3e
       0.102133505 -0.3764002 0.012893942 0.2804054
0002b0 8f f2 17 3e b5 b3 7a be 25 98 46 be 1c 2f c4 3e
       0.14838623 -0.24482615 -0.19393976 0.38317192
0002c0 ba ed 80 3d ef 96 73 3e ec 97 9e 3c 02 81 d8 bc
       0.06295343 0.23788045 0.019359551 -0.026428703
0002d0 ca 14 8b 3c c1 87 bc ba 02 f5 56 3e c9 f1 6e 3d
       0.016977686 -0.001438372 0.209919 0.058336053
0002e0 76 10 a0 3d ae b9 fb bd ff 80 7a 3e d5 59 6b 3e
       0.0781564 -0.12291275 0.2446327 0.22983487
0002f0 47 46 db 3d 5d 1d 0e bd 32 a7 8d bd 5f 7a c9 be
       0.10706764 -0.03469597 -0.069166556 -0.39351174
000300 41 40 10 3e 89 6d cf 3d cf 1c db 3d 8d 22 82 bd
       0.14087011 0.10128314 0.10698854 -0.06354246
000310 3b e9 b3 3d 1b 8b 1f bd 0c 9e 43 3c ea ed 9f 3e
       0.087847196 -0.03895102 0.011939537 0.31236202
000320 28 7a 29 be 0c fe ad 3e f5 00 91 be cc ff a9 3c
       -0.16550505 0.33982885 -0.28321043 0.020751856
000330 f3 09 51 bd 2b 55 16 3e fa 85 2c bd 7d a9 76 3d
       -0.05103488 0.14680927 -0.042119958 0.06022023
000340 61 52 4a 3e 10 fd 59 be dd c8 ba bd 9b b0 70 bc
       0.19757988 -0.21287942 -0.09120343 -0.0146905435
000350 c8 ea d2 bd 91 f5 ee 3d 92 d4 1e bd 2e ef 11 be
       -0.10298687 0.11667932 -0.03877694 -0.14251396
000360 fd 01 e2 bc ab 06 13 be 20 e4 93 3e 4b 94 17 3e
       -0.027588839 -0.14358012 0.28884983 0.14802663
000370 37 71 40 3e 25 0f 4d 3c 65 b7 a8 bd 4b 66 70 bd
       0.18793188 0.012515818 -0.08238105 -0.058691304
000380 0c 93 9a 3d 5f 62 9b 3e d6 44 5b be 9f 94 bd 3c
       0.07547578 0.3034849 -0.21412978 0.023142157
000390 1e 6c 09 3e 3e 09 14 3e ba 92 2c be ff ab f2 3d
       0.1342015 0.1445665 -0.16852847 0.11849212
0003a0 54 2f 14 bd f8 a6 83 3e c9 87 fd 3d cd 4c b4 3d
       -0.036177948 0.25713325 0.123794146 0.08803711
0003b0 40 69 69 3e ef fb ee 3c 9c c7 1c bd 75 9a 00 3e
       0.22794056 0.029172866 -0.0382763 0.1255892
0003c0 99 8c 1b 3e f6 26 13 3e 86 d1 31 3e 54 f0 09 3c
       0.15190352 0.14370331 0.17365083 0.008419115
0003d0 0a 31 13 3e 26 dc 5f 3e 66 5c 78 3e 12 c1 65 bc
       0.14374176 0.21861324 0.24253997 -0.014023082
0003e0 5f c0 ad 3c 29 39 30 3c e8 6b 0c bd f4 13 54 3e
       0.021209894 0.010755816 -0.034282595 0.20710737
0003f0 d5 e9 1c 3e 51 6b 95 be 94 1f ea 3c 46 f1 7e 3e
       0.15323575 -0.29183438 0.02857951 0.24896726

linear1.bias f4 [128]
000000 22 9d 93 3e 89 5b 4b be 29 bf 2c be 8a 49 86 be
       0.2883082 -0.19859137 -0.16869797 -0.2622798
000010 54 e9 80 3e 99 a8 ee 3d 7e 4c 69 3e cd e5 8a 3e
       0.25178015 0.11653251 0.22783086 0.2712845
000020 f4 a6 9e bc 70 93 e2 bc 20 ce 32 be 1f 3f f3 3e
       -0.019366719 -0.027658194 -0.17461443 0.47509095
000030 cd 2d bc 3d ed c7 03 3e fb ac 46 3e a1 d4 d3 3c
       0.09188423 0.12869234 0.19401924 0.025858225
000040 b1 d8 c2 bd 50 66 09 3b 1c 7f b3 bd 7a 8d 29 3e
       -0.09513987 0.0020965524 -0.087644786 0.16557875
000050 c1 9c a8 3e 60 4a a6 be 99 e9 08 3f c4 0f f3 be
       0.32932094 -0.3247862 0.5348144 -0.47472966
000060 ab af e8 3c d2 81 3c be c8 5d d7 bd 59 c3 60 be
       0.028404078 -0.18408898 -0.10515934 -0.21949519
000070 2a e3 37 3e 19 0d a3 3e 13 09 7b 3e a9 11 cb be
       0.1795775 0.3184593 0.2451518 -0.3966191
000080 ff 0f 82 3e e5 01 a8 3e 16 11 8f be b7 81 e5 3d
       0.2540283 0.32813945 -0.27942723 0.11206382
000090 23 7d 34 be 25 5d 28 3d 6d 4a a6 3d e3 66 8d 3e
       -0.17625861 0.041104455 0.08119664 0.2761756
0000a0 cb ab da bd c9 ae 09 bf 29 ac b2 be 73 58 0e 3e
       -0.10677298 -0.53782326 -0.34896973 0.13900928
0000b0 93 f8 04 bf 1f f0 73 be 38 a8 0e 39 20 82 24 be
       -0.51941794 -0.23822068 0.00013604842 -0.16065264
0000c0 7d 26 4a be 60 26 55 be f7 3e aa 3e 64 3e 5d be
       -0.19741245 -0.2081542 0.33251163 -0.21605831
0000d0 a5 4d 0c bd 23 d7 fa 3d f7 7c ad be b8 9f ce bd
       -0.034253735 0.12248065 -0.33884403 -0.10089058
0000e0 f8 15 9f 3e 4d ef fb bc 78 bd 5b 3e 89 70 85 be
       0.31071448 -0.030753756 0.21458995 -0.2606242
0000f0 1e a6 e6 3d d5 b9 52 be 06 86 83 3d f5 cb df bd
       0.11262153 -0.20578702 0.06422047 -0.109275736
000100 84 95 8c be 21 b5 9d be bf 96 fd bd 4d 0b c9 3e
       -0.2745782 -0.30802253 -0.12382268 0.39266434
000110 de f7 e8 3c fc 7a 25 be 2a 2f 23 bd 52 e9 d9 3e
       0.028438505 -0.16160196 -0.0398399 0.42560822
000120 36 f6 b9 3d 6b 25 46 be f9 8f b5 3d fe e1 95 be
       0.09080164 -0.19350211 0.08865351 -0.2927398
000130 31 4c 8f 3e 7a 73 93 3e f7 c7 5b 3e b6 d7 d5 3d
       0.27987817 0.2879904 0.21463 0.10441534
000140 06 1c 3a 3e 6d 65 15 be 41 3b bc 3d e2 c9 45 3e
       0.18174753 -0.14589472 0.09190989 0.19315293
000150 aa fe d5 3c 98 c0 f8 be f7 e5 31 3a f3 e0 38 be
       0.02612241 -0.48584437 0.00067862816 -0.18054561
000160 0c bc bf 3d c1 25 10 bd 20 cb 14 3e 85 fe c7 3c
       0.09362039 -0.035192255 0.14530611 0.024413357
000170 1b d9 9e bc 69 82 5f 3e 9c 91 30 be 02 33 66 3e
       -0.019390633 0.21827091 -0.17243046 0.22480395
000180 0b b4 8a be 27 a6 0c 3e 46 71 82 be fa 8d 9b 3c
       -0.27090487 0.13735257 -0.25477046 0.018988598
000190 59 62 83 bd b9 6a 55 be 05 5b da bd 89 07 2b be
       -0.06415243 -0.20841493 -0.10661892 -0.16702093
0001a0 72 c0 90 bd b4 57 08 3e b1 51 94 3e 42 54 c3 be
       -0.07067956 0.13314706 0.28968576 -0.3815022
0001b0 7e 23 0d 3e b4 98 a9 bd 80 31 19 3e 11 f6 dc be
       0.1378307 -0.08281079 0.14960289 -0.43156484
0001c0 59 0a 00 bf 72 36 5b 3e a1 72 f2 be 02 2b f2 bd
       -0.5001579 0.21407488 -0.4735308 -0.11824609
0001d0 a4 ae 1e 3e 15 bd b9 3e d7 d2 5b 3e 58 41 97 be
       0.15496308 0.3627707 0.21467148 -0.2954204
0001e0 d0 0b fe 3e c6 94 8a 3e 20 39 91 3e ea 8a 39 be
       0.49618387 0.2706663 0.28363895 -0.18119398
0001f0 cd 6a 8e 3d 55 be c0 be 76 a1 df 3e f6 d9 89 be
       0.069539644 -0.37645212 0.43677872 -0.26924103

linear2.weight f4 [32, 128]
000000 7a bf f9 3d 3e 49 0f be 3c dc 05 3e d0 96 38 39
       0.121947244 -0.13992783 0.13072294 0.0001760379
000010 9f 90 35 3d 6d a4 c0 bc 7a d4 02 3e 75 1a 16 3e
       0.044327375 -0.023515904 0.12776366 0.1465853
000020 0b af ee bd ef 10 11 3e e0 73 a0 3d 8f 3a c4 bd
       -0.116544805 0.14166616 0.078346014 -0.09581482
000030 bc be ef bb d0 13 9b 3d a7 33 38 3e 53 71 9d bc
       -0.0073164385 0.07572138 0.17988454 -0.019219076
000040 c9 5a 99 3e 71 08 75 be b6 77 1e 3d 2c be 0d be
       0.29952076 -0.23929001 0.038688384 -0.13842076
000050 b5 30 91 bd 97 2a 3a 3d e3 80 13 be b8 d5 05 be
       -0.07089368 0.045450773 -0.14404635 -0.13069808
000060 ca 27 5a 3e 28 fa 5e be 83 5b 96 3e ea 18 48 be
       0.21304241 -0.21775115 0.29366693 -0.19540754
000070 1a 61 5b 3e 78 65 04 be 4a 53 17 3e 57 4a 04 bd
       0.2142376 -0.12929332 0.14777866 -0.03229746
000080 ae a2 85 bd 40 e3 c5 3d 10 b8 09 3d a1 8f 1f 3b
       -0.06525169 0.09662485 0.0336228 0.0024347084
000090 22 aa 54 3d 70 17 03 3d 14 0c 44 3d e1 bf 72 3c
       0.051920064 0.032004774 0.04786308 0.014816255
0000a0 a6 79 1f bd b1 d8 36 3e 4a eb 22 be 36 41 9f 3d
       -0.038934372 0.17856099 -0.15910068 0.0777611
0000b0 00 ef 52 3d 25 21 0f be ee 52 3a be da 52 7d 3e
       0.05149746 -0.13977487 -0.18195698 0.24738637
0000c0 5d 1b d6 bd 30 d1 59 bd 74 f1 39 3e 62 0e 08 be
       -0.10454438 -0.053178012 0.18158513 -0.13286737
0000d0 03 57 2a be 00 e3 dd 3c 09 e1 62 3e 1e c6 b3 3d
       -0.16634755 0.027085781 0.22156157 0.08778022
0000e0 f8 44 20 3e 42 29 58 3e ed d9 4e 3c ee 2c 15 be
       0.1565131 0.21109489 0.0126252 -0.1456792
0000f0 84 9e f7 bd 21 05 3d be 3e bc 1f be d1 13 08 be
       -0.12090781 -0.18458988 -0.15599152 -0.1328881
000100 ce 2e f0 bc 0c 03 08 be 1f c9 a5 bd 53 11 53 3e
       -0.029319193 -0.13282412 -0.080950014 0.20612077
000110 53 f9 dd bc b0 50 c8 bd 6d 4c 07 bc 82 22 18 3d
       -0.027096426 -0.09781015 -0.008257967 0.037142284
000120 34 13 85 3d 86 0c 1e be 94 bc ed 3d b7 25 12 be
       0.06497803 -0.15434465 0.11608234 -0.142722
000130 6e d9 5d bd f8 a7 c0 bd 70 7d 39 3d 71 ec b1 3c
       -0.054162435 -0.094070375 0.045285642 0.02171919
000140 03 ed 67 be 39 98 1f 3e 3d 81 18 be e1 c1 1f bd
       -0.22649007 0.15585412 -0.1489305 -0.039003257
000150 9b e5 27 bd 44 78 40 be f0 66 45 3e 23 92 a0 bc
       -0.040990453 -0.18795878 0.19277549 -0.019600933
000160 c4 1a 70 bd 75 ff 56 3e eb 0d 5d be 62 ee 9c bc
       -0.058619276 0.20995887 -0.2158734 -0.019156639
000170 6a 0a 28 3e a9 88 e6 3d 34 8e 75 bd bc 8f f2 3c
       0.16410223 0.112565346 -0.05995007 0.029609554
000180 07 aa 19 bb c6 b1 28 be f3 4d 39 bd 68 34 3e 3e
       -0.0023447291 -0.16474065 -0.045240354 0.18574679
000190 2d 42 37 3e 4f e2 c0 3d d6 bf be bd c3 f3 18 be
       0.17896338 0.09418165 -0.093139336 -0.14936738
0001a0 63 ea 18 3e f4 da 67 ba a5 ce db 3d c8 58 ab bd
       0.14933161 -0.0008844577 0.10732774 -0.08366543
0001b0 9a 75 35 be 86 5f 1f be b7 ff 6e 3e 05 dd 2b be
       -0.17720643 -0.15563783 0.23339735 -0.16783531
0001c0 0a cc b7 3c 67 f9 26 3e 46 c1 73 be 48 44 ac bd
       0.02243616 0.16306077 -0.23804197 -0.08411461
0001d0 60 15 60 bd e6 ee 13 3e 35 c0 9c bd e2 99 2f be
       -0.054707885 0.14446601 -0.07653848 -0.17148545
0001e0 74 7f d7 3d a2 af 34 be a8 95 44 3d 5c 4c 2a 3d
       0.10522357 -0.17645124 0.047994286 0.04157673
0001f0 a3 6a 3e be 99 00 4c 3d d5 89 a3 bd 6e 78 83 3c
       -0.18595366 0.049805257 -0.07985274 0.016048636
000200 43 24 a2 3e 03 2a e2 bd 7c 00 ed 3d 0b 05 91 bc
       0.3166829 -0.11043169 0.11572358 -0.0177026
000210 e2 7b bc bd 5b 57 b1 3c 27 53 0d 3e 27 94 29 be
       -0.09203316 0.0216481 0.13801251 -0.16560422
000220 78 63 84 3d 05 92 ef 3d c4 f2 e3 bc da 39 85 3d
       0.06464285 0.11697773 -0.02782572 0.06505175
000230 c8 34 4b 3e 34 1b be 3b a1 4e d0 3d f9 48 d4 3b
       0.19844353 0.0058015827 0.10171247 0.0064784256
000240 81 34 0c 3e 30 82 5f 3e 98 79 17 be 46 ab 8e 3d
       0.13691904 0.21827006 -0.14792478 0.069662616
000250 32 ce 52 3e 81 bd 36 3e 3b 56 d2 3c 46 2c 14 3e
       0.2058647 0.17845728 0.025675884 0.14470014
000260 0f f4 7c 3c bd 93 7b 3e fd 71 2e be 60 51 e4 3d
       0.0154390475 0.24568076 -0.1703567 0.111483335
000270 8f 31 6a bd 4c 93 e4 bd 59 37 7a be d0 2d 41 bd
       -0.05717617 -0.11160907 -0.24435176 -0.04716283
000280 83 11 4b 3d f4 03 8d 3d e9 e8 d2 3c 26 11 f0 3d
       0.049577247 0.068855196 0.025745826 0.11722021
000290 3a 39 2e be dd 99 28 3d 0d 4e 40 be 0b 05 0a 3e
       -0.17014018 0.04116236 -0.18779774 0.13478486
0002a0 71 25 24 bd 19 f7 70 bc 7d 9f 1f 3e 45 ab a5 3d
       -0.04007477 -0.01470735 0.15588184 0.08089308
0002b0 8f 49 67 be e6 b6 8e 3d 9b e7 e6 3d f5 e9 a4 bd
       -0.22586654 0.06968479 0.11274644 -0.08052436
0002c0 a5 20 78 be 8d bd 07 be a4 e1 1c be c4 dd 43 3e
       -0.24231203 -0.13255902 -0.1532045 0.19127566
0002d0 95 66 82 be 36 3c 03 be 69 9b 6f 3d 9e b0 e9 3c
       -0.2546889 -0.12815937 0.05849782 0.0285266
0002e0 b2 64 5f be a6 16 7d 3d c4 e1 1c 3d a5 0b 60 3b
       -0.21815756 0.061789177 0.038301244 0.0034186628
0002f0 46 bd 85 3c 1f db 09 be 5b 9d 66 bb 23 45 a9 bd
       0.016325604 -0.13462494 -0.0035189006 -0.0826514
000300 97 19 56 3e 32 d4 b1 3d 64 91 f1 3c 5d d4 04 3c
       0.20908199 0.08683051 0.029488273 0.008107272
000310 8b 29 64 be 11 28 b0 bd 5e 1e 7e bc 56 55 29 3e
       -0.22281472 -0.08601392 -0.01551017 0.1653646
000320 29 00 3d 3e 42 4a 64 3e 98 a3 86 3d 16 00 3b 3c
       0.18457092 0.22293952 0.06574172 0.011413595
000330 fd be 88 3d 62 68 c5 3c 8b c8 93 3d 6b 74 86 3d
       0.06677053 0.024097625 0.07215985 0.06565174
000340 16 8a f3 3c b6 93 ef bc e7 97 1f be 3c d7 11 3e
       0.02972893 -0.029245239 -0.1558529 0.14242262
000350 8d 25 80 3d f6 87 98 ba 1f a4 90 bd 2f a5 f7 3d
       0.06257162 -0.0011637199 -0.070625536 0.12092053
000360 4f 54 5e be d1 bd 10 be e8 81 73 be e9 a3 12 be
       -0.21711849 -0.14134909 -0.23780024 -0.1432034
000370 b0 08 e1 3d 4a 6e 00 bd 18 71 e0 3d 84 07 98 3a
       0.10987985 -0.03135518 0.10959071 0.001159892
000380 87 15 f9 3d 0f cb ae 3d 56 34 ed bd f3 06 72 3c
       0.12162309 0.08534824 -0.11582248 0.014772165
000390 86 df e7 bc 60 b0 75 3d d1 87 3a be de c1 aa 3d
       -0.028304826 0.059982657 -0.18215872 0.083377585
0003a0 00 d8 8a bd 34 bf 87 3d 5e a8 11 be fc 3e 31 be
       -0.0677948 0.06628266 -0.14224383 -0.17309183
0003b0 64 74 98 bc d2 46 11 be b9 f0 87 bc af 31 ef 3d
       -0.018610187 -0.14187172 -0.016594278 0.11679398
0003c0 96 1d ce bd 38 f6 1b be 7e 03 04 be 60 9c bb bd
       -0.10064237 -0.15230644 -0.12891957 -0.091606855
0003d0 58 5b 83 3c f6 61 36 3e 46 3e 7d 3d e3 14 97 bd
       0.016034767 0.17810807 0.061826967 -0.07377031
0003e0 97 58 d9 3c 89 45 79 bc 89 af d5 3d d7 07 53 3a
       0.0265315 -0.015214332 0.10433871 0.00080501795
0003f0 fc 80 6c 3d 18 58 7f be f9 a8 3f bd 99 dd f4 3d
       0.057740197 -0.24935949 -0.046792004 0.11956329

linear2.bias f4 [32]
000000 d0 ae 98 3e c0 18 32 3d 26 02 96 be 20 a3 11 3e
       0.2982087 0.043480635 -0.29298514 0.14222383
000010 de 17 56 3d 9a 22 dd 3e 5e cd aa be 95 1b 05 bf
       0.052268855 0.4319046 -0.33359808 -0.5199521
000020 76 df 42 be eb ac 9e 3e d3 68 0f 3d 94 d6 52 be
       -0.19030556 0.309913 0.035012078 -0.20589668
000030 9a 35 03 bd 6d e6 23 3e 83 de 2f 3e 49 09 68 3e
       -0.03203354 0.16005869 0.17174725 0.22659792
000040 c5 de 4d 3e bd cf c7 be d9 6b d3 be cd 16 ed bc
       0.20104511 -0.3902568 -0.4129322 -0.028941536
000050 b9 09 b8 3d ef ae bb bd 19 44 14 3e 37 3a 3d 3e
       0.089862294 -0.09164225 0.14479102 0.18479238
000060 42 52 85 3d d4 3c 46 be 07 8c 3e be 54 21 ca bd
       0.0650983 -0.19359142 -0.18608104 -0.09869638
000070 66 ab 2e 3e 6e 27 b1 3b 2e c4 66 3e 0c e0 fc be
       0.17057571 0.0054063117 0.22535774 -0.49389684

output.weight f4 [50, 32]
000000 c4 92 fa bd c3 27 62 be 75 c8 44 3e 08 78 b2 3c
       -0.122350246 -0.2208548 0.19217093 0.021785751
000010 2b 39 2a 3d a2 94 b1 bd 53 f0 e5 bd 08 2b 6f bd
       0.041558426 -0.086709276 -0.11227479 -0.058390647
000020 b5 ce ba bd 25 2e 0f bf cc 7c aa be da d1 8b bd
       -0.091214575 -0.55929786 -0.33298337 -0.068271354
000030 ac 00 28 3e ea 7b 48 bd d1 c8 ab 3e f1 95 e7 3d
       0.16406506 -0.0489463 0.33551648 0.11307896
000040 c4 99 a3 bd 5a 6f 97 3e 96 57 5a be 92 7a 4b be
       -0.07988313 0.29577142 -0.21322474 -0.19870976
000050 5f 2e 40 3e 2b 5c 18 bd 2b 49 43 be 5a df 94 be
       0.18767689 -0.037197273 -0.1907088 -0.29076654
000060 9b 23 f9 3d a0 60 5f be a0 29 c6 bd 47 dd d1 3d
       0.12164994 -0.21814203 -0.09675908 0.102472834
000070 01 36 79 3d 8d 9f 2c bd 7f 58 e4 3e 25 23 a6 3e
       0.060842518 -0.042144347 0.44598767 0.32448688
000080 cb a0 fb bc bc 3b 7c bd 6d 3e 04 3e 6e 07 ed be
       -0.03071632 -0.061580405 0.12914439 -0.4629473
000090 3d 60 ff 3d 03 9b e7 3c e8 13 c4 3d d0 65 d0 bd
       0.12469528 0.028272158 0.09574109 -0.10175669
0000a0 18 e7 ec be 10 db fa be 83 ec 33 3e 0c fd a1 3e
       -0.4627006 -0.48995256 0.17570691 0.31638372
0000b0 9d 7b d1 bc 54 25 84 be af 5b f2 bc 05 2a ac 3d
       -0.025571639 -0.2580973 -0.029584734 0.08406452
0000c0 fb 1c cb bd 8c 7a f1 3e 40 f0 c7 be 05 93 0f be
       -0.09917637 0.47163808 -0.39050484 -0.14020927
0000d0 cd 8d 8f 3e bf b5 1f be 02 43 24 be 3e 8c 5b 3e
       0.28037873 -0.15596674 -0.16041186 0.21440217
0000e0 e2 bb a1 bd 3b c5 cc be 56 08 45 3d 98 c6 cd be
       -0.07897164 -0.39994225 0.048103653 -0.40190578
0000f0 de 50 d9 3c c0 7d 9c bd 81 f9 08 3f ef 39 92 bc
       0.026527818 -0.076411724 0.5350571 -0.01784989
000100 50 45 94 3d 23 29 fb 3d 91 b1 bd 3d f0 f7 c5 3d
       0.07239783 0.122637056 0.09262384 0.09666431
000110 d0 60 02 3d 0a 38 9a 3d 8c 20 15 bd 4a d0 91 bd
       0.03183061 0.0753022 -0.036407992 -0.07119806
000120 56 8c 97 bd 86 f4 6c 3c 10 e6 2f 3e 2f 24 89 bd
       -0.07399814 0.014462596 0.17177606 -0.066963546
000130 34 85 3c 3e 54 12 c0 bd d7 41 f3 bd 89 4d 69 bd
       0.18410188 -0.09378496 -0.11877792 -0.05695871
000140 51 19 05 be 7a 6f c6 3d 51 13 2c be 2c a0 ec ba
       -0.12997939 0.09689231 -0.16804244 -0.0018053106
000150 91 65 05 3e 16 74 1e 3e cb 5d 2f be a7 ed 23 bc
       0.13027026 0.15473971 -0.17125623 -0.010005391
000160 0f 17 8c bd 3e f9 8d be 1c 78 10 3d 46 fa fe 3d
       -0.068403356 -0.2772922 0.035270795 0.124500796
000170 4b 90 8f bd c2 a9 c5 3d 04 d8 ad bd 97 83 42 bd
       -0.070099436 0.09651519 -0.08488467 -0.047488775
000180 c3 e9 5a 3d 53 69 fb bd 25 0e 25 3d 55 3a c0 3d
       0.05344559 -0.122759484 0.040296692 0.09386126
000190 f6 55 d2 bd fd 5e 81 3c 78 36 08 be 8f 8a 14 3e
       -0.10270302 0.015792364 -0.13302028 0.14505981
0001a0 e3 fe 3e bc e0 57 89 bc 28 9c 84 3c be 7f e7 3c
       -0.011657449 -0.016765535 0.016187742 0.028259154
0001b0 64 a1 0a bd 74 6a c8 bc d4 15 83 bc c5 3f d0 bb
       -0.03384532 -0.024464823 -0.01600162 -0.006355258
0001c0 d6 e7 b2 bd a8 a8 dc bd ba e0 75 bd 71 9f 19 3d
       -0.087356254 -0.10774356 -0.06002877 0.03750557
0001d0 2d ee 17 3e b0 07 31 bd c6 07 dd 3d e9 94 8d bd
       0.1483695 -0.043220222 0.10792498 -0.06913168
0001e0 62 04 fa 3d ed e8 37 3e 52 ea 0d be bd 7e 0b 3d
       0.12207867 0.17959948 -0.13858917 0.034056414
0001f0 78 57 47 3c e3 6f 11 bd cb 12 23 bb e3 05 43 be
       0.01216685 -0.035507094 -0.0024883028 -0.19045214
000200 f7 83 62 3d eb 42 e5 bd 65 fa 1e bc 43 87 84 3d
       0.055301633 -0.11194404 -0.009703253 0.064711116
000210 c1 81 0f bd 9d 5c ca bc 30 55 28 be bc 41 14 3e
       -0.035035852 -0.024702365 -0.16438746 0.144782
000220 4d ca 5e 3c 16 96 83 3d 4a 6c c6 bc 97 d6 e9 3b
       0.013598037 0.06425111 -0.024221558 0.007136177
000230 20 5d 04 3d fe 7d 42 bd be 22 28 3d f1 62 0e bd
       0.032315373 -0.047483437 0.041048758 -0.034762327
000240 dd 98 4e bd 63 1c d7 bd e7 86 1b bd 83 4d a8 bc
       -0.05043875 -0.10503461 -0.03797045 -0.020544773
000250 88 fa e8 3d 2f 1d bd bc 25 3c 7a bc cc 91 3a 3c
       0.1137591 -0.023085205 -0.015273129 0.0113873
000260 45 f0 36 bc b5 c8 9d 3d 0c 2e 0c be 23 8d 53 3d
       -0.011165683 0.077042975 -0.1368944 0.05164827
000270 cd 8c d1 3d b9 6f 92 bd 38 31 b6 bc 6a 43 3a be
       0.10231934 -0.07150216 -0.022240266 -0.18189779
000280 11 a7 07 3e 7e 6a 8c 3e 4c cf 93 3c a7 48 3b 3e
       0.13247325 0.27424997 0.018043183 0.18289433
000290 55 da 31 be 8f c9 d2 3d b9 ca 19 3e 1e 39 9f bc
       -0.17368443 0.102923505 0.15018739 -0.019436415
0002a0 b6 37 5c be 04 eb ca bd f7 3c c7 bd 4a 74 4b bd
       -0.21505627 -0.09908107 -0.09728425 -0.04967145
0002b0 11 ba 5a be f7 3e a4 3c 7e 32 a8 3d 82 7e 0c 3c
       -0.21360041 0.020049555 0.082127556 0.008575084
0002c0 f9 6b 21 be e0 57 8c bd 27 4c 32 3d d2 d6 03 3e
       -0.15763845 -0.06852698 0.043529656 0.12874916
0002d0 8a 8f c3 bc ab 85 b2 3d 45 fe f4 3d f8 34 4b 3d
       -0.023872156 0.087169014 0.119625606 0.04961106
0002e0 05 71 6d 3e fc ee e8 bd cd 45 9f 3d 43 50 26 3e
       0.23187645 -0.11373708 0.07776985 0.16241555
0002f0 44 e7 d5 bb ef 4b fc bb 4a 5c 29 be 8b 77 63 bd
       -0.006527813 -0.0076994817 -0.16539112 -0.055533927
000300 ca f2 1a 3c 64 8b 4d 3e b4 19 d8 bd fe 15 5e 3e
       0.0094572995 0.20072705 -0.105517775 0.21688077
000310 f8 74 9b 3d 22 7b 59 be 42 9d 29 bd 0f db 27 be
       0.075906694 -0.21238378 -0.04140974 -0.16392158
000320 81 0b 89 3d 48 60 d9 bc 10 41 90 3e 98 63 94 3d
       0.06691647 -0.026535168 0.2817464 0.072455585
000330 96 2d 19 be 0d 95 7f bd 52 12 1a 3e 6f 82 21 be
       -0.14958796 -0.062398005 0.15046051 -0.15772413
000340 db 80 c2 3d e7 9e de bd 16 53 30 3d b7 33 89 bb
       0.094972335 -0.10870152 0.043047987 -0.004187073
000350 8e 6d 00 3e c9 db 8a 3d 33 fe 24 be 3a 58 ed bd
       0.12541792 0.06780202 -0.16112594 -0.115890935
000360 ac 61 8d 3e 78 24 8b bd 01 4a 46 be da f7 32 bd
       0.2761358 -0.06794065 -0.19364168 -0.0436934
000370 38 2b 9a 3d c2 00 bb 3d 2c 99 d1 bd 46 7e 07 3e
       0.075277746 0.09131004 -0.10234293 0.13231763
000380 b4 fb 75 bc eb e2 25 3e 6d 01 a1 3d 01 7a d9 3d
       -0.015013624 0.16199844 0.078616 0.106189735
000390 60 09 8d 3d 4a 77 20 be ad f9 53 bc 4d 3d 21 3d
       0.06886554 -0.15670505 -0.012937945 0.0393651
0003a0 a3 bb 1a 3e 5d 34 10 3e 88 3a 0f bc 83 24 a1 3e
       0.1511064 0.14082475 -0.008741982 0.3147317
0003b0 f0 e3 af bd db 73 b7 3d dd 94 81 bd 1d cb 7e bc
       -0.085883975 0.089576446 -0.063272215 -0.015551356
0003c0 63 f3 1d be 18 93 ae 3d 8f c1 e8 bc a4 6c fd 38
       -0.15424876 0.0852415 -0.028412608 0.00012084216
0003d0 87 6a 77 be b9 61 0d bd a2 99 23 3d 6b 11 2a 3e
       -0.2416173 -0.034517024 0.039941438 0.16608207
0003e0 21 11 b3 bd e6 73 66 3e 90 2b 80 be e9 de 31 bd
       -0.087435015 0.22505149 -0.25033236 -0.043425474
0003f0 f9 f9 99 bd 8f 54 37 be 02 e4 02 3d 86 f8 25 3e
       -0.075183816 -0.1790335 0.031955726 0.16208085

output.bias f4 [50]
000000 92 b0 8d 3e 93 9b 21 bf 83 48 97 bd 7f f4 51 bf
       0.27673775 -0.6312801 -0.073868774 -0.82013696
000010 43 0a 9a be 47 b5 25 3e dc b0 48 be d6 92 e4 be
       -0.30085954 0.16182433 -0.19598716 -0.44643277
000020 b7 b2 68 be 30 d1 78 3e f0 4a 6d be c9 ea 87 3d
       -0.22724424 0.24298549 -0.23173118 0.066365786
000030 65 bd 02 be 17 2a 3e be c7 0c a8 3d 21 99 51 3f
       -0.12767561 -0.18570744 0.08205562 0.8187428
000040 80 9d f5 bd 06 42 c7 3a 2b 03 ef 3e 9b aa 1c 3e
       -0.11992931 0.0015202172 0.46682104 0.15299456
000050 91 99 69 3e 51 9b a6 bd 04 1e 9a bd 8b 92 02 3f
       0.22812487 -0.08135093 -0.07525256 0.51004857
000060 2b 07 0d bf b4 9d 5f 3d 9f 9d 48 3e 1d ca 48 3d
       -0.5508906 0.054593757 0.19591378 0.049020875
000070 e4 d7 a8 bf 5e 93 c8 be 42 46 c1 bf 93 1e 41 3e
       -1.3190885 -0.39174932 -1.5099566 0.1885932
000080 19 d5 9d 3e 4e c0 e1 be bd 50 ae 3e bc 39 28 bf
       0.30826643 -0.4409203 0.34045973 -0.65713096
000090 f5 74 f1 bd ef 03 06 3d 66 e5 2d 3f d5 85 f0 3e
       -0.11789886 0.032718595 0.6792816 0.46977106
0000a0 d2 e3 14 3e 44 28 d3 3e 41 a2 34 3f 84 5d 55 3f
       0.14540032 0.41241658 0.7056008 0.8334582
0000b0 a1 11 7c 3c 9f d3 b6 3c 47 22 e0 bd bf 73 0d 3f
       0.015385062 0.022317706 -0.10944038 0.5525474
0000c0 8c 3c b9 3e 0c e0 24 bf
       0.36179006 -0.6440437
