datasets/code/development/models/best_model_003.pth (torch, 485621 bytes, 8 tensors)

conv1.weight f4 [1, 1, 5, 3]
00000000: 9f49 883e c0b9 c23e 86e7 e13e 5ee7 443e
00000010: 74a5 483e 53e0 863e 32cb 023e 603d 9abd
00000020: 51e3 5a3c b780 fa3d 637e bb3d a2d4 a9bd
00000030: 8d41 04be 8352 0bbe 0582 11be
0.26618668 0.3803234 0.4412195 0.19228885 0.19594365 0.2634302 0.12772825 -0.075312376
0.0133598605 0.12231582 0.09154966 -0.082925096 -0.1291563 -0.13605694 -0.14209755

conv2.weight f4 [1, 1, 3, 3]
00000000: 9fcf 3a3f d797 ae3e e40a 14bf c503 283f
00000010: c14b aa3d 5f40 1fbf 5d3a 673e e369 9cbe
00000020: 06aa 04bf
0.72973055 0.3410022 -0.5782912 0.6563075 0.0831523 -0.622076 0.22580858 -0.30549535
-0.51821935

linear1.weight f4 [128, 900]
00000000: 7868 b2bc d8a1 0e3c 1078 ab3a d793 c13c
00000010: f45d b83c f448 86b9 8917 e6bb 6d94 05bc
00000020: 273e 70bb bb78 a8bc fb9a 42bb 0568 febb
00000030: 29cf 063d 1b1b b13b d7fb 06bd 1268 5d3c
00000040: 38d7 a9bb be0e a43c 0b98 133d 4bec 65bc
00000050: 56db c73c ba06 8cbb f9e8 12bd 9b4f 68bc
00000060: f59c 22bc cccf 373c 3501 17bc 68bf 623c
00000070: 425a 6dbb 9082 60bc fdfd d13c 3936 6cbb
00000080: 782b 91bc 6241 e63b 0afa d4bc b642 003d
00000090: 9379 a1bc ec70 763c 0def 56bb dc43 133d
000000a0: e16a e83c 5f39 033c 1842 3e3d 2087 063d
000000b0: 1850 8bbc df72 b3bc 5f54 26bc e3b2 933c
000000c0: ac74 c03c 1414 a2bb d0a0 373d 3962 9eba
000000d0: 866e b9bc 1eb1 78bb 56b3 e93b 407c bd3c
000000e0: e602 623c 2ac5 44bc 7902 efbc 4893 883c
000000f0: fb34 293b 4b81 07bc 9625 973b a99e 0abc
00000100: 111a e03c a3c9 193d b397 eb3c ab03 883c
00000110: 20e4 68bc 368f 1a3c 4fad 7fbc ced5 6abc
00000120: ead5 90bc 5a80 12bc 4dd2 763c 653a ddbc
00000130: f2c5 9cbc b00c 2cbd 1033 12bc 043d 94bc
00000140: a5f3 a7bc 0e5e 42bc 0556 3a3d 908a db3c
00000150: 55ef b43b 17e1 763c d697 f2bc 9b99 d83c
00000160: bd05 053d adca 8bbc e271 4c3d de94 4ebc
00000170: 39ab 3cbc e00f 533c 13ae 09bb f378 f03c
00000180: e846 023c 6ecc 923c b9e3 1dbc beba ad3c
00000190: 9c3f 5ebd 5d45 7e3c 9f16 deba a1f9 753c
000001a0: ade7 eeba 4733 233d 3578 a83b cd09 09bd
000001b0: da7a 703b 51ae 003d 444c 71bc becb a2bb
000001c0: ebef 323c d0bc 16bc 25d6 06bd 7f37 37bb
000001d0: 1254 3e3b cf57 b5bc 6337 17b9 3e23 c23c
000001e0: 379d 9dbc 8486 dbb9 698a 6fbc 9ed2 43ba
000001f0: 10ac a5bc de8e 44bc 6863 a73c 1dc1 2dbd
00000200: 1700 4a3a 046a 2cbd 8ebf 19bc 11cd 7e3b
00000210: 145c e23c 6955 b0bc 3bba 97bc 1d6f 62bc
00000220: 397b d7bc 16cd 273d fb9b e63b f971 453c
00000230: 1fa1 863c 419d 2e3c 75e7 9c3c 2d9a 2bbc
00000240: 777a 56bc 92f5 72bd da0a cdbc 5dac 343c
00000250: c85b 3cbd 4756 e7bc b549 143d 193c 68bc
00000260: e6f2 20bb ff7d 33bd 4239 763c b583 a1bc
00000270: f556 7f3c 3a15 00bd e261 9abc 2d03 353d
00000280: 3e6d 55bc 1606 353c b7a5 f83b 8b61 23bb
00000290: 6f8c 19bd f828 9fbc c400 16bb a304 c1bb
000002a0: 262c 6bbc f182 b63c d924 1e3c 2277 213c
000002b0: 2402 f3bb b52f 03bd 41a3 073c b15e 5bbc
000002c0: 51e0 b3bc 87cb 93bd f095 e03b 9ac1 1cbc
000002d0: cbb9 ccbb f70a bc3b 8441 373d e66d 8d3c
000002e0: 8b24 34bc a568 0fbd eb4e 5f3c 7082 da3c
000002f0: 04ac d23b a0be f33c 4a91 fcb9 8b0b 96bc
00000300: 1d7b b6ba 1eb4 0f3d 1147 0e3c c8d8 b73c
00000310: dc60 3abc 57db 553c 215c 13bd 4b35 25bb
00000320: d69b 783c 03e3 153d c06b efbc cd7c 8b3c
00000330: dd2e 153c cdf1 943b 7ecd 163d 64fc 7ebb
00000340: e4da 8dbc 5b95 5c3c 452e 6d3c 0fd7 f0bb
00000350: 8649 9abb b046 043d 1e34 2f3c b033 25bd
00000360: 56e1 693c 9f55 ed3c 65c9 04bd 91ae 11bb
00000370: 4f21 753b a4df 71bb 885a ccba 7688 edbc
00000380: 6ab6 db3c 9e77 e33b e15b 6c3c 7e84 9c3c
00000390: 74ca 0a3d 1b8f 0dbd e258 41bc 2bef be3a
000003a0: b58b 1c3b a87a 19bc 3865 023b fea4 3fbc
000003b0: a169 743c 82ce 043d 7802 17bb 973d 1e3d
000003c0: 1f0a 69bc e8d2 05bc 3631 343d 3e7e 76bc
000003d0: dc33 383c 4b86 703c 7dde 1cbd 30c4 a3bc
000003e0: 082f c2bb dd4c d0bb 2ae4 1b3d 7e6f 9a3c
000003f0: 8e96 003c 3681 37bc 1c91 063d c096 6eb9
-0.02177833 0.008705579 0.0013082046 0.023630066 0.022505738 -0.00025612826 -0.0070218486 -0.008153063
-0.003665814 -0.020565381 -0.0029694426 -0.007763865 0.032912407 0.0054048426 -0.032955017 0.013513582
-0.005183127 0.02002656 0.03603367 -0.014033387 0.02439658 -0.004273263 -0.03586671 -0.014179136
-0.009925117 0.011218976 -0.009216596 0.01383958 -0.0036217128 -0.0137030035 0.025633806 -0.0036043061
-0.017720923 0.007026837 -0.025998134 0.03131362 -0.019711291 0.015041571 -0.0032796294 0.035953388
0.028371276 0.008009284 0.04644975 0.03284371 -0.017005965 -0.02190536 -0.010151952 0.018029636
0.023493133 -0.004946241 0.044831097 -0.0012083716 -0.02263571 -0.0037947367 0.007131974 0.023130536
0.013794636 -0.012009898 -0.029175984 0.016671792 0.0025818932 -0.008270572 0.004612635 -0.008460679
0.02735618 0.03754581 0.02875886 0.016603312 -0.0142145455 0.009433558 -0.015605285 -0.014333202
-0.017680127 -0.008941734 0.015064788 -0.027005384 -0.019137356 -0.042004287 -0.008923307 -0.0180955
-0.020501921 -0.011863245 0.04549219 0.02679947 0.0055216947 0.015068314 -0.029613417 0.026440432
0.032476176 -0.017064417 0.049913295 -0.012608735 -0.011515432 0.012882203 -0.0021008297 0.029354548
0.007951476 0.017919745 -0.009636813 0.02120721 -0.05425988 0.015519467 -0.0016943997 0.015013129
-0.0018227004 0.039843824 0.005141283 -0.033456612 0.003669432 0.03141624 -0.014727656 -0.0049681356
0.010921459 -0.00920029 -0.032919068 -0.0027956662 0.002904181 -0.022136597 -0.00014421115 0.023698445
-0.019240005 -0.00041871157 -0.014620402 -0.0007470044 -0.020223647 -0.011996953 0.020433143 -0.042420495
0.0007705702 -0.042093292 -0.009384049 0.0038879553 0.027631797 -0.021525102 -0.018521419 -0.013820437
-0.026303874 0.04096707 0.0070376373 0.012051099 0.01643425 0.010657609 0.019153336 -0.01047377
-0.013090721 -0.059316225 -0.025029588 0.011027423 -0.045985967 -0.028239382 0.036203105 -0.014174485
-0.0024558841 -0.04382133 0.0150283 -0.019716123 0.015584697 -0.031270243 -0.018845502 0.04419248
-0.013026534 0.011048814 0.007588114 -0.0024929966 -0.037487444 -0.019428715 -0.002288864 -0.0058904453
-0.0143537875 0.022279235 0.00965234 0.009855064 -0.0074160267 -0.03202792 0.008278669 -0.013389275
-0.021957548 -0.07216554 0.0068538114 -0.009567643 -0.006247734 0.005738612 0.044740215 0.017264318
-0.010995041 -0.035011906 0.013629655 0.026673526 0.0064291973 0.029753983 -0.00048173434 -0.018316051
-0.0013922189 0.035083883 0.008683936 0.022442237 -0.011375632 0.013052783 -0.035976533 -0.0025208767
0.015173873 0.03659345 -0.029226184 0.017027283 0.009105411 0.0045454265 0.036817066 -0.003890776
-0.01731629 0.0134633435 0.014476364 -0.0073498557 -0.0047084717 0.032293975 0.010693578 -0.040332496
0.014274916 0.028971491 -0.032418627 -0.0022229294 0.0037403887 -0.0036906982 -0.0015590945 -0.028995734
0.02682038 0.0069417497 0.0144262025 0.019106146 0.03388448 -0.034560304 -0.0118009765 0.0014567127
0.0023886983 -0.009367622 0.0019896757 -0.011697052 0.014917762 0.032423504 -0.0023042243 0.038632955
-0.014223604 -0.00816796 0.043992244 -0.015044747 0.011242833 0.014680455 -0.03829812 -0.01999101
-0.0059260167 -0.006356819 0.03805939 0.018851992 0.007848395 -0.01120024 0.03285323 -0.00022753607

linear1.bias f4 [128]
00000000: 4160 553d e295 b83c 1c13 8fbc 8cc4 0a3d
00000010: b079 98bd 0513 5dbd a0ca b7bc 39fb ad3c
00000020: 7bb7 b3ba 8a0c b4bd 7093 f5bc f0e0 093d
00000030: b086 7ebc dd5b 153c cfe7 3e3d bb61 083d
00000040: 5673 bcbc 4ac1 413d eef2 1cbd 72b7 3cbd
00000050: f9f3 b5bc 0c7e 9abd 78b2 bd3c 7cac 713c
00000060: 9f32 48bd a6d7 713d 8e37 7e3b f5ea 203d
00000070: f8e0 aabc e802 a13a 7071 c2bc cc82 7e3c
00000080: 52ee 783c 044e abbb e4b7 453d abaf 023d
00000090: f265 813c 1573 be3c 7e14 973d d750 c2bd
000000a0: 5229 d6ba 82b8 453c 986f 033d b939 883c
000000b0: 8f9b e9bc 3569 15bb 0e2a a13c 8805 633b
000000c0: f18a 173d 4813 e13c a563 32bd 3205 64bd
000000d0: 881f e33c 5d7f 173c 4436 0ebc 12fd b3bc
000000e0: ddf5 1abd cdf8 91bd 4788 8f3b 0454 b4bc
000000f0: 76d5 0c3d 0e1c 43bd 3a2b d73c 21d6 183d
00000100: 8b84 54bd 9653 4abc c22c 97bb b1b8 fbbc
00000110: 2175 01bd 7345 b43c b50c 073d 2ce9 8abc
00000120: 6591 ddbc 7542 3cbd f0b3 e1bc dcff 443d
00000130: 88a0 a63c e0c4 b33c 9823 c63c 4641 933d
00000140: 6393 debb 034b 973c aeaa f53c a8f9 25bd
00000150: 12c5 663c 58d1 3e3c 86c2 e6bc 37c6 aabc
00000160: f614 3f3d 6119 1c3c 9498 663b a3a1 063d
00000170: a5fe 8a3d bd2c f13b 7a70 483c 12c6 28bd
00000180: d1a9 04bd fa59 32bd 5ccc 8dbd 6610 f6bc
00000190: f1f5 d83b 3a07 c23b 27b7 913d c3d7 68bc
000001a0: 01bb 55bd 246c 073c 6867 b23c 98d3 4a3c
000001b0: 85c0 c1bb 478b 5abd f032 c6bd 2fba a53b
000001c0: 1b63 fbbb 412d 39bc 96cd c9bc eb3b 07b8
000001d0: cd26 36bc 898a 613d 32cb 983c 91df c53b
000001e0: 11b2 8cbc a9c9 3ebd 344c 703d 1446 85bc
000001f0: aabd 92bc 8fa2 2abc a6b1 a33c f94e 613c
0.052093748 0.022532407 -0.017465167 0.033878848 -0.07445085 -0.053973217 -0.022435486 0.021237956
-0.0013711298 -0.08791454 -0.02997753 0.033661783 -0.015535042 0.00911614 0.04660779 0.033296328
-0.023004215 0.047303475 -0.038317613 -0.046073385 -0.022211062 -0.07543573 0.02315639 0.014750596
-0.0488764 0.05904355 0.0038790437 0.039286572 -0.020859227 0.0012284191 -0.023735732 0.015534114
0.015193539 -0.005227806 0.048271075 0.03190581 0.015795682 0.023248235 0.073769554 -0.09488075
-0.0016339219 0.012067916 0.032088846 0.016629087 -0.028516559 -0.0022798304 0.019673374 0.0034640748
0.03699774 0.027475014 -0.04355206 -0.055669017 0.027724996 0.009246674 -0.00867993 -0.02197126
-0.03783213 -0.07127533 0.004380259 -0.022012718 0.03438326 -0.047634177 0.02626573 0.037313584
-0.051884215 -0.01234903 -0.00461349 -0.030727716 -0.031605843 0.022005772 0.032971103 -0.016956888
-0.027046869 -0.045961816 -0.027551621 0.04809557 0.02034022 0.021944463 0.024186894 0.07190184
-0.006792472 0.018468386 0.029988613 -0.040521294 0.014085071 0.011646591 -0.028168928 -0.02084647
0.04665085 0.009527535 0.0035186158 0.032868993 0.06786851 0.0073600695 0.012233848 -0.04120452
-0.032388512 -0.04354284 -0.06923744 -0.030037116 0.0066211154 0.0059212716 0.07115012 -0.014211598
-0.052180294 0.008265529 0.021777824 0.012379549 -0.0059128427 -0.05335548 -0.09677684 0.005057595
-0.0076717264 -0.011302293 -0.024634164 -3.224231e-05 -0.011117649 0.055063758 0.018651579 0.006038614
-0.017174752 -0.046579037 0.058666423 -0.016268767 -0.017912704 -0.010414734 0.01998217 0.013751739

linear2.weight f4 [32, 128]
00000000: 2bc2 07bd b9fe 7b3d 1fd3 9e3b f655 153d
00000010: a13f c23d 52bf 6c3d ec0f 7ebd 967f 86bc
00000020: aa9e 66bd aaf5 7a3d 6204 b33c d35a 98bd
00000030: 294f b6bc bae5 54bc 397f 7f3c 63b4 70bd
00000040: c243 573d 8e77 b93d b766 45bd 5632 61bd
00000050: 6def 86bd 6e28 78bd 9781 9d3d e275 863d
00000060: 8126 5c3d 4172 00bd c5a1 bb3d a8ff 6cbd
00000070: 8a59 b4bd 5cd0 41bd 4f5b 203d a1cd 3f3d
00000080: 77c6 12bc e114 1ebd 6737 b4bd 3f78 26bd
00000090: 69ab 593d 8411 a8bd d6b7 82bd 0af6 cc3b
000000a0: 9a55 663d e8ab a13d 784f d33d f974 5bbd
000000b0: 3db9 14bd 1f74 273b 9d55 adbd 9160 26bc
000000c0: f01a 04bd d8ff 3fbd e577 9ebd 4650 593c
000000d0: f29c de3b 0d9d 8abd 429c 89bd 9834 20bd
000000e0: b85a 693d 441f b7bc d7b5 9dbd 011a adbd
000000f0: 4f3d b3bd db4f a4bd 4ffc 1a3d c34b fcbc
00000100: da6b 65bd 13b5 a13c 7660 663c 48f5 7cbc
00000110: 0bf3 dfbc e39c 4139 1225 d43c 9fc0 c83d
00000120: 86d7 883d fd64 cc3d 153f 913d 089b 103d
00000130: 4465 b13d 274a 53bd f161 5c3d 529a 253d
00000140: d399 8bbc 471f 99bd 09d2 1a3d 64e6 4f3c
00000150: 697f 4b3d 956d 9e39 05b9 1639 5487 fbbc
00000160: 6d2a 7c3d 59c3 973d ad14 303d 966c cbbc
00000170: 4880 7d3d 487a 02bc 4d58 40bd df32 bdbd
00000180: c3dc ad3c 1f62 0b3d 9da0 653d 44f6 73bd
00000190: 05b2 59bd c432 ccbb bd6a 2e3d 0830 27bb
000001a0: accb 40bd 9070 8abd a18a 9bbd 93e7 a1bd
000001b0: ea2e 34bd 1330 823d 9acc 45bc 794c 323d
000001c0: a469 99bd 9d0b d7bd b309 1bbd 230b 08bd
000001d0: 4311 f93b 2bd5 a03c d61a 89bc ff60 473d
000001e0: 9840 e13c 9447 523d cbe9 c0bd 01b5 873c
000001f0: ec60 e73c 0fd3 01bd 6703 5f3d 7694 b8bc
00000200: c736 703d 8370 19bd 4d94 633d 053d 793c
00000210: 9b24 b23d e546 1bbd d53d 683d 98e4 5c3d
00000220: b722 893d 2f06 3c3d 67c8 903c da6f 883d
00000230: 7c1b 633c 8094 b0bd 63e8 b0bd 4214 903d
00000240: e8f0 2f3c 3f13 953c c6eb bfbd 7f37 97bd
00000250: 7263 14bd 3e42 85bd c605 b2bd c93d fdba
00000260: 8690 26bd 2c31 58bc 5825 59bd 9f28 543d
00000270: ac3b 5b3d b437 0b3c f416 aebd 3b63 513b
00000280: d479 63bc 3840 213d 814d ce3b 2aa2 0bbd
00000290: da3f 543d e6a6 39bd fd06 8b3d 2dd6 2e3d
000002a0: 9fc1 343d d3eb c5bd 09f6 96bc 56b7 ebbb
000002b0: 4f27 45bd 50e8 76bd 9cce 533d 9b25 713d
000002c0: a345 b4bd 14a9 90bd 2fa4 8fbd 65e8 b43d
000002d0: f855 debc 88ed b93d 98d8 5abd e3be 83bb
000002e0: 3518 d9bc 3d00 ffbb a3e9 213c 0331 90bd
000002f0: dedf febc 6492 4a3d 4c03 69bd 767f 96bd
00000300: 8175 82bd 63f6 7dbd 3de7 473d 86ff 5abd
00000310: e4f6 4e3d 679c 2cbb 3ddc b53d e939 643d
00000320: ccbf cabc 5958 eb3b 29dd c43d 84f6 77bc
00000330: 6b68 873d efb1 bbbc e1f6 5c3d a606 89bd
00000340: 4c67 933d 7b50 dd3c 98be 4cbd ea87 83bb
00000350: 404a 07bd 3b3c 0e3a 2a15 b73c 8079 06bd
00000360: 3757 9fbc d8a5 14bc fbf4 13bd e28f 94bc
00000370: 5817 cfbb 5a37 813d d789 9d3d 0e07 97b9
00000380: 0173 9fbd 3a12 a33d a78d 2abd 8736 78bb
00000390: c411 193d 9ef9 adbd 18f6 453d dd97 093d
000003a0: 7040 b53d adc1 8cbd ba14 90bd e164 83bb
000003b0: a633 41bb 5747 a6bd a81c 9bbd 75c5 0dbd
000003c0: 2e4f 733b c397 b8bc 5f81 b6bd 1cab 6f3c
000003d0: 426e fdbc 3157 5b3d 45fa b1bd 0de6 6cbd
000003e0: 7d0d abbd 887e 9d3d f908 7abd 9988 2f3d
000003f0: 0408 85bd b187 203d c23d e5bc a755 8bbd
-0.033144157 0.06152222 0.004846945 0.036458932 0.094847925 0.057799645 -0.062026903 -0.01641826
-0.056303658 0.06126944 0.021852676 -0.07439198 -0.022254543 -0.012994224 0.015594297 -0.05876578
0.052554853 0.09056006 -0.04819366 -0.054979645 -0.065886356 -0.06058543 0.07690733 0.06565453
0.053747658 -0.03135896 0.091617145 -0.057861 -0.08806141 -0.047317848 0.03914958 0.046826962
-0.0089584505 -0.03859413 -0.0879963 -0.04064202 0.053141985 -0.08206466 -0.0638272 0.006254916
0.05623398 0.07894117 0.10317892 -0.05357835 -0.03630947 0.0025551391 -0.08463595 -0.010154859
-0.032252252 -0.04687485 -0.07737712 0.013263768 0.0067936117 -0.06768236 -0.06719257 -0.039112657
0.05697128 -0.022353776 -0.07700699 -0.084522255 -0.08751928 -0.08023044 0.037838276 -0.030797845
-0.05601106 0.019739663 0.014061084 -0.015439339 -0.027337572 0.00018464359 0.025896583 0.098023646
0.06681733 0.099801995 0.0709211 0.0353041 0.08661893 -0.05158439 0.05380434 0.040430374
-0.017041123 -0.07476669 0.03779796 0.012689207 0.049682055 0.00030217753 0.0001437404 -0.030704178
0.061563898 0.074103065 0.042988468 -0.024832051 0.061889917 -0.007963724 -0.04695921 -0.092382185
0.021223431 0.034029122 0.056061376 -0.05956103 -0.05314829 -0.0062316377 0.042582262 -0.0025510807
-0.047069237 -0.06759751 -0.07594801 -0.079054974 -0.043990053 0.06356826 -0.012072707 0.04352996
-0.074908525 -0.10500262 -0.037851047 -0.033213746 0.0076009347 0.019632896 -0.01673643 0.048676487
0.027496621 0.051337793 -0.094195925 0.016565802 0.028244458 -0.03169542 0.054446604 -0.02253173
0.05864599 -0.037460815 0.055561353 0.015212302 0.08698388 -0.037909407 0.056699593 0.05392894
0.066960745 0.045904335 0.017673684 0.06661959 0.013861533 -0.08622074 -0.08638074 0.07035114
0.010738589 0.018197654 -0.09371142 -0.07383632 -0.03622765 -0.06506775 -0.086925074 -0.0019320782
-0.040665172 -0.013195317 -0.05301413 0.05179655 0.053523704 0.008497167 -0.08500472 0.0031950015
-0.013884027 0.039367884 0.0062958603 -0.0340902 0.051818706 -0.045325182 0.06788442 0.042684723
0.044129964 -0.096641205 -0.018427866 -0.007193486 -0.04813319 -0.060280144 0.05171071 0.058873754
-0.08802345 -0.07063499 -0.070137374 0.08833388 -0.027140602 0.090785086 -0.053429216 -0.004020558
-0.0265008 -0.007782011 0.0098823635 -0.07040598 -0.031112608 0.049456015 -0.05688791 -0.0734853
-0.06370068 -0.06200255 0.04880451 -0.053466342 0.050528422 -0.002633834 0.08879898 0.05571929
-0.024749659 0.0071821627 0.096124955 -0.0151344575 0.06611713 -0.022911994 0.05394638 -0.06690721
0.07197437 0.027015915 -0.049986452 -0.004014005 -0.033029795 0.0005425845 0.022348959 -0.032830715
-0.019450767 -0.009072743 -0.036122303 -0.018135015 -0.0063199215 0.063093856 0.076923065 -0.0002880622
-0.07785607 0.07962461 -0.041638996 -0.0037874298 0.03737046 -0.08494876 0.048330396 0.033592094
0.08850181 -0.06872878 -0.07035203 -0.0040098284 -0.0029480248 -0.08119076 -0.07573825 -0.034612138
0.0037126052 -0.022533303 -0.08911394 0.014628198 -0.030936364 0.05354995 -0.08690313 -0.05783658
-0.08352182 0.076901495 -0.061043713 0.04285488 -0.064956695 0.039191905 -0.02798355 -0.06803446

linear2.bias f4 [32]
00000000: 2d33 8f3d 8ab5 aebc 36a2 0bbe 0bcd c3be
00000010: 7167 e63b 9884 c2bc ac58 c1bd 1f62 db3d
00000020: 1207 433d 7295 0dbe 5b74 0e3e 94d8 93be
00000030: 712b babc 981e 6c3e dd3c dabd 5630 4cbd
00000040: 67d8 0b3e d6f1 723c cffc 1dbe a6cb 853d
00000050: 34cf 21be 344b 2abd b159 d63d 356f 3e3e
00000060: 8212 79bd 5976 d7bc 79f2 0abe 7998 12be
00000070: 219f c0bc b128 393e f3b6 8b3e fa42 983d
0.06992183 -0.021326799 -0.13636097 -0.38242373 0.007031374 -0.023744866 -0.09440741 0.107120745
0.047614165 -0.1382654 0.13911574 -0.28876173 -0.022725793 0.23058546 -0.1065614 -0.049850784
0.1365677 0.014828166 -0.1542847 0.065329835 -0.15801698 -0.041575626 0.10466326 0.1859711
-0.060808666 -0.02630155 -0.13569058 -0.14315976 -0.023513379 0.18081929 0.27288017 0.0743465

output.weight f4 [25, 32]
00000000: 0fa1 11be df97 ddbd bf35 3e3e a908 863d
00000010: b343 c2bd 025d 443e 3b2c 553d e760 db3d
00000020: 4bd1 e43d 6929 633c 1e26 893d db81 d53d
00000030: c331 e7bd eea2 b73d 59f2 573e f0af 90bd
00000040: cb49 4bbe d149 10be 232d fc3d 60e0 0d3e
00000050: 1176 253e 36e3 92bd aed9 74bd 4326 11be
00000060: 0c17 163c f3b5 0cbe 16f0 1dbd 6e16 70bd
00000070: c6f5 1d3d c12f 07be 1d16 d43d 1467 5dbe
00000080: a55d dfbd 561d 7b3d a947 a73d 8eb5 3abe
00000090: b7b0 92bd 9ac2 0dbe 1da8 063b d7fc 8cbc
000000a0: 0e1f 9b3d 211c c1bd 4a31 f0bd 7e84 3bbe
000000b0: 561f d7b9 4da5 3c3e d671 363d 24d0 dcbc
000000c0: de02 903d 6b99 2f3e 684a 34bd 3dbe 2a3e
000000d0: b845 11be 1adc a43d 89a5 1a3e da9e 44bd
000000e0: 6095 adbd e308 d7bd f6de 973d 19ab f6bd
000000f0: 2019 cebd 4624 53bd f178 a0bd 8dc1 a23d
00000100: ce52 a63d eb12 2fbe 2064 853c 77c9 0a3d
00000110: e921 dc3c 3692 2dbe 8cbb 09bb 8861 023e
00000120: 333b ea3c 002b d6bc 5dd4 09be c707 103e
00000130: 2900 123e fe5e e1bd e310 27bd 5cc1 b03d
00000140: e339 103e ef02 163e 552e 45bd dd90 933d
00000150: a9b4 683b ecb8 47be 7148 133e 0f3e 2abe
00000160: 89e2 32be 2574 bc3a d158 36bc 126a b93d
00000170: 7f80 57be 0e63 f83d 28c9 06bc aa65 52be
00000180: 1285 a73d d711 d3bd d7e0 99bd f534 0dbe
00000190: 078f dbbd 6d5c 0abd 06ad 673d 21e3 d73d
000001a0: 361b c4bc db3e 23bd b9fa 303e e952 14be
000001b0: 9bc3 44bd 9ef6 b03c c90c 1c3d 99a4 30be
000001c0: be07 b13d 23cf 6e3c a17e 2abe 5439 fb3d
000001d0: 667f 3439 2672 c13d 4d6d c7bd 499b 1cbd
000001e0: efcd 26be b8c6 513e edd7 edbd 53ee 54be
000001f0: eb32 8ebd 9dce 06be 3f9d f33d 4be5 39bc
00000200: f67e 35be 83bf 07be ac0d 343d ed7f 80be
00000210: d382 ea3d 7d1f f73c 6a24 12be b113 1c3e
00000220: 7aa0 bf3c d45f 8dbd 714f 1c3d ddde adbd
00000230: 393e 17bd 7373 0ebd 473e f13c 9c1e d3bd
00000240: 2e5e 4dbe 9e11 86bd 1653 ebbd da1a e0bd
00000250: bd3a 3a3d c61f 74bc 6825 dc3d 6327 b83b
00000260: 6237 3fbe 6e06 333e 0f69 34bd 429f 85bd
00000270: 35b8 b23c 6633 0abd 2a07 e13d bac9 073e
00000280: 683f 023d 3c91 073e d837 62bd 2e04 01be
00000290: 0ce9 c13d b6a8 71bd 5c54 133c 4fc1 333e
000002a0: 4eb8 c53d 0ed3 74bd f7cc a7bb d928 25be
000002b0: f3de 9b3d 8b08 703d 6303 963d 35c1 763d
000002c0: 7829 4bbc f71c 1bbe a920 a7bd bbb6 0d3d
000002d0: 5f44 80bd 6395 16be 4c4a 97bd d645 70bc
000002e0: b086 b8bb 0d70 c63d a63e b1bd 57e2 18bd
000002f0: 30ad 223d 5717 1b3e 3315 b23d 02fd 5fbd
00000300: ae40 20bc 699d 05be 1b09 06be 10bd c7bd
00000310: ff4e 30be 20cd 81bd 0e99 283d c3bc 0abd
00000320: 3c9a a9bc 0f52 6bbc 7822 3e3e b674 c23d
00000330: b62a 8fbb 55b3 81bd f2a2 033d 6dac b7bd
00000340: a09e e2bd b90e 1dbe 1279 a83d 886f 213e
00000350: a46d e43d c2c4 b6ba 2243 033e 32e5 453d
00000360: 4cab f83d 92e9 833c 9eda 80bd 115b 4d3d
00000370: e485 fc3d 9617 993d b760 94bd 5fce 9a3d
00000380: 7e3c 833c 2344 183e de0d 77bc b8b2 3a3e
00000390: f853 ba3d 978b c63d fb00 11be ab12 093e
000003a0: 1c59 683d a356 9c3d 0a6c 0c3e bdc5 af3d
000003b0: 7ea2 453e 0c04 0ebd 2604 513d 24f2 12bd
000003c0: 5548 1bbe d400 90bc 0d9a 1d3e 1d13 bfbc
000003d0: 0e1d ca3d a69c 213e 9d00 4e3d 8024 3a3d
000003e0: 1d4c 8f3d 2446 0e3e 948e 0fbe 45d1 c8bd
000003f0: a7c8 25be 8e14 4abd 4820 bbbd d509 59bd
-0.14221595 -0.10819983 0.1857519 0.065446205 -0.09485569 0.19176105 0.052044135 0.10711842
0.11172732 0.013864853 0.066967234 0.104251586 -0.11288788 0.08966623 0.21088542 -0.070648074
-0.19852369 -0.14090659 0.12313297 0.13855124 0.1615832 -0.07172243 -0.059777908 -0.14174752
0.009160768 -0.13741283 -0.038559042 -0.05861514 0.038564466 -0.1320181 0.1035578 -0.21621352
-0.10906533 0.061307274 0.08167965 -0.1823332 -0.07162612 -0.13843766 0.002054698 -0.017210407
0.075742826 -0.09429193 -0.11728151 -0.1831226 -0.00041031343 0.18422432 0.044542156 -0.026954718
0.07031797 0.17148368 -0.04401627 0.16674133 -0.14186752 0.080497935 0.15102209 -0.048003055
-0.08475757 -0.10499742 0.07415573 -0.12044353 -0.10063386 -0.051548265 -0.07835568 0.07947073
0.081212625 -0.1709706 0.016283095 0.033883538 0.026871638 -0.16950306 -0.0021016328 0.12732518
0.028592682 -0.02614355 -0.13459916 0.14065467 0.14257874 -0.110044464 -0.04078759 0.086306304
0.14084582 0.14649557 -0.04813989 0.07205365 0.0035508072 -0.19504136 0.14383103 -0.16625236
-0.17469229 0.0014377875 -0.011129574 0.090534344 -0.21045111 0.12128268 -0.00822667 -0.20546594
0.08179678 -0.10306137 -0.07513588 -0.13789733 -0.1072064 -0.03377955 0.056561492 0.10541368
-0.023938756 -0.039854866 0.17283143 -0.14484753 -0.048038106 0.021601971 0.03809813 -0.17250289
0.08644055 0.014575752 -0.16649868 0.12266794 0.00017213597 0.094456 -0.09737644 -0.03823403
-0.16289495 0.20485961 -0.1161345 -0.20794038 -0.069433056 -0.13164754 0.11895227 -0.011346172
-0.17724213 -0.1325665 0.04395835 -0.250976 0.11450734 0.030166382 -0.14271703 0.15241887
0.02339195 -0.069030434 0.0381617 -0.084897734 -0.036924575 -0.03477807 0.029448641 -0.10308573
-0.20055458 -0.06546329 -0.11490457 -0.109426215 0.045466173 -0.0149001535 0.10749322 0.0056199296
-0.1867347 0.17482921 -0.044045504 -0.06524517 0.021816352 -0.033740424 0.109876946 0.13260546
0.03179875 0.13238996 -0.055229038 -0.1259925 0.09468278 -0.058998786 0.008992281 0.1755421
0.09654294 -0.05977159 -0.0051208693 -0.16128863 0.076108836 0.058601897 0.07324865 0.06024285
-0.012400024 -0.15147768 -0.08160526 0.034598093 -0.06263041 -0.14705424 -0.07387218 -0.014665088
-0.0056312904 0.09689341 -0.08654527 -0.03732523 0.039715946 0.15145622 0.0869545 -0.054684646
-0.009781046 -0.13048328 -0.13089411 -0.09752858 -0.17217635 -0.063379526 0.04116159 -0.033871423
-0.020703427 -0.014362826 0.18567836 0.09494917 -0.004369105 -0.06333033 0.03213782 -0.089684345
-0.110654116 -0.15337647 0.08226217 0.15765202 0.11153725 -0.0013944136 0.12818578 0.04831428
0.12142047 0.016102586 -0.06291698 0.050135676 0.12330225 0.07475202 -0.072450094 0.075588934
0.016020056 0.14869742 -0.01507899 0.18232238 0.09098047 0.096945934 -0.1416053 0.13386028
0.056725606 0.07633712 0.13713089 0.085826375 0.19300267 -0.03467183 0.051029347 -0.035875455
-0.15164311 -0.01757852 0.15390797 -0.023324544 0.09868823 0.15782413 0.050293554 0.045444965
0.06996939 0.13893944 -0.14019233 -0.0980554 -0.16189824 -0.04933601 -0.091370165 -0.052987892

output.bias f4 [25]
00000000: 4dd4 973c f8be 543e c6ce 633d 209f f83c
00000010: aa52 bc3e e5fe 213e 070e 553e 20cd 023d
00000020: 13f9 bd3d 8a07 d83c 1876 0d3b 301b 15be
00000030: 09c7 46be beb2 ba3c 8f98 52be d9df 913d
00000040: 1ea2 59be 946a 643e 60db 823d f33a 95be
00000050: 9362 823e 21c8 2b3c 3fc8 0bbe 03d9 843d
00000060: 4740 403e
0.01853385 0.20775974 0.055617116 0.030349314 0.36781818 0.15819891 0.20806132 0.031933904
0.09276023 0.026370782 0.0021585282 -0.14561152 -0.19411863 0.022790309 -0.20566009 0.07122774
-0.21253249 0.22306281 0.06389499 -0.29146537 0.2546583 0.010484726 -0.13650607 0.06486704
0.1877452
