datasets/code/development/models/best_model_023.pth (torch, 488949 bytes, 8 tensors)

conv1.weight f4 [1, 1, 5, 3]
00000000: ddf7 5bbd f13b dcbd 30b9 913d 9265 aabd
00000010: 8447 633c 925b d93d b7c0 ccbd dc64 70bd
00000020: 0a7d fd3d 77ab 16bd 6799 043d 3951 9cbc
00000030: 8759 993d 8460 d73d b21c a6bd
-0.053703178 -0.107536204 0.071154 -0.08320154 0.013872031 0.10613169 -0.09997695 -0.058689937
0.12377365 -0.036784615 0.03237286 -0.019081699 0.07487779 0.10516456 -0.08110942

conv2.weight f4 [1, 1, 3, 3]
00000000: 5524 81bd 8e30 ddbb 1e70 4e3d bbf9 14bd
00000010: a769 013d d274 863d a555 97bd 458a 99bd
00000020: 36b6 0fbd
-0.06305758 -0.006750173 0.050399892 -0.036370974 0.0315949 0.065652505 -0.07389382 -0.07497076
-0.03508588

linear1.weight f4 [128, 900]
00000000: 0fa2 babc 762c a03d 6c4d 43be 0612 fbbd
00000010: b0db 01be 5283 063c 5c19 edbd d4b0 003d
00000020: 878c 373e 3b0d 5fbd dbdf 92bd 9a72 1d3d
00000030: 6b7b b7bd 2203 343c e41f dabb 7266 543c
00000040: 129c d7bd ed98 b93d a37e a4bd bbc8 cebd
00000050: 04db 073e a51b 94bc f666 d2bd dad3 4abd
00000060: 23b8 8abe 1ff4 283e 5853 183e 82af 85bc
00000070: 6962 afbd 0c5b eebb 3623 c73d 8b9c 43be
00000080: 2c2f 5dbe 4600 4d3e bacb 91be 42fb 3d3e
00000090: e384 333d fe97 17ba a894 77be 47a6 01bd
000000a0: 44c5 753e e1b2 493e e712 54be c2ed 953b
000000b0: edf7 443e b71d 0b3e 193f 02be a03a d63d
000000c0: 4e14 e13d 3ee7 203e 450e 003e 0d5a ce3d
000000d0: eb7b 46bd 81a1 7c3b 5c13 9d3d c568 6b3d
000000e0: c138 de3a b96c dc3b a1f2 b1bc ae6e 203e
000000f0: a545 dfbd 30be f8bd 146c 8e3e 5a6b 8fbe
00000100: 10db 433e 2864 5abe f853 dabd 9c50 fabd
00000110: a5ea 67bd fa08 0c3e b4a9 203e 944b 18bd
00000120: 6744 0b3e 405d 22bd fa73 bb3c 670f 923e
00000130: e844 943e 478a 6a3e ef86 43be 7367 febd
00000140: c3cb f5bd 1ded de3d 3a78 81bc 7849 19be
00000150: 8897 903e b5db 3d3e 847c 2fbe 299f 053e
00000160: 8c88 1a3a b54c 1f3e aa1b 713e a279 14bb
00000170: 95fd b23d 7f85 e83d 98a8 a7bc 8fb8 b13e
00000180: 19f6 823d 531d 35be 75c9 4cbc 1bc5 34bc
00000190: 81f4 d03d c50f 713c a43e 6fbd a49f 3c3d
000001a0: 9382 2cbe 8224 8dbe f1cd 623e 05a5 11be
000001b0: 0e1e edbd 7d29 2abc cfde d43d 2ccd a9bd
000001c0: d5e3 b73c 954d efbc bc96 313e 08c5 e6bb
000001d0: 3f3c 0dbd 73a3 00be fc23 d23d 4ced 6cbe
000001e0: af76 4abe 5061 bc3c f61e cabd 9d4d a63c
000001f0: e399 ad3d 0d7f c63d bd11 a1be 2596 143a
00000200: eaee c93c e0c6 b23d e262 ef3e d43d 5e3e
00000210: 301e bbbd 29f4 693d 387b fc3d b6bd 5d3e
00000220: 1b8b 26be 4c0d 61bc c48f f8bd 7ed8 c5bc
00000230: 7ef6 3ebe a33e 083e 9420 11be 69ca fdbd
00000240: f264 973c ab66 10bc b539 90bb dd8f 97be
00000250: ad4e 83be b7ed 1fbc aff4 94bb 860b af3e
00000260: 9dbc 2a3e c449 473d 89b9 6abe 8079 183e
00000270: e4f1 353c 2883 b03d 1e2f be3d 9287 71be
00000280: 7d5a bfbe 79a4 b5be a3ff ba3e 3826 5c3c
00000290: 04e6 9cbd afe5 9c3e ae2d fabd 1a00 5abe
000002a0: 2e71 edbc c9a1 90bd 939b 25be 428e f73c
000002b0: d5db 8e3e c0bc f33d 0c35 e93d bfe1 09bd
000002c0: 5dcc 13be 7a2f 30be 9528 9c3d 23cb bc3e
000002d0: 8a55 91bd b34a 2e3e 9145 363d 5220 49bd
000002e0: 96e1 d9bd 7c7c 913d 645e eebd 1da0 3bbe
000002f0: a135 fa3d 235d c03d f7d8 3abd c7a2 8fbd
00000300: 7356 54be c30b 20be fd16 bbbd c914 913d
00000310: 81a0 f83d 7d6e 16bf 939d e3bc 8ed3 afbe
00000320: 7658 bd3d 27d8 2eba f5ec 273e 9fde b2bd
00000330: cee1 93bd 2b8e e8bd 54d7 053e 6e26 7abe
00000340: 4872 b9bc c7b1 58be 78d3 873d 1b42 96be
00000350: 3d0f b63d 6d74 96be 8245 5ebd b560 953d
00000360: c429 68be b16d 99bd 3c02 e43d 3a9d 90be
00000370: 065a a43d 7b5e 39bd 082c c4bb c2d0 25be
00000380: 47a1 293e aebd 713d 19fb 933e e395 e43d
00000390: 28d9 72bc 4c57 183e 8ba7 91bd 3918 a3be
000003a0: bcb1 11be 13d6 4bbe d90a 2e3e ebc7 d7bd
000003b0: a4fe 4abd ec9a 933e 766e 623d 1634 203e
000003c0: 3e46 c8bc 5ccc 813e 4a20 50be 9370 8c3d
000003d0: ed77 2dbe 294c 933d e8cf 99bc 3ded 4a3e
000003e0: ad3f 18bd 0375 86be d47d 37bd 4e09 cb3d
000003f0: 86db a4bd 2e0e 6dbe 2f26 87be df97 3ebd
-0.022782354 0.0782098 -0.19072503 -0.12259297 -0.1268146 0.00821002 -0.115771025 0.031418636
0.179247 -0.054455977 -0.07171603 0.03843937 -0.08959087 0.010987075 -0.0066566337 0.012963878
-0.10527815 0.090623714 -0.080319665 -0.1009688 0.13267142 -0.018079588 -0.102735445 -0.049518444
-0.2709361 0.16499375 0.14875543 -0.01631904 -0.08563692 -0.007274037 0.09723513 -0.19102685
-0.21600026 0.20019636 -0.28475744 0.18552878 0.043827903 -0.00057828415 -0.24177802 -0.031652715
0.24001032 0.19697143 -0.20710336 0.004575462 0.19235201 0.13585554 -0.12719382 0.104604006
0.10990201 0.15713212 0.12505443 0.100757696 -0.04845802 0.0038548412 0.07669708 0.057472963
0.001695417 0.006726828 -0.02172214 0.15667221 -0.109019555 -0.121456504 0.27816832 -0.2801159
0.19126534 -0.21327269 -0.10660547 -0.12222406 -0.05662026 0.136753 0.15689737 -0.037181452
0.13600312 -0.03963971 0.02288245 0.28527376 0.2895882 0.22904311 -0.19094442 -0.12422075
-0.12001755 0.108850695 -0.015804399 -0.14969432 0.2824061 0.18540843 -0.17137343 0.13048996
0.0005894981 0.15556605 0.23545709 -0.0022655507 0.08739773 0.11353587 -0.020466134 0.3471112
0.06394596 -0.17686968 -0.012499203 -0.011033322 0.102028854 0.014713232 -0.058409348 0.046050683
-0.16846685 -0.27566916 0.22148873 -0.14223106 -0.11577998 -0.010385868 0.1039406 -0.082910866
0.022447506 -0.029211799 0.17342657 -0.007042531 -0.034481283 -0.12562351 0.1026077 -0.23137397
-0.19771837 0.022995621 -0.098691866 0.02030068 0.08476617 0.09692202 -0.31458846 0.0005668125
0.024650056 0.08729339 0.4675513 0.21703273 -0.09136617 0.057117615 0.123281896 0.216544
-0.16264002 -0.01373608 -0.12136796 -0.024151083 -0.18648717 0.13305144 -0.14172584 -0.12392122
0.018480752 -0.00881354 -0.0044014105 -0.29601946 -0.25645962 -0.0097612655 -0.00454577 0.3418848
0.16673513 0.048654333 -0.22922339 0.14890099 0.0111050345 0.08618766 0.09286331 -0.23586872
-0.37373725 -0.35477045 0.3652316 0.013436846 -0.076610595 0.30643985 -0.12215744 -0.21289101
-0.028984632 -0.07062108 -0.16172628 0.030219201 0.27902094 0.119012356 0.11387071 -0.033662554
-0.14433427 -0.17205611 0.07624928 0.3687373 -0.070963934 0.17020683 0.044499937 -0.04910309
-0.1063873 0.07103822 -0.11639097 -0.18322797 0.1221726 0.093927644 -0.04561707 -0.07013469
-0.20736103 -0.15629487 -0.09135244 0.070840426 0.12139989 -0.5876234 -0.027785098 -0.3434109
0.09245388 -0.00066697825 0.16398986 -0.08733868 -0.07220803 -0.113552414 0.13070422 -0.24428722
-0.022637501 -0.21161567 0.06632131 -0.2934731 0.08889625 -0.293857 -0.054265507 0.07293836
-0.22672182 -0.07491625 0.11133239 -0.28244954 0.08024983 -0.04525612 -0.0059866942 -0.16192916
0.16565429 0.059018783 0.2890251 0.11161401 -0.014822282 0.14877051 -0.071120344 -0.31854418
-0.14227957 -0.19905882 0.16996326 -0.10536178 -0.04955925 0.28829134 0.055281125 0.15644869
-0.024447557 0.25351226 -0.20324817 0.06857409 -0.1694028 0.07192261 -0.018775895 0.19817062
-0.0371701 -0.26261148 -0.044797733 0.09913884 -0.08049683 -0.2314994 -0.2639632 -0.046531554

linear1.bias f4 [128]
00000000: fcc8 523d 2882 9a3c 9b95 473e c864 5c3e
00000010: 9f58 a1bc 5370 a03e 9310 2c3e 0636 2a3e
00000020: 233f 82bd d2ae afbe f178 b83c 8570 bb3d
00000030: 8d97 28bd f3ed 953e c3a1 74bd 54f5 3f3e
00000040: 3e10 0dbc cd2d c73e b14b d1be a3a1 033c
00000050: 5908 b73e 1e4e 1cbe cc0e 233d a9ad 41be
00000060: 0394 b13d 41a1 36bc 8f61 a13e e66d 3cbe
00000070: 438e 073c 6f0e cabd 4d1c debe 07e6 903b
00000080: 2608 3f3d 14fc 773e 590a 013f 92e3 973d
00000090: 1ea9 023e 7347 03be 7511 2bbd cfac 34bd
000000a0: ee4e 973e b3f4 63be b27e 50bc 4e74 573d
000000b0: aeb2 373d a284 1a3e 0a7a 483e f47d 2fbe
000000c0: d097 a1be 779b 013d 9e19 a4bd 3fd6 8a3c
000000d0: 54fc 543d 9635 b03d 8a08 303c 9827 753c
000000e0: d789 613e 2f73 57bc 403c 5bbe d2ee 84be
000000f0: 1a97 14be f860 b43e 8710 61be ce44 dfbe
00000100: 959d d8bd 425b 94be 01d2 833d 7be1 1e3f
00000110: 2945 abbe 784d 88bd 80cf 0e3d 44f0 9bbe
00000120: ad9e 943e 8c12 313d 8a04 a9bc e70c ef3e
00000130: b83f 233d c47e 34be 766a 0c3e 3506 f1bb
00000140: ff81 163d 272d 743d aa40 e2be d7a1 1b3e
00000150: 324d 84be 567f 90be 56d9 243d 4975 c0be
00000160: f1e8 74bd 275a 963d 5cc3 50bd 5fd9 143c
00000170: 0130 4e3d 11b9 1e3e b132 95be a2f8 2ebe
00000180: 8413 07be 03de 90bb e61a a13b d1b7 503e
00000190: 6918 5dbe aea6 28bd 2042 33be b567 153e
000001a0: 92f5 333e dfc9 0dbe 8d18 0f3c 891b c7bd
000001b0: 362f 71bd 880d 97be 7911 06bd 5adf 50bd
000001c0: 4f3b 44bd b994 363e 33e4 52be f11c debe
000001d0: 5c5e ad3e c4ad 6b3c 0c74 633d 3268 353e
000001e0: 2c33 57be bb05 8a3d ab53 29bd 30b1 9fbe
000001f0: 853b c63d a0c7 3abf e58e 3dbd 976a 033e
0.051461205 0.018860891 0.19490664 0.2152282 -0.019695578 0.31335697 0.16803198 0.16622171
-0.063596986 -0.34313065 0.022518607 0.09152321 -0.041160155 0.29283103 -0.05972458 0.18745929
-0.0086098295 0.3890213 -0.4087806 0.008034143 0.35748556 -0.15264174 0.039809033 -0.18913902
0.08670809 -0.011146844 0.31519744 -0.18401298 0.008273664 -0.09866034 -0.43380967 0.0044219526
0.04663863 0.24217254 0.50406414 0.074164525 0.12759826 -0.12820224 -0.041764695 -0.044110116
0.29552406 -0.22261314 -0.012725519 0.05260115 0.044848137 0.15089658 0.19577804 -0.17137891
-0.31561136 0.031642403 -0.080126986 0.016947864 0.05199845 0.08603971 0.010744223 0.014963053
0.22025238 -0.0131500205 -0.21409702 -0.25963455 -0.14510766 0.3523023 -0.21978961 -0.4360718
-0.105769314 -0.28975874 0.064365394 0.62062806 -0.33451203 -0.06655401 0.034865856 -0.30456746
0.2902731 0.04323058 -0.020632047 0.4668953 0.03985569 -0.17626482 0.13712487 -0.0073554763
0.036745068 0.059613373 -0.4418996 0.15198456 -0.25840145 -0.2822215 0.04024633 -0.3758948
-0.059792463 0.07341414 -0.05096756 0.009085028 0.05033875 0.15500285 -0.29140237 -0.17087033
-0.13191038 -0.004420997 0.0049165366 0.2038262 -0.21591343 -0.041174583 -0.17505693 0.14590342
0.17574146 -0.13846539 0.008733881 -0.09722049 -0.058882914 -0.2950251 -0.032731507 -0.050994255
-0.047908124 0.1783017 -0.20594864 -0.43381456 0.33861053 0.014384691 0.055530593 0.17715529
-0.21015614 0.06739374 -0.041339558 -0.3118987 0.09679321 -0.72960854 -0.046278853 0.1283363

linear2.weight f4 [32, 128]
00000000: cd06 533b 088d 41be 3825 b03d 51d1 72be
00000010: 1ebc febd 1b13 8bbd 9b3f 0dbc f3c1 e7bb
00000020: 5bbf e53b 8b83 cdbe fbd4 8ebd afe9 b7bc
00000030: 788f 423d abf2 613e 9824 373e f1d5 803e
00000040: 1605 b83c 7320 433d 57ab 9c3e 8e54 5abd
00000050: 41ae 87be 7ab4 febd fd9a ebbe b8ee 91bd
00000060: 4b06 b5bd d526 b53d d6f7 fd3c 036f 283d
00000070: 7002 893d a4ce 9abd b355 9a3d 9be4 7abd
00000080: 88a8 693d 51bf 8a3d 90d3 b63e 41da 193e
00000090: 209d 35be 8bae 883c 71b8 45bc d8ba 873d
000000a0: de28 303e 9c5e 843d 8685 813d 28b1 70bc
000000b0: 8d49 953c 7cf5 0b3c b736 f0bd 5915 99bc
000000c0: 4e09 02be e956 42be 41e0 8ebe ec0b 9fb9
000000d0: 0274 78bd 8749 bc3d 3e6e 01bd e8d5 b03c
000000e0: b37e 08bd b80a 853c 0134 db3d 7935 19be
000000f0: 45a8 bb3d 70e1 973c e462 f8bd ceea 92be
00000100: d1e2 b9bc 38c8 943d 5f72 003d 579d 39bd
00000110: 4639 12be 63d1 ffbc a7a7 393d b587 8fbe
00000120: 23f1 363e f88d 25bd 7207 4fbd 702a f8bd
00000130: b224 edbd 7544 7a3d 4c62 b53e 41b9 0abe
00000140: 1b90 02be ebda 313d d7b3 2dbd c953 813c
00000150: c28d f03d d72f 5a3e 7322 1abd 6752 943d
00000160: 5643 703d 8b17 03bd 69c7 173d 6fc5 7fb9
00000170: dc37 25bd 796f 37bd 4f7d 16be 5f50 953b
00000180: 4e07 83be 1aa8 eebb 9f0c 94bd e39c 5ebe
00000190: 2627 f0bc 93dd 16bd 1f13 823d 1571 04be
000001a0: 35bf 32bc 45f4 343e 714e da3c 009d 8f3d
000001b0: 2ed6 7abd 8216 813e 1d2a 6dbe be60 043d
000001c0: 210f 073e d175 c8bd 0cf7 813d 8ec2 90bd
000001d0: 9392 123d 1eb3 ac3d 37f2 c43d f267 e7bb
000001e0: 3169 1b3e 62a2 5839 3cf4 ad3d 0667 dabd
000001f0: 2dff 35bc cddc d8be 7410 2ebc c662 08bd
00000200: 34ec 1ebd 3a95 043e c9de f63d 1166 91bc
00000210: c90f 00be 1d8a 95bd 5d6d 383c 6940 83bd
00000220: 07f8 de39 7e3d fb3d 4578 d7bc 2c56 05be
00000230: 3758 44bc 8bb5 55be 8857 2d3e 595c db3d
00000240: 0a57 a33c eb44 193e 26c2 88bd e313 523e
00000250: fe1a 803e 9d98 b3bd 8967 d5bd 168d 26bd
00000260: 609e ef3d 0565 ea3d 64e1 813e 38ab 26be
00000270: a4eb 5e3b 7bae 403e 15f9 653d dbcb d1bc
00000280: 3ff2 2b3c cd2a f73d cc5a 1b3d 5fd2 39be
00000290: e7ad d9bd 279c ab3d 33b9 e4bc 0f30 53bb
000002a0: 22cc 6fbe 8120 6d3d 56be f53d 6e7b fb3c
000002b0: 8930 d8bd 1615 5ebc f881 2bbe f22a f33d
000002c0: dcac 273d 28e0 24bd b7e2 96be efa6 66be
000002d0: 3dfe 8abb 5ee0 143d 3767 cf3b 8807 8a3b
000002e0: e8b8 e63d e5c7 f83d 21c8 66bd 5029 4ebe
000002f0: 7409 793c 4b15 713c 8121 15be 64fd 0c3e
00000300: 173e 18bd f9d1 c2bd 510b d43d f03b 803e
00000310: 8c10 5e3d 4ecc 363e ff36 173e a0c4 713e
00000320: da1f f9bd 5716 013d af4c e33c 88e9 3ebe
00000330: 0612 a8bc 736e 2e3e 4974 a93d 5c8a 753e
00000340: 6cc7 d7be 04df d33d d18b 28be b044 113e
00000350: 1e41 213c e52e a33c ae6b 88be f498 73be
00000360: 1607 87bb 3b70 16bd 5602 dcbc 505d c53d
00000370: dec4 a2bd 5a4e 18bd 1867 edbd f5b0 65bc
00000380: 1552 7ebe 6afe 32bd d42c c7b9 7ee5 293e
00000390: 107b 39bc cc33 10bb b712 873c 6fd9 043e
000003a0: ff2a c63c b111 fb3c 6500 8cbd 1155 49be
000003b0: 49d3 66bc 4b0c d83d 973a 643d ed38 023e
000003c0: 852a 74be d557 323d 56c1 5e3c 9a33 983d
000003d0: dd17 e6bc 7069 62bd c3c1 ecbc 5752 96be
000003e0: 2cf5 9b3e 7bf6 c8bb 890a 383e e1c7 50be
000003f0: c300 11be a113 593d 692e 8dbc e9a1 b7be
0.0032200099 -0.18901455 0.08600849 -0.2371266 -0.12438224 -0.067907535 -0.008621122 -0.007072681
0.0070113367 -0.40139422 -0.069742166 -0.022450296 0.047500104 0.22065227 0.17885053 0.25163224
0.022463363 0.047638368 0.30599472 -0.053303294 -0.26500133 -0.12436767 -0.46016684 -0.0712561
-0.08839091 0.08845297 0.031001966 0.041121494 0.06689918 -0.07558945 0.07535877 -0.06125317
0.05704549 0.06774772 0.35708284 0.15024664 -0.1773572 0.016684791 -0.0120679 0.066274345
0.1720309 0.06463358 0.06324296 -0.014690675 0.018223548 0.008542415 -0.11729186 -0.018686937
-0.12698862 -0.18978466 -0.27905467 -0.00030335726 -0.06065751 0.09193712 -0.031599276 0.021586373
-0.033323955 0.016240463 0.10703278 -0.14961804 0.09162954 0.018540114 -0.12128237 -0.28694767
-0.022691162 0.07264751 0.031359073 -0.045316067 -0.1427966 -0.031227773 0.0453259 -0.28033224
0.17865424 -0.040418595 -0.05054421 -0.12117469 -0.11579265 0.061100442 0.35426557 -0.13547231
-0.12750284 0.043421667 -0.042407837 0.015787022 0.11745788 0.21307312 -0.03763051 0.072422795
0.058657967 -0.032004874 0.037055407 -0.00024392245 -0.040336475 -0.044784043 -0.14696239 0.0045567
-0.2559151 -0.007283223 -0.0722897 -0.21739535 -0.029315542 -0.036832403 0.06351303 -0.12933762
-0.010909845 0.17671306 0.026648732 0.07012367 -0.061239414 0.25212485 -0.23160596 0.032318823
0.13189365 -0.09788097 0.063459486 -0.07068358 0.035784315 0.084326014 0.09616511 -0.007061952
0.15176846 0.00020659858 0.0849385 -0.106641814 -0.011108202 -0.42355958 -0.01062404 -0.033297323
-0.03879948 0.1294755 0.12054212 -0.017748864 -0.12506022 -0.07301734 0.011256543 -0.0640877
0.00042527934 0.12267588 -0.026302466 -0.13021153 -0.011983923 -0.20870034 0.16927922 0.10710973
0.019938964 0.14967696 -0.06677656 0.20515399 0.25020593 -0.08769343 -0.104201384 -0.040661894
0.117001295 0.11445049 0.25367272 -0.16276252 0.0034014964 0.18816559 0.056145746 -0.025609901
0.010494768 0.120687105 0.037928388 -0.18146656 -0.10628872 0.08379393 -0.027920341 -0.003222469
-0.23417714 0.057892326 0.11999194 0.030698504 -0.10556132 -0.013554832 -0.16748798 0.118734255
0.040936336 -0.040252835 -0.29469845 -0.22524618 -0.0042417333 0.036346786 0.006329443 0.0042123236
0.11265737 0.12147502 -0.0563432 -0.20132947 0.015200008 0.014714549 -0.14563562 0.13768536
-0.03716859 -0.09512705 0.10353721 0.2504573 0.054215 0.17851374 0.14767073 0.23610163
-0.12164278 0.031515446 0.027746527 -0.18643773 -0.020516407 0.1703432 0.08274133 0.23978561
-0.42144334 0.10345271 -0.16459586 0.14186358 0.009842185 0.019919822 -0.26644653 -0.23788816
-0.0041207178 -0.036728125 -0.026856583 0.096369386 -0.07947706 -0.037184097 -0.11591929 -0.014019241
-0.24836 -0.04369966 -0.00037989637 0.1659145 -0.011320844 -0.002200353 0.016488416 0.1297357
0.024190424 0.030648084 -0.06836013 -0.19661357 -0.01408846 0.1054922 0.055719938 0.12717028
-0.23844345 0.043540794 0.0135959 0.07431717 -0.02808755 -0.055276334 -0.028900987 -0.29359695
0.3046049 -0.0061328984 0.17972769 -0.20388748 -0.14160447 0.052997235 -0.017234044 -0.35865715

linear2.bias f4 [32]
00000000: 9219 253d 6449 853c 4721 583d 3b81 993c
00000010: bb12 b0bd 17ac cd3d 8aa3 3ebe cff8 363e
00000020: 8977 7c3e abfe 523e d6e4 e83d 6df7 97be
00000030: 8809 afbe 9d3e 36be b56e 033e 7bb3 343d
00000040: 1bdf 843e 1db5 49be 2e93 023e 0d6a 75bc
00000050: 2e13 803e d3b1 5abe 90b1 803d 98b3 2fbc
00000060: a95a d2bd 9d85 3cbe 264f e03d d58f a9bd
00000070: 081e 063d e75e 3c3e 61fb 7cbe 58b2 de3c
0.04030759 0.016270347 0.05276611 0.01873838 -0.085973226 0.10042589 -0.18617073 0.1786835
0.24654974 0.2060496 0.11371772 -0.29680958 -0.3418696 -0.17797323 0.128352 0.04411648
0.25951466 -0.19697995 0.12751457 -0.014978898 0.25014633 -0.21356897 0.06283867 -0.010723971
-0.10271198 -0.18410344 0.10952596 -0.08279387 0.032743484 0.18395577 -0.24705268 0.02718465

output.weight f4 [50, 32]
00000000: e740 9dbe 8941 f4ba 5006 47be 3092 c4bd
00000010: 561b 433d 30fb 923c 859a 163e aaef 933e
00000020: 2f89 223e 5d00 803d 6a23 d1be b5f5 15be
00000030: 8c91 f33c f53c c83e 2d46 4bbe 8566 dabd
00000040: a9f4 b83d d444 773e 2425 5b3e d13a 39bc
00000050: 5e6e 073c e0df 563e 6eaf e73d df68 0fbe
00000060: 1411 223e fc40 cdbd d87a 393e 1135 3abe
00000070: 5dae 2a3e 586c 23bc 2068 a53e 7b8b c5bd
00000080: 6e30 913d 0818 9bbe 953c e43d 3ce6 983d
00000090: 228e 433d bbcb 10bd 3bc6 143d ee94 563e
000000a0: a3cd 1b3d 683b 55be 75d4 573e 54d4 23be
000000b0: 2688 bcbe 0df6 f2bd a44e 83bd 14bc 8a3c
000000c0: 4b51 8e3d e501 043c 7b06 12be cf52 ef3c
000000d0: f3f2 d53d 8e82 1c3e 9b1d 8b3d 43e3 61bd
000000e0: f19f 293e 9e85 98be ef02 133e 16a8 e5bd
000000f0: 4c60 113e 3fb7 37bd 4983 f23c b6cf 333d
00000100: 244c 663e ec1f 06be bf71 36be d537 ccbd
00000110: 5776 153e ffb8 013c 4d66 873e 801e cf3c
00000120: 5c3d fabd 4667 0d3e 8903 45bd 3273 3ebe
00000130: c18e 85be f8a8 35be 65b4 0cbd aad4 fd3d
00000140: 6458 60be f5d4 6dbc 2c8a a03d 8a95 9ebd
00000150: 4e6d ddbd 7804 253e b53c 883b 36ab 0b3d
00000160: 56fb 36be 8767 ebbd ff45 1ebd 1d22 8ebd
00000170: 8eb8 27bd f970 8e3e 0db3 0b3d 4837 56bd
00000180: 5b59 193d 9e85 e53d 1c5d c03d 3734 40be
00000190: 4b6d 7f3d a2b4 173e 2b70 94bc f4ba 26be
000001a0: 2374 a43c 6b0f 2f3e fe6b 50be 3b6e 66bd
000001b0: edc9 f93d 1f28 abbc a878 5cbe 446f 80bd
000001c0: 51e8 71be a047 0b3e b9cf 173d c5ef 973c
000001d0: c35c 02be d72b b6bc f8b8 293e 9198 f0bb
000001e0: b683 613d 58a0 5bbe 9408 1fbd d4c9 a1bd
000001f0: 833f 39be 287e 1abe ec58 5e3e 0262 123e
00000200: ea1b 9e3e e91e 6f3d a221 30be 638d 223e
00000210: f196 08bd c55d 8ebe 4e45 51be 1958 483e
00000220: 61fd 90ba 90c7 aa3e f9c7 92bd 57ac 18be
00000230: 8af6 df3d e53d 9c3d 694b 913d 572f f33d
00000240: fa46 0e3f fd1d d1be e7c6 b6bb f80d 1bbd
00000250: b2a8 f63d fd9c de3e 3a71 88be 4fe9 7bbd
00000260: 0655 a3be 4652 873e 5e9d a9be 7339 0ebc
00000270: f0e7 8cbe d6e3 52bd ddd6 a3bd c6af 0dbe
00000280: 2797 663d 839b 773d 7e00 89be 27ac 0a3e
00000290: 5e44 9f3c 1714 263e 7cf2 84bd e8ce 253e
000002a0: 776d f3bc 9192 9dbe c925 14bd 67a6 283e
000002b0: 16b2 60be 2710 81be eb41 13be ca06 133e
000002c0: 6f1a ab3d f4c7 8ebe 0204 903e 6ab3 1f3e
000002d0: 6923 e53d 0d0f 013e b9fa 7cbe 4acc fa3d
000002e0: 3266 d23d 3ad4 c83c b28b a4be 1e99 a43e
000002f0: 5c97 ca3d 0256 82be 0f69 3e3e b373 50be
00000300: 37e9 563d 791a cf3b 2e52 9fbd 9665 11bd
00000310: c98d b7bd 1820 213e 4a9b fdbd ab5c cabd
00000320: d4a7 863d 6149 16be 4c23 563d 6532 9dbd
00000330: 30c1 cc3d 1ca8 b83c 1e45 403e b175 513d
00000340: 897a e3bd 4555 bc3c 14b4 c63d c98e 78be
00000350: c5f0 a5bd b78c d13d 40d7 853e e19b f43d
00000360: b3a4 473d 0fe5 1c3e 1fcd 8ebd 44cb 33be
00000370: 5641 543c d45e 53bd 1a55 40bd 29dd 43be
00000380: 9edc 8a3d 3e1d ebbc e034 7c3d fbcd 41be
00000390: 04b6 9d3e baf1 053e aa0d 3cbe 8971 b4bc
000003a0: 784d fd3c edcb c4bd a618 8ebe e14b 61bd
000003b0: 30f2 4a3e 3d34 343c bda3 d9bd 1b45 2bbe
000003c0: ce1b 73b9 e3f5 3c3e 87bd b0bd c9b2 63be
000003d0: eeba 1dbe 507f b7ba b01a f9bd 4033 433e
000003e0: ac4e 45be b897 4fbd 2fe2 683e 259d e43d
000003f0: b60d 303e f420 77bd b978 4dbe b60d 46bd
-0.3071358 -0.0018635254 -0.19436002 -0.095981956 0.04763349 0.017942041 0.14707382 0.28893787
0.15872644 0.06250069 -0.4084733 -0.14644511 0.029732488 0.39109007 -0.19850989 -0.10664085
0.0903104 0.2414735 0.21400887 -0.011305527 0.00826606 0.20983839 0.113127574 -0.14004849
0.15826827 -0.100221604 0.18113267 -0.18184306 0.16668077 -0.009974562 0.32306004 -0.096457444
0.07089315 -0.30291772 0.111443676 0.07465789 0.04774297 -0.035350543 0.03632186 0.2095525
0.038037907 -0.20823443 0.2107714 -0.15998966 -0.36822623 -0.11863337 -0.06411484 0.016935386
0.06949099 0.008057092 -0.14260285 0.02921429 0.104467295 0.15284178 0.06792756 -0.055148374
0.16564919 -0.29789442 0.14356588 -0.112137005 0.1419689 -0.04485249 0.029603617 0.04389926
0.22489983 -0.13098115 -0.17816828 -0.099715866 0.14595924 0.007917642 0.26445237 0.025283098
-0.122187346 0.13808927 -0.048099075 -0.18598631 -0.26085475 -0.17740238 -0.034351725 0.12394078
-0.21908718 -0.014516105 0.07838854 -0.07743366 -0.10811864 0.16114986 0.0041576275 0.034098826
-0.17869315 -0.11494356 -0.038640972 -0.069401 -0.04094749 0.27820566 0.034106303 -0.052298814
0.03743873 0.11207126 0.09392759 -0.18769918 0.06236009 0.14815 -0.018119892 -0.16282254
0.02007491 0.17095725 -0.20353696 -0.056257468 0.121967174 -0.020893155 -0.21530402 -0.06271222
-0.23623778 0.13601542 0.037063334 0.018546948 -0.12730698 -0.022237701 0.16574466 -0.007342406
0.05505725 -0.21447885 -0.03882654 -0.07899824 -0.18090634 -0.15087187 0.21713609 0.142952
0.30880672 0.058379088 -0.1720033 0.15874247 -0.033347074 -0.27805915 -0.20436594 0.19564857
-0.0011061841 0.3335538 -0.07167048 -0.14909492 0.109356955 0.07628993 0.070944615 0.11874264
0.5557705 -0.40843192 -0.00557791 -0.03785512 0.12043895 0.43479148 -0.26648885 -0.061501797
-0.31900805 0.26429957 -0.33127874 -0.008680689 -0.27520704 -0.051486813 -0.07999966 -0.13836583
0.056296494 0.060451042 -0.26758188 0.13542233 0.01944178 0.16218601 -0.06491563 0.1619221
-0.029715283 -0.30775884 -0.036168847 0.16469727 -0.21942934 -0.25207636 -0.14380614 0.14358059
0.08354651 -0.27886927 0.28128058 0.15595785 0.111883946 0.12603398 -0.24705018 0.12245996
0.102733985 0.02451526 -0.3213783 0.3214807 0.09892151 -0.25456244 0.18594764 -0.20356636
0.052468505 0.0063202945 -0.077793464 -0.03549727 -0.0896259 0.15734899 -0.12383135 -0.09880956
0.065749794 -0.1467643 0.052279755 -0.076756276 0.09997785 0.022541098 0.18776366 0.05113763
-0.11107356 0.022989878 0.09702316 -0.24273218 -0.08102564 0.10231917 0.26140785 0.11943794
0.048741054 0.15321754 -0.069727175 -0.17558008 0.01295503 -0.051604107 -0.04695616 -0.19127335
0.06780361 -0.028700467 0.061573863 -0.18926232 0.3080293 0.13080493 -0.18364587 -0.022026794
0.030920729 -0.09609208 -0.2775318 -0.055004004 0.1981895 0.010998783 -0.10626934 -0.1672558
-0.00023184644 0.18453173 -0.086298995 -0.2223617 -0.1540334 -0.0013999734 -0.12163293 0.19062519
-0.19268292 -0.0506818 0.22742532 0.111627854 0.1719273 -0.06033416 -0.20065583 -0.04835292

output.bias f4 [50]
00000000: b31a 77be 9b26 03bd 5add d2be 0640 96bd
00000010: e585 85be be8c 28bf ef6b d13e 7032 aebe
00000020: da18 86be a685 1cbf 0871 b7be df8e bc3d
00000030: e68d 763e 3cf1 cabd b0d9 203f 28b9 b73c
00000040: d2af 313d 09e6 c0be f02a a3be 3b7b 933e
00000050: c017 cb3d 6524 953e 03d0 ba3e bb92 723e
00000060: c5f2 4cbf 504b 793c 372a aa3e 6fb5 593e
00000070: fbd6 273f 7fe2 43be ebd3 583e b052 edbd
00000080: e52f f5be 88fc 093e bc77 643e 5b58 8c3d
00000090: ba78 34be 062a a33a d349 5abe 926d 483e
000000a0: 113a 753e d076 fa3d a568 95be dff1 f0bd
000000b0: 2a64 e33d 9512 cf3e 24ee 24bf 8c65 cbbe
000000c0: 0b81 5e3d 08ca 133f
-0.24131279 -0.03201924 -0.41184503 -0.0733643 -0.26078716 -0.65839756 0.4090266 -0.34022856
-0.26190835 -0.6114143 -0.35828424 0.09206938 0.24077567 -0.09909293 0.62832165 0.022427157
0.043380566 -0.37675503 -0.31868696 0.28804955 0.09916639 0.2912933 0.36486825 0.23688786
-0.80057937 0.01521571 0.33235332 0.21260618 0.6556241 -0.1912937 0.2117459 -0.11588037
-0.47888103 0.1347524 0.223113 0.0685279 -0.17624179 0.0012448437 -0.21317224 0.19573048
0.23947932 0.12229693 -0.291814 -0.11764883 0.11103089 0.40443864 -0.64425874 -0.39725912
0.054322284 0.5773015
