datasets/code/development/models/best_model_010.pth (torch, 485621 bytes, 8 tensors)

conv1.weight f4 [1, 1, 5, 3]
000000 9c ba db 3e 56 aa 16 bd fa 8e b5 bd cb 5d 35 3d
       0.4291581 -0.03678354 -0.08865161 0.0442789
000010 c3 84 a9 bc 44 47 af 3b 28 85 ad 3d d3 f0 f1 3c
       -0.020693189 0.0053490717 0.08472663 0.02953378
000020 89 70 18 bd 6a d8 1f 3e bc 12 f5 bd 5b c9 79 bd
       -0.037216697 0.15609899 -0.11966464 -0.060983043
000030 a5 5a b9 bd c9 e2 c6 bc 4d 73 7f be
       -0.09050492 -0.024278061 -0.24946328

conv2.weight f4 [1, 1, 3, 3]
000000 b1 7a 21 3c 5a 41 6f bc 92 e6 02 bd 78 fc 07 3c
       0.009855912 -0.014602983 -0.03195817 0.008299939
000010 75 d0 44 bc 54 67 d9 bc 41 2a 09 3d 19 95 c2 bc
       -0.012012591 -0.026538529 0.033487562 -0.023752736
000020 8b b0 3c 3d
       0.046066802

linear1.weight f4 [128, 900]
000000 84 4b 91 3d 97 6e 53 be 92 ea 9a be d8 3a bc ba
       0.070944816 -0.20647655 -0.30257088 -0.0014360799
000010 12 20 6e be b6 b8 5f be fa e3 d9 be 44 cd 94 3e
       -0.23254421 -0.21847805 -0.42556745 0.29062855
000020 b7 b0 78 be 9c 33 64 3e bf 29 12 3e e2 bc 8a bd
       -0.24286161 0.22285312 0.14273737 -0.06774308
000030 77 6e a9 bd f9 35 dc 3e 16 b1 28 be 50 93 04 3e
       -0.082730226 0.43009928 -0.16473803 0.1294682
000040 1d 60 db bb 67 9e 15 be 48 c2 98 bd 8c ec 35 3e
       -0.006694807 -0.14611207 -0.07458931 0.17766017
000050 93 6b db bc 60 ac 44 3e 5b 92 93 be 70 ba 18 3e
       -0.026784694 0.19206381 -0.28822598 0.1491487
000060 7c b7 1d 3e f5 14 3d 3e 0f 49 36 3e 8d 85 f0 bd
       0.15402025 0.18465026 0.17801307 -0.11744223
000070 4c 0d 04 bd e7 e0 a8 bd 58 40 a7 bb 38 20 24 be
       -0.032239243 -0.08246022 -0.005104106 -0.16027915
000080 4a 18 9f be 62 d6 93 3e 4b b0 08 be fd 6f 1c 3e
       -0.3107322 0.288745 -0.133485 0.15277095
000090 2a 1f 29 3d 13 ae 53 be 43 50 b3 3c 4a 99 f7 bd
       0.041289486 -0.20671873 0.021888858 -0.120897844
0000a0 00 a2 dd be 14 21 b6 bd bd 0d 79 3d 73 dd 06 3e
       -0.4328766 -0.08893028 0.060804117 0.13170414
0000b0 7c e0 56 be 6f e3 b2 3d 21 25 09 3e d1 71 36 bc
       -0.20984071 0.08734786 0.1339307 -0.011135534
0000c0 2c df 96 bd c8 df 8d be c5 66 c5 3d 55 40 0d 3d
       -0.073667854 -0.27709794 0.09638742 0.03448518
0000d0 11 52 87 be af 5c bb bc 52 11 bc 3d c6 28 f7 be
       -0.264298 -0.022871343 0.09182991 -0.48273295
0000e0 cf 63 f8 bd f3 7b 1f b8 30 b7 e2 bb b6 46 fc be
       -0.12128412 -3.802399e-05 -0.0069188103 -0.49272698
0000f0 a9 ac e3 3b 05 a8 9c bc d3 3a 33 be f9 3c b2 be
       0.006948073 -0.019123087 -0.17502908 -0.34812143
000100 7d 7b b7 3d 9c 6c 21 be b6 d6 00 be 44 74 40 bd
       0.089591004 -0.15764087 -0.12581906 -0.04698588
000110 73 a4 f8 3c 60 64 a9 bd 0f 54 9a 3b 02 09 05 3e
       0.030351853 -0.08271098 0.0047097276 0.12991717
000120 09 90 3e bd a9 9b 52 bd 28 99 cc be db d6 f9 3d
       -0.04652408 -0.05141798 -0.399606 0.121991836
000130 f5 dc d9 bd 74 f3 a3 be 40 4a b9 3e 2e b9 d0 3c
       -0.10637847 -0.32021677 0.3618946 0.025478926
000140 40 b3 1d bd 68 c2 33 be 91 70 db 3d b7 6c 8b be
       -0.038501024 -0.17554629 0.1071483 -0.2723138
000150 b6 2a a0 be 52 49 d0 3d 2c a9 83 be ad 4e da 3d
       -0.31282586 0.10170235 -0.25715005 0.106595375
000160 d8 16 5c 3e 79 9d 34 3c 84 61 58 3d 03 79 07 be
       0.21493089 0.0110238725 0.052827373 -0.13229756
000170 fa e9 05 be 07 10 18 be 74 1c 48 be 5c 6c 61 be
       -0.13077536 -0.14849864 -0.19542104 -0.22013992
000180 28 cd 85 be ec 91 ca bd bf e1 73 bd 6c a8 eb 3b
       -0.26133084 -0.09891114 -0.05954146 0.0071917083
000190 64 5e 59 be 88 24 70 be 63 bd 24 bd 6f 41 f1 bd
       -0.21227413 -0.23451436 -0.040219676 -0.117800586
0001a0 33 4e c9 3d c4 a6 6a be 89 fe a6 be 67 d2 71 3c
       0.098293684 -0.22915179 -0.3261607 0.0147596365
0001b0 07 f1 50 be dd 73 b9 bd c6 7e a0 3d d9 89 ed 3c
       -0.20404445 -0.09055302 0.0783668 0.028996395
0001c0 59 94 1e bf 7e 6c 19 3e c2 2d 2e be 33 e8 b1 ba
       -0.6194511 0.14982793 -0.17009643 -0.0013573229
0001d0 5d 5d 97 bd a1 4d 65 3e 34 a2 b7 bd b5 40 91 be
       -0.073908545 0.22392894 -0.08966485 -0.2836968
0001e0 23 e0 f4 bd 75 3e e2 bd 9e eb 5f bd b8 3f 63 bd
       -0.11956813 -0.11047069 -0.05466806 -0.05548069
0001f0 ea 5c 07 be 5e 1b 05 3d e7 2b f5 3c 33 22 c3 3e
       -0.13219038 0.032496803 0.02992816 0.3811203
000200 20 a5 ae 3d 06 5f 15 be b9 57 30 be 29 18 88 be
       0.08527589 -0.1458703 -0.17220964 -0.26580933
000210 a5 7f 45 3d 39 0b 61 be d6 31 c5 3d cc d8 2a 3e
       0.048217434 -0.21976937 0.09628646 0.16684264
000220 79 a4 26 be 9e 7f a1 3d ed 82 9a be 98 4c ba bc
       -0.16273679 0.07885669 -0.30178013 -0.0227416
000230 d2 7c 3f 3d 8d de 4e 3e 8f 63 6e bd ad 9c e4 bc
       0.046749897 0.20202084 -0.058200415 -0.02790674
000240 40 26 0c be ab e8 14 3e 19 e1 e0 bd c3 1f 18 be
       -0.13686466 0.14541881 -0.10980434 -0.14855866
000250 32 d8 e8 3d 26 71 b5 be 1e 7e b0 bd 90 f0 92 bc
       0.11369361 -0.35437888 -0.08617805 -0.017936975
000260 91 ad 08 3e 91 19 09 3e 09 28 08 3e 11 7d 10 3e
       0.1334746 0.13388659 0.13296522 0.14110209
000270 45 e5 a1 3d 18 8f dc 3d 7d ed 7f 3e 3a 3a 56 3e
       0.07905058 0.107694805 0.24992938 0.20920649
000280 33 7e fc 3b 7e 6f bd bd 7e d6 b6 bd 88 44 5c 3e
       0.007705474 -0.09249781 -0.0892763 0.21510518
000290 e5 20 78 bc 07 a4 bf 3d 5b 50 9b bd 68 f0 48 be
       -0.015144561 0.093574576 -0.07583686 -0.19622958
0002a0 2f b0 88 3e a7 6e ba bd a2 d2 56 3e a1 28 51 bd
       0.26696917 -0.091031365 0.20978788 -0.051064137
0002b0 92 8d d7 3e 80 47 3d 3d 37 4b 8c bd 9f d6 51 3d
       0.42100197 0.046210766 -0.068502836 0.05123007
0002c0 6c 89 09 3e 8a 72 ca 3d b0 e3 89 3e f7 47 12 3e
       0.13431329 0.09885128 0.26931524 0.14285265
0002d0 02 7d 4a 3e 53 72 67 3e 83 6d 0e be f3 9e 2f 3d
       0.19774249 0.22602205 -0.13908963 0.042876195
0002e0 44 b0 36 3d 5c 9e bb 3c bb 0d 26 3d cd 81 94 3e
       0.044601694 0.02290266 0.04054044 0.2900528
0002f0 28 d9 19 be 5b a5 89 3e 22 56 65 be be 94 89 be
       -0.15024245 0.2688397 -0.22396138 -0.26871294
000300 bc 51 6c 3e f7 e2 a3 be 78 a5 b0 3e 2a 0f a3 3e
       0.23078054 -0.32009098 0.34501243 0.31847507
000310 b2 63 34 be 04 3a 56 3e 01 34 86 3c cd 93 79 be
       -0.17616156 0.20920569 0.01638222 -0.24372788
000320 7d 13 42 3c 1b ef 84 be fc e0 07 3e 7b 0b 1a 3e
       0.011845467 -0.25963673 0.13269418 0.15043442
000330 1b 1a f2 bd 5b 11 b8 3e 4e a5 03 3d 82 09 68 3c
       -0.118213855 0.3595074 0.03214007 0.014162423
000340 fc 47 a0 3d a8 1d 9e 3e cb 30 ad 3e 43 89 9b 3e
       0.0782623 0.30882 0.3382629 0.3037816
000350 f6 92 18 be 70 ed 63 3e 8d 95 46 bd 02 4c de 3c
       -0.14899811 0.22258544 -0.048482466 0.027135853
000360 40 b0 0f be 07 31 c2 bd 9f 3d 82 3d 25 13 6b 3d
       -0.14032078 -0.094820075 0.063594095 0.057391305
000370 7a 21 aa be f5 f8 6e 3e 11 c0 a1 3c 92 a6 d0 be
       -0.33228666 0.23337157 0.019744905 -0.40752083
000380 65 d0 83 ba 05 ca 01 3e bf a3 52 be 74 fc 3e bc
       -0.0010056613 0.1267472 -0.20570277 -0.011656869
000390 36 b6 b4 3e f0 b7 b0 3d 5c 8f ca bd 6f 6a 58 3d
       0.35295266 0.08628833 -0.09890625 0.052835878
0003a0 6d c2 82 3e f5 83 68 bd 3f db b9 bd 16 08 8b be
       0.2553896 -0.05676647 -0.09075021 -0.27154607
0003b0 d4 db db 3d 01 79 59 3e df 42 20 3e 69 34 1c be
       0.10735288 0.21237566 0.1565051 -0.15254368
0003c0 bb 22 ad 3d 73 cc 2e 3d ad 8f f7 3d e2 d9 52 3e
       0.0845389 0.042675447 0.12087951 0.20590928
0003d0 2c 7a 9b 3e 6d cb 3d 3d 80 5b c2 3d 26 ba 29 be
       0.30366647 0.04633658 0.094901085 -0.16574916
0003e0 0d 4a 16 be 52 74 97 be e1 90 9b be 01 f9 04 3e
       -0.14676686 -0.29580933 -0.3038397 0.12985612
0003f0 b4 63 01 bf 32 be 19 3e 52 3c 70 bc 99 81 10 3e
       -0.5054276 0.1501396 -0.014662819 0.14111938

linear1.bias f4 [128]
000000 dd 73 7e 3f 31 fa 6f be 6b d6 62 3f 46 f6 b5 be
       0.99395543 -0.23435284 0.88608426 -0.35539454
000010 3e 0f 4c 3e 3b e9 94 bd a5 2f 80 3e 40 83 17 bf
       0.1992769 -0.07271048 0.2503635 -0.59184647
000020 db f4 5e 3d c3 f8 8f bd 3a 41 b2 3d 36 3c 04 3e
       0.05443273 -0.070298694 0.08703847 0.12913594
000030 fb 1d c6 3d b1 92 db be 33 59 41 be 2b da f8 3e
       0.09673687 -0.42885354 -0.18881683 0.4860395
000040 ad fc 55 3d 3a 8c d9 bb a1 a2 d3 3e 21 06 7a 3f
       0.052242924 -0.0066390308 0.41335014 0.976656
000050 59 a7 60 be c9 b8 a0 3e 93 7e f2 3a c8 45 32 3f
       -0.21938838 0.3139098 0.0018500857 0.6963773
000060 e5 4d 3f 3e 77 2e 21 3f 6f 74 af be 49 01 58 3f
       0.18682058 0.62961525 -0.3426852 0.8437696
000070 59 13 5b bb e6 f9 f9 3e 5f ed 72 be 65 98 c5 3e
       -0.003342828 0.4882347 -0.23723362 0.3859283
000080 22 f3 5d 3f a0 b2 fb 3d ad 4e 59 3f c0 d5 23 3e
       0.86699116 0.122899294 0.84885675 0.15999508
000090 d7 e5 f2 be e3 d4 82 3e 49 2f 21 bf 73 16 3b 3d
       -0.4744098 0.25553045 -0.62962776 0.045675706
0000a0 f9 64 7d 3e ae 7d d3 3c e1 c3 8f 3e 9a 9e 12 3f
       0.2474555 0.025816765 0.2807913 0.57273257
0000b0 98 5d c7 bd 43 6e ae bd a1 f2 44 be 67 bf cb be
       -0.097346485 -0.085171245 -0.1923318 -0.39794466
0000c0 2c 4d a1 3d 79 67 d3 3b d6 0c 3a 3e 99 56 c4 3e
       0.078760475 0.006451544 0.18168959 0.3834732
0000d0 2b a9 31 bf 4e 9f 41 bf fd 27 27 bf 21 1f 79 3e
       -0.69398755 -0.75633705 -0.6529539 0.24328281
0000e0 1e 35 9f bd 68 2b f9 bd 1f 36 b6 3e 9c 7f f9 3e
       -0.07773803 -0.12166482 0.35588166 0.4873017
0000f0 17 a9 87 be 8f c9 44 3e 14 19 2e bf 89 7e 62 3e
       -0.26496193 0.19217514 -0.68007016 0.22118582
000100 dd f3 80 3e 04 48 c6 3d 0c a6 92 bc fb c2 99 bd
       0.25186053 0.09681705 -0.017901443 -0.07507893
000110 9f df dd bd 2d 10 5c be be 21 c2 be e8 a7 ba 3e
       -0.10833668 -0.21490546 -0.37916368 0.36456227
000120 c0 4f f2 3e d2 b4 e8 bd 2e ca 0f bf 6f 3b 10 be
       0.4732647 -0.11362614 -0.56167877 -0.14085172
000130 bc b7 35 3f 9d 0e 0e 3f a2 80 32 bf 56 7e ee 3e
       0.7098348 0.5549105 -0.6972753 0.46580762
000140 d6 b8 8d bf 26 ce 87 3e fa 46 4b be 2a e4 72 3e
       -1.1072032 0.26524466 -0.19851294 0.2371985
000150 5b 1d b7 3e 77 40 87 be 39 21 6e be f3 24 bd 3e
       0.35764584 -0.2641637 -0.23254861 0.36942253
000160 f1 0f f0 3e 24 09 36 3d cc 28 88 be 3f 6d 00 bf
       0.46887162 0.04444231 -0.26593626 -0.50166696
000170 a3 4e 8b 3e 44 0a bc be 23 ac 4d be 8e 6b aa 3b
       0.27208433 -0.36726582 -0.20085196 0.00520081
000180 71 9a 2d be a6 81 a3 3e 27 31 2a be af 3b aa be
       -0.16953446 0.3193485 -0.16620313 -0.3324866
000190 bd c6 b5 be b3 01 12 bf 7c 60 07 3f dc b0 1b be
       -0.35503188 -0.5703384 0.528816 -0.15204185
0001a0 82 2c 73 3c 7d 54 19 bf 97 b4 90 bf da c4 1b be
       0.014842154 -0.59894544 -1.1305112 -0.15211812
0001b0 bb d2 e3 bd 96 cb fd 3d f5 5b fe 3e d9 f8 1d 3f
       -0.11124178 0.123923466 0.49679533 0.61707836
0001c0 85 b3 1e be d2 0f c7 bd 1a bd 31 bd 13 4a b5 be
       -0.15498169 -0.09719814 -0.043393232 -0.35408077
0001d0 75 df 23 3f db b3 82 be 84 d2 c6 3e 83 ab 12 bf
       0.64012843 -0.25527844 0.38832486 -0.57292956
0001e0 5d f0 7b 3d f2 6b 89 be aa 94 41 be 64 de 3e bf
       0.061508525 -0.26840168 -0.18904367 -0.7455809
0001f0 e5 29 c5 3e e4 2b 94 bd f0 63 e7 3e 25 4f 10 3e
       0.38508525 -0.07234934 0.45193434 0.14092691

linear2.weight f4 [32, 128]
000000 eb 82 5f bd b5 9d f3 3d ff 4a 50 3d 8f ad 50 3e
       -0.054568212 0.118953146 0.05085277 0.20378707
000010 e8 b6 70 3c 26 27 02 be 45 e5 f1 bd 9a 79 ad 3d
       0.014692046 -0.12710246 -0.11811308 0.08470459
000020 9f 30 e8 3c bb 35 e4 bd 43 7b e2 bd 92 c4 fa bd
       0.028343497 -0.11143061 -0.110586666 -0.12244524
000030 b1 30 34 3d 5b 1f ce 3d d3 5e ad bc 33 b4 be bc
       0.04399175 0.10064574 -0.02116338 -0.023279285
000040 58 a2 74 bd 72 6e 45 be 7e be 12 bd f0 25 61 be
       -0.059725136 -0.19280413 -0.0358262 -0.21987128
000050 dc ce 55 3e 74 d7 25 bd 5e d8 7c 3c b4 db 0e be
       0.20879692 -0.040488675 0.015432445 -0.13950998
000060 c1 15 0d 3e 80 51 24 be de 82 de 3c d7 7a d9 bd
       0.1377783 -0.16046715 0.027162012 -0.10619133
000070 48 ea 8b bd 88 c2 64 bd f7 d7 32 39 e4 c7 ba bd
       -0.06831795 -0.055849582 0.00017055856 -0.09120157
000080 f7 0d 8b 3d 11 38 be 3d e2 78 59 3d 2a b1 46 3c
       0.06789773 0.092880376 0.0530938 0.0121272
000090 41 d2 01 be e7 b3 00 3e b8 83 88 3e c9 d4 ae bd
       -0.12677862 0.12568627 0.26662993 -0.08536679
0000a0 5a 6c 32 3d 1d 68 50 3d e9 d5 4e bc 69 93 37 bc
       0.043560363 0.05088054 -0.012624242 -0.011204579
0000b0 2d 82 04 be 11 49 26 bc cf 9b 5b be 81 2a 2b bd
       -0.12940283 -0.010149256 -0.21446155 -0.04178858
0000c0 a5 13 41 bd 0b d2 70 3e 18 85 9e 3d c3 84 bb 3d
       -0.047137875 0.23517625 0.07740229 0.09156182
0000d0 e4 44 a4 3b ef bb 60 3c 12 ad 6e 3d 80 8a 7c 3c
       0.005013095 0.013716682 0.05827052 0.01541388
0000e0 24 36 91 bc be e8 7e be 9e e5 92 bd 12 49 e3 bc
       -0.017726012 -0.24893472 -0.07172702 -0.027744804
0000f0 7f 05 4d be 15 e7 a8 3d 77 86 09 3e 6b c8 08 3d
       -0.20021628 0.082472004 0.134302 0.03339426
000100 e8 e6 29 be e2 28 77 be 77 2c f1 3d d2 b4 a4 bc
       -0.1659199 -0.2413669 0.11776059 -0.020105753
000110 79 ec 53 bd ae 50 ae be c2 a7 99 3d 20 3c 93 bd
       -0.05173919 -0.3404593 0.075027004 -0.07189202
000120 bf 79 23 be 17 5a 2c bd b0 f3 54 3d 1a 31 4c 3e
       -0.15964411 -0.042078104 0.05199021 0.19940606
000130 93 76 5c 3e 64 32 33 bd 23 b4 ca bd c7 e2 03 3e
       0.21529607 -0.043749228 -0.098976396 0.12879477
000140 ab 53 bb bd 9d b0 cd 3b e5 5c 9a 3d 57 88 c9 bd
       -0.09146818 0.0062771575 0.075372495 -0.09840458
000150 1e fd 6b be 23 c2 f1 bd fb 97 41 3b 3f b2 91 be
       -0.23045775 -0.11804607 0.002954005 -0.28456303
000160 b3 a0 09 bd 2a a7 c4 be a1 88 1a be 5b ff 6f be
       -0.03360052 -0.38408786 -0.15091182 -0.23437254
000170 91 25 c3 bd 39 b1 28 be bf 86 ee bd 87 cd 93 bd
       -0.095286496 -0.16473855 -0.116467945 -0.072169356
000180 9d e1 ad 3b a1 5e 4d be 41 26 a1 bc c7 1c 13 be
       0.005306436 -0.2005563 -0.019671561 -0.14366446
000190 62 df 6d 3e ca 72 e9 3d 1b f3 89 bd 8c d2 34 3d
       0.23229745 0.113988474 -0.06735822 0.044146106
0001a0 fa db 1c 3e 6a 35 9b bd ca a1 9b 3e e5 a5 86 bc
       0.1531829 -0.07578547 0.30396873 -0.016436527
0001b0 42 ef 90 bd 6b a1 aa 3d 71 7b 1a be 31 94 a7 3b
       -0.07076885 0.08331569 -0.15086152 0.0051141013
0001c0 ba ca b2 3d ff ee 19 3d f5 ab 06 bd 11 d7 01 be
       0.08730073 0.03758144 -0.032878835 -0.12679698
0001d0 c2 51 6c bd 3a ed 8d bd ff 3d 40 bd a8 ff a8 3c
       -0.057695158 -0.06930013 -0.046934124 0.020629719
0001e0 7b 98 de 3d bf b5 84 3d da 79 d1 3d b9 1c 93 3e
       0.10868927 0.06479978 0.102283195 0.2873285
0001f0 bb 30 a0 3e c7 aa 60 be 63 6b d2 3d 4b 8e 59 3e
       0.31287178 -0.21940146 0.10274389 0.21245687
000200 d6 0b 43 3d 84 68 ff bd 3d c9 55 3e f8 7d 9e 3d
       0.04761871 -0.12471107 0.20877548 0.077388704
000210 58 c7 de bd ad cc 93 3d a0 c7 ce 3e 7a 2f 61 be
       -0.108778656 0.07216773 0.40386677 -0.21990767
000220 cd 13 8a 3e 67 9f 93 bd 8e 07 97 be 26 75 2a be
       0.26968232 -0.07208138 -0.2949795 -0.16646251
000230 cc 75 f1 3d 05 d0 20 3e b2 49 a3 be 77 04 ee 3c
       0.11790046 0.15704353 -0.31892163 0.029054863
000240 9f 02 55 bd 48 c1 35 bd 75 54 82 3c b5 19 4e 3d
       -0.052004453 -0.04437378 0.015909413 0.050317485
000250 be 77 6e 3d 98 fb 85 bd b2 03 5f bd 24 47 d7 bd
       0.058219664 -0.06542128 -0.054446883 -0.10511616
000260 19 e2 e8 3d 01 b8 fb bd 5a 13 56 bb 9e 7c 4f 3d
       0.1137125 -0.12290955 -0.0032665343 0.050655954
000270 e8 c6 60 bc 9d 62 85 3e b3 60 68 bc d1 b0 a7 be
       -0.013719298 0.26051798 -0.014183211 -0.32752088
000280 9e 24 3a 3b f0 24 b0 3d 65 00 57 3e f3 52 64 3d
       0.0028403173 0.08600795 0.20996244 0.05574317
000290 b2 31 37 3e a9 0b 33 be 1a ec e2 bb 09 42 f7 3b
       0.17890051 -0.17484917 -0.006925118 0.007545714
0002a0 85 57 d8 3b 89 69 a9 3c 09 ed 7e 3e 5c 3d 6e be
       0.00660223 0.020680206 0.24895109 -0.23265594
0002b0 b6 22 31 bd a9 c4 75 3d d1 9f 96 3d 74 09 e8 bc
       -0.043245994 0.060002003 0.07354701 -0.02832482
0002c0 e8 cf a3 3c 87 7e b8 bc 55 51 a9 bc 8a 0e 72 bd
       0.019996598 -0.02252127 -0.020668665 -0.059095897
0002d0 d3 3f 60 3d 14 4a 3d bd f6 7a 68 bd e4 99 f4 bd
       0.054748368 -0.046213225 -0.05675789 -0.11943415
0002e0 15 54 45 3e 7b 65 72 be 20 11 49 3c b9 eb 47 bc
       0.19270356 -0.23671524 0.012272149 -0.012202197
0002f0 43 c6 4c bc 88 6c 4c 3c 7e 66 64 3d 76 f5 74 bc
       -0.012498441 0.012477048 0.055761807 -0.014951101
000300 4b 5d 90 3d a6 dd 8b be 7b 02 74 3e f3 7e 16 be
       0.07049044 -0.27317542 0.23829071 -0.14696865
000310 75 fa 0b bd 8e 29 a2 bd 3b c6 4d be 8e 9a 62 bd
       -0.0341744 -0.07918082 -0.2009515 -0.055323176
000320 fb c6 b6 3e 50 4f fc bc ab e0 16 3e 05 89 88 bb
       0.35698685 -0.030799538 0.14734142 -0.0041667246
000330 e0 84 66 3e 82 ca 3a 3d d2 e4 d5 3d 4e 66 6c 3d
       0.22511625 0.045603283 0.10444035 0.057714753
000340 44 6f 21 be 92 2c 01 bd 83 95 49 bd 43 9e 19 bd
       -0.157651 -0.031536646 -0.04921485 -0.037504446
000350 b7 19 7c 3d c6 de eb be 3b d6 70 3e ca 40 04 be
       0.06154796 -0.460684 0.23519222 -0.1291534
000360 dc b6 e0 3c 97 a2 54 bd 2c d9 5a 3b 68 4e 18 be
       0.027430944 -0.05191287 0.0033393605 -0.1487366
000370 ad e4 f3 3d da d1 d6 3d ac a0 6e 3c 20 d9 16 3d
       0.11908851 0.10489245 0.014564674 0.03682816
000380 1a 76 03 bd 22 d1 84 bd 4d 9e 03 bd 85 32 22 bd
       -0.032095052 -0.064852014 -0.03213339 -0.03959896
000390 90 1c 3d be b0 db 53 be 52 29 f4 3d 09 a6 d2 3e
       -0.18467927 -0.20689273 0.11921944 0.411423
0003a0 ed f1 41 bd 04 c9 e9 bd 6e c8 ac bd 26 98 0f 3e
       -0.04734986 -0.11415294 -0.084366664 0.14022884
0003b0 37 68 c4 3c 01 f2 d9 3b 11 8a 23 3e 01 20 bb bd
       0.023975475 0.0066511636 0.15970637 -0.09136964
0003c0 77 05 70 be 27 2c 28 3d 9a ff 59 3d e6 e2 5e be
       -0.23439585 0.041057732 0.053222276 -0.21766242
0003d0 f5 c6 dc bc a0 56 a1 3d 47 8a 8d bd fc 10 ef bd
       -0.026950339 0.078778505 -0.0691114 -0.116731614
0003e0 54 2b b2 3b 85 67 3c 3c ea f5 17 bd c6 b2 de be
       0.005437294 0.01149929 -0.037099756 -0.43495768
0003f0 a3 fa 72 bd 9e 07 37 bc e9 68 68 3e cb b9 29 3e
       -0.059321057 -0.01117125 0.2269627 0.1657478

linear2.bias f4 [32]
000000 3b 15 c5 be 56 52 18 3f 78 75 97 3e ce 16 9d 3e
       -0.3849276 0.59500635 0.2958181 0.3068146
000010 35 90 e3 be 77 36 1a 3e f0 27 08 be 10 57 4b bf
       -0.4444596 0.15059839 -0.13296485 -0.7942972
000020 d2 df 6f be aa 4b fd ba 14 30 08 bf 68 98 0a 3d
       -0.23425224 -0.0019324918 -0.5319836 0.033836752
000030 46 a8 93 be 3f a3 76 3e ed f2 5b bd fc 83 53 3e
       -0.2883932 0.24085711 -0.05369847 0.20655817
000040 79 5f 5c 3e 0b 25 2e be 4b a1 29 3f b6 c5 df 3e
       0.21520795 -0.17006318 0.6626174 0.4370553
000050 04 46 e8 be 34 43 77 3e 08 b7 be 3e fe 9f ae 3e
       -0.45365918 0.2414673 0.37249017 0.3410644
000060 03 2a f9 bd c1 6c 9a 3e 99 af ac be 96 8d 30 be
       -0.12166216 0.30161098 -0.3372772 -0.17241511
000070 f2 43 d3 3e 46 b0 e4 3d b1 9d 0b bf 5c eb a8 be
       0.41262776 0.11166434 -0.54537493 -0.32992065

output.weight f4 [25, 32]
000000 30 e8 84 be a1 7b e2 3c 68 ea 81 bd 6d fa 60 3b
       -0.25958395 0.027646841 -0.063435376 0.0034328953
000010 64 08 31 3d 65 76 eb bc c1 c0 e7 bd 05 8e 24 3d
       0.043220893 -0.028742978 -0.11316062 0.040174503
000020 2d 1b 2e 3e d4 51 64 3e fc aa e9 bc 85 20 af 3c
       0.17002554 0.2229684 -0.028523915 0.021377811
000030 60 b8 b7 bc 2f db 5d bd b3 55 cc 3d d9 7c 89 3d
       -0.022426784 -0.054164108 0.09977283 0.06713266
000040 2f cf a8 bb 88 a3 cc 3c 9e 22 8f 3e 27 c3 45 bd
       -0.0051516513 0.024980322 0.27956098 -0.048281815
000050 bb c6 76 be 65 9d ad 3d 62 cb 81 bd 09 27 bf bd
       -0.24099247 0.08477286 -0.0633762 -0.09333617
000060 02 75 9d 3e e2 27 b7 bd 67 6f 2c be 44 84 82 3e
       0.30753332 -0.08943154 -0.16839372 0.25491536
000070 e5 70 99 bd a7 7e d7 bd 79 95 1d bd 18 94 02 bd
       -0.07492236 -0.10522204 -0.038472626 -0.031879514
000080 72 bd d1 3b f2 a9 89 be 80 f7 d4 3c 51 c0 8c be
       0.0064007575 -0.2688747 0.025996923 -0.27490476
000090 e4 4c be 3d 54 c2 08 be c8 b2 16 be c0 f4 94 3e
       0.092920095 -0.1335538 -0.14716637 0.2909298
0000a0 38 12 a9 3d 15 88 c0 3c 1d 33 e2 3d ae 3b 04 3c
       0.08255428 0.023502389 0.11044905 0.008070869
0000b0 6e 14 fc bd 80 c2 cf 3c 06 dc 14 3d c8 8b 0d be
       -0.12308584 0.0253613 0.036342643 -0.13822854
0000c0 1f 08 22 bd df a1 05 3d 16 38 89 be ea c9 7d be
       -0.039558526 0.032625075 -0.26800603 -0.24784055
0000d0 6d d6 0d 3e 87 e5 20 be e9 0c 10 be 5b 8c 0e be
       0.13851328 -0.15712558 -0.14067425 -0.13920729
0000e0 32 00 9a 3e 3b bb 46 be 38 43 d2 3d 4a 6f a7 bd
       0.30078274 -0.1940736 0.10266727 -0.081755236
0000f0 79 d5 82 be 3f 54 7f 3d 3e 2b 5b 3d 5f c2 34 3e
       -0.25553492 0.062336203 0.053508036 0.17652272
000100 6e a1 4a 3d 12 43 52 bd 4a 4e 10 3e 27 09 42 3d
       0.049470358 -0.051333494 0.14092365 0.04737201
000110 d0 01 29 3d 0d 08 71 3c 39 d3 8b 3e f7 8b 06 3e
       0.041261494 0.014711392 0.27309588 0.1313933
000120 44 16 83 3e 4f df 35 3d b9 ff f3 3d b5 67 10 bc
       0.25602925 0.044402417 0.119140096 -0.008813788
000130 23 28 9e 3d 1f 63 eb 3d 6b 2d bc 3c ae fb 1d be
       0.07722499 0.11493515 0.022970876 -0.1542804
000140 18 fd 33 bd 54 84 49 3e e6 73 65 3d a9 f4 ca bc
       -0.04394254 0.19679385 0.056018732 -0.024774866
000150 51 13 aa 3d cc 58 cb bd 68 4f b9 be fa aa 98 bd
       0.083044656 -0.09929046 -0.36193395 -0.07454486
000160 ee c7 19 3e 00 56 31 bc 81 0c 28 bd 35 64 f3 3d
       0.15017673 -0.010823727 -0.04102755 0.11884347
000170 58 af 93 bc e5 9c 87 bd 4d 15 0d bd d9 c4 5a be
       -0.018027946 -0.06621722 -0.034444142 -0.21364154
000180 28 80 3d be c3 3b 43 3e a3 5a d1 bd 5c 54 c6 bd
       -0.18505919 0.19065766 -0.10222366 -0.09684059
000190 30 f4 3e 3e b9 92 ae 3d db c0 1d 3e 69 81 56 be
       0.18647838 0.08524079 0.154056 -0.20947804
0001a0 89 e6 e7 bc a0 f3 3b be 0a e3 3a bd c0 20 09 3e
       -0.02830817 -0.18354654 -0.045626678 0.133914
0001b0 b2 2c 91 3d d4 98 3b bd 3a 29 26 3e 85 a0 4b 3d
       0.07088603 -0.045800045 0.16226664 0.04971363
0001c0 26 d6 ae 3c 4d 4d 75 3a 91 1e fb bd 8a 25 e1 bd
       0.021342348 0.0009357527 -0.122616895 -0.10993488
0001d0 5d 21 48 bc 93 c3 1e 3d f6 76 2f be 90 da 62 3d
       -0.012214986 0.038760733 -0.17135224 0.05538422
0001e0 cf 04 4f be 06 8c 37 3e 06 30 26 be 31 6f 07 be
       -0.20216678 0.17924508 -0.16229257 -0.1322601
0001f0 7b 65 bd bd 27 da 93 3c e6 44 15 bd 5d 52 ee 3b
       -0.092478715 0.01804836 -0.03644266 0.007273002
000200 0f b3 86 be 4d 01 80 3d d6 14 8d 3e 6b 24 16 be
       -0.26308486 0.06250248 0.2755496 -0.1466233
000210 48 d7 51 be ea b1 47 be e9 6e 1f be 2c 01 ca bd
       -0.2049228 -0.19501463 -0.15569653 -0.09863505
000220 0e 7f 06 be ab 41 3e 3e 80 db 05 bd 40 b6 32 be
       -0.13134405 0.18579738 -0.032680035 -0.17452335
000230 b0 62 d9 bd 1b a0 45 be da 9c 96 bd 58 b1 d0 3b
       -0.10614526 -0.19299357 -0.07354136 0.0063687973
000240 d9 55 fe 3d 46 15 b9 bd 1c 1e 00 3e 81 d5 1a 3e
       0.12418718 -0.09037261 0.12511486 0.15120508
000250 46 b0 09 bd e6 dd 7f bd 83 34 27 3e c7 d6 24 3e
       -0.033615373 -0.06246748 0.16328625 0.16097556
000260 44 83 c3 bd f6 14 5f 3e fc d6 0b bd 72 d8 d9 3d
       -0.09546521 0.2178534 -0.034140572 0.10636987
000270 ab b2 dc bd 6f fa 62 bd 16 52 57 3d 90 f9 c2 bd
       -0.10776266 -0.055414613 0.052568518 -0.095202565
000280 80 c1 13 3c 6b 19 28 3e 0f 5a 49 be 39 04 56 bd
       0.009018302 0.16415946 -0.19663261 -0.05225012
000290 29 57 3e be ef 20 88 3e 37 84 72 3d 3d db c0 bc
       -0.18587936 0.26587626 0.05920812 -0.023542041
0002a0 8b 03 d7 bd 82 d7 a8 3e 7e 11 9d bd 6c 70 5f 3d
       -0.10498723 0.3297692 -0.07669352 0.054550573
0002b0 06 6a 4e be 48 ef 99 bd e9 a7 00 3e 19 18 28 be
       -0.20157632 -0.075163424 0.12564053 -0.16415443
0002c0 0a da 32 be 6f 7d a3 3e ae cc e8 3c 81 64 a3 3d
       -0.17465988 0.31931636 0.028417911 0.07978154
0002d0 50 bd b4 3d 46 23 aa 3e d0 c9 66 bd 1e a6 92 3d
       0.08825171 0.33230036 -0.056344807 0.071605906
0002e0 02 57 29 be 4a 44 1f 3e 62 4f f6 3d 72 49 2d be
       -0.16537097 0.15553394 0.1202686 -0.16922548
0002f0 3f 35 9b bd 99 50 68 3e ef 0c cd bd 94 50 04 3d
       -0.07578515 0.22686996 -0.100122325 0.032303408
000300 ec 35 83 3e 22 cd 51 be c1 f5 a6 bd 67 57 eb 3c
       0.25627077 -0.20488408 -0.081523426 0.0287282
000310 0d 6e 1d be 66 82 b6 3d 8e 0b b4 3d c0 ad 80 be
       -0.15374012 0.0891159 0.087912664 -0.2513256
000320 44 c0 d2 bd eb 48 64 be 28 46 a2 bc df 63 ba 3d
       -0.10290578 -0.22293441 -0.019808844 0.0910108
000330 7d 54 5c 3d 9f af d1 be eb d6 ee bd d5 0a a9 bd
       0.05379151 -0.409543 -0.11662086 -0.08254019
000340 46 40 f3 bd ca aa c0 3e da 9a 0c be a5 73 d4 bd
       -0.118774936 0.37630302 -0.13730946 -0.1037362
000350 b2 20 a6 bc cb 17 9d 3d 12 74 67 3e da 75 05 be
       -0.020279262 0.07670554 0.22602871 -0.13033238
000360 9f f2 80 38 40 27 22 bd b4 70 d4 bd bd f8 ad bd
       6.148707e-05 -0.039588213 -0.10373059 -0.08494709
000370 96 6f 2a be 29 bd 19 3e f2 e1 82 3c 49 9a c7 bc
       -0.16644129 0.15013565 0.01597688 -0.024365561
000380 99 f4 96 3d 0b 85 28 be aa ca 30 bd be ca 6f 3e
       0.07370872 -0.16457002 -0.043162026 0.23417184
000390 2a 67 44 3e cc 64 1e bd 6e d1 28 3e 3f 87 3a bd
       0.19179979 -0.038670346 0.16486141 -0.045539137
0003a0 a1 d8 83 be 35 9f 42 3d 6c 8f 2b bd bb 31 1f bc
       -0.25751212 0.047515113 -0.041884825 -0.0097164465
0003b0 e3 60 c7 bd 3c 0b 0c 3e b3 4a 13 be a9 12 61 3e
       -0.097352766 0.1367616 -0.14383964 0.21979775
0003c0 1f 14 67 be f9 d2 2a 3e 6c 9a cb bd 4e ed 04 be
       -0.2256627 0.16682042 -0.09941563 -0.1298115
0003d0 fc d5 93 bd e4 19 ae 3d 34 95 dc 3d 00 66 b9 bd
       -0.07218549 0.08501032 0.10770646 -0.09052658
0003e0 05 00 b0 be 80 e3 d5 3d 80 0e 51 3e e5 06 6c 3e
       -0.34375015 0.10443783 0.20415688 0.23049505
0003f0 66 14 0f be e8 59 b4 3d 94 ce b4 3d 30 cd 1a 3e
       -0.13972625 0.08806211 0.08828464 0.15117335

output.bias f4 [25]
000000 bc 27 cd 3e 90 54 2f bf 25 81 da 3d 69 47 3d 3d
       0.40069377 -0.6848841 0.106691636 0.04621068
000010 e4 0b 3d 3e d2 01 18 3e 6e 75 1f be e1 71 a7 be
       0.18461567 0.14844444 -0.1557214 -0.3270407
000020 2b d6 64 3d 0b bb 6d 3e 5c ae 08 3e c6 b5 06 bf
       0.05586831 0.23215882 0.13347763 -0.52621114
000030 5e 6e 6a 3e bd 56 f7 be c1 bd 4a 3e 94 46 e6 bd
       0.22893664 -0.48308364 0.19798948 -0.112439305
000040 7d bf f2 3e 7d 12 89 3d 0e 2f 38 be dd bc 4e 3e
       0.4741172 0.066929795 -0.179867 0.20189233
000050 5e 6f c1 be 18 93 16 bf 6c c1 2b be d4 52 8b 3e
       -0.3778028 -0.588182 -0.16773003 0.2721163
000060 51 de b1 3e
       0.34739926
