datasets/code/development/models/best_model_021.pth (torch, 488949 bytes, 8 tensors)

conv1.weight f4 [1, 1, 5, 3]
0	0xbd043db1	-0.032285396
1	0x3d77522b	0.060381096
2	0x3c54042b	0.012940447
3	0xbd5d50a1	-0.05403197
4	0x3c5e6aa7	0.013575233
5	0x3e7f43c2	0.24928191
6	0x3c0d860c	0.008637916
7	0x3c61d591	0.013783828
8	0x3d66ad8b	0.056317847
9	0xbd9b3d05	-0.07579998
10	0xbcea9a31	-0.028637977
11	0xbd38b9ba	-0.045098998
12	0xbd8c06fd	-0.068372704
13	0xbd03ef4c	-0.032210633
14	0xbd395a5b	-0.045252185

conv2.weight f4 [1, 1, 3, 3]
0	0xbca2e167	-0.01988287
1	0x3bc0b6f1	0.0058811833
2	0xbd0cd55a	-0.034383155
3	0xbb6c32ac	-0.0036040945
4	0x3c8e95c4	0.017405398
5	0xbd65d9b2	-0.056115814
6	0x3dbde782	0.09272672
7	0x3c16788f	0.009184017
8	0xbd4b8bdb	-0.049693923

linear1.weight f4 [128, 900]
0	0x3de00d82	0.109400764
1	0xbc883291	-0.016625674
2	0x3d047d85	0.032346267
3	0x3dace9db	0.08443042
4	0xbdc6f5c9	-0.097148485
5	0xbdd3570e	-0.10319339
6	0x3d0c15fe	0.03420066
7	0x3d6d6d64	0.05796565
8	0xbdb00e07	-0.085964255
9	0x3d8e84b6	0.06958906
10	0x3b9fee03	0.004880668
11	0x3cfbd2be	0.030740138
12	0x3d9d9f61	0.07696415
13	0xbe0f5e26	-0.14000759
14	0xbcd9c665	-0.02658386
15	0x3c82f4a9	0.015985804
16	0xbd1769af	-0.036966022
17	0x3d103ed5	0.03521617
18	0xbda0154a	-0.078165606
19	0xbe129aaf	-0.1431682
20	0x3d858684	0.065197974
21	0xbd32cb31	-0.04365081
22	0x3ddf0403	0.10889437
23	0xbd88cc87	-0.066796355
24	0xbdd25fc3	-0.10272171
25	0x3dfa4fdf	0.122222655
26	0xbd96c1d0	-0.073611856
27	0xbda1939b	-0.07889482
28	0x3d07401e	0.03302013
29	0xbd5e6e8d	-0.05430465
30	0x3d885da4	0.066584855
31	0xbd80eb9c	-0.06294939
32	0xbd98bcbe	-0.07457875
33	0x3d2aaa44	0.041666284
34	0xbc10d6f5	-0.008840312
35	0xbe2dc4b0	-0.16969562
36	0x3e0c1459	0.13679637
37	0x3e19b768	0.1501137
38	0x3d6f1003	0.05836488
39	0x3da40205	0.08008198
40	0xbb38023e	-0.0028077508
41	0xbc43ec71	-0.0119582275
42	0x3df25df8	0.11834329
43	0x3d6bd3b9	0.05757496
44	0x3c9c909f	0.01911193
45	0x3dff705a	0.12472601
46	0x3c883b43	0.01662982
47	0xbd344f96	-0.04402121
48	0x3c70ee21	0.014705212
49	0xbe39d22d	-0.18146582
50	0xbd398e9a	-0.04530201
51	0x392185c6	0.00015403991
52	0x3cdce240	0.026963353
53	0xbcfa2411	-0.030534776
54	0x3d384254	0.04498513
55	0x3cd95ba1	0.02653295
56	0x3dcc3fc6	0.09973101
57	0x3d6b4c0c	0.05744557
58	0xbda70b5e	-0.08156465
59	0x3dd77e3b	0.105221234
60	0x3dcf2455	0.10114352
61	0xbd074992	-0.033029146
62	0x3daa071d	0.08302138
63	0xbd6646ec	-0.05621998
64	0xbd93d6b1	-0.072186835
65	0xbe18be27	-0.14916287
66	0x3d005b7f	0.031337257
67	0xbb68480c	-0.0035443334
68	0x3d6f1c71	0.058376733
69	0xbe4da10e	-0.20080969
70	0x3c761f8d	0.015022171
71	0xbdd71955	-0.105028786
72	0x3d769708	0.06020263
73	0xbdac8de0	-0.08425498
74	0x3e2af40a	0.16694656
75	0x3ca6b479	0.020349728
76	0x3c6f38ec	0.014600974
77	0xbcd8dc36	-0.026472192
78	0xbdb9bd30	-0.09069288
79	0xbcabdb13	-0.020978486
80	0xbe00b6b3	-0.12569694
81	0x3d72e001	0.059295658
82	0xbd8e6f1a	-0.06954785
83	0x3d253ec9	0.04034308
84	0xbce3788b	-0.02776744
85	0xbe08814c	-0.13330573
86	0x3c35d0ec	0.011097174
87	0x3cf22b2f	0.029561607
88	0x3e265688	0.16243947
89	0xbe11bf25	-0.14233072
90	0xbc6f596a	-0.01460872
91	0x3e1de260	0.15418386
92	0x3dedc9d4	0.11610761
93	0x3e317b2d	0.17332144
94	0xbd9afea9	-0.07568104
95	0x3d9dca75	0.07704631
96	0x3de013ee	0.10941301
97	0xbcf81921	-0.03028542
98	0x3e026a80	0.12735939
99	0x3df53f50	0.119749665
100	0xbd674ea6	-0.05647149
101	0xbc2c1aa3	-0.010504398
102	0x3d3cd511	0.046101633
103	0xbd5735dd	-0.052541602
104	0xbd1b06c5	-0.037848253
105	0x3d99f218	0.07516879
106	0xbdf99876	-0.12187283
107	0xbd7bf022	-0.061508305
108	0xbdc532dc	-0.09628841
109	0x3d6d8c67	0.057995226
110	0xbdf48702	-0.11939813
111	0xbe48846f	-0.1958177
112	0x3d86a0eb	0.065736614
113	0x3e20c0ac	0.15698498
114	0x3c941cde	0.018080171
115	0xbddc287a	-0.10749908
116	0x3dbcddc6	0.092219874
117	0x3d445b4f	0.04793864
118	0x3e13bfd6	0.14428648
119	0xbda0c93e	-0.07850884
120	0xbc9849f9	-0.01858996
121	0x3d578e7c	0.052626118
122	0x3d204ea1	0.039137486
123	0xbe218b15	-0.15775712
124	0x3d4a40a3	0.04937805
125	0x3e1d30fd	0.15350719
126	0xbdfae482	-0.12250616
127	0x3e0d519f	0.13800667
128	0x3c082322	0.008309158
129	0x3e1e082a	0.15432802
130	0xbab314dd	-0.0013662834
131	0x3e227121	0.15863468
132	0xbdb1dcc3	-0.08684685
133	0x3c9dfa74	0.019284464
134	0xbd390d54	-0.045178726
135	0x3d4be331	0.049777213
136	0xbe05117d	-0.12994952
137	0x3d461ac5	0.048365373
138	0xbdaeb2b1	-0.085301764
139	0xbe36be5c	-0.17846054
140	0xbd9f42d0	-0.07776415
141	0xbdb73626	-0.08945875
142	0xbd6156c2	-0.05501438
143	0x3a816013	0.0009870551
144	0xbd9010c7	-0.0703445
145	0x3da9c0ef	0.08288752
146	0xbd4ba7f2	-0.049720712
147	0xbcf14ac0	-0.029454589
148	0xbde0ab1b	-0.10970136
149	0x3e000d1d	0.12505002
150	0x3e33ed5a	0.17571011
151	0x3dd85210	0.10562527
152	0x3cea20a3	0.028580016
153	0xbce99474	-0.02851317
154	0xbd522ee2	-0.051314242
155	0xbd98d9e2	-0.07463433
156	0xbdc997eb	-0.09843429
157	0x3cd89f99	0.02644329
158	0xbd78b44f	-0.06071883
159	0x3e18c1c9	0.14917673
160	0x3dd77429	0.10520203
161	0x3db00d81	0.08596326
162	0xbda6353c	-0.081156224
163	0x3df5b7f0	0.11997974
164	0x3d3234e8	0.043507487
165	0x3d8cfae4	0.06883791
166	0x3d1b3d94	0.037900522
167	0x3b077494	0.0020668851
168	0x3ddbf70e	0.10740481
169	0x3cd54206	0.026032459
170	0x3da278ef	0.079332225
171	0xbd159d8c	-0.0365272
172	0x3da82bc7	0.08211475
173	0x3cc92aa9	0.024556475
174	0xbcd271ce	-0.025689032
175	0x3d4c685e	0.04990422
176	0x3d70dc77	0.058804
177	0xbd8070d1	-0.06271518
178	0xbd4a5506	-0.04939749
179	0xbc4a0846	-0.012331074
180	0xbdef15e2	-0.11674096
181	0xbd659dc5	-0.056058664
182	0xbe25baa9	-0.16184486
183	0x3d004954	0.03131993
184	0xbdb7ed77	-0.0898084
185	0xbda525ae	-0.080638275
186	0xbb0639fa	-0.0020481334
187	0xbcbab910	-0.022793323
188	0xbc8dfbc4	-0.017331965
189	0x3d3a5428	0.045490414
190	0x3ce7465e	0.028231796
191	0x3d96d9d1	0.07365764
192	0xbda5d15a	-0.08096571
193	0xbc91cc2e	-0.017797556
194	0xbd98ade8	-0.07455045
195	0xbd9d8e31	-0.076931365
196	0x3df7dcbc	0.121026486
197	0xbdf8375d	-0.12119935
198	0xbd09ad67	-0.033612635
199	0x3ddd486e	0.108048305
200	0xbcb748b9	-0.022373544
201	0xbd65a6ea	-0.056067385
202	0x392b8109	0.000163559
203	0xbd22ec1e	-0.03977596
204	0x3d98f921	0.074693926
205	0xbd06c6ca	-0.032904424
206	0x3cef0ff5	0.029182414
207	0xbde1cee6	-0.11025791
208	0xbe0707c9	-0.13186564
209	0x3d83f0b0	0.06442392
210	0xbd7377c3	-0.059440386
211	0x3c48a92e	0.012247367
212	0x3d5e1222	0.05421651
213	0xbd2faeca	-0.0428913
214	0xbdb36576	-0.087595865
215	0x3db5e3d3	0.08881345
216	0xbdaf56a6	-0.08561449
217	0xbdd408db	-0.103532515
218	0xbd98c189	-0.07458789
219	0x3d612523	0.054967057
220	0x3dd82903	0.10554697
221	0x3deaedad	0.11471114
222	0xbd4a1162	-0.049332984
223	0x3d26d723	0.040732514
224	0xbdd927a4	-0.10603264
225	0xbc08aa1c	-0.0083413385
226	0xbdce907e	-0.100861534
227	0x3d7504e9	0.059819136
228	0x3d2f3524	0.04277529
229	0x3dfdc6f0	0.1239146
230	0x3ca92550	0.020647675
231	0x3c388758	0.011262737
232	0xbc2b5846	-0.010458058
233	0x3ceeac52	0.029134903
234	0x3db7cb57	0.08974331
235	0xbd11b4ce	-0.03557282
236	0x3da29f25	0.07940511
237	0x3cdf6dcb	0.027274033
238	0x3bdeb747	0.0067967507
239	0xbd4d70a8	-0.050156265
240	0x3d7d54a2	0.06184829
241	0xbd69c13e	-0.057069056
242	0x3c759d42	0.014991106
243	0xbd608a03	-0.05481912
244	0x3d576357	0.052584972
245	0xbca73334	-0.020410158
246	0xbcf34ea8	-0.029700592
247	0xbd517a7f	-0.051142212
248	0x3cc78a52	0.024357948
249	0xbc4af6df	-0.01238796
250	0xbd9699f4	-0.07353583
251	0x3d7415f7	0.05959126
252	0xbd8e724f	-0.069553964
253	0xbb7a2918	-0.0038171466
254	0xbc86e43a	-0.016466249
255	0x3e2f5fed	0.17126437

linear1.bias f4 [128]
0	0x3a9e5d53	0.0012082256
1	0x3ebf46a9	0.37358597
2	0xbc8c3257	-0.017113848
3	0x3eb349a4	0.3501712
4	0xbcbd1c4a	-0.023084778
5	0x3d11abff	0.03556442
6	0x3de688cc	0.11256561
7	0x3d89e90c	0.06733903
8	0x3d307d37	0.043088164
9	0x3edf8518	0.4365623
10	0x3cdfc741	0.027316691
11	0x3e24fa23	0.16111045
12	0xbd0f8837	-0.035042014
13	0x3e41f86b	0.1894242
14	0xbcd44a76	-0.025914412
15	0xbd198ad3	-0.03748591
16	0x3e77fa82	0.24216655
17	0xbeac14ea	-0.33609706
18	0xbbcc62aa	-0.0062373476
19	0x3c95a92a	0.01826914
20	0x3d26265e	0.040563934
21	0xbe553fd6	-0.20825133
22	0x3e260a7b	0.16214935
23	0x3e5bf88e	0.21481535
24	0x3cb0f8c7	0.021603001
25	0x3e88ebc4	0.26742375
26	0x3e79753d	0.24361129
27	0xbe97a97e	-0.296215
28	0x3d1dae34	0.03849621
29	0xbc97f9eb	-0.018551787
30	0x3d62ceec	0.055373117
31	0xbd308a93	-0.043100905
32	0xbd65252d	-0.055943657
33	0xbcd9272f	-0.026507942
34	0x3d4b6c3f	0.04966378
35	0xbdd4a0e5	-0.10382251
36	0xbc8c4a4d	-0.017125273
37	0x3e24b931	0.1608627
38	0x3eace9c6	0.33772105
39	0xbd2fdea4	-0.042936936
40	0x3d0cf43c	0.034412608
41	0x3ec8f21a	0.3924721
42	0x3e3bceba	0.18340579
43	0x3e18e4da	0.1493105
44	0x3d99874e	0.074965104
45	0xbcc95116	-0.024574798
46	0x3d04d291	0.032427374
47	0xbeae9644	-0.3409902
48	0xbd84ce15	-0.064846195
49	0x3d483ac9	0.048884187
50	0xbcff82e9	-0.031190353
51	0xbd17febe	-0.037108175
52	0x3e18cb56	0.14921317
53	0x3d8ebe92	0.06969942
54	0x3db5b9e8	0.088733494
55	0x3d76828a	0.060183086
56	0xbc1c38fe	-0.009535072
57	0xbe8adac4	-0.2712003
58	0x3d2b19e3	0.041772734
59	0xbd95c9af	-0.07313859
60	0x3da84a1d	0.08217261
61	0xbe9f2e9e	-0.31090254
62	0xbdeff67e	-0.117169365
63	0xbd003381	-0.031299118
64	0x3d7235cf	0.059133347
65	0x3d18bdf7	0.03729054
66	0x3cc419b5	0.02393804
67	0xbd6979d9	-0.05700097
68	0xbe0a9497	-0.13533245
69	0xbe1fafea	-0.1559445
70	0x3da605f4	0.08106604
71	0x3e8fe3e1	0.28103545
72	0xbecc70c5	-0.39929786
73	0x3d3f4f97	0.046706762
74	0x3e618139	0.22021951
75	0x3d4a81a2	0.049440034
76	0x3e0225a1	0.12709667
77	0xbe194e08	-0.14971173
78	0xbd1c04ad	-0.038090397
79	0xbd6c6696	-0.05771502
80	0x3e037c3a	0.12840357
81	0xbd7862b4	-0.060641006
82	0xbd567a29	-0.052362595
83	0x3e342ad2	0.1759446
84	0xbe70c2fd	-0.23511882
85	0xbd74eaee	-0.05979436
86	0x3d8fcfd7	0.07022064
87	0xbd48298f	-0.04886776
88	0x3d63779f	0.055534
89	0x3caccb03	0.021092897
90	0xbea8bd21	-0.32956794
91	0x3e42df04	0.19030386
92	0xbceb86da	-0.028750826
93	0x3c393400	0.011303902
94	0xbeb11b02	-0.34590918
95	0xbd8ed359	-0.06973905
96	0xbe74aabb	-0.23893254
97	0x3e9ea31d	0.3098382
98	0x3c86ae8c	0.016440652
99	0x3e65596a	0.2239739
100	0x3d2a22c7	0.041537073
101	0x3e9b8610	0.3037572
102	0xbc6d6c3b	-0.014491136
103	0x3ed948b9	0.42438295
104	0xbc2c6bd3	-0.010523754
105	0x3e4f85a5	0.20265825
106	0x3c757243	0.014980855
107	0x3c7dfa32	0.015501546
108	0xbcad42c1	-0.021149995
109	0x3d238a4d	0.039926816
110	0xbce5f64d	-0.028071547
111	0x3dbe561e	0.09293769
112	0x3ceb34fc	0.028711788
113	0xbcd3d604	-0.025858887
114	0x3d5517a3	0.052024495
115	0x3e3d9ab7	0.1851605
116	0x3bb84ee9	0.005624641
117	0x3e914d83	0.2837945
118	0xbe909dda	-0.2824543
119	0x3ddf973e	0.10917519
120	0xbd2b29e2	-0.04178799
121	0xbd82a240	-0.06378603
122	0x3d176ebe	0.036970846
123	0x3c75fcca	0.015013883
124	0xbf45b946	-0.7723583
125	0x3e0b42a3	0.13599639
126	0xbe24e0bd	-0.16101356
127	0x3c6623d1	0.014046625

linear2.weight f4 [32, 128]
0	0xbc94955e	-0.01813763
1	0x3e4c8851	0.19973876
2	0xbce571fb	-0.028008452
3	0xbec52d0a	-0.38510925
4	0xbd09fdae	-0.033689193
5	0x3c438bc4	0.011935178
6	0xbe0dbb13	-0.13840894
7	0xbcb1f0bd	-0.021721238
8	0x3c686494	0.014184136
9	0xbdff20e8	-0.12457448
10	0xbc068bcd	-0.008212042
11	0xbcc3132e	-0.023812857
12	0xbb709fa4	-0.0036716247
13	0xbd1e7cd7	-0.038693275
14	0x3e08118a	0.1328794
15	0x3b8aacf1	0.004232042
16	0xbe8440df	-0.25830743
17	0xbe50b609	-0.20381941
18	0x3e57c4dc	0.2107119
19	0x3e835ca2	0.2565661
20	0xbc61ff04	-0.013793711
21	0xbb8c14bd	-0.004274933
22	0x3da95c45	0.08269552
23	0xbeaec9b2	-0.34138256
24	0xbc4ed7db	-0.012624706
25	0xbd6bb7ba	-0.057548262
26	0x3dce19ee	0.100635394
27	0x3e80b7c1	0.25140193
28	0x3e394655	0.18093236
29	0x3b0c0d46	0.0021370216
30	0x3d8f0b11	0.069845326
31	0xbca30b65	-0.019902894
32	0xbc7fa4ca	-0.015603254
33	0x3cc8e3a0	0.024522603
34	0xbc131b5a	-0.008978689
35	0xbd4f6552	-0.050633736
36	0x3a83d809	0.001005889
37	0xbd9ae51a	-0.07563229
38	0xbe971d4e	-0.29514545
39	0xbc449e02	-0.012000563
40	0xbaa4c56b	-0.0012571042
41	0x3d731523	0.05934633
42	0x3e4521e5	0.19251211
43	0x3e373140	0.17889881
44	0x3a96b09f	0.0011496729
45	0x3d2bfa88	0.041986972
46	0x3c03e4a3	0.008050117
47	0x3d1fc670	0.039007604
48	0xbc96cb43	-0.01840747
49	0xbc02775e	-0.00796303
50	0xbb595b49	-0.0033165982
51	0xba29137b	-0.0006449741
52	0xbe9cbf78	-0.3061483
53	0x3c8a06d7	0.016848965
54	0x3e4b4d4a	0.19853702
55	0x3ca60fe2	0.020271245
56	0xbc1bcda2	-0.009509476
57	0xbe29bc5d	-0.16575761
58	0x3b19095e	0.002335153
59	0xbe7f1f12	-0.24914196
60	0xbe2fa544	-0.17152888
61	0xbd6508aa	-0.055916466
62	0x3cab07e0	0.020877779
63	0xbd923ab8	-0.07140106
64	0x3c601064	0.013675783
65	0x3c24a44f	0.01004894
66	0x3cd6e16c	0.026230536
67	0x3d0f02ce	0.034914784
68	0xbe04f08b	-0.12982385
69	0x3d023ca6	0.03179612
70	0xbde35721	-0.11100603
71	0x3cdbe928	0.026844576
72	0xbe44e5d7	-0.19228302
73	0x3c838f74	0.016059615
74	0xbea3a1c3	-0.31959352
75	0x3e3c1948	0.18369019
76	0xbeef8c62	-0.4678679
77	0x3da2e1f5	0.07953254
78	0x3d63b459	0.055591915
79	0xbb6cd9d4	-0.0036140578
80	0x3ddd1284	0.10794547
81	0x3901e953	0.00012389319
82	0x3c989080	0.01862359
83	0x3e001d2f	0.12511133
84	0x3d4009a6	0.0468842
85	0x3ca7c806	0.02048112
86	0xbce0b947	-0.027432097
87	0xbc3b1289	-0.011417993
88	0x3b8cf6f9	0.0043019024
89	0xbc8a8418	-0.01690869
90	0xbe4a2e6c	-0.19744271
91	0x3d483dd3	0.048887085
92	0xbc559358	-0.013035618
93	0xbcbf5ba9	-0.023359137
94	0xbd833678	-0.064068735
95	0x3e222d3a	0.15837565
96	0x3d0363b0	0.03207749
97	0x3e099115	0.1343425
98	0xba11d6c0	-0.0005563311
99	0xbdc1fe11	-0.094722874
100	0xbcd4103a	-0.025886644
101	0x3e386035	0.1800545
102	0x3cf2a067	0.029617501
103	0xbec380df	-0.38184258
104	0x3d009a87	0.03139737
105	0x3d0a861b	0.0338193
106	0xbbc53dbf	-0.0060193236
107	0xbcad6925	-0.0211683
108	0x3a987c50	0.0011633728
109	0x3b3e211e	0.0029011439
110	0x3d0c0f35	0.03419419
111	0xbe9210c5	-0.2852842
112	0x3d4359b9	0.047692988
113	0x3cb4657d	0.02202105
114	0x3ab923e8	0.0014125081
115	0x3e69674b	0.2279331
116	0x3aeee59c	0.0018226388
117	0xbd940dbe	-0.072291836
118	0x3ec15366	0.3775894
119	0x3ef3c977	0.47614643
120	0xbc05a5cd	-0.008157206
121	0x3bb93665	0.0056522363
122	0xbc2b8f61	-0.010471196
123	0x3c79c754	0.015245277
124	0xbec41fc9	-0.383055
125	0x3e261b1a	0.16221276
126	0xbbcf936d	-0.006334713
127	0x3bbb37a0	0.005713418
128	0x3d530d04	0.051526085
129	0xbd025a8f	-0.031824645
130	0x3d174994	0.036935404
131	0x3df081cd	0.117435075
132	0x3a838a81	0.0010035784
133	0x3cbf2f33	0.023337936
134	0x3d6207ac	0.055183098
135	0xbab3d0f0	-0.0013718884
136	0x3cf129bf	0.029438851
137	0xbe0ef5d9	-0.13960971
138	0x3b515657	0.0031942332
139	0x3d810bf8	0.06301111
140	0xb92fb1b3	-0.00016755499
141	0x3bf28ced	0.0074020536
142	0x3e4c41ed	0.19947024
143	0xbcfb0c8c	-0.030645631
144	0xbecd3e06	-0.40086383
145	0x3b5b3962	0.003345095
146	0xbe65f502	-0.22456744
147	0xbd1a702a	-0.037704624
148	0x3b9c3fe5	0.004768359
149	0x3d0423b9	0.03226063
150	0x3bb73143	0.0055905893
151	0xbe834639	-0.25639513
152	0xbc0345e7	-0.0080122715
153	0x3e7555dc	0.23958534
154	0xbd4e5b70	-0.05038017
155	0x3dd20bd7	0.102561645
156	0xbca7a333	-0.020463562
157	0xbd3e66a1	-0.046484593
158	0x3e80fa4b	0.25190958
159	0xbca7defc	-0.02049207
160	0x3bc031c8	0.0058653094
161	0xbc95b3c5	-0.018274197
162	0x3c31f50d	0.010861647
163	0xbda93b2b	-0.082632385
164	0x3c8cbc18	0.017179534
165	0x3e081d9c	0.13292545
166	0xbe29e033	-0.16589431
167	0x3c8fc684	0.017550714
168	0xbd06ce44	-0.032911554
169	0x3e9d785a	0.30755883
170	0xbd054a53	-0.032541584
171	0x3d9c0874	0.076188
172	0x3b6e49b4	0.0036359848
173	0x3d719834	0.058983043
174	0x3ba16cfb	0.0049263216
175	0xbdb34eae	-0.08755241
176	0x3c4e4aeb	0.012591104
177	0xbc8cd28c	-0.01719024
178	0xbb58af46	-0.0033063455
179	0xbd2df32d	-0.04246824
180	0x3e297e45	0.16552074
181	0xbc91d4c2	-0.017801646
182	0xbe1f0e86	-0.15532884
183	0x3c75c27a	0.01499998
184	0x3c9a886f	0.018863885
185	0xbc37a5f3	-0.011208999
186	0x3b1a4946	0.002354221
187	0xbdb4e025	-0.08831815
188	0xbe2a1d43	-0.16612725
189	0xbcbb6d51	-0.022879275
190	0x3dd6eead	0.104947425
191	0x3e857404	0.26065075
192	0xbc2c96a1	-0.01053396
193	0xbcc8a7a0	-0.024493992
194	0xbcde5243	-0.027138835
195	0x3d73746c	0.0594372
196	0xbdc7b1b4	-0.09750691
197	0x3e238e3f	0.15972231
198	0x3e002bd1	0.12516715
199	0xbdafac1a	-0.08577748
200	0xbd492df9	-0.04911611
201	0x3caac89a	0.020847607
202	0xbb0a3ba1	-0.002109267
203	0x3ed5a519	0.41727522
204	0x3dd5d473	0.10440912
205	0xbe484766	-0.19558486
206	0x3dda8c2e	0.106712684
207	0xbc9e8ccd	-0.019354248
208	0x3d5b9953	0.05361302
209	0xbc16e6ab	-0.009210269
210	0xbcddb323	-0.027062958
211	0xbf3d26ec	-0.73887515
212	0xbe219cc8	-0.15782464
213	0xbe9e2ab3	-0.30891952
214	0xbd0c7bea	-0.03429786
215	0x3cab7e7a	0.020934332
216	0xbb0d4e27	-0.0021561475
217	0x3c80df71	0.015731545
218	0x3eb7d975	0.35908094
219	0xbcaedf9c	-0.02134686
220	0xbc807244	-0.015679486
221	0x3d12759c	0.035756692
222	0xbdb50801	-0.08839417
223	0xbdcb8db3	-0.09939136
224	0xbd50f8cd	-0.051018525
225	0x3d859511	0.06522573
226	0xbc5811eb	-0.013187866
227	0x3dcd63a3	0.1002877
228	0xbc63cc7e	-0.013903735
229	0x3d0ee23d	0.034883726
230	0xbd0409b3	-0.032235812
231	0xbee1a59e	-0.44071668
232	0xbd0d6f84	-0.034530178
233	0xbc6ae115	-0.01433589
234	0xbbc024ad	-0.005863747
235	0x3d4a2fff	0.04936218
236	0x3cc1bb7d	0.023648972
237	0x3d2304c9	0.039799485
238	0x3cb38c38	0.021917447
239	0x3f08d963	0.53456706
240	0xbe1c7545	-0.1527911
241	0x3ce966ad	0.028491342
242	0xbc4f62f4	-0.01265787
243	0x3e75a659	0.23989238
244	0xbb797827	-0.0038066
245	0x3d120482	0.03564883
246	0x3e185917	0.14877735
247	0xbeae9a70	-0.341022
248	0x3bef4e50	0.0073030367
249	0xbcd62ad5	-0.02614347
250	0x3c40a315	0.011757632
251	0x3ac34057	0.0014896494
252	0x3d0bc9e6	0.034128092
253	0x3db5faef	0.088857524
254	0xbcf5371e	-0.029933508
255	0xbce9a9d5	-0.028523365

linear2.bias f4 [32]
0	0xbc5e6b72	-0.013575422
1	0x3d8632d8	0.065526664
2	0xbe04e3c6	-0.12977514
3	0x3c3f77d2	0.011686282
4	0xbe9e4ffb	-0.30920395
5	0x3e1b3623	0.1515737
6	0x3e9c4a7e	0.30525583
7	0xbe8ecb8a	-0.27889663
8	0x3de5cce8	0.112207234
9	0xbe1a2591	-0.15053393
10	0x3e073de9	0.1320721
11	0xbe0d4b2e	-0.1379821
12	0xbc5c89b9	-0.01346057
13	0xbe55bb14	-0.20872146
14	0xbda6ce62	-0.08144833
15	0x3e3c0e4b	0.18364827
16	0x3db0baaf	0.08629357
17	0xbdc60c49	-0.09670312
18	0xbd9cf05a	-0.07663031
19	0xbc6fc5ea	-0.014634589
20	0xbe0ed194	-0.13947135
21	0xbd8ff402	-0.07028963
22	0x3e2c6e5e	0.16838977
23	0x3e994275	0.29933515
24	0xbd8ec75c	-0.069716185
25	0x3dd8de23	0.10589244
26	0x3de0f665	0.10984496
27	0xbe12f220	-0.14350176
28	0xbe1534e4	-0.14570957
29	0xbe5e4a1e	-0.21707961
30	0x3d6f8d93	0.058484625
31	0x3d8f000a	0.06982429

output.weight f4 [50, 32]
0	0xbd4222e7	-0.047396567
1	0xbe67a554	-0.22621661
2	0xbdac8116	-0.08423059
3	0xbc7ffa49	-0.0156236375
4	0xbd833997	-0.06407469
5	0x3e859f22	0.2609797
6	0xbccf8435	-0.025331596
7	0xbc1f1642	-0.0097098965
8	0xbc25acb4	-0.010111976
9	0x3c376a5d	0.011194793
10	0xbe997fcd	-0.29980317
11	0xbdd7ef91	-0.105437405
12	0xbdb058b2	-0.08610667
13	0x3e219287	0.15778552
14	0xbd9b4ad5	-0.075826325
15	0xbbf94199	-0.007606697
16	0xbd9ebc1c	-0.07750723
17	0x3e5255b5	0.20540507
18	0x3d25843f	0.040409323
19	0xbe813358	-0.25234485
20	0xbe6f69fb	-0.23380272
21	0x3d8addd6	0.06780593
22	0xbe820997	-0.2539794
23	0x3e43a920	0.19107485
24	0xbe29e5d7	-0.16591583
25	0xbe714a2a	-0.23563448
26	0xbd3625af	-0.04446953
27	0x3dee77bb	0.116439305
28	0x3d96b742	0.073591724
29	0x3d15c8ff	0.036568638
30	0x3caf7673	0.021418786
31	0xbca9e9de	-0.0207414
32	0x3d41213b	0.04715083
33	0xbe95afac	-0.2923559
34	0x3da68402	0.08130647
35	0x3e1f1ea4	0.15539032
36	0x3e7c5907	0.24643336
37	0x3e476f93	0.19476156
38	0x3d936da9	0.071986504
39	0x3e206a38	0.15665519
40	0xbd9b24f5	-0.07575408
41	0x3d3d3d83	0.04620124
42	0x3ee107fa	0.43951398
43	0xbc4d558e	-0.012532605
44	0x3e05f94f	0.13083385
45	0xbd1f8011	-0.038940493
46	0xbceba810	-0.028766662
47	0x3e02a9cf	0.1276009
48	0x3d309e2b	0.04311959
49	0x3e61fa7b	0.22068207
50	0xbe163f57	-0.146726
51	0x3e4bc3d7	0.19898926
52	0xbe467ce0	-0.19383574
53	0x3e2cb633	0.16866378
54	0x3e3a0a0d	0.18167897
55	0xbc72a137	-0.014808944
56	0x3e00991d	0.12558408
57	0x3e12d847	0.14340316
58	0xbea33f59	-0.31884268
59	0x3c148305	0.009064441
60	0x3e02cae5	0.1277271
61	0xbdf81b98	-0.12114638
62	0xbd703d60	-0.05865228
63	0xbe49e333	-0.19715576
64	0x3e1adc2a	0.15123048
65	0xbdd93a1b	-0.10606786
66	0x3d55ad56	0.05216726
67	0x3ded3dc8	0.115840495
68	0xbe7ba2e1	-0.24573852
69	0x3cf294cc	0.029611968
70	0xbdbdff81	-0.09277249
71	0x3e2751d7	0.16339813
72	0x3e25702a	0.16156068
73	0x3a8ed303	0.0010896627
74	0x3e118132	0.1420944
75	0xbd0dca43	-0.03461672
76	0x3d8abb78	0.06774038
77	0x3e29f43e	0.16597077
78	0x3e13d4e5	0.14436682
79	0xbc1397d6	-0.0090083685
80	0x3ce0f308	0.027459636
81	0x3d843cff	0.064569466
82	0xbd04c062	-0.032410033
83	0xbeb168d7	-0.346503
84	0xbebcb13f	-0.36853978
85	0xbcd1acdd	-0.025595123
86	0xbd9793b8	-0.07401222
87	0x3e9f9f3f	0.31176183
88	0xbd699f4f	-0.057036694
89	0x3e3ca80c	0.1842348
90	0xbe02d57d	-0.12776752
91	0xbccb7a16	-0.024838489
92	0x3dd8d785	0.10587982
93	0x3bd14e6b	0.006387522
94	0x3dd23a5b	0.10265037
95	0xbe1b2e85	-0.15154465
96	0xbcb52a86	-0.022115003
97	0x3e14f94e	0.14548227
98	0x3dba8812	0.091079846
99	0x3cdcd1b8	0.02695547
100	0x3df9be6a	0.12194522
101	0x3e827cb4	0.25485766
102	0xbcf7ffcc	-0.03027334
103	0x3e0651c8	0.13117135
104	0x3e38a410	0.18031335
105	0x3ebaef4d	0.36510697
106	0xbd651fd4	-0.055938557
107	0x3ea306dd	0.31841174
108	0xbe060d49	-0.13091005
109	0xbe018920	-0.12649965
110	0xbe0fcb69	-0.14042439
111	0x3de2b482	0.110695854
112	0xbd8bbce7	-0.0682314
113	0x3dd64feb	0.10464462
114	0xbcbb6312	-0.022874389
115	0x3e046734	0.12929994
116	0x3e164b1b	0.14677088
117	0x3da8fa53	0.082508706
118	0xbe1cb27e	-0.15302464
119	0x3e61c9c9	0.22049631
120	0xbd1143e1	-0.035465125
121	0x3d6104a8	0.05493608
122	0x3dc1b5ef	0.09458529
123	0x3d9ae4b4	0.07563153
124	0xbde18938	-0.110125005
125	0xbdba38c5	-0.09092859
126	0x3e561018	0.20904577
127	0x3d3110f1	0.043229047
128	0xbdadbb60	-0.084830046
129	0x3dd4362f	0.10361897
130	0xbf18a9c1	-0.59634024
131	0x3e26cbac	0.16288632
132	0x3e4b733e	0.1986818
133	0xbc25528c	-0.0100904815
134	0xbef86b45	-0.4851934
135	0xbceda144	-0.029007562
136	0x3d793187	0.06083825
137	0xbc3fae24	-0.011699233
138	0xbd913478	-0.07090086
139	0x3de3ef85	0.11129669
140	0x3cad66ea	0.021167237
141	0xbe1b991a	-0.15195122
142	0xbd8cb2b4	-0.068700224
143	0x3e8cfe59	0.27537802
144	0x3d54d94c	0.051965043
145	0xbe512295	-0.20423348
146	0x3e330e11	0.17485835
147	0x3d877232	0.06613578
148	0xbe0a53ee	-0.13508579
149	0xbe600c39	-0.21879663
150	0x3e0703fa	0.1318511
151	0xbe01b402	-0.12666324
152	0x3e4047a7	0.18777333
153	0x3d9c4399	0.07630081
154	0x3d89c3cb	0.06726798
155	0xbe0b3d6a	-0.13597646
156	0xbe0c6828	-0.13711607
157	0xbc44acfb	-0.012004132
158	0x3c5ea7b6	0.01358979
159	0xbe291dcb	-0.16515271
160	0xbc6e76a5	-0.014554654
161	0xbeb1e781	-0.34746936
162	0xbe9d9e04	-0.3078462
163	0x3c04c375	0.008103241
164	0x3dd15248	0.10220772
165	0xbe5affe1	-0.21386673
166	0x3e5af933	0.21384124
167	0x3e57bda3	0.21068434
168	0x3d14d8d0	0.03633958
169	0xbd5d17e0	-0.053977847
170	0xbe53808e	-0.20654508
171	0x3cda0215	0.02661232
172	0xbe98654c	-0.29764783
173	0x3e80151a	0.250161
174	0x3d0b4f62	0.034011252
175	0xbe521d50	-0.20518994
176	0x39dbe720	0.00041943137
177	0x3db70b18	0.08937663
178	0x3dab90ff	0.08377265
179	0x3e53ae59	0.20671977
180	0x3d1d53b0	0.03840989
181	0xbe0501d5	-0.1298898
182	0xbda52cfd	-0.080652215
183	0x3d536fae	0.051620178
184	0xbe1886ba	-0.14895144
185	0xbd651465	-0.055927653
186	0x3d7572c6	0.05992391
187	0xbe89cca3	-0.26913938
188	0xbd165f84	-0.036712185
189	0x3e7dc5df	0.24782513
190	0x3d03a282	0.0321374
191	0x3d33efc9	0.04392985
192	0x3e6ff729	0.23434128
193	0xbb76025e	-0.0037538032
194	0xbd47203f	-0.048614737
195	0xbe00e88b	-0.12588708
196	0xbe31595e	-0.17319247
197	0x3e143171	0.14471985
198	0x3e0aefa1	0.13567974
199	0xbde85909	-0.11345107
200	0x3e270812	0.16311672
201	0xbd3ecb15	-0.046580393
202	0xbe8858ce	-0.26630253
203	0x3bffa687	0.007801834
204	0xbd8872da	-0.06662531
205	0xbe0a4f84	-0.13506895
206	0x3e7a6105	0.24451073
207	0xbe027f01	-0.1274376
208	0xbd826f68	-0.06368905
209	0xbd660fb0	-0.056167305
210	0xbdb03c75	-0.08605281
211	0x3e758833	0.23977737
212	0xbe0d84b1	-0.13820149
213	0x3e83e270	0.25758696
214	0xbd85f86b	-0.065415226
215	0xbe2b3075	-0.16717704
216	0xbe7f064f	-0.2490475
217	0x3daef0f9	0.08542056
218	0xbcf5eba3	-0.030019587
219	0xbe34dd7b	-0.17662613
220	0xbd2cd471	-0.042194787
221	0xbd99e97d	-0.075152375
222	0x3d949590	0.07255089
223	0x3e189fea	0.14904752
224	0xbd36b0a6	-0.04460206
225	0xbe32bd2f	-0.1745498
226	0x3d8d9fb3	0.06915226
227	0xbee1b3f4	-0.44082606
228	0xbe97e672	-0.29668003
229	0xbca3bfd8	-0.01998894
230	0xbd6429f6	-0.05570408
231	0xbea87d85	-0.32908264
232	0x3ed622db	0.41823468
233	0xbd69865d	-0.057012904
234	0xbd99a239	-0.07501645
235	0xbcf09eac	-0.029372536
236	0x3d838240	0.064213276
237	0xbdced6e5	-0.10099582
238	0xbec7d638	-0.39030623
239	0xba81e41e	-0.0009909903
240	0x3eb92995	0.36164537
241	0x3c0dec32	0.00866227
242	0xbdb2909c	-0.08718988
243	0xbde2c26b	-0.110722385
244	0xbdd68f52	-0.10476555
245	0xbdf4d232	-0.11954154
246	0x3df278f3	0.118394755
247	0xbd0effb3	-0.034911823
248	0x3e8a5f71	0.2702594
249	0xbe312ece	-0.17303011
250	0xbe8a2746	-0.26983088
251	0x3e2ab8c2	0.16672042
252	0xbe1fba2b	-0.15598361
253	0x3e79468d	0.24343319
254	0xbea20104	-0.316414
255	0xbe06b29c	-0.13154072

output.bias f4 [50]
0	0x3ebba39e	0.36648268
1	0x3c911daa	0.01771434
2	0x3e83ad83	0.25718316
3	0x3e21110a	0.15729156
4	0xbe4ff10d	-0.20306797
5	0xbf199f21	-0.60008436
6	0x3db872b8	0.09006256
7	0xbf269399	-0.65068966
8	0x3f43f452	0.7654468
9	0xbf9184e4	-1.136868
10	0xbe0e92c1	-0.1392317
11	0xbec2d0b4	-0.38049853
12	0x3e12d880	0.143404
13	0x3d3f138e	0.04664951
14	0xbdb58acc	-0.08864364
15	0x3ec66c9e	0.38754743
16	0x3df480da	0.11938639
17	0x3f029782	0.5101243
18	0x3e64c361	0.22340156
19	0xbecca0d1	-0.39966443
20	0xbfa2a0ce	-1.2705324
21	0x3e6e4a2d	0.23270483
22	0x3efa4217	0.48878548
23	0x3d96a598	0.07355803
24	0x3f0e0c1e	0.5548724
25	0xbf19dc29	-0.6010156
26	0x3ed414a8	0.4142201
27	0xbdb3ead2	-0.08785023
28	0xbf58dbd5	-0.8471044
29	0x3d37d393	0.044879507
30	0xbec3673e	-0.38164705
31	0x3f45e97d	0.773094
32	0x3f15e9f4	0.5856011
33	0x3e5ca178	0.2154597
34	0xbd72fc2b	-0.059322517
35	0xbfa25d49	-1.2684718
36	0xbde5ff19	-0.11230297
37	0x3e0c1a10	0.13681817
38	0xbde58eda	-0.112088874
39	0x3e203a7c	0.1564731
40	0x3e329bc2	0.1744223
41	0xbdc33d3d	-0.09533165
42	0xbf115a1b	-0.56778115
43	0x3e9a6349	0.30153874
44	0xbd7b6d07	-0.061383273
45	0x3d793c06	0.06084826
46	0x3dc80419	0.097664066
47	0x3ef3c229	0.4760907
48	0xbd1f9075	-0.038956124
49	0xbfc82040	-1.5634842
