datasets/code/development/models/best_model_036.pth (torch, 488949 bytes, 8 tensors)

conv1.weight f4 [1, 1, 5, 3]
000000 25 70 49 3b fd 11 8c 3d 91 46 d4 3d cd d6 73 3e
       0.003073701 0.068393685 0.10365022 0.23812409
000010 a9 90 21 3e 56 d9 d8 bd a6 e4 ac 3d 9b 84 1c be
       0.1577784 -0.105883285 0.08442049 -0.1528496
000020 00 86 95 3d d8 22 cd 3d 36 a8 f4 3c a5 6d bb bd
       0.07300949 0.100164115 0.029865365 -0.091517724
000030 d9 0b 6a bd f2 dc 29 be ca 6b f9 bd
       -0.057140205 -0.1658819 -0.12178762

conv2.weight f4 [1, 1, 3, 3]
000000 ad 9a 1a be 56 50 a2 3d 69 f0 10 3e 6d 8f 2c 3d
       -0.15098067 0.07925479 0.14154209 0.04212897
000010 55 4a ee bd 5b 55 2a 3d db a9 d8 bc 90 2c fe bc
       -0.116352715 0.041585308 -0.02644818 -0.031027108
000020 49 29 d7 3c
       0.026264803

linear1.weight f4 [128, 900]
000000 96 af 00 3e f2 dc 7e 3d 6c 0d 9a 3d 9d a2 68 3c
       0.1256698 0.06222243 0.07522091 0.014198926
000010 43 ef 4a 3e 2c 36 86 be 40 2f 31 3e 2a 59 bd 3d
       0.19817834 -0.26213205 0.1730318 0.09245522
000020 ab e3 4c be 6a 2e 4f 3e 73 bb 05 3e d5 f1 99 bd
       -0.20008723 0.2023255 0.13059787 -0.07516829
000030 14 5e 3e 3e 89 dd 9d bd 9c 70 85 bd d5 a4 f6 bd
       0.18590575 -0.0770827 -0.06515619 -0.12043158
000040 53 ec 36 3c f6 d0 2a 3d 10 e7 7e 3e 48 38 d9 3c
       0.0111647425 0.041703187 0.24892831 0.026516095
000050 b9 db 30 be f0 a1 9a 3d cd d9 d2 bd 37 c1 86 3e
       -0.17271318 0.075504184 -0.102954485 0.26319286
000060 d0 3d 31 bc 13 7d 86 be c4 ca 23 bb 2b 59 88 3c
       -0.01081796 -0.262673 -0.0024992684 0.016644081
000070 41 05 8f bd a6 45 84 3c f1 cc ad 3e 9c b6 7c bd
       -0.06983424 0.016146492 0.3394542 -0.061697587
000080 0b 8d 2a 3d 23 ea 05 3d b4 88 f0 bc fa 86 c6 3b
       0.041638415 0.032693993 -0.02936206 0.006058571
000090 0b 2b 73 be 82 98 7b be 6f ec 4e be 81 f6 ae bb
       -0.23746888 -0.24569896 -0.2020738 -0.005339444
0000a0 28 09 6a 3e ec 01 23 3e 93 0b 20 3e 6c 60 ee 3d
       0.22855055 0.15918702 0.15629415 0.11639485
0000b0 cd ad d9 3b d2 cc a0 3e 80 4d 3d be de ef 06 3e
       0.006643033 0.31406265 -0.18486595 0.1317744
0000c0 8d c3 1c 3e e6 b9 b1 3c c0 3b 6a 3e 12 4a 60 be
       0.15308972 0.021695089 0.22874355 -0.21903256
0000d0 d5 35 0f be ea bc c1 3d 09 8c 60 be f8 d3 ac 3d
       -0.13985379 0.094598606 -0.21928419 0.08438867
0000e0 b1 ba 82 3e 62 1b 6d 3e 2c 62 c8 3d 16 98 d4 3d
       0.2553306 0.23154977 0.0978435 0.103805706
0000f0 43 78 15 bb e0 e3 6e 3e c2 75 57 bd 9f 25 13 be
       -0.0022807277 0.23329115 -0.052602537 -0.1436982
000100 76 b6 db bd 36 f9 4f be ab 0e 1e be 39 0d f9 3e
       -0.10728161 -0.2030991 -0.15435283 0.486429
000110 b5 47 09 3e 1f b2 ec 3c eb 3e 07 bf 58 a5 39 be
       0.1340626 0.028893529 -0.5283038 -0.1812948
000120 38 6c b9 3d 7e ff 14 be eb bd e4 3c dc 7b 67 3e
       0.09053844 -0.14550588 0.027922591 0.22605842
000130 c8 e8 fb 3e af 2d 9a 3d bc 51 09 be 6d 11 96 bc
       0.49201035 0.07528245 -0.13410085 -0.018318856
000140 11 6c a4 3e 8f 67 54 3e 43 62 c9 ba ed f0 d7 bd
       0.32113698 0.2074263 -0.0015364367 -0.10544
000150 6d 19 a9 3e 36 6d 63 be 49 57 04 3d 4d 57 32 be
       0.3302721 -0.2220963 0.032309804 -0.17416115
000160 28 96 a1 3e a4 5e 45 3e d4 8e 61 be 26 f1 5c 3e
       0.31559873 0.19274384 -0.22027141 0.21576366
000170 b7 21 0c 3f c5 db d4 bd 28 fc e3 be f6 47 91 3b
       0.54738945 -0.1039348 -0.44528317 0.0044336272
000180 e6 0b 82 bd 95 84 03 3e 63 7f 89 3e 9c 1a e0 bd
       -0.06349926 0.12843545 0.26855 -0.10942575
000190 17 0e d9 bd ba 26 40 3e 08 79 4d 3e d3 5b b9 bd
       -0.105983905 0.18764773 0.20065701 -0.09050717
0001a0 f2 93 a8 3d 5a 16 02 be 10 d6 f3 3a ac e1 36 be
       0.08231343 -0.12703839 0.0018603224 -0.17859524
0001b0 8a 93 1e 3e d6 e5 06 3f 59 fd bd 3e a0 01 95 3e
       0.15485969 0.5269445 0.3710735 0.29102802
0001c0 c3 df 91 3d 7d 45 04 3e 4c 89 dd 3e 34 23 3e be
       0.07122757 0.12917133 0.43268812 -0.18568116
0001d0 97 17 ca bd 91 03 fd 3e 6f eb 96 be bc 6b 72 be
       -0.09867781 0.49416783 -0.29476497 -0.2367391
0001e0 f1 29 c5 ba 71 d7 6d be 1e a6 67 3d bb 40 6b 3e
       -0.0015042407 -0.23226716 0.056554906 0.22973911
0001f0 4e bc 00 3f 97 a3 a0 3c 08 c8 17 bf 44 fb 62 3e
       0.5028733 0.019609256 -0.592896 0.22166163
000200 7f ca 11 be f6 b1 41 be 2d 00 54 3e 67 a6 87 3e
       -0.14237402 -0.18915543 0.20703192 0.26494142
000210 7e 1e a8 3c f7 fa a1 3e 91 bd 3d be 68 6f a0 3e
       0.020522352 0.31636783 -0.18529345 0.31334996
000220 ba bd 38 bd 48 1e 92 3e 42 b5 8a be aa c9 8f be
       -0.045102812 0.28538728 -0.27091414 -0.28083545
000230 10 95 49 be 43 2c e2 3c 0e ca a2 be 13 30 7a 3e
       -0.19685769 0.027608996 -0.3179478 0.24432401
000240 6a 72 cc 3e 81 4f 8c 3e 8d a2 2e be 5c 42 ce bd
       0.3993104 0.27404407 -0.17054196 -0.10071251
000250 34 e9 d4 3e 82 5f de bd ca 0a 8e bd f6 d9 e0 bc
       0.4158417 -0.108580604 -0.069356516 -0.027447682
000260 3e 3c cf be 48 19 d0 3e 51 b6 59 3d ed d3 c0 3d
       -0.4047565 0.40644288 0.053152386 0.09415422
000270 61 48 9f bd bc 7f b7 be 73 9e 8a be c9 e6 b0 3e
       -0.07777477 -0.3583964 -0.27074012 0.34551075
000280 1f fa 29 3e 15 84 aa bd bd c7 4c be 25 72 85 bc
       0.1659932 -0.08325974 -0.19998069 -0.01628978
000290 ff 79 98 be 18 e2 7c bd 0d 2c 7e bd 9e 71 a8 be
       -0.29780576 -0.061739057 -0.06205373 -0.32899183
0002a0 8d 96 0e 3d 7e a3 75 be ba 49 0e be a0 82 94 bd
       0.034811545 -0.23988149 -0.13895312 -0.07251477
0002b0 d2 a1 eb 3d a5 e9 dd 3e 1a 7a d5 bd 2d bb 97 be
       0.11505474 0.4334232 -0.1042368 -0.2963499
0002c0 fc 46 8e be b3 c4 e8 be 42 7e 8a bc de fc 91 be
       -0.27788532 -0.4546257 -0.016905908 -0.28513235
0002d0 df 00 02 3f b1 3c bf be 30 1d 0b bf 61 db 33 3f
       0.5078258 -0.3735099 -0.5434141 0.7025662
0002e0 2d c7 43 bb 37 0c 24 3e c1 ab 86 3e e4 2f 10 3c
       -0.0029873357 0.16020285 0.26302913 0.0088004805
0002f0 7d 9b ef bd 59 47 b2 be f2 1c 7a bd f0 6c 03 be
       -0.11699579 -0.3482006 -0.06106276 -0.12834525
000300 92 14 b4 be 4b 3a 86 bc d5 bd 24 3e 3b 98 05 bf
       -0.35171944 -0.016385218 0.1608804 -0.5218541
000310 69 91 87 3c ea 7d 03 3f dd c6 c7 3e e3 cf a8 3e
       0.01654883 0.51364005 0.39018908 0.32971105
000320 d7 9e 53 bc 9b f6 81 3e ff 37 98 be 89 47 9d be
       -0.012916288 0.25383458 -0.29730222 -0.3071864
000330 54 50 1e 3e c1 14 89 bd 95 58 cb 3e 76 fd 54 3e
       0.1546033 -0.066934116 0.3971602 0.20799813
000340 4f ed 1a bf 6d e1 cc 3e 05 a7 be bd 96 46 2f 3e
       -0.60518354 0.40015736 -0.093092 0.1711677
000350 ea d1 34 bd 0a 72 bf 3d 67 dd 03 be 31 e7 c3 3e
       -0.044145502 0.09347923 -0.12877427 0.38262323
000360 e6 99 fe 3e 4d 09 eb bd 11 29 8f be cd de 98 3d
       0.4972679 -0.11476383 -0.2796102 0.07464371
000370 91 49 89 3e 34 de 08 be 5d 85 60 bd 7d a9 ce be
       0.2681394 -0.13366014 -0.054814685 -0.40363684
000380 14 5b 87 3b 17 fa 04 be a5 1d 93 3e 34 1e 41 3e
       0.0041307304 -0.12986027 0.28733554 0.18859178
000390 c7 74 b0 be 74 82 32 3e be 19 87 3e 96 39 9b bd
       -0.34464094 0.17432576 0.26386827 -0.07579343
0003a0 01 6f d1 3d 35 79 8a be 2c 0c 70 be cc d5 9c be
       0.102262504 -0.270456 -0.23442143 -0.30631864
0003b0 0d 56 e0 3d 1b fb 59 3e 6b b4 ed 3e 84 f1 31 be
       0.10953913 0.21287195 0.4642671 -0.17377287
0003c0 c7 e7 16 be c9 ad 8d be 73 2a 5d 3e 08 7d 1e 3d
       -0.14736854 -0.2767165 0.21598224 0.038693458
0003d0 21 35 75 3e b4 42 89 be f1 07 bc bd 1c d3 87 be
       0.23946048 -0.26808703 -0.09181202 -0.2652825
0003e0 3d 6a 2d 3e 16 b3 72 3e b3 11 f4 bd 25 33 8f be
       0.16935058 0.23701128 -0.11917438 -0.27968708
0003f0 6d 03 d9 3d f9 89 00 3f b9 85 31 be 08 0e 53 3e
       0.105963565 0.5021053 -0.17336167 0.20610821

linear1.bias f4 [128]
000000 3f 0e e4 bd a0 45 c1 bc 7c a4 06 bf c1 13 33 bf
       -0.1113553 -0.02359277 -0.52594733 -0.6995202
000010 73 6d 2b 3e 1d 15 a0 be 96 ea c0 be 8a de ea be
       0.1674097 -0.31266108 -0.37678975 -0.4587291
000020 6e 97 cf be 7c cc ab 3d 8a ef 9c 3d d1 0b b5 bd
       -0.4054522 0.08388612 0.07662876 -0.088401444
000030 36 60 8d bd b0 33 f5 3e 74 08 15 be 13 38 a4 be
       -0.069031164 0.47890997 -0.14554006 -0.3207403
000040 82 8f b1 be a2 45 ac 3e ad 95 79 be 3a 49 57 be
       -0.346798 0.33646876 -0.24373503 -0.21024027
000050 d7 59 c8 3e 2e 79 a5 be a5 4f 54 be 2a 18 5d 3e
       0.39131042 -0.32319015 -0.20733507 0.21591249
000060 9f 97 38 3e f2 e5 16 3f 21 4d 04 be a4 3f 06 3e
       0.18026589 0.5894462 -0.12920047 0.13110214
000070 47 37 41 be 35 d5 a2 3e 91 8b a0 be 9c 72 63 3c
       -0.18868743 0.3180329 -0.3135648 0.0138823055
000080 8f df e5 3e 47 9b 80 be 3b ec de bd b5 33 20 bf
       0.44897124 -0.25118467 -0.10884901 -0.625789
000090 a9 40 0c bd 21 2a cc bd be cd d8 be c8 8b d7 3e
       -0.034241352 -0.09968973 -0.4234447 0.42098832
0000a0 eb 00 cd 3d fa 51 af 3e f8 e4 50 3e d1 9f b3 bd
       0.10009941 0.3424223 0.20399845 -0.08770717
0000b0 11 78 31 3e 29 48 4b 3d 63 ce bf 3e 64 2f 32 bf
       0.17330958 0.049629364 0.37462148 -0.6960356
0000c0 5c 97 fd 3e 5f a9 d0 3e e2 f8 40 3e 27 ab 82 3d
       0.4952954 0.4075422 0.18844941 0.06380301
0000d0 e7 af bc 3d c1 b3 90 be 00 1c 1a be 33 2f 7f 3e
       0.09213238 -0.2826214 -0.15049744 0.24920349
0000e0 f2 a7 8b 3e 3f b2 16 3f 6a 40 49 bc 0f 34 bf be
       0.2727657 0.5886573 -0.012283424 -0.37344405
0000f0 93 7c 78 bd e3 ce ee be 9d 15 f0 3d b1 83 76 3e
       -0.06066568 -0.46642217 0.117228724 0.24073674
000100 43 49 89 be 3f 4c 6d 3e d5 c1 95 be ee 51 f2 be
       -0.26813707 0.23173617 -0.29249445 -0.47328132
000110 e1 a6 36 3d af c2 8d be e5 cd b2 be 21 83 77 be
       0.044592742 -0.27687594 -0.3492271 -0.24171115
000120 3c ba 8e 3d b4 ce 72 3f c2 61 48 3e 3b 76 27 bf
       0.06969115 0.94846654 0.19568542 -0.6541478
000130 59 1a 75 bd 83 d5 46 bd 7c 94 8a 3e 4b 3d 9d bd
       -0.05983958 -0.048543464 0.2706641 -0.07677706
000140 83 be 9d 3c ef 4b 9f 3e 9c 5d bf bb d8 1a c6 bb
       0.019255882 0.3111262 -0.0058400165 -0.0060456805
000150 ed 2c 9f bb 09 c7 ba bd 99 12 b1 3e 42 1e 0b be
       -0.0048576505 -0.09119994 0.345845 -0.13585761
000160 af fc d4 3d 5a 13 76 3e a4 58 a6 be 5c a1 36 3d
       0.10399758 0.2403082 -0.32489502 0.044587478
000170 ab b7 6b bc 83 a0 ea 3e 38 5d 29 be 1c 0e 33 be
       -0.014387052 0.45825586 -0.16539466 -0.17485851
000180 4b b5 0a 3d 11 5d 8e be b7 7d e8 3e 07 13 e8 3e
       0.0338643 -0.2780538 0.45408413 0.45327017
000190 42 d5 69 3c 98 48 df 3e 9f 71 e7 3e 85 a7 08 bd
       0.014272036 0.43610072 0.45203874 -0.033362884
0001a0 04 d7 b9 be 6c 2e 36 bd d1 a6 10 bf d2 18 5c be
       -0.36296856 -0.044477865 -0.5650454 -0.21493843
0001b0 7b 46 ca be 87 59 2b be 72 77 17 3d 2d 4d 19 3f
       -0.39506897 -0.1673337 0.036979146 0.59883386
0001c0 60 ee 47 be 09 fb 9c be 66 0b e1 3e 0a 8b 76 be
       -0.19524527 -0.30660275 0.4395401 -0.24076477
0001d0 29 ea 9f 3e 21 46 8e 3e ba 8f 92 be 89 95 51 3d
       0.31233338 0.2778788 -0.2862528 0.051168
0001e0 0f ce 38 be 78 c1 bc 3e 9c a0 93 3d eb 0f d2 3e
       -0.18047355 0.36866355 0.07208368 0.4102777
0001f0 b3 8f 91 be 46 7d 15 bf 9d e4 41 bf f8 db 41 3e
       -0.28429946 -0.5839428 -0.7573946 0.18931568

linear2.weight f4 [32, 128]
000000 f1 9e fb bd 5d 92 93 3e e2 c9 8a 3d 96 71 91 be
       -0.12286175 0.28822604 0.06776787 -0.28406972
000010 26 b5 bb be 23 5f ef be f5 95 7a 3e 40 e0 25 3e
       -0.36661643 -0.4675227 0.24471267 0.16198826
000020 16 89 bb 3d a7 69 86 3e b6 50 58 3d 0e 28 44 3d
       0.091570064 0.2625248 0.052811347 0.04788976
000030 85 d9 c9 bb 46 60 69 3d 06 e4 11 bd 4d 80 63 3e
       -0.0061599636 0.05697658 -0.03561785 0.22216912
000040 16 c6 28 be 5c 04 b8 bd f7 c9 3f 3e f4 18 27 bd
       -0.16481814 -0.089852065 0.18729387 -0.04079528
000050 51 d3 20 3c 1d 71 84 bd 70 ab 04 3d cd d4 3f bd
       0.009816007 -0.06466887 0.032390058 -0.046833802
000060 e5 9f fc bd 12 3c 2b 3e f9 6b 70 3d 97 3a ea bd
       -0.12335185 0.16722134 0.05869672 -0.114369564
000070 e2 d7 da 3d 34 98 6f 3d d0 e9 56 3e 31 85 9c be
       0.10685708 0.05849476 0.2098763 -0.30570367
000080 27 86 d5 bd e0 a1 fa bc 9d d7 e0 bb 51 c1 67 be
       -0.10425978 -0.030594766 -0.0068616406 -0.22632338
000090 07 e7 c9 bc ee 61 a9 3d f2 f5 67 bd 6c 0d e0 bd
       -0.024646295 0.08270632 -0.056631036 -0.1094006
0000a0 0a f2 2c bd cf 47 23 be a4 1a a0 3b 6c 54 3b bc
       -0.042223014 -0.15945362 0.0048859883 -0.011433702
0000b0 c6 c9 aa be a0 69 18 be f5 5d bd be 7e 98 d4 be
       -0.33357066 -0.14884043 -0.36985746 -0.41522592
0000c0 f9 52 60 be df 1d 01 be ee fd 86 be 3d 0a ee bc
       -0.21906652 -0.12609051 -0.26365608 -0.029057616
0000d0 20 5d c4 3e d8 ad 8f be 15 25 92 bd 86 9f a7 3c
       0.383523 -0.2806232 -0.07135979 0.020461809
0000e0 d2 b4 88 3d f3 ae 94 3c 99 f5 96 3e 5a bb 8c bd
       0.06675114 0.018149829 0.2948425 -0.06871672
0000f0 dd 56 0d bb 8d 31 b1 bd 36 90 83 3d 82 45 24 3d
       -0.0021566667 -0.08652029 0.064239904 0.04010535
000100 b7 83 46 3d ed 0d 10 3e bc 25 5c 3d be cc 9c 3e
       0.048465457 0.14067812 0.053746924 0.30624956
000110 13 aa 77 be 50 ef b6 be 80 cf dc bd 4c 07 02 3e
       -0.24185972 -0.35729456 -0.10781765 0.12698096
000120 90 4a 43 3e c5 b0 e3 bc d9 94 f5 bc 04 6f b7 be
       0.19071412 -0.027794251 -0.029978203 -0.35826886
000130 a5 0d e3 bd 54 d5 b7 bd 88 57 a4 3d d9 dd 81 be
       -0.11086587 -0.08976236 0.08024508 -0.2536457
000140 5f d2 a1 3e bb 2f 73 be 7e ea 52 3e 64 d8 0b bf
       0.31605813 -0.23748676 0.20597264 -0.5462706
000150 3f b9 db 3d 2a 3b 62 be 55 f5 ac 3e 44 4d d0 3d
       0.10728692 -0.22092882 0.33780923 0.10170987
000160 31 0a 1b be 67 be 23 3e ee 7c bf 3d f2 c6 aa be
       -0.15140606 0.15990601 0.0935 -0.33354908
000170 01 c3 11 3c 13 7b 97 bd e7 64 c8 bb 48 8a 1d 3e
       0.00889659 -0.073965214 -0.006115544 0.15384781
000180 5c ed ab bc 42 c6 3c 3e 0d b8 30 3d 0e 71 68 3d
       -0.020987205 0.18435004 0.043144275 0.056748442
000190 b7 23 18 bd 9f 43 8a be 14 39 ff 3d 97 71 74 be
       -0.037143435 -0.27004716 0.12462059 -0.23871456
0001a0 e9 d6 8a 3c 74 f5 3c 3e 3f d4 0c 3d 7b e4 38 bd
       0.01694818 0.18453008 0.0343821 -0.04513977
0001b0 75 5e a7 bd 32 09 b6 3d 8f 0c 4a 3e 92 24 4f be
       -0.08172313 0.088884726 0.19731353 -0.20228794
0001c0 25 79 20 3d af 9f 2e be c1 95 29 bd 12 16 23 be
       0.039178032 -0.17053102 -0.041402582 -0.15926388
0001d0 49 87 05 3e 11 fc 01 3e c9 85 ed 3d 69 fa a4 3b
       0.13039888 0.12693812 0.11597783 0.005034734
0001e0 5a e2 0d bb f7 39 b0 be 83 18 2d 3d a5 41 04 be
       -0.0021649809 -0.34419224 0.042259704 -0.12915666
0001f0 3b 53 89 3e d6 92 88 3e 1b e7 14 3d 75 df 22 be
       0.26821312 0.26674527 0.03635321 -0.15905555
000200 82 6c 9a be 3a b5 3f 3e 90 f8 bc bd bd 0b f8 3c
       -0.3016091 0.18721476 -0.09227097 0.030279035
000210 e7 c6 37 be 9d 46 15 be b2 8a 68 3e 4a 0a 14 be
       -0.17946969 -0.14577718 0.22709158 -0.1445705
000220 86 a3 bd bc 18 2d a3 3e 87 75 8f be 9d 0d de bd
       -0.023149263 0.3187034 -0.28019354 -0.1084244
000230 d8 11 ba bb 8a 45 90 3e 43 fa e8 3c 70 37 ef bb
       -0.0056783967 0.28178054 0.028439647 -0.00730031
000240 aa cd 39 be 47 e0 5b bd 60 dd 8a bd d4 c0 8c 3e
       -0.18144861 -0.053680684 -0.06780505 0.27490866
000250 7c e0 13 3d d7 a2 39 3e ae 37 42 3d b9 19 3a be
       0.036102757 0.18128525 0.04741638 -0.18173875
000260 1c cf 31 3a 54 6d dc bc fd 2f 52 be f9 94 fb bc
       0.0006782876 -0.0269076 -0.20526119 -0.030710684
000270 ec ad 90 be 4f 4b 8f 3d f7 32 ad 3e 80 fc 66 3c
       -0.28257692 0.06996786 0.33827946 0.014098287
000280 2c dc 84 bd 08 38 ee bd 8a 1e 71 3c 7a 1d ac be
       -0.06487307 -0.11631781 0.014716754 -0.3361624
000290 4c d2 34 3d a3 c8 91 bc 78 cb 00 be 57 08 e8 3d
       0.044145867 -0.017795866 -0.12577617 0.11329716
0002a0 f8 5d dd 3d 52 a4 45 3e b9 12 47 3e cb 55 42 3c
       0.10808939 0.19300964 0.19440736 0.011861275
0002b0 8f 85 29 3f 6f 67 42 3e 4a 27 97 be 35 0d c7 bd
       0.6621942 0.1898477 -0.29522163 -0.09719316
0002c0 cd 9e 91 3b 37 93 45 3e 6f 3e c1 b9 e0 07 34 b8
       0.0044439794 0.1929444 -0.00036858345 -4.292268e-05
0002d0 ec 10 01 3e 1e 9a 0e 3d d7 be 9b bd c8 62 c2 bd
       0.12604111 0.034814946 -0.07604759 -0.09491497
0002e0 10 c9 9b 3e 37 75 a5 3e 69 da 20 3e 3f 0d e4 3d
       0.30426836 0.3231599 0.15708317 0.11135339
0002f0 57 41 23 bc 42 b2 d5 3d 45 a2 fd bd e4 c9 16 3e
       -0.009964309 0.104343906 -0.12384466 0.14725453
000300 42 b1 ef 3c 2c 88 d4 3e e5 a7 d2 bd 8f 1d a9 be
       0.029259328 0.4151014 -0.102859296 -0.33030364
000310 01 d3 16 be 82 a2 10 3d 20 a4 06 3d 02 25 75 bd
       -0.14728929 0.03531123 0.032871366 -0.059849747
000320 10 73 41 be a0 2f dd 3e 1f a9 2a bd eb 92 98 be
       -0.18891549 0.43200397 -0.041665193 -0.2979959
000330 20 be be 3d 66 5d 88 be 51 a7 34 3b c1 69 33 be
       0.09313607 -0.26633757 0.0027565549 -0.1752081
000340 1f 8e e7 be 27 f0 73 3e 8f cd 1b 3e 9f aa 28 be
       -0.45225617 0.2382208 0.15215133 -0.16471337
000350 c7 8d 0c bd 45 2f a5 3d dd dc 5e 3d d4 7b 30 be
       -0.034314897 0.080656566 0.05440985 -0.17234737
000360 75 b2 25 be cc 3d c2 3e 57 b8 07 bc a6 20 a0 bd
       -0.16181357 0.37937772 -0.008283696 -0.07818727
000370 f2 7a 10 3c 94 85 b7 bd e3 e1 c3 3d 0a 88 13 bd
       0.008818375 -0.08961025 0.09564569 -0.03601841
000380 c3 29 35 ba 19 f0 73 bc 52 61 fa 3c 31 79 13 be
       -0.0006910825 -0.014888787 0.030563984 -0.144017
000390 61 84 c3 3e 1e 87 ef 3e 5c 28 86 bd dd 71 a7 bc
       0.38186935 0.46782774 -0.06550667 -0.020440036
0003a0 00 5b db 3d 4e e3 36 3c 2a c2 8b 3d 97 fb 3f 3e
       0.10710716 0.011162592 0.06824143 0.18748318
0003b0 20 28 94 bd c5 1c ce be 88 25 bb bd 67 29 1c 3e
       -0.07234216 -0.40256324 -0.09138018 0.15250169
0003c0 6c c1 bf 39 95 15 98 bd ee 09 a7 3d 12 72 88 bd
       0.0003657447 -0.074259914 0.08156191 -0.06662382
0003d0 ad 84 32 3e 0a bb 85 3d bc 21 1e bc f6 84 e9 3c
       0.17433424 0.065298155 -0.009651598 0.028505784
0003e0 e3 53 a0 3e 07 fa 91 3d 65 08 0f 3e 96 e9 c1 3e
       0.31314 0.07127767 0.13968046 0.37873524
0003f0 67 8d 0a 3d 68 fc 1c be 34 05 d1 be 07 72 6d be
       0.033826258 -0.1533066 -0.40824282 -0.23188029

linear2.bias f4 [32]
000000 c1 6b 56 3d d1 37 ab 3f 2b 6d a1 be 92 9a 3d 3e
       0.052348856 1.3376409 -0.315286 0.18515995
000010 00 20 3b 3f 9c 17 94 3f 71 8b d4 3d 7e eb 9f 3e
       0.73095703 1.1569705 0.10378159 0.31234354
000020 8b 17 02 be 13 1d a7 3e cb 20 d6 bc f9 54 1d bf
       -0.12704293 0.3263937 -0.026138684 -0.61457783
000030 14 97 78 3f 21 bd 2f bf 93 c7 05 3f 72 bd cd 3f
       0.97105527 -0.6864796 0.5225765 1.6073439
000040 e0 16 86 be 78 e6 a1 3f 6f 79 ef be 54 1e c0 be
       -0.26189327 1.2648458 -0.46772334 -0.3752314
000050 fc c1 cc 3e 02 ae 28 3f d3 f7 18 3d a5 7f c9 be
       0.39991748 0.65890515 0.03734572 -0.39355198
000060 c8 75 51 3f 81 92 01 bf 10 00 7c be 0c 82 23 3f
       0.81820345 -0.5061417 -0.24609399 0.6387031
000070 4a 73 72 3d cc c8 b5 be 3a bb e5 3e b5 2d 68 bd
       0.05919198 -0.35504758 0.44869405 -0.056684215

output.weight f4 [50, 32]
000000 ed a5 34 be 2b a9 b2 bd f7 8c aa 3d 77 75 ee 3d
       -0.1764142 -0.087236725 0.08327668 0.116434984
000010 d8 55 42 3e 37 1d c5 3d 38 df 91 be 51 c8 b0 be
       0.1897806 0.09624713 -0.28490615 -0.3452783
000020 04 2e bc 3c 41 32 50 be 37 2c e3 bd 59 a0 da bc
       0.02297116 -0.2033167 -0.11092418 -0.026687788
000030 3b 5e 0e 3e c1 3f 07 3e 78 83 23 be 23 50 70 be
       0.13903134 0.13207914 -0.1596812 -0.2346807
000040 3c 8d 62 be ed d8 e5 bc 21 32 04 bd 29 ee bb be
       -0.22124189 -0.02805754 -0.03227437 -0.3670514
000050 92 5c 5d 3d c6 70 03 3d c6 d0 91 3e eb 96 d1 bd
       0.05404336 0.03208997 0.28479594 -0.102338634
000060 0b d2 99 3d 17 3b 38 be 4c ea b2 3e 80 6a 7c 3d
       0.07510766 -0.17991291 0.3494438 0.061625004
000070 0b d0 e2 bc 69 4e 0a be b0 65 5a 3d 30 55 83 3e
       -0.027687093 -0.13506474 0.053319633 0.2565093
000080 c8 ae 0b bd 04 8c ae bd 76 e5 34 3a 90 06 8a 3e
       -0.03410223 -0.085227996 0.00069006474 0.26958132
000090 79 ef 31 bf 94 0f 3e bd fd 53 2f be 28 93 71 3e
       -0.6950603 -0.046401575 -0.17121883 0.23591292
0000a0 8e ed 95 be 2b 52 98 be df 6e 92 be 46 4c b2 3d
       -0.29282802 -0.2975019 -0.28600213 0.08705954
0000b0 6a 9e 1b be 80 73 be 3e 38 64 ca 3d 69 90 8a 3e
       -0.15197149 0.37197495 0.098823965 0.270633
0000c0 73 38 b1 3e 25 d8 1e be 81 7b 7a be a0 1f 22 be
       0.3461338 -0.1551214 -0.24461176 -0.15832376
0000d0 ad a6 e9 3c 71 7c 4a be ff da e5 3c ea 6a 8e 3e
       0.02852186 -0.19774033 0.028058527 0.27815944
0000e0 6f 73 43 3e aa 7e 57 be 8d b1 81 be 10 54 03 3e
       0.19087003 -0.21044412 -0.25330773 0.12825036
0000f0 3c e8 a2 bd 44 9f 94 3c 52 00 c7 3e 54 5a 76 be
       -0.079544514 0.01814235 0.38867432 -0.24057895
000100 74 8c c1 be 25 03 86 bd c8 5f a5 3e e3 e7 4b 3e
       -0.3780247 -0.065435685 0.32299638 0.19912677
000110 5a d3 2e bf e1 fc da be ad a7 c9 bd 83 75 b3 be
       -0.68291247 -0.42771056 -0.09846435 -0.35050592
000120 f5 94 f8 3d a5 9e a3 3d 20 f1 71 3e 21 58 74 3e
       0.12137786 0.079892434 0.23627138 0.23861744
000130 d1 83 8d 3b 34 a0 4c be e3 f5 31 be 83 51 6d bd
       0.0043186923 -0.19982988 -0.17378955 -0.057939064
000140 81 b5 03 3f ad be 90 be 4a d5 a7 3e 8c a2 1c 3f
       0.5144883 -0.28270474 0.32779914 0.61185527
000150 7b 3b 9f be 5d 82 29 be 8f d9 ef 3e 32 8d 2e 3e
       -0.31100067 -0.16553636 0.46845672 0.17046049
000160 20 c5 b6 3e 2e c4 09 be 81 3a 3a 3e 8b 97 85 3c
       0.3569727 -0.13453743 0.1818638 0.016307613
000170 90 66 33 3e 24 08 c2 3e bc 72 23 3f b4 4f d2 3c
       0.17519593 0.37896836 0.63846946 0.025672771
000180 93 92 a2 3d 38 32 f8 3d 94 64 b9 3d ff 8a cb 3d
       0.07938113 0.121189535 0.09052387 0.09938621
000190 6e 5d e4 3d 24 c4 ec bb 8b 01 03 3e a8 c6 6b bc
       0.11150633 -0.00722553 0.12793557 -0.014390625
0001a0 94 c2 65 bd f0 48 18 3e d9 69 95 3d 0c c0 c0 3c
       -0.056093767 0.14871573 0.072955795 0.023529075
0001b0 9e 68 07 3e 50 e8 d5 bd f1 84 10 3d 25 a0 fc 3d
       0.13223502 -0.10444701 0.035283033 0.12335233
0001c0 d6 b6 6e 3d 88 1e 0f 3e ba ae 3d 3e 79 85 df bd
       0.058279835 0.1397649 0.18523684 -0.1091413
0001d0 73 bb f9 3d fa 6a 21 3e 15 7b 7a bd ae 68 bb bd
       0.12193956 0.15763465 -0.061152536 -0.091508254
0001e0 db 88 b7 3d 86 1b 9e bc 95 36 d3 3c d0 b8 b7 bd
       0.0896165 -0.019300234 0.025782863 -0.08970797
0001f0 88 85 11 3e 46 2f a6 bd b3 17 ee bc 5c 85 ee 3d
       0.14211094 -0.081144854 -0.029064035 0.1164653
000200 a1 97 15 3c de af 81 3d bb 1d d1 be ba 63 08 3e
       0.009130389 0.06332372 -0.40842995 0.13319293
000210 65 b5 39 3e 36 4f 88 bc 53 e4 49 3e df b2 1b 3d
       0.18135603 -0.016639333 0.19716005 0.03801238
000220 3d 1b 11 3e 0e d8 97 bd 0b f9 de bc 5d 56 bd bd
       0.14170547 -0.07414256 -0.027218362 -0.09244988
000230 93 8a 46 bd 4d d2 d0 bd 1c 4c 8e 3e af 64 1e 3e
       -0.048472 -0.10196362 0.27792442 0.15468095
000240 31 61 fc 3d 5d 0f 1e 3d 58 b8 14 3c cc d1 23 3b
       0.12323225 0.03858887 0.009077154 0.0024996875
000250 75 18 15 be 23 f0 59 be 55 0b 94 3d dd b1 43 bc
       -0.14560111 -0.21283011 0.07228724 -0.011944261
000260 42 c0 da bd 50 1e 9a bd 84 33 55 3e 3f be 1d 3e
       -0.106812015 -0.07525313 0.20820433 0.15404604
000270 2c 24 4f 3e d4 fc 40 bd 7e ea 19 be 81 00 a5 bd
       0.20228642 -0.047116116 -0.15030858 -0.08056737
000280 1a e7 ef bd b6 56 00 bc 15 25 9e bb 22 f2 39 3e
       -0.11714001 -0.0078331735 -0.004826198 0.18158773
000290 13 42 ce 3d 29 c3 c0 3d 04 e5 e8 3d f9 10 e5 3d
       0.100711964 0.09412224 0.11371806 0.11184878
0002a0 eb 19 2f be 3d 54 08 3e b0 e5 06 be bd 77 de 3c
       -0.1709973 0.13313384 -0.13173556 0.027156705
0002b0 5a 01 a1 3e 1c 18 6e 3c 4a 8e 50 be f3 b6 a1 3d
       0.31446344 0.014532115 -0.20366779 0.07896223
0002c0 4f 09 02 3e 00 67 6b 3d 0c 98 52 bd 4c 6a ad bd
       0.12698863 0.057471275 -0.051414534 -0.0846754
0002d0 35 24 86 3d 60 b8 c8 3d e2 d4 e5 bd af 61 bb bd
       0.06549875 0.09800792 -0.11222245 -0.09149491
0002e0 19 42 02 bd e2 cb 55 3d 76 4f dc bd 94 be bb 3d
       -0.031801317 0.05219639 -0.107573435 0.09167209
0002f0 f2 8a 54 3e c0 18 09 3e f4 3d 93 3c bb eb 85 3d
       0.20756128 0.13388348 0.017973877 0.06539103
000300 ac e8 a2 3e 52 b5 73 3e 16 69 cb 3d c4 d1 ba be
       0.3181814 0.23799637 0.09932153 -0.36488163
000310 57 58 3a bf 53 d1 d3 bd 49 e9 34 3e bd d6 55 3e
       -0.72791046 -0.1034266 0.17667116 0.20882697
000320 a8 a5 89 3d 48 c2 5d bf 67 fb 2a 3e cf 81 e0 3e
       0.067210495 -0.86624575 0.16697465 0.43849036
000330 93 d6 cf be 0c f0 2a be 29 49 fe be 31 23 d2 3d
       -0.40593395 -0.16693133 -0.49665192 0.102606185
000340 95 f1 fc 3e e5 19 b6 bd c8 67 05 3e 1e 3f da be
       0.49403062 -0.08891658 0.1302787 -0.4262628
000350 5b 04 8f be 57 90 8f 3e d3 0e d6 bc 5f 18 27 3f
       -0.2793301 0.2803981 -0.026130116 0.6527156
000360 f5 e4 50 3d 04 fe 43 be 79 6e 88 3e cc 20 1c 3d
       0.0509996 -0.19139868 0.26646784 0.038117215
000370 0f ca ce 3e cb fb 6f 3e 1c dc d7 bd 91 c5 00 3f
       0.40388533 0.23435895 -0.105400294 0.5030146
000380 0c 8a 92 3d 6a 5b b7 bd 68 8e 2e 3e 3a 25 a4 be
       0.071552366 -0.08952983 0.17046511 -0.32059652
000390 a5 76 2d bf e0 88 19 3f 47 36 de 3e d6 6a bf be
       -0.6775916 0.5997448 0.43400785 -0.37386197
0003a0 31 7d 65 be 84 62 6c 3e 29 ea d2 3e 05 27 a6 3d
       -0.22411038 0.23084456 0.41194275 0.08112911
0003b0 43 d6 e4 bd c6 69 ae 3e ab 23 5c 3c 6c bb bf 3d
       -0.1117368 0.34065074 0.013436238 0.0936192
0003c0 47 c6 fc bd be bc 0b bf dd 7e 4d 3e 6d 2b ce be
       -0.12342506 -0.5458487 0.20067926 -0.40267506
0003d0 2a 30 64 be 1b cb 0e 3e 4b 6d d5 3d b0 f2 db 3b
       -0.22283998 0.13944666 0.104212366 0.00671228
0003e0 b9 9a 4c bf 73 06 e1 be 15 22 ea 3d cc 76 20 bd
       -0.7992359 -0.43950233 0.11432282 -0.039175794
0003f0 e3 7e 6f be 47 2b bc 3d 65 d4 79 3e 8a 8f 76 be
       -0.23388247 0.09187942 0.24397428 -0.24078193

output.bias f4 [50]
000000 a5 bf d7 3e 7e 3e 86 be 6c b8 20 bf e5 85 da be
       0.421384 -0.26219553 -0.62781405 -0.42680278
000010 14 ae 42 3e 86 db 89 be f1 15 42 3e db 27 6b bd
       0.19011718 -0.26925296 0.18953682 -0.057411056
000020 48 90 24 3f 3b fc 43 3f 2c db eb 3e fd 92 65 bf
       0.64282656 0.7655675 0.46065652 -0.8967741
000030 3b c0 3c c0 39 78 3a 3d cd d0 47 be 54 f5 bc be
       -2.9492328 0.04552481 -0.19513245 -0.3690592
000040 f5 28 00 c0 8c f4 0a c0 ed cf 37 3e f0 95 ae 3e
       -2.0024998 -2.171176 0.17950411 0.34098768
000050 69 e6 d9 bc 15 7a 30 be f3 56 cc be f4 31 3d be
       -0.026599126 -0.1723407 -0.39910087 -0.18476087
000060 07 35 52 bd 69 03 2a bf 1a 5e 25 be 37 dc 13 bf
       -0.051320102 -0.66411453 -0.16149178 -0.57757896
000070 e1 d7 f8 3e 27 eb 12 3f 25 9e 8c 3d 15 20 4e bf
       0.48602203 0.57390064 0.06866101 -0.80517703
000080 7e 21 14 3d 62 d9 ca 3e 25 95 f9 bd b8 31 99 3e
       0.036164753 0.39618975 -0.1218665 0.29920745
000090 d5 67 aa 3e 6a 49 da be 5a 7b 88 bf 33 97 8e 3f
       0.33282343 -0.42634135 -1.0662644 1.1139892
0000a0 37 6e cd bf 65 5d 82 3f 6d b0 91 3e 59 11 f5 bd
       -1.604926 1.0184752 0.28454915 -0.119661994
0000b0 ae e5 00 3f 82 a1 fb bf 49 e7 12 bf 5c 2d 5f 3f
       0.50350463 -1.9658663 -0.57384163 0.8717859
0000c0 f9 38 a5 bf fa c6 23 3f
       -1.2908012 0.6397549
