datasets/code/development/models/best_model_027.pth (torch, 488949 bytes, 8 tensors)

conv1.weight f4 [1, 1, 5, 3]
000000 fb 1f f9 3c 1e 5d 75 3c ca 80 53 3c 58 41 bd bc
       0.030410757 0.014975814 0.012909124 -0.023102447
000010 f2 95 6c bc de 34 29 bc e7 69 12 3c fb 1d ad bc
       -0.014440047 -0.010327546 0.008936382 -0.02113246
000020 00 b0 2f bb 5e cc 16 bd 58 d2 02 bc 20 b9 da bc
       -0.0026807785 -0.036815993 -0.00798472 -0.026699603
000030 00 19 5e bc e3 e4 b3 bc 1d 8d 54 bc
       -0.013555765 -0.021959728 -0.012973097

conv2.weight f4 [1, 1, 3, 3]
000000 bf b3 6d 3d d7 cb 3d bd e1 10 6b 3c 4c e8 b8 bc
       0.058032747 -0.046336975 0.014347286 -0.022571705
000010 e1 4b bd bc 8d ab 87 bd e7 47 86 3e 8a c5 a2 3d
       -0.023107471 -0.066245176 0.26226732 0.07947834
000020 3b db 8b be
       -0.27315697

linear1.weight f4 [128, 900]
000000 49 23 71 3d 50 44 6b 3e 7d 22 dc 3e e5 10 24 3e
       0.05887154 0.22975278 0.42995062 0.1602207
000010 de ee f5 3d e2 18 b5 3e 27 41 81 bd 0d 13 5f be
       0.12008451 0.35370547 -0.06311255 -0.21784611
000020 78 9f bb 3d be 14 77 3d 57 34 eb 3b 4a ee 2a be
       0.091612756 0.060322516 0.0071778703 -0.16692463
000030 06 da 62 3d 45 d1 a5 3d 56 db fd bd cf fd 91 bd
       0.055383705 0.080965556 -0.12395351 -0.07128488
000040 01 c8 96 3e 2d a7 07 3e 1a 3d 8b 3e 05 3e 5d 3e
       0.29449466 0.13247366 0.27195054 0.2160569
000050 6f f2 c0 be 65 1b 34 3d 90 27 95 bd 12 1d 96 3e
       -0.37684962 0.043971438 -0.072829366 0.29319054
000060 ab cd cf bd 78 c2 96 3e 5a ac 0c be 48 f8 f9 3b
       -0.1014665 0.29445243 -0.13737622 0.0076284744
000070 bf a1 d1 3d 80 e0 a2 3d 6d 69 12 3e 2f 39 21 be
       0.10235929 0.07952976 0.14298029 -0.1574447
000080 4c f0 a9 be 2a 81 32 be c4 25 ab bd f0 bc a1 be
       -0.33191144 -0.17432085 -0.083568126 -0.3158946
000090 2c f1 92 bd 1f 55 42 3e 69 7f 4f 3d 4e 0c ce bd
       -0.07174906 0.18977784 0.050658617 -0.10060941
0000a0 16 ef 1a be a8 5e 07 3e 32 93 aa bd 71 8b 80 be
       -0.15130267 0.13219702 -0.083288565 -0.25106385
0000b0 37 c1 bd 3e 03 36 b1 3e a3 58 74 3e e9 e6 3e bd
       0.37061474 0.3461152 0.23861937 -0.04660693
0000c0 2b 21 59 bd 46 26 64 be 87 2b 0f bd 02 07 5d be
       -0.053010147 -0.22280225 -0.03495362 -0.21584705
0000d0 91 82 c6 bd bb d1 5d be c1 31 90 3e 4a 09 38 bd
       -0.09692872 -0.21662037 0.2816296 -0.044930734
0000e0 ae ad 12 be 75 f1 81 be e5 58 10 be 5c 42 63 be
       -0.14324066 -0.2537953 -0.1409641 -0.22193283
0000f0 6c 20 df 3a fb 0f ff 3e 9b e5 35 be 19 ce 1f 3d
       0.0017023212 0.4981688 -0.17763369 0.03901491
000100 f1 19 8e 3e 84 84 3e bc fa cf 24 3e d2 e9 a3 bb
       0.27754167 -0.011628274 0.16094962 -0.005002239
000110 b0 b9 eb 3d d3 47 89 3d f7 20 5c 3e 2d 4b 0b 3e
       0.115100265 0.067031525 0.2149695 0.13602896
000120 4c 42 15 3e e8 2c 00 3f 74 3c 12 3c a0 18 32 3d
       0.14576072 0.5006852 0.008925546 0.043480515
000130 10 42 f7 3d 3e 99 c7 bc e3 47 00 3e 34 f9 37 3e
       0.12073147 -0.024365064 0.12527423 0.17966157
000140 3a 41 b0 bc 35 17 e2 bd 3b 25 89 3e f6 7a 0c 3e
       -0.021515477 -0.11039583 0.26786217 0.13718781
000150 6c 62 af 3e 8c 4a d8 3e 8b f8 f5 3d 63 c1 3a 3d
       0.34254777 0.42244375 0.120102964 0.045594584
000160 28 f5 38 be f4 8d 34 3e 15 5d 37 bd c3 cc 9c be
       -0.1806227 0.17632276 -0.044766504 -0.3062497
000170 74 7b 2c be c6 33 4f be cc 51 18 be d2 a3 6f be
       -0.16843969 -0.20234594 -0.14874953 -0.23402336
000180 45 de 8d be 82 2e 10 be 3b 50 8e be bf e4 1a bf
       -0.2770864 -0.14080241 -0.27795586 -0.6050529
000190 1a e3 45 bd 2d 6d c5 be 66 89 af be 3b 4d be bd
       -0.048312284 -0.38559857 -0.34284514 -0.09292074
0001a0 bb d9 a5 bd b8 be 11 be 9f 1a f6 be 60 94 c4 be
       -0.080981694 -0.1423291 -0.48067185 -0.3839445
0001b0 b3 64 da be 23 a1 19 bf c9 9f 7d be f8 3d a7 be
       -0.42654952 -0.600115 -0.24767984 -0.32664466
0001c0 c5 0e ea bd 0c 4d 12 be 4e ca 0c bf 31 b3 3b be
       -0.11428598 -0.14287204 -0.5499619 -0.18330075
0001d0 93 bb ba be ef 0c 28 bd c3 bb 34 3d 02 9c a7 be
       -0.36471233 -0.04102796 0.044124376 -0.32736212
0001e0 40 3b 87 bd 82 30 a6 bd 59 0d af be a9 b1 fc bd
       -0.06603098 -0.08114721 -0.3418987 -0.123385735
0001f0 60 91 1c 3e 09 c4 33 3d 29 cf 16 be 80 ee 99 bd
       0.15289831 0.043888126 -0.14727463 -0.075161934
000200 8a 75 0e be fc 86 e5 bd c0 93 a9 bd 51 cd ac 3d
       -0.13912025 -0.11207387 -0.08280134 0.084375985
000210 d9 56 85 bd 0d 31 4a bd 63 49 57 be 58 75 ac bd
       -0.065107055 -0.049363185 -0.21024089 -0.08420819
000220 e2 cb 89 bd 62 50 d4 be ca 45 3e be 81 f2 92 be
       -0.06728341 -0.41467577 -0.1858131 -0.2870064
000230 33 cb 13 be 6b 52 53 be db 0f 46 be 24 23 1a be
       -0.14432983 -0.20636909 -0.19341986 -0.15052468
000240 41 f0 3c 3e e8 cd 17 be 5e 4f 00 be 6a 20 0c be
       0.18451025 -0.14824641 -0.12530276 -0.1368424
000250 89 33 c7 be c3 62 07 3d ce f8 08 3d a3 ef 02 3d
       -0.38906506 0.03305317 0.033440404 0.031966817
000260 b0 17 96 3e 77 76 48 3e 90 78 f1 3e e4 a6 e2 3d
       0.29314947 0.19576441 0.47162294 0.11066988
000270 9a 6e c0 3e 15 4b 8f 3e a7 cb d8 3d 74 7a 7d 3e
       0.37584382 0.2798697 0.105857186 0.24753743
000280 26 37 7f 3e 16 b7 7c bc 40 bd f5 3d d1 25 1f bc
       0.24923381 -0.01542451 0.11998987 -0.009713606
000290 9f 99 8c 3d 04 b7 1c 3e ec 19 fb 3d 71 81 9c 3e
       0.068652384 0.1530419 0.122608036 0.30567506
0002a0 e1 d0 36 bc 43 d1 14 3f 9c 6c b8 3e a9 78 d3 3e
       -0.011158199 0.5813181 0.36020362 0.41302994
0002b0 42 4c c1 3e 56 b4 28 3e 94 26 a7 3e 4b bc 01 3e
       0.37753493 0.16475043 0.3264662 0.12669484
0002c0 ce 45 f6 3d 5b 1f 05 3f 45 27 bc 3c 59 3f f8 3d
       0.12025033 0.5200097 0.022967944 0.121214576
0002d0 23 e9 83 3e db 62 dc 3d 70 5a 53 bd 8a dd 00 3e
       0.25763807 0.10761043 -0.05159992 0.1258451
0002e0 64 6d 5d 3d cb 1e d7 bd 1a 79 0c 3d fd 2b 85 3e
       0.0540594 -0.1050392 0.03429518 0.26010123
0002f0 ff d0 9d bd b0 aa bd bc a8 cc 7e 3e 88 de 8d be
       -0.077058785 -0.02315268 0.24882758 -0.2770884
000300 aa 8f f7 3d 54 3c aa bd 06 9b b7 3d 5b 0d 39 3e
       0.120879486 -0.08312288 0.08965115 0.18071501
000310 47 0f 22 3d 37 75 78 3e 86 21 bd 3d 26 97 47 3d
       0.03956535 0.24263464 0.0923491 0.04872813
000320 56 54 74 3e e4 4b ae be eb ef af 3e bb 79 f3 3d
       0.23860297 -0.34042275 0.3436273 0.118884526
000330 bb 06 ef 3c b8 3b 5e 3e 29 68 e9 3d e6 f7 07 3e
       0.029178014 0.21702468 0.1139682 0.1327816
000340 a4 89 28 be 8f cc 24 3e a2 84 3b 3d 8e aa 2a be
       -0.16458756 0.16093658 0.045780785 -0.16666624
000350 07 2f 07 3e 32 8b ce 3d 09 0e 0f be 8f 68 ba be
       0.13201533 0.10085143 -0.13970198 -0.36407897
000360 d7 3e 37 3e b1 70 67 bb 86 b5 9e bd a8 74 46 bd
       0.17895065 -0.0035314972 -0.077494666 -0.048451096
000370 ac fe 82 3d 14 20 e4 3c fd cc 8b be 5d ac 04 3d
       0.06396231 0.027847327 -0.2730483 0.03239094
000380 67 f8 f4 3d 7e d3 16 3d 40 7b a0 3e 6b a8 45 3d
       0.119614415 0.03682279 0.31344032 0.04825632
000390 5b d9 a7 be 00 9a 57 be d1 f7 88 be 83 df ee 3d
       -0.32783017 -0.2105484 -0.2675157 0.11663725
0003a0 56 d8 e1 bc 68 e9 83 be 63 6e 54 3e 33 04 4b be
       -0.027568977 -0.25764012 0.20745234 -0.1982582
0003b0 6e 62 8c 3d 9c b4 cf bc ab 79 2e bd db 08 8d bd
       0.068547115 -0.025354676 -0.0425965 -0.06886455
0003c0 f4 ee 27 be 8b 72 cc 3e f9 c3 68 3e 37 94 58 be
       -0.16399747 0.3993114 0.22731008 -0.2115029
0003d0 55 0a d2 3d 71 01 a2 bd 8d f2 42 bd 72 c7 85 be
       0.10255877 -0.07910431 -0.047594596 -0.26128727
0003e0 5f ec a0 be 6d 9b 58 bd f9 17 bc bc de 84 13 3e
       -0.31430337 -0.0528826 -0.02296065 0.14406154
0003f0 08 99 87 3e a2 7b b4 3d 7b e9 bc bd 35 ff 15 be
       0.2648394 0.088126436 -0.0922422 -0.14648135

linear1.bias f4 [128]
000000 77 66 4c be 5b ac bd bd fc a2 c0 be b0 b6 9f 3c
       -0.19960962 -0.0926139 -0.37624347 0.019496292
000010 61 25 28 bd aa 91 2f 3e 5f 30 b2 3c 09 90 48 3c
       -0.041051272 0.1714541 0.02175158 0.012241372
000020 70 26 e6 3b 5e c1 22 3d 1a 0d 4b 3d 90 e7 00 3b
       0.007023625 0.03973519 0.04957304 0.0019669272
000030 90 d7 07 3d 8b f8 9f 3c 69 c0 b5 bc f0 ae ff 3e
       0.03316456 0.019527694 -0.022186475 0.49938154
000040 dc 42 b4 39 c4 14 fb 3d 3d de d4 bc 6d eb b9 bc
       0.0003438209 0.1225982 -0.025984878 -0.022695268
000050 a0 6c eb 3e 5b 40 00 bd 6e 5d 7f be ef 6f a4 bc
       0.45981312 -0.031311374 -0.24937984 -0.020072905
000060 f3 12 ae 3a 30 e4 2e 3b 96 20 a3 3e 28 1f e4 3e
       0.0013280794 0.0026686303 0.318608 0.4455502
000070 5d 11 8d be 19 ac 37 3e e0 4a d8 b9 c9 98 48 be
       -0.2755231 0.17936744 -0.00041254517 -0.19589533
000080 21 9b 1a 3c 80 79 a6 ba 1d 92 a7 3c 17 d9 8a 3c
       0.0094364 -0.0012701005 0.020455414 0.01694922
000090 f2 d5 c7 bc e9 17 1a 3d d5 7e db bc 07 8a 0a be
       -0.02439401 0.03762046 -0.026793877 -0.13529216
0000a0 e0 bb 22 bc 30 f2 6f 3d 82 1e 59 3d be ee 06 bc
       -0.009932488 0.058580577 0.05300761 -0.0082356315
0000b0 4a 03 df bd 9d 81 f5 3b 92 9d d1 3e 75 18 66 3e
       -0.10889299 0.0074922577 0.4094053 0.22470267
0000c0 0b 23 b8 3c e2 8b 8c 3e eb e9 d8 bd 16 91 9f be
       0.022477647 0.27450472 -0.10591491 -0.3116538
0000d0 4f 0e 0d be 5d 37 e0 3e 72 e0 10 bc 97 e9 d1 bc
       -0.1377499 0.4379224 -0.008842574 -0.02562408
0000e0 7b e1 f2 bc 26 dc 10 3d c9 a6 07 3d df fe 84 3b
       -0.029648533 0.0353662 0.033118043 0.0040587033
0000f0 26 bd 51 bd 74 1c 85 3b ef be a5 bc 70 1f 68 39
       -0.051205777 0.00406223 -0.020232646 0.00022136956
000100 a9 57 b8 be 97 10 89 bd 0b 56 15 3e 81 6f 4f be
       -0.3600438 -0.066926174 0.14583604 -0.20257379
000110 ef 3a 1f 3e 2b fd 1e 3c 2c 7d 78 3e 8a dc 98 bc
       0.15549825 0.009703915 0.242665 -0.018659849
000120 d9 86 ff bc 63 90 08 3e 61 a2 44 bd 65 49 1e 3d
       -0.03119223 0.13336329 -0.04800642 0.038644213
000130 32 57 1b be 05 8e f1 3c 0f 7c f7 3c 8b b6 27 3d
       -0.15169981 0.029486666 0.030210523 0.04094557
000140 e4 74 13 be 23 55 6f bc e4 23 c1 bc 2e e4 97 bd
       -0.14400059 -0.0146077005 -0.023576684 -0.07416569
000150 b2 ab d7 3e 18 26 02 bd 27 84 00 bc f9 4d 06 bd
       0.4212318 -0.03177461 -0.007844008 -0.032789204
000160 9f 19 61 3a 19 e3 63 bd 73 07 dc bc f2 f9 34 bd
       0.00085868867 -0.0556365 -0.02685902 -0.04418368
000170 82 39 01 3e bb e0 50 bd 19 5e 67 3c 9e 85 b0 3e
       0.12619594 -0.05099557 0.014121556 0.34476942
000180 4f 54 19 bc 31 a8 42 bf 34 96 2b 3e ae 95 66 bb
       -0.00935848 -0.7603789 0.16756517 -0.003518443
000190 74 e1 0e bc 9c 73 d2 bc 34 fa e7 bc 14 8f c2 3c
       -0.008720744 -0.025689892 -0.028317548 0.023749866
0001a0 05 b0 19 be 28 63 0f 3d 5c fe 77 3d 56 9b b8 3c
       -0.15008552 0.035006672 0.06054531 0.022535007
0001b0 a2 c3 01 bd 85 f8 24 bf b6 1e 61 bc 38 58 43 3b
       -0.03168071 -0.6444171 -0.013740232 0.002980722
0001c0 80 35 09 be 01 86 ca 3c 29 8f cf 3c 89 95 8b 3c
       -0.13399315 0.024722101 0.025336819 0.017039077
0001d0 74 74 cf be 82 53 54 be 81 99 ac bc 18 1e 72 3e
       -0.40518534 -0.2073498 -0.02106929 0.23644292
0001e0 ae d8 d6 bc 91 0e 9a be d6 dc 34 bd 61 c6 cb 3c
       -0.026226368 -0.30089238 -0.044155918 0.024874868
0001f0 2b bd 18 3d fb 7e 37 3d e3 8b 99 bd 06 81 5e 3d
       0.03728978 0.044798832 -0.074973844 0.054322265

linear2.weight f4 [32, 128]
000000 6f 41 a6 bd 96 20 50 3d c8 65 91 bd 9a 0e a1 3d
       -0.08117949 0.050812326 -0.07099491 0.07864113
000010 4f 54 9e bd 6a c8 20 3f 26 4d 1f 3d 85 38 98 3c
       -0.07730924 0.6280581 0.038891934 0.018581638
000020 4a 42 af 3c ae 68 c1 bd 8a 30 9b 3c b7 88 fb 3b
       0.021393914 -0.09443794 0.018944044 0.00767621
000030 81 18 d5 3c 02 c9 f8 be ca 03 b7 3c d9 c4 b1 bd
       0.026012661 -0.48590857 0.022340674 -0.08680124
000040 e7 70 83 3c f9 2c b0 3c dd 12 45 bc 37 2c 01 bc
       0.016045047 0.02150582 -0.012028423 -0.007884077
000050 60 72 34 bd 00 29 62 b9 ca e2 95 bd 53 2e 2e bc
       -0.04405439 -0.00021568313 -0.07318647 -0.010631162
000060 d9 61 b8 3c 92 49 91 3c 98 6f df bd 97 a3 41 3e
       0.022507595 0.017735276 -0.10909957 0.18910061
000070 fe 2f f4 3e 47 d1 8d be 0d 4e 65 38 3c 46 47 bc
       0.47692865 -0.27698728 5.4670545e-05 -0.012162741
000080 4d 0e c9 3c f2 48 fe 3b a8 8c 4b 3d de bd 27 3c
       0.024542952 0.0077601606 0.049694687 0.010238139
000090 5d 4a ea bc 04 fa d7 3c aa 43 d0 bc 82 04 ee 3c
       -0.028599912 0.026364334 -0.02542289 0.029054884
0000a0 4e 13 8e bc 2a 78 1c 3e 32 f9 b9 bc a5 f4 49 bc
       -0.01734319 0.15280214 -0.022701833 -0.012326394
0000b0 6e 63 08 3f 25 28 6d bd d8 2a d0 bd 70 2e db bd
       0.5327672 -0.057899613 -0.10164422 -0.107022166
0000c0 46 ff 20 bd f3 61 62 bd fa 27 46 3e 3f 03 c8 3b
       -0.039305948 -0.055269193 0.19351187 0.0061039026
0000d0 55 ac 82 3d 13 71 8f 3d f3 f4 73 be 0e fe 21 bc
       0.06380526 0.07003989 -0.2382391 -0.0098872315
0000e0 15 d2 90 bc 68 20 c8 3b 7e 85 76 bc b7 e9 96 3c
       -0.0176783 0.0061073788 -0.015046475 0.01842199
0000f0 cd 71 51 3c 5d 71 0a be fc 4a 41 3c b6 c2 09 bc
       0.01278348 -0.13519807 0.011797663 -0.008408239
000100 90 73 ef 3d a2 eb 60 3c bc b0 18 3e 8b bd 92 3e
       0.11691964 0.013728054 0.14911169 0.28660235
000110 fc 20 64 3e 9d 86 14 bc a1 8a ce 3d a6 fd 95 bc
       0.22278208 -0.009065297 0.10085035 -0.018309426
000120 6e 81 89 bc 28 f0 03 3b bf 2e 96 bc eb 35 01 3d
       -0.01678535 0.0020132158 -0.018332837 0.03154556
000130 69 a2 52 3e 5d d5 1d be 56 6c 5b 3c 53 99 b9 3c
       0.20569767 -0.15413423 0.0133925285 0.022656118
000140 0a a3 ad 3d e2 f4 94 bc 0a 34 01 3b 19 2c 9e bc
       0.08478363 -0.018183175 0.0019714856 -0.019308137
000150 25 39 f0 3e 27 cd eb 3c 58 4e f2 3b b6 db cd bc
       0.46918598 0.028784348 0.007394593 -0.02512918
000160 e3 41 a8 bc 5e b3 c7 bb b1 97 20 3d 86 5b 83 3c
       -0.02053923 -0.0060943803 0.039207164 0.016034853
000170 5f 65 bf be eb 5a a3 3b 81 37 13 3d bf 09 88 be
       -0.37382028 0.0049852035 0.035941605 -0.26569936
000180 fc 80 7d bc b3 b8 eb 3d 5b e5 83 be dd 8c 80 3e
       -0.015472647 0.11509838 -0.25760922 0.2510747
000190 b7 c1 90 3c 1c 45 4e 3c b3 9f 47 3c 89 b0 d9 3b
       0.017670495 0.012589719 0.012184071 0.006643359
0001a0 68 dc 79 3d f1 54 5c 3c 65 32 8f bc 7d b9 ee bc
       0.06100121 0.013447986 -0.017480085 -0.029141182
0001b0 e4 4f a6 be 42 dc 3f 3e bd 2d a0 bc 01 1b de bb
       -0.32482827 0.18736365 -0.01955306 -0.0067781215
0001c0 29 b9 e4 bd 88 1f 11 bb 42 2b c4 3c fc 5c 8a 3c
       -0.11168129 -0.0022144038 0.023946408 0.016890042
0001d0 b0 14 83 3e d9 21 12 3e 83 1e 08 bd 45 94 10 3c
       0.2560172 0.14270724 -0.033232223 0.008824413
0001e0 96 33 ea bc 19 b7 6c 3d 85 b7 0a 3b 12 98 0f 3c
       -0.028589051 0.057791803 0.0021166515 0.008764284
0001f0 8e 25 d0 3c d5 25 d9 bd 58 d5 54 3a 52 ae ab bc
       0.025408532 -0.10602919 0.0008118949 -0.020957146
000200 59 6a 05 3e 21 a1 2b be b4 3d ec 3d e0 34 95 bd
       0.1302885 -0.16760685 0.115352064 -0.07285476
000210 1c a4 a1 be f5 85 d8 3c 7f 1b af 3c eb ec b5 3c
       -0.31570518 0.026431063 0.021375416 0.022207698
000220 bc 02 1c bc 29 73 71 be e8 d4 65 3c 30 ce 9a bb
       -0.009522136 -0.23579086 0.014027812 -0.0047242865
000230 4a 16 3c 3c e0 ea 7e 3e dc ce c3 3c ea 7f 8d 3e
       0.0114799235 0.24894285 0.02390235 0.27636653
000240 e2 ad cd 3c cd 9e 2c be 35 de de 3b ac 13 f0 bb
       0.025107328 -0.16857453 0.0068013915 -0.007326564
000250 ce 8a 53 3d f2 21 60 bb 49 d8 d6 3d 6e 19 d4 3b
       0.051646046 -0.003419992 0.10490472 0.006472758
000260 dc 3b fc 3c e3 e8 d9 b9 b0 72 7f 3e 74 2c 30 3e
       0.030790262 -0.0004156298 0.24946094 0.17204458
000270 6e 14 7b 3e 19 93 56 be dd b2 ab bb 90 42 5a bd
       0.24519512 -0.20954551 -0.005239828 -0.053286135
000280 4d 60 02 3c 72 d9 ae bc 55 ea 93 bd 19 26 be bb
       0.00795753 -0.02134392 -0.0722243 -0.0058028814
000290 6b a6 ec bb 44 e9 5c bb 16 5b 1f bb 61 17 0b bf
       -0.007221987 -0.0033708373 -0.0024315766 -0.5433255
0002a0 db 61 d1 ba 02 e2 a2 3b bf a3 35 bc 4b 2d b6 bc
       -0.0015974598 0.00497079 -0.011086403 -0.022238394
0002b0 8b af 6f bd 0e 4a e2 be 42 1c 87 3e 06 b9 19 be
       -0.05851702 -0.44197124 0.26388747 -0.15011987
0002c0 7d 85 29 bb 82 49 ae bd 3a 2d fb 3d 1f 22 e1 bd
       -0.0025866919 -0.08510114 0.12264486 -0.10992836
0002d0 5c e8 b4 3e d1 eb 30 be 8e 8f 6c 3d 54 87 05 3c
       0.35333526 -0.17277457 0.057754092 0.0081499405
0002e0 0b 8f c6 ba 6b 6e 19 bc de ac 4c 3c 7e f4 d6 3c
       -0.0015148831 -0.009364705 0.012492387 0.02623963
0002f0 63 3a 4c 3c 31 63 a0 be c0 75 8c 3b 3b dc d3 bc
       0.012465092 -0.31325677 0.004286498 -0.02586185
000300 a3 bd 76 bd 34 93 0f bf 08 e6 4d be 17 64 3e 3c
       -0.060239445 -0.5608399 -0.20107281 0.011620543
000310 05 a4 ac 3e 2b 58 27 3c 07 ee 14 be 83 29 d7 3b
       0.33718887 0.010213892 -0.14543925 0.006566228
000320 f4 03 a0 bb ff 4c 91 3d 9b 41 8f 39 77 dd 55 3c
       -0.0048832837 0.07094764 0.00027323965 0.01305329
000330 85 19 70 3d 79 3d 82 bc 7b ee db b9 8c a4 05 3e
       0.058618087 -0.015898453 -0.00041948617 0.13051051
000340 b4 26 61 3e ce 43 11 3b 95 40 8e bb 69 b2 c6 3c
       0.2198742 0.002216566 -0.004341195 0.024254994
000350 e4 74 4d be bc 4d 07 3c f8 97 30 bb ce c8 91 bb
       -0.20064121 0.008258279 -0.002694605 -0.0044489866
000360 15 de 71 3d cb 12 30 3c 65 5f 18 3d 46 66 53 3c
       0.059049685 0.010746668 0.03720035 0.012902802
000370 e7 2a 3d 3e 8c 8d d1 3a 61 a9 04 3c dc ef 5d be
       0.18473397 0.0015987619 0.008097024 -0.2167353
000380 34 a2 de bc 5b 93 47 bd 97 2d f1 bc af ec 9f bd
       -0.027176954 -0.048724514 -0.029440684 -0.07808816
000390 6b 38 24 bc 49 b5 76 bc 3a 12 be bb 78 aa 30 bc
       -0.010023217 -0.01505787 -0.0058005126 -0.01078283
0003a0 8a 50 14 3c c7 e7 5a be 48 25 4e bc 05 8b 63 3a
       0.009052405 -0.21377479 -0.012582131 0.00086800783
0003b0 95 4d 93 3e 08 93 03 bd 8d 3a 72 bb 44 e8 da bc
       0.28770128 -0.03212264 -0.0036961169 -0.026722081
0003c0 e7 b0 09 be f6 1a 75 bc 50 13 db 3a 7f de a4 3c
       -0.13446389 -0.014960041 0.001671413 0.020125626
0003d0 09 34 a6 3d 00 62 96 be d5 4a 60 bc ad 04 c8 3d
       0.08115394 -0.29371643 -0.013689716 0.09766517
0003e0 99 d6 b6 bb 8a 6a 37 3e d1 05 5c bb d0 54 70 bc
       -0.0055797813 0.17911735 -0.0033572803 -0.014668658
0003f0 51 b9 5e 3b 85 ca c9 3d 48 da 2c 3c 01 7e b9 3b
       0.003398497 0.09853081 0.010550089 0.005660773

linear2.bias f4 [32]
000000 4e 49 f5 bd 63 fb 5f 3e af d3 19 be 6f 3d 01 3d
       -0.119768724 0.2187324 -0.15022157 0.03155273
000010 ef e4 01 3e 94 c9 25 bb d8 b2 46 be 5e 77 41 be
       0.12684987 -0.0025297152 -0.19404161 -0.18893191
000020 0a 22 a2 be 05 26 bf bd be 66 69 3c d5 36 45 3e
       -0.31666595 -0.093334235 0.014245687 0.19259198
000030 c8 b5 02 3e 8f 74 d6 3d 24 37 68 bc 11 4e 0d 3c
       0.12764657 0.104714505 -0.014173303 0.0086245695
000040 90 b6 46 be da aa 24 be 4c d2 75 be f8 ee 2c 3e
       -0.1940558 -0.160808 -0.24006003 0.16888034
000050 d7 68 2b 3e fd 67 22 3e b7 43 63 bc 77 00 b7 3d
       0.16739212 0.15859981 -0.013871125 0.089356355
000060 0f 29 6e bd 3f 98 00 3e 5d 44 b5 3e cc ce 48 3d
       -0.058144625 0.12558077 0.3540372 0.049025342
000070 e5 1b 36 3e d0 90 33 be 30 76 07 3e 2a fe 9c 3c
       0.17784078 -0.1753571 0.13228679 0.019164164

output.weight f4 [50, 32]
000000 f9 fd 51 3e 6e 0d 38 bc 0b 1d 85 3d 2b a7 97 bc
       0.20507039 -0.011233671 0.0649968 -0.01851233
000010 f6 eb 3d bd bc 65 e0 3d af 70 a7 be 32 9b b2 bd
       -0.046367608 0.10956904 -0.32703158 -0.087210074
000020 c5 7d d1 3c e1 1b 7b be cc 89 87 3d a5 92 94 3d
       0.025572667 -0.24522354 0.066180795 0.07254533
000030 ee ab 8b 3d 6e 38 7d be 50 6c f7 3d 6b f6 10 3e
       0.06819902 -0.24728557 0.12081206 0.14156501
000040 6e 8c 21 be 31 5c de bd f4 fe 95 bb fc 8b e9 bc
       -0.15776226 -0.10857428 -0.004577512 -0.028509133
000050 09 1f ec 3d d2 5c ed 3c ab a5 5f be 88 5a 88 bd
       0.11529357 0.028974924 -0.21840541 -0.066578925
000060 c8 ab 86 3d 02 79 b9 3d 3c ce 19 3c 46 15 9e bb
       0.065757334 0.090562835 0.009387549 -0.0048243133
000070 ec c6 26 bd e6 b1 12 3d d7 e2 83 3d f9 7c 25 be
       -0.04071705 0.03581419 0.06439751 -0.16160955
000080 c9 5a 73 3d e5 48 0e 3c 66 06 1c 3c 83 c2 e2 3d
       0.05941275 0.008684372 0.00952301 0.110722564
000090 28 30 d7 3a b4 b2 e9 3d 66 d9 2e 3e 19 af ee bc
       0.001641755 0.11411038 0.17075118 -0.029136227
0000a0 a4 b9 79 3d c6 77 a9 bd ff fe 23 bd 51 f7 1a bd
       0.060968056 -0.08274798 -0.040038105 -0.037833516
0000b0 b8 08 5f 3e 87 25 3a bd 29 5f 45 3d fd 38 6d be
       0.2178067 -0.045445945 0.048186455 -0.2316627
0000c0 34 31 1a bd 34 72 13 3e de 95 88 bd 02 73 3f be
       -0.03764458 0.14399034 -0.0666921 -0.18696216
0000d0 1e c1 7d 3c 4e d7 b4 bd c8 0a 89 be ed 1e 30 3e
       0.015487937 -0.088301286 -0.26766038 0.17199297
0000e0 6b ab 9f be 9d 15 74 3d 72 74 8f bd 0a 1f 11 3d
       -0.3118547 0.059590925 -0.07004632 0.03542999
0000f0 f7 7a 5a be 83 7e 9d 3c 6e f4 7f 3d ec f0 ef 3d
       -0.2133597 0.019225365 0.062488966 0.11715874
000100 34 89 b2 be 43 c3 98 3e 21 f4 96 be 77 f1 33 3e
       -0.34870303 0.29836473 -0.2948313 0.1757258
000110 3e 67 2f be 58 d9 d2 bc e6 89 1e 3d 3b e2 26 3c
       -0.17129228 -0.025738403 0.03870573 0.0101857735
000120 b4 2a 04 3e 01 9c 4a 3c df 62 59 be 96 7b f8 bd
       0.12906915 0.012366296 -0.21229123 -0.12132947
000130 28 a4 c0 3c 99 ba 07 be dc e6 86 be 4d f5 1b 3c
       0.023515776 -0.13254775 -0.26348007 0.0095189335
000140 ff 06 3e be 33 be 12 be 1d e1 0f 3d bb 31 a0 3d
       -0.18557356 -0.14330368 0.035126794 0.07821985
000150 61 3f c5 3c 95 49 88 be dd 3d 91 be 10 06 fd 3d
       0.024078073 -0.2661864 -0.2836751 0.12354672
000160 15 fe c1 bb 4b 86 aa 3e 5b 3d 58 be 39 61 5f bd
       -0.0059201815 0.33305582 -0.21117155 -0.054536078
000170 de 09 47 3e 5c 29 82 be cf 87 65 be 62 22 0a be
       0.19437358 -0.2542218 -0.22415088 -0.13489679
000180 e4 21 78 3d f4 46 27 3d c0 ff 72 bd 96 c2 4e bd
       0.060579196 0.04083915 -0.059325933 -0.05047854
000190 0a da 09 bd 95 9c 5c 3e e3 e0 20 be 7d 97 e6 bc
       -0.033655204 0.21544106 -0.15710787 -0.028148407
0001a0 f2 48 48 be ae 5b f5 3d 4b bd 1f 3e 27 75 34 3e
       -0.19559076 0.11980377 0.15599553 0.17622815
0001b0 b9 8f 9d 3d 27 67 ab 3d c4 81 59 3e 33 9c 94 bd
       0.076934285 0.08369284 0.21240908 -0.07256355
0001c0 1c 46 88 bd e2 1b d1 3d a6 24 05 3e bf e8 7a 3e
       -0.06653997 0.10210396 0.13002262 0.24502848
0001d0 6d 17 45 be ad e3 75 be 9e 86 d1 bc 02 72 f2 3c
       -0.19247217 -0.24012633 -0.025576886 0.029595379
0001e0 30 bc 41 bc e6 4b 86 3e 07 e8 cc 3d ca f1 cb 3c
       -0.011824653 0.2622978 0.10005193 0.024895567
0001f0 4c 0e cd bd 39 e9 9f 3d f3 09 0e 3d 47 87 87 bc
       -0.100124925 0.078081556 0.034677457 -0.016543997
000200 a8 2d 1f 3e 38 b9 79 3a f8 33 5c 3e 27 49 3e 3d
       0.1554476 0.0009526196 0.215042 0.046456482
000210 be 69 66 3e 35 80 82 3d e3 d5 dd bd db ba a4 3e
       0.22501275 0.0637211 -0.10831811 0.3217381
000220 d9 55 fc bd f0 ed a3 3d 8d 2d ae 3c 2b f4 82 bd
       -0.12321062 0.08004367 0.021261955 -0.063942276
000230 19 12 97 3b a3 20 a6 be 49 a8 70 bd bc b1 16 3d
       0.0046103117 -0.32446775 -0.05875424 0.036790594
000240 7d d5 19 3e 04 f2 d6 bc 6d 75 85 bd 87 80 4c bd
       0.15022846 -0.026238449 -0.06516538 -0.04992726
000250 07 6d b9 3c 33 cc 93 be 1c 31 39 3e 6d 20 9d 3d
       0.022634996 -0.2886673 0.1808514 0.076722
000260 76 27 14 3e 2f ec f0 3d 2e ad 6e be 53 c0 68 bd
       0.14468178 0.117637984 -0.2330825 -0.05682404
000270 04 97 8d 3d 40 2a a0 3c 40 b8 09 3e e6 99 75 3e
       0.069135696 0.019551396 0.13449192 0.23984489
000280 ae 37 1d 3c 6a 98 da 3d 8e d3 e8 3d 9c 7d 02 be
       0.009595795 0.10673602 0.11368476 -0.12743229
000290 fd c4 d3 bd cb 26 25 3e 29 96 eb 3d c9 0a 8e bd
       -0.10340307 0.1612808 0.1150325 -0.06935651
0002a0 5d c3 82 3e 90 56 0c be 9c 45 77 3d 62 f2 5a 3e
       0.25539675 -0.13704896 0.06036912 0.21381524
0002b0 c0 e9 48 be e7 36 86 be fa c1 7d bc 3e f0 68 be
       -0.19620419 -0.26213762 -0.015488142 -0.22747895
0002c0 55 13 1e 3b 78 e6 31 3c c2 f8 9b bc 37 15 84 be
       0.002412041 0.010858171 -0.019039515 -0.25797436
0002d0 ff a1 f5 bc 7c d5 1e be 39 8b 20 3e 37 ba 1c be
       -0.029984472 -0.15511125 0.15678109 -0.1530541
0002e0 67 73 cb bd 43 9e e5 3d ba d2 2c 3e 2e 33 07 bd
       -0.099341206 0.11211827 0.16877261 -0.033007793
0002f0 cd 74 f0 bb a7 5a e7 3d 00 32 4a bd fc de 83 3d
       -0.0073381425 0.112965874 -0.04936409 0.06439015
000300 f7 01 83 3d f5 10 19 3e c1 69 6a 3e 4c 88 2b 3e
       0.06396859 0.14947875 0.22891904 0.16751212
000310 55 71 08 3d ab 06 d1 3d 43 73 12 3e cd c4 0e be
       0.033311207 0.1020635 0.14301781 -0.13942261
000320 c3 52 9e bc 5d c5 1b bc 4c 16 80 3e 81 d0 59 be
       -0.019326573 -0.009507504 0.2501701 -0.21270944
000330 0e f1 9c bc 10 61 48 3e 85 19 ca bd 6f 30 83 3d
       -0.019157913 0.19568276 -0.09868149 0.06405722
000340 e8 4f df bd a5 77 dd 3b 38 ce 47 be 64 6a 25 bd
       -0.10903913 0.0067586475 -0.1951226 -0.040384665
000350 85 fd 99 bc 48 28 df 3d 26 1d fd 3b 07 69 20 bd
       -0.018797645 0.10896355 0.007724422 -0.039162662
000360 71 e3 eb bd e5 3d af 3b e3 ce 4d be 9f d3 91 bd
       -0.115179904 0.0053479546 -0.20098452 -0.07120442
000370 b8 bc 55 be 0f cc 0f bd 20 c0 03 3e 27 25 d4 be
       -0.20872772 -0.035106715 0.12866259 -0.41434595
000380 ae 96 6d bd 7b 48 1a be c1 34 26 3e a7 d6 85 bd
       -0.058005027 -0.15066712 0.16231062 -0.06535082
000390 1f 9d e1 bd 2c 4d 88 bd be 7a d3 3c d3 27 51 3e
       -0.110162966 -0.06655344 0.025815364 0.20425348
0003a0 05 ae fe bd 48 8a 0f be d0 b8 42 bd 98 28 f4 3d
       -0.12435535 -0.14017594 -0.047539532 0.11921805
0003b0 9c b9 d3 3c 29 0d ff bd 97 ce 11 be 2c 9c 72 bd
       0.025845341 -0.12453682 -0.14238964 -0.05923097
0003c0 b2 2f 2f bd 95 6b b5 3d c3 4f 6f be e9 1c 74 3d
       -0.042770095 0.0885841 -0.2337027 0.059597883
0003d0 8a f9 2d bc b8 8f f3 3d bf 9b b5 bd f1 29 2b be
       -0.010618577 0.118926466 -0.08867597 -0.16715218
0003e0 76 e0 50 bc af 11 e3 3d c3 88 30 be f3 cf 42 bd
       -0.012748828 0.11087357 -0.1723967 -0.047561597
0003f0 22 d5 dc bd 92 80 fa b9 10 ae 8e 3d a8 f3 53 bd
       -0.10782839 -0.00047779508 0.069667935 -0.05174604

output.bias f4 [50]
000000 4e 92 b8 3e 22 b5 1b 3f 90 2f 06 3f 33 00 12 3e
       0.36049122 0.6082326 0.52416325 0.14257888
000010 5c e4 c6 3b c5 62 28 bf b6 4e c8 3e 50 05 c1 bd
       0.006069703 -0.6577571 0.39122552 -0.094248414
000020 6f 67 19 3f 67 67 3c bf 7b 11 e0 3d b4 e3 ee bd
       0.5992345 -0.7359528 0.10940834 -0.11664525
000030 0b 20 63 bf 52 e0 c7 3d 22 f7 77 bf 50 ba 5e bf
       -0.8872077 0.097595826 -0.9686147 -0.8700304
000040 ac c2 ff 3d 0e da 50 3b 4d cd 40 bd 82 b3 8e be
       0.124883026 0.0031868252 -0.04707079 -0.2787133
000050 bf 5e 93 3e c1 5c c1 be 7b b9 90 be c1 90 50 3f
       0.28783223 -0.37766078 -0.2826651 0.81470877
000060 9e 06 a8 3e f6 06 5b bf 81 d3 3d 3f cb 36 6f 3e
       0.3281755 -0.85557497 0.74150854 0.23360746
000070 bd 21 b6 3d d4 d4 9d 3e 26 a9 99 be 34 f4 f8 be
       0.08893154 0.30826437 -0.30011863 -0.48623812
000080 c3 99 10 3e 0b 23 80 be d5 26 d2 3e a2 60 47 be
       0.14121155 -0.25026736 0.4104525 -0.19470456
000090 f8 ae ca bc c4 2a f7 3e bd a3 df be bf 25 a2 3e
       -0.024741635 0.48274815 -0.4367961 0.31669423
0000a0 89 9a 34 bf 14 63 19 3f a8 a3 7d bd 32 8a e9 be
       -0.705483 0.59916806 -0.061923653 -0.45613247
0000b0 a8 a6 fc 3e f0 44 8a be 4d ac cf be 64 bc 24 3e
       0.493459 -0.2700572 -0.40561143 0.1608749
0000c0 2e 9b d1 3e 48 c0 8e bf
       0.40938705 -1.115243
